…
I1130 01:26:59.293880 19511 net.cpp:294] The NetState phase (0) differed from the phase (1) specified by a rule in layer mnist
I1130 01:26:59.293900 19511 net.cpp:294] The NetState phase (0) differed from the phase (1) specified by a rule in layer accuracy
I1130 01:26:59.293977 19511 net.cpp:51] Initializing net from parameters: 
name: "LeNet"
state {
  phase: TRAIN
  level: 0
  stage: ""
}
layer {
  name: "mnist"
  type: "Data"
  top: "data"
  top: "label"
  include {
    phase: TRAIN
  }
  transform_param {
    scale: 0.00390625
  }
  data_param {
    source: "/home/styurin/DataSet/28/train_db"
    batch_size: 64
    backend: LMDB
  }
}
layer {
  name: "conv1"
  type: "Convolution"
  bottom: "data"
  top: "conv1"
  param {
    lr_mult: 1
  }
  param {
    lr_mult: 2
  }
  convolution_param {
    num_output: 20
    kernel_size: 5
    stride: 1
    weight_filler {
      type: "xavier"
    }
    bias_filler {
      type: "constant"
    }
  }
}
layer {
  name: "pool1"
  type: "Pooling"
  bottom: "conv1"
  top: "pool1"
  pooling_param {
    pool: MAX
    kernel_size: 2
    stride: 2
  }
}
layer {
  name: "conv2"
  type: "Convolution"
  bottom: "pool1"
  top: "conv2"
  param {
    lr_mult: 1
  }
  param {
    lr_mult: 2
  }
  convolution_param {
    num_output: 50
    kernel_size: 5
    stride: 1
    weight_filler {
      type: "xavier"
    }
    bias_filler {
      type: "constant"
    }
  }
}
layer {
  name: "pool2"
  type: "Pooling"
  bottom: "conv2"
  top: "pool2"
  pooling_param {
    pool: MAX
    kernel_size: 2
    stride: 2
  }
}
layer {
  name: "ip1"
  type: "InnerProduct"
  bottom: "pool2"
  top: "ip1"
  param {
    lr_mult: 1
  }
  param {
    lr_mult: 2
  }
  inner_product_param {
    num_output: 500
    weight_filler {
      type: "xavier"
    }
    bias_filler {
      type: "constant"
    }
  }
}
layer {
  name: "relu1"
  type: "ReLU"
  bottom: "ip1"
  top: "ip1"
}
layer {
  name: "ip2"
  type: "InnerProduct"
  bottom: "ip1"
  top: "ip2"
  param {
    lr_mult: 1
  }
  param {
    lr_mult: 2
  }
  inner_product_param {
    num_output: 10
    weight_filler {
      type: "xavier"
    }
    bias_filler {
      type: "constant"
    }
  }
}
layer {
  name: "loss"
  type: "SoftmaxWithLoss"
  bottom: "ip2"
  bottom: "label"
  top: "loss"
}
I1130 01:26:59.294045 19511 layer_factory.hpp:77] Creating layer mnist
I1130 01:26:59.295001 19511 db_lmdb.cpp:35] Opened lmdb /home/styurin/DataSet/28/train_db
I1130 01:26:59.297741 19511 net.cpp:84] Creating Layer mnist
I1130 01:26:59.297767 19511 net.cpp:380] mnist -> data
I1130 01:26:59.297793 19511 net.cpp:380] mnist -> label
I1130 01:26:59.298521 19511 data_layer.cpp:45] output data size: 64,1,28,28
I1130 01:26:59.303254 19511 net.cpp:122] Setting up mnist
I1130 01:26:59.303275 19511 net.cpp:129] Top shape: 64 1 28 28 (50176)
I1130 01:26:59.303282 19511 net.cpp:129] Top shape: 64 (64)
I1130 01:26:59.303287 19511 net.cpp:137] Memory required for data: 200960
I1130 01:26:59.303295 19511 layer_factory.hpp:77] Creating layer conv1
I1130 01:26:59.303313 19511 net.cpp:84] Creating Layer conv1
I1130 01:26:59.303320 19511 net.cpp:406] conv1 <- data
I1130 01:26:59.303333 19511 net.cpp:380] conv1 -> conv1
I1130 01:26:59.304071 19511 net.cpp:122] Setting up conv1
I1130 01:26:59.304090 19511 net.cpp:129] Top shape: 64 20 24 24 (737280)
I1130 01:26:59.304095 19511 net.cpp:137] Memory required for data: 3150080
I1130 01:26:59.304107 19511 layer_factory.hpp:77] Creating layer pool1
I1130 01:26:59.304123 19511 net.cpp:84] Creating Layer pool1
I1130 01:26:59.304138 19511 net.cpp:406] pool1 <- conv1
I1130 01:26:59.304167 19511 net.cpp:380] pool1 -> pool1
I1130 01:26:59.304266 19511 net.cpp:122] Setting up pool1
I1130 01:26:59.304282 19511 net.cpp:129] Top shape: 64 20 12 12 (184320)
I1130 01:26:59.304291 19511 net.cpp:137] Memory required for data: 3887360
I1130 01:26:59.304296 19511 layer_factory.hpp:77] Creating layer conv2
I1130 01:26:59.304306 19511 net.cpp:84] Creating Layer conv2
I1130 01:26:59.304311 19511 net.cpp:406] conv2 <- pool1
I1130 01:26:59.304318 19511 net.cpp:380] conv2 -> conv2
I1130 01:26:59.304710 19511 net.cpp:122] Setting up conv2
I1130 01:26:59.304723 19511 net.cpp:129] Top shape: 64 50 8 8 (204800)
I1130 01:26:59.304728 19511 net.cpp:137] Memory required for data: 4706560
I1130 01:26:59.304736 19511 layer_factory.hpp:77] Creating layer pool2
I1130 01:26:59.304745 19511 net.cpp:84] Creating Layer pool2
I1130 01:26:59.304749 19511 net.cpp:406] pool2 <- conv2
I1130 01:26:59.304756 19511 net.cpp:380] pool2 -> pool2
I1130 01:26:59.304790 19511 net.cpp:122] Setting up pool2
I1130 01:26:59.304796 19511 net.cpp:129] Top shape: 64 50 4 4 (51200)
I1130 01:26:59.304801 19511 net.cpp:137] Memory required for data: 4911360
I1130 01:26:59.304805 19511 layer_factory.hpp:77] Creating layer ip1
I1130 01:26:59.304814 19511 net.cpp:84] Creating Layer ip1
I1130 01:26:59.304818 19511 net.cpp:406] ip1 <- pool2
I1130 01:26:59.304826 19511 net.cpp:380] ip1 -> ip1
I1130 01:26:59.308225 19511 net.cpp:122] Setting up ip1
I1130 01:26:59.308243 19511 net.cpp:129] Top shape: 64 500 (32000)
I1130 01:26:59.308248 19511 net.cpp:137] Memory required for data: 5039360
I1130 01:26:59.308259 19511 layer_factory.hpp:77] Creating layer relu1
I1130 01:26:59.308267 19511 net.cpp:84] Creating Layer relu1
I1130 01:26:59.308272 19511 net.cpp:406] relu1 <- ip1
I1130 01:26:59.308279 19511 net.cpp:367] relu1 -> ip1 (in-place)
I1130 01:26:59.308288 19511 net.cpp:122] Setting up relu1
I1130 01:26:59.308293 19511 net.cpp:129] Top shape: 64 500 (32000)
I1130 01:26:59.308297 19511 net.cpp:137] Memory required for data: 5167360
I1130 01:26:59.308301 19511 layer_factory.hpp:77] Creating layer ip2
I1130 01:26:59.308308 19511 net.cpp:84] Creating Layer ip2
I1130 01:26:59.308312 19511 net.cpp:406] ip2 <- ip1
I1130 01:26:59.308320 19511 net.cpp:380] ip2 -> ip2
I1130 01:26:59.308885 19511 net.cpp:122] Setting up ip2
I1130 01:26:59.308902 19511 net.cpp:129] Top shape: 64 10 (640)
I1130 01:26:59.308907 19511 net.cpp:137] Memory required for data: 5169920
I1130 01:26:59.308914 19511 layer_factory.hpp:77] Creating layer loss
I1130 01:26:59.308926 19511 net.cpp:84] Creating Layer loss
I1130 01:26:59.308933 19511 net.cpp:406] loss <- ip2
I1130 01:26:59.308938 19511 net.cpp:406] loss <- label
I1130 01:26:59.308946 19511 net.cpp:380] loss -> loss
I1130 01:26:59.308960 19511 layer_factory.hpp:77] Creating layer loss
…
I1130 01:26:59.309465 19511 solver.cpp:172] Creating test net (#0) specified by net file: lenet_train_test.prototxt
I1130 01:26:59.309499 19511 net.cpp:294] The NetState phase (1) differed from the phase (0) specified by a rule in layer mnist
I1130 01:26:59.309587 19511 net.cpp:51] Initializing net from parameters: 
name: "LeNet"
state {
  phase: TEST
}
layer {
  name: "mnist"
  type: "Data"
  top: "data"
  top: "label"
  include {
    phase: TEST
  }
  transform_param {
    scale: 0.00390625
  }
  data_param {
    source: "/home/styurin/DataSet/28/val_db"
    batch_size: 128
    backend: LMDB
  }
}
layer {
  name: "conv1"
  type: "Convolution"
  bottom: "data"
  top: "conv1"
  param {
    lr_mult: 1
  }
  param {
    lr_mult: 2
  }
  convolution_param {
    num_output: 20
    kernel_size: 5
    stride: 1
    weight_filler {
      type: "xavier"
    }
    bias_filler {
      type: "constant"
    }
  }
}
layer {
  name: "pool1"
  type: "Pooling"
  bottom: "conv1"
  top: "pool1"
  pooling_param {
    pool: MAX
    kernel_size: 2
    stride: 2
  }
}
layer {
  name: "conv2"
  type: "Convolution"
  bottom: "pool1"
  top: "conv2"
  param {
    lr_mult: 1
  }
  param {
    lr_mult: 2
  }
  convolution_param {
    num_output: 50
    kernel_size: 5
    stride: 1
    weight_filler {
      type: "xavier"
    }
    bias_filler {
      type: "constant"
    }
  }
}
layer {
  name: "pool2"
  type: "Pooling"
  bottom: "conv2"
  top: "pool2"
  pooling_param {
    pool: MAX
    kernel_size: 2
    stride: 2
  }
}
layer {
  name: "ip1"
  type: "InnerProduct"
  bottom: "pool2"
  top: "ip1"
  param {
    lr_mult: 1
  }
  param {
    lr_mult: 2
  }
  inner_product_param {
    num_output: 500
    weight_filler {
      type: "xavier"
    }
    bias_filler {
      type: "constant"
    }
  }
}
layer {
  name: "relu1"
  type: "ReLU"
  bottom: "ip1"
  top: "ip1"
}
layer {
  name: "ip2"
  type: "InnerProduct"
  bottom: "ip1"
  top: "ip2"
  param {
    lr_mult: 1
  }
  param {
    lr_mult: 2
  }
  inner_product_param {
    num_output: 10
    weight_filler {
      type: "xavier"
    }
    bias_filler {
      type: "constant"
    }
  }
}
layer {
  name: "accuracy"
  type: "Accuracy"
  bottom: "ip2"
  bottom: "label"
  top: "accuracy"
  include {
    phase: TEST
  }
}
layer {
  name: "loss"
  type: "SoftmaxWithLoss"
  bottom: "ip2"
  bottom: "label"
  top: "loss"
}
I1130 01:26:59.309655 19511 layer_factory.hpp:77] Creating layer mnist
I1130 01:26:59.311094 19511 db_lmdb.cpp:35] Opened lmdb /home/styurin/DataSet/28/val_db
I1130 01:26:59.312701 19511 net.cpp:84] Creating Layer mnist
I1130 01:26:59.312717 19511 net.cpp:380] mnist -> data
I1130 01:26:59.312727 19511 net.cpp:380] mnist -> label
I1130 01:26:59.312855 19511 data_layer.cpp:45] output data size: 128,1,28,28
I1130 01:26:59.318722 19511 net.cpp:122] Setting up mnist
I1130 01:26:59.318742 19511 net.cpp:129] Top shape: 128 1 28 28 (100352)
I1130 01:26:59.318747 19511 net.cpp:129] Top shape: 128 (128)
I1130 01:26:59.318753 19511 net.cpp:137] Memory required for data: 401920
I1130 01:26:59.318758 19511 layer_factory.hpp:77] Creating layer label_mnist_1_split
I1130 01:26:59.318768 19511 net.cpp:84] Creating Layer label_mnist_1_split
I1130 01:26:59.318773 19511 net.cpp:406] label_mnist_1_split <- label
I1130 01:26:59.318779 19511 net.cpp:380] label_mnist_1_split -> label_mnist_1_split_0
I1130 01:26:59.318787 19511 net.cpp:380] label_mnist_1_split -> label_mnist_1_split_1
I1130 01:26:59.318838 19511 net.cpp:122] Setting up label_mnist_1_split
I1130 01:26:59.318850 19511 net.cpp:129] Top shape: 128 (128)
I1130 01:26:59.318855 19511 net.cpp:129] Top shape: 128 (128)
I1130 01:26:59.318858 19511 net.cpp:137] Memory required for data: 402944
I1130 01:26:59.318862 19511 layer_factory.hpp:77] Creating layer conv1
I1130 01:26:59.318872 19511 net.cpp:84] Creating Layer conv1
I1130 01:26:59.318877 19511 net.cpp:406] conv1 <- data
I1130 01:26:59.318886 19511 net.cpp:380] conv1 -> conv1
I1130 01:26:59.319080 19511 net.cpp:122] Setting up conv1
I1130 01:26:59.319090 19511 net.cpp:129] Top shape: 128 20 24 24 (1474560)
I1130 01:26:59.319094 19511 net.cpp:137] Memory required for data: 6301184
I1130 01:26:59.319109 19511 layer_factory.hpp:77] Creating layer pool1
I1130 01:26:59.319123 19511 net.cpp:84] Creating Layer pool1
I1130 01:26:59.319128 19511 net.cpp:406] pool1 <- conv1
I1130 01:26:59.319135 19511 net.cpp:380] pool1 -> pool1
I1130 01:26:59.319170 19511 net.cpp:122] Setting up pool1
I1130 01:26:59.319178 19511 net.cpp:129] Top shape: 128 20 12 12 (368640)
I1130 01:26:59.319200 19511 net.cpp:137] Memory required for data: 7775744
I1130 01:26:59.319206 19511 layer_factory.hpp:77] Creating layer conv2
I1130 01:26:59.319218 19511 net.cpp:84] Creating Layer conv2
I1130 01:26:59.319223 19511 net.cpp:406] conv2 <- pool1
I1130 01:26:59.319229 19511 net.cpp:380] conv2 -> conv2
I1130 01:26:59.320049 19511 net.cpp:122] Setting up conv2
I1130 01:26:59.320063 19511 net.cpp:129] Top shape: 128 50 8 8 (409600)
I1130 01:26:59.320082 19511 net.cpp:137] Memory required for data: 9414144
I1130 01:26:59.320092 19511 layer_factory.hpp:77] Creating layer pool2
I1130 01:26:59.320099 19511 net.cpp:84] Creating Layer pool2
I1130 01:26:59.320104 19511 net.cpp:406] pool2 <- conv2
I1130 01:26:59.320112 19511 net.cpp:380] pool2 -> pool2
I1130 01:26:59.320147 19511 net.cpp:122] Setting up pool2
I1130 01:26:59.320155 19511 net.cpp:129] Top shape: 128 50 4 4 (102400)
I1130 01:26:59.320159 19511 net.cpp:137] Memory required for data: 9823744
I1130 01:26:59.320163 19511 layer_factory.hpp:77] Creating layer ip1
I1130 01:26:59.320173 19511 net.cpp:84] Creating Layer ip1
I1130 01:26:59.320176 19511 net.cpp:406] ip1 <- pool2
I1130 01:26:59.320183 19511 net.cpp:380] ip1 -> ip1
I1130 01:26:59.323575 19511 net.cpp:122] Setting up ip1
I1130 01:26:59.323593 19511 net.cpp:129] Top shape: 128 500 (64000)
I1130 01:26:59.323598 19511 net.cpp:137] Memory required for data: 10079744
I1130 01:26:59.323616 19511 layer_factory.hpp:77] Creating layer relu1
I1130 01:26:59.323623 19511 net.cpp:84] Creating Layer relu1
I1130 01:26:59.323628 19511 net.cpp:406] relu1 <- ip1
I1130 01:26:59.323635 19511 net.cpp:367] relu1 -> ip1 (in-place)
I1130 01:26:59.323643 19511 net.cpp:122] Setting up relu1
I1130 01:26:59.323649 19511 net.cpp:129] Top shape: 128 500 (64000)
I1130 01:26:59.323653 19511 net.cpp:137] Memory required for data: 10335744
I1130 01:26:59.323657 19511 layer_factory.hpp:77] Creating layer ip2
I1130 01:26:59.323665 19511 net.cpp:84] Creating Layer ip2
I1130 01:26:59.323669 19511 net.cpp:406] ip2 <- ip1
I1130 01:26:59.323676 19511 net.cpp:380] ip2 -> ip2
I1130 01:26:59.323798 19511 net.cpp:122] Setting up ip2
I1130 01:26:59.323807 19511 net.cpp:129] Top shape: 128 10 (1280)
I1130 01:26:59.323812 19511 net.cpp:137] Memory required for data: 10340864
I1130 01:26:59.323818 19511 layer_factory.hpp:77] Creating layer ip2_ip2_0_split
I1130 01:26:59.323825 19511 net.cpp:84] Creating Layer ip2_ip2_0_split
I1130 01:26:59.323830 19511 net.cpp:406] ip2_ip2_0_split <- ip2
I1130 01:26:59.323835 19511 net.cpp:380] ip2_ip2_0_split -> ip2_ip2_0_split_0
I1130 01:26:59.323843 19511 net.cpp:380] ip2_ip2_0_split -> ip2_ip2_0_split_1
I1130 01:26:59.323871 19511 net.cpp:122] Setting up ip2_ip2_0_split
I1130 01:26:59.323879 19511 net.cpp:129] Top shape: 128 10 (1280)
I1130 01:26:59.323884 19511 net.cpp:129] Top shape: 128 10 (1280)
I1130 01:26:59.323889 19511 net.cpp:137] Memory required for data: 10351104
I1130 01:26:59.323891 19511 layer_factory.hpp:77] Creating layer accuracy
I1130 01:26:59.323904 19511 net.cpp:84] Creating Layer accuracy
I1130 01:26:59.323909 19511 net.cpp:406] accuracy <- ip2_ip2_0_split_0
I1130 01:26:59.323915 19511 net.cpp:406] accuracy <- label_mnist_1_split_0
I1130 01:26:59.323921 19511 net.cpp:380] accuracy -> accuracy
…
