…
I1128 23:01:46.972038 29494 net.cpp:294] The NetState phase (0) differed from the phase (1) specified by a rule in layer mnist
I1128 23:01:46.972059 29494 net.cpp:294] The NetState phase (0) differed from the phase (1) specified by a rule in layer accuracy
I1128 23:01:46.972147 29494 net.cpp:51] Initializing net from parameters: 
name: "LeNet"
state {
  phase: TRAIN
  level: 0
  stage: ""
}
layer {
  name: "mnist"
  type: "Data"
  top: "data"
  top: "label"
  include {
    phase: TRAIN
  }
  transform_param {
    scale: 0.00390625
  }
  data_param {
    source: "/home/styurin/DataSet/28/train_db"
    batch_size: 64
    backend: LMDB
  }
}
layer {
  name: "conv1"
  type: "Convolution"
  bottom: "data"
  top: "conv1"
  param {
    lr_mult: 1
  }
  param {
    lr_mult: 2
  }
  convolution_param {
    num_output: 20
    kernel_size: 5
    stride: 1
    weight_filler {
      type: "xavier"
    }
    bias_filler {
      type: "constant"
    }
  }
}
layer {
  name: "pool1"
  type: "Pooling"
  bottom: "conv1"
  top: "pool1"
  pooling_param {
    pool: MAX
    kernel_size: 2
    stride: 2
  }
}
layer {
  name: "conv2"
  type: "Convolution"
  bottom: "pool1"
  top: "conv2"
  param {
    lr_mult: 1
  }
  param {
    lr_mult: 2
  }
  convolution_param {
    num_output: 50
    kernel_size: 5
    stride: 1
    weight_filler {
      type: "xavier"
    }
    bias_filler {
      type: "constant"
    }
  }
}
layer {
  name: "pool2"
  type: "Pooling"
  bottom: "conv2"
  top: "pool2"
  pooling_param {
    pool: MAX
    kernel_size: 2
    stride: 2
  }
}
layer {
  name: "ip1"
  type: "InnerProduct"
  bottom: "pool2"
  top: "ip1"
  param {
    lr_mult: 1
  }
  param {
    lr_mult: 2
  }
  inner_product_param {
    num_output: 500
    weight_filler {
      type: "xavier"
    }
    bias_filler {
      type: "constant"
    }
  }
}
layer {
  name: "relu1"
  type: "ReLU"
  bottom: "ip1"
  top: "ip1"
}
layer {
  name: "ip2"
  type: "InnerProduct"
  bottom: "ip1"
  top: "ip2"
  param {
    lr_mult: 1
  }
  param {
    lr_mult: 2
  }
  inner_product_param {
    num_output: 10
    weight_filler {
      type: "xavier"
    }
    bias_filler {
      type: "constant"
    }
  }
}
layer {
  name: "loss"
  type: "SoftmaxWithLoss"
  bottom: "ip2"
  bottom: "label"
  top: "loss"
}
I1128 23:01:46.972225 29494 layer_factory.hpp:77] Creating layer mnist
I1128 23:01:46.972369 29494 db_lmdb.cpp:35] Opened lmdb /home/styurin/DataSet/28/train_db
I1128 23:01:46.972407 29494 net.cpp:84] Creating Layer mnist
I1128 23:01:46.972420 29494 net.cpp:380] mnist -> data
I1128 23:01:46.972446 29494 net.cpp:380] mnist -> label
I1128 23:01:46.973229 29494 data_layer.cpp:45] output data size: 64,1,28,28
I1128 23:01:46.974664 29494 net.cpp:122] Setting up mnist
I1128 23:01:46.974686 29494 net.cpp:129] Top shape: 64 1 28 28 (50176)
I1128 23:01:46.974694 29494 net.cpp:129] Top shape: 64 (64)
I1128 23:01:46.974699 29494 net.cpp:137] Memory required for data: 200960
I1128 23:01:46.974709 29494 layer_factory.hpp:77] Creating layer conv1
I1128 23:01:46.974728 29494 net.cpp:84] Creating Layer conv1
I1128 23:01:46.974736 29494 net.cpp:406] conv1 <- data
I1128 23:01:46.974750 29494 net.cpp:380] conv1 -> conv1
I1128 23:01:46.975528 29494 net.cpp:122] Setting up conv1
I1128 23:01:46.975548 29494 net.cpp:129] Top shape: 64 20 24 24 (737280)
I1128 23:01:46.975554 29494 net.cpp:137] Memory required for data: 3150080
I1128 23:01:46.975569 29494 layer_factory.hpp:77] Creating layer pool1
I1128 23:01:46.975596 29494 net.cpp:84] Creating Layer pool1
I1128 23:01:46.975622 29494 net.cpp:406] pool1 <- conv1
I1128 23:01:46.975630 29494 net.cpp:380] pool1 -> pool1
I1128 23:01:46.975715 29494 net.cpp:122] Setting up pool1
I1128 23:01:46.975735 29494 net.cpp:129] Top shape: 64 20 12 12 (184320)
I1128 23:01:46.975741 29494 net.cpp:137] Memory required for data: 3887360
I1128 23:01:46.975746 29494 layer_factory.hpp:77] Creating layer conv2
I1128 23:01:46.975759 29494 net.cpp:84] Creating Layer conv2
I1128 23:01:46.975764 29494 net.cpp:406] conv2 <- pool1
I1128 23:01:46.975772 29494 net.cpp:380] conv2 -> conv2
I1128 23:01:46.976177 29494 net.cpp:122] Setting up conv2
I1128 23:01:46.976191 29494 net.cpp:129] Top shape: 64 50 8 8 (204800)
I1128 23:01:46.976197 29494 net.cpp:137] Memory required for data: 4706560
I1128 23:01:46.976207 29494 layer_factory.hpp:77] Creating layer pool2
I1128 23:01:46.976213 29494 net.cpp:84] Creating Layer pool2
I1128 23:01:46.976218 29494 net.cpp:406] pool2 <- conv2
I1128 23:01:46.976227 29494 net.cpp:380] pool2 -> pool2
I1128 23:01:46.976263 29494 net.cpp:122] Setting up pool2
I1128 23:01:46.976272 29494 net.cpp:129] Top shape: 64 50 4 4 (51200)
I1128 23:01:46.976276 29494 net.cpp:137] Memory required for data: 4911360
I1128 23:01:46.976281 29494 layer_factory.hpp:77] Creating layer ip1
I1128 23:01:46.976292 29494 net.cpp:84] Creating Layer ip1
I1128 23:01:46.976297 29494 net.cpp:406] ip1 <- pool2
I1128 23:01:46.976305 29494 net.cpp:380] ip1 -> ip1
I1128 23:01:46.979786 29494 net.cpp:122] Setting up ip1
I1128 23:01:46.979805 29494 net.cpp:129] Top shape: 64 500 (32000)
I1128 23:01:46.979811 29494 net.cpp:137] Memory required for data: 5039360
I1128 23:01:46.979822 29494 layer_factory.hpp:77] Creating layer relu1
I1128 23:01:46.979832 29494 net.cpp:84] Creating Layer relu1
I1128 23:01:46.979840 29494 net.cpp:406] relu1 <- ip1
I1128 23:01:46.979846 29494 net.cpp:367] relu1 -> ip1 (in-place)
I1128 23:01:46.979856 29494 net.cpp:122] Setting up relu1
I1128 23:01:46.979869 29494 net.cpp:129] Top shape: 64 500 (32000)
I1128 23:01:46.979877 29494 net.cpp:137] Memory required for data: 5167360
I1128 23:01:46.979882 29494 layer_factory.hpp:77] Creating layer ip2
I1128 23:01:46.979892 29494 net.cpp:84] Creating Layer ip2
I1128 23:01:46.979897 29494 net.cpp:406] ip2 <- ip1
I1128 23:01:46.979903 29494 net.cpp:380] ip2 -> ip2
I1128 23:01:46.980556 29494 net.cpp:122] Setting up ip2
I1128 23:01:46.980579 29494 net.cpp:129] Top shape: 64 10 (640)
I1128 23:01:46.980585 29494 net.cpp:137] Memory required for data: 5169920
I1128 23:01:46.980593 29494 layer_factory.hpp:77] Creating layer loss
I1128 23:01:46.980609 29494 net.cpp:84] Creating Layer loss
I1128 23:01:46.980615 29494 net.cpp:406] loss <- ip2
I1128 23:01:46.980623 29494 net.cpp:406] loss <- label
I1128 23:01:46.980629 29494 net.cpp:380] loss -> loss
I1128 23:01:46.980644 29494 layer_factory.hpp:77] Creating layer loss
…
I1128 23:01:46.981169 29494 solver.cpp:172] Creating test net (#0) specified by net file: lenet_train_test.prototxt
I1128 23:01:46.981201 29494 net.cpp:294] The NetState phase (1) differed from the phase (0) specified by a rule in layer mnist
I1128 23:01:46.981287 29494 net.cpp:51] Initializing net from parameters: 
name: "LeNet"
state {
  phase: TEST
}
layer {
  name: "mnist"
  type: "Data"
  top: "data"
  top: "label"
  include {
    phase: TEST
  }
  transform_param {
    scale: 0.00390625
  }
  data_param {
    source: "/home/styurin/DataSet/28/val_db"
    batch_size: 100
    backend: LMDB
  }
}
layer {
  name: "conv1"
  type: "Convolution"
  bottom: "data"
  top: "conv1"
  param {
    lr_mult: 1
  }
  param {
    lr_mult: 2
  }
  convolution_param {
    num_output: 20
    kernel_size: 5
    stride: 1
    weight_filler {
      type: "xavier"
    }
    bias_filler {
      type: "constant"
    }
  }
}
layer {
  name: "pool1"
  type: "Pooling"
  bottom: "conv1"
  top: "pool1"
  pooling_param {
    pool: MAX
    kernel_size: 2
    stride: 2
  }
}
layer {
  name: "conv2"
  type: "Convolution"
  bottom: "pool1"
  top: "conv2"
  param {
    lr_mult: 1
  }
  param {
    lr_mult: 2
  }
  convolution_param {
    num_output: 50
    kernel_size: 5
    stride: 1
    weight_filler {
      type: "xavier"
    }
    bias_filler {
      type: "constant"
    }
  }
}
layer {
  name: "pool2"
  type: "Pooling"
  bottom: "conv2"
  top: "pool2"
  pooling_param {
    pool: MAX
    kernel_size: 2
    stride: 2
  }
}
layer {
  name: "ip1"
  type: "InnerProduct"
  bottom: "pool2"
  top: "ip1"
  param {
    lr_mult: 1
  }
  param {
    lr_mult: 2
  }
  inner_product_param {
    num_output: 500
    weight_filler {
      type: "xavier"
    }
    bias_filler {
      type: "constant"
    }
  }
}
layer {
  name: "relu1"
  type: "ReLU"
  bottom: "ip1"
  top: "ip1"
}
layer {
  name: "ip2"
  type: "InnerProduct"
  bottom: "ip1"
  top: "ip2"
  param {
    lr_mult: 1
  }
  param {
    lr_mult: 2
  }
  inner_product_param {
    num_output: 10
    weight_filler {
      type: "xavier"
    }
    bias_filler {
      type: "constant"
    }
  }
}
layer {
  name: "accuracy"
  type: "Accuracy"
  bottom: "ip2"
  bottom: "label"
  top: "accuracy"
  include {
    phase: TEST
  }
}
layer {
  name: "loss"
  type: "SoftmaxWithLoss"
  bottom: "ip2"
  bottom: "label"
  top: "loss"
}
I1128 23:01:46.981356 29494 layer_factory.hpp:77] Creating layer mnist
I1128 23:01:46.981408 29494 db_lmdb.cpp:35] Opened lmdb /home/styurin/DataSet/28/val_db
I1128 23:01:46.981436 29494 net.cpp:84] Creating Layer mnist
I1128 23:01:46.981456 29494 net.cpp:380] mnist -> data
I1128 23:01:46.981468 29494 net.cpp:380] mnist -> label
I1128 23:01:46.981597 29494 data_layer.cpp:45] output data size: 100,1,28,28
I1128 23:01:46.983490 29494 net.cpp:122] Setting up mnist
I1128 23:01:46.983510 29494 net.cpp:129] Top shape: 100 1 28 28 (78400)
I1128 23:01:46.983518 29494 net.cpp:129] Top shape: 100 (100)
I1128 23:01:46.983523 29494 net.cpp:137] Memory required for data: 314000
I1128 23:01:46.983530 29494 layer_factory.hpp:77] Creating layer label_mnist_1_split
I1128 23:01:46.983541 29494 net.cpp:84] Creating Layer label_mnist_1_split
I1128 23:01:46.983546 29494 net.cpp:406] label_mnist_1_split <- label
I1128 23:01:46.983553 29494 net.cpp:380] label_mnist_1_split -> label_mnist_1_split_0
I1128 23:01:46.983564 29494 net.cpp:380] label_mnist_1_split -> label_mnist_1_split_1
I1128 23:01:46.986768 29494 net.cpp:122] Setting up label_mnist_1_split
I1128 23:01:46.986790 29494 net.cpp:129] Top shape: 100 (100)
I1128 23:01:46.986799 29494 net.cpp:129] Top shape: 100 (100)
I1128 23:01:46.986804 29494 net.cpp:137] Memory required for data: 314800
I1128 23:01:46.986809 29494 layer_factory.hpp:77] Creating layer conv1
I1128 23:01:46.986826 29494 net.cpp:84] Creating Layer conv1
I1128 23:01:46.986834 29494 net.cpp:406] conv1 <- data
I1128 23:01:46.987890 29494 net.cpp:380] conv1 -> conv1
I1128 23:01:46.988277 29494 net.cpp:122] Setting up conv1
I1128 23:01:46.988296 29494 net.cpp:129] Top shape: 100 20 24 24 (1152000)
I1128 23:01:46.988301 29494 net.cpp:137] Memory required for data: 4922800
I1128 23:01:46.988318 29494 layer_factory.hpp:77] Creating layer pool1
I1128 23:01:46.988339 29494 net.cpp:84] Creating Layer pool1
I1128 23:01:46.988345 29494 net.cpp:406] pool1 <- conv1
I1128 23:01:46.988353 29494 net.cpp:380] pool1 -> pool1
I1128 23:01:46.988391 29494 net.cpp:122] Setting up pool1
I1128 23:01:46.988400 29494 net.cpp:129] Top shape: 100 20 12 12 (288000)
I1128 23:01:46.988405 29494 net.cpp:137] Memory required for data: 6074800
I1128 23:01:46.988410 29494 layer_factory.hpp:77] Creating layer conv2
I1128 23:01:46.988425 29494 net.cpp:84] Creating Layer conv2
I1128 23:01:46.988431 29494 net.cpp:406] conv2 <- pool1
I1128 23:01:46.988440 29494 net.cpp:380] conv2 -> conv2
I1128 23:01:46.988806 29494 net.cpp:122] Setting up conv2
I1128 23:01:46.988818 29494 net.cpp:129] Top shape: 100 50 8 8 (320000)
I1128 23:01:46.988823 29494 net.cpp:137] Memory required for data: 7354800
I1128 23:01:46.988832 29494 layer_factory.hpp:77] Creating layer pool2
I1128 23:01:46.988839 29494 net.cpp:84] Creating Layer pool2
I1128 23:01:46.988844 29494 net.cpp:406] pool2 <- conv2
I1128 23:01:46.988852 29494 net.cpp:380] pool2 -> pool2
I1128 23:01:46.988886 29494 net.cpp:122] Setting up pool2
I1128 23:01:46.988894 29494 net.cpp:129] Top shape: 100 50 4 4 (80000)
I1128 23:01:46.988899 29494 net.cpp:137] Memory required for data: 7674800
I1128 23:01:46.988904 29494 layer_factory.hpp:77] Creating layer ip1
I1128 23:01:46.988914 29494 net.cpp:84] Creating Layer ip1
I1128 23:01:46.988919 29494 net.cpp:406] ip1 <- pool2
I1128 23:01:46.988926 29494 net.cpp:380] ip1 -> ip1
I1128 23:01:46.995146 29494 net.cpp:122] Setting up ip1
I1128 23:01:46.995235 29494 net.cpp:129] Top shape: 100 500 (50000)
I1128 23:01:46.995245 29494 net.cpp:137] Memory required for data: 7874800
I1128 23:01:46.995270 29494 layer_factory.hpp:77] Creating layer relu1
I1128 23:01:46.995287 29494 net.cpp:84] Creating Layer relu1
I1128 23:01:46.995298 29494 net.cpp:406] relu1 <- ip1
I1128 23:01:46.995311 29494 net.cpp:367] relu1 -> ip1 (in-place)
I1128 23:01:46.995327 29494 net.cpp:122] Setting up relu1
I1128 23:01:46.995334 29494 net.cpp:129] Top shape: 100 500 (50000)
I1128 23:01:46.995340 29494 net.cpp:137] Memory required for data: 8074800
I1128 23:01:46.995347 29494 layer_factory.hpp:77] Creating layer ip2
I1128 23:01:46.995364 29494 net.cpp:84] Creating Layer ip2
I1128 23:01:46.995370 29494 net.cpp:406] ip2 <- ip1
I1128 23:01:46.995380 29494 net.cpp:380] ip2 -> ip2
I1128 23:01:46.995564 29494 net.cpp:122] Setting up ip2
I1128 23:01:46.995576 29494 net.cpp:129] Top shape: 100 10 (1000)
I1128 23:01:46.995594 29494 net.cpp:137] Memory required for data: 8078800
I1128 23:01:46.995604 29494 layer_factory.hpp:77] Creating layer ip2_ip2_0_split
I1128 23:01:46.995615 29494 net.cpp:84] Creating Layer ip2_ip2_0_split
I1128 23:01:46.995620 29494 net.cpp:406] ip2_ip2_0_split <- ip2
I1128 23:01:46.995630 29494 net.cpp:380] ip2_ip2_0_split -> ip2_ip2_0_split_0
I1128 23:01:46.995638 29494 net.cpp:380] ip2_ip2_0_split -> ip2_ip2_0_split_1
I1128 23:01:46.995673 29494 net.cpp:122] Setting up ip2_ip2_0_split
I1128 23:01:46.995682 29494 net.cpp:129] Top shape: 100 10 (1000)
I1128 23:01:46.995692 29494 net.cpp:129] Top shape: 100 10 (1000)
I1128 23:01:46.995697 29494 net.cpp:137] Memory required for data: 8086800
I1128 23:01:46.995702 29494 layer_factory.hpp:77] Creating layer accuracy
I1128 23:01:46.995729 29494 net.cpp:84] Creating Layer accuracy
I1128 23:01:46.995735 29494 net.cpp:406] accuracy <- ip2_ip2_0_split_0
I1128 23:01:46.995743 29494 net.cpp:406] accuracy <- label_mnist_1_split_0
I1128 23:01:46.995749 29494 net.cpp:380] accuracy -> accuracy
…
