…
I1126 17:05:01.976655  8270 net.cpp:294] The NetState phase (0) differed from the phase (1) specified by a rule in layer mnist
I1126 17:05:01.976675  8270 net.cpp:294] The NetState phase (0) differed from the phase (1) specified by a rule in layer accuracy
I1126 17:05:01.976754  8270 net.cpp:51] Initializing net from parameters: 
name: "LeNet"
state {
  phase: TRAIN
  level: 0
  stage: ""
}
layer {
  name: "mnist"
  type: "Data"
  top: "data"
  top: "label"
  include {
    phase: TRAIN
  }
  transform_param {
    scale: 0.00390625
  }
  data_param {
    source: "/home/vtyurin/Diploma/lmdb/28/train_db"
    batch_size: 64
    backend: LMDB
  }
}
layer {
  name: "conv1"
  type: "Convolution"
  bottom: "data"
  top: "conv1"
  param {
    lr_mult: 1
  }
  param {
    lr_mult: 2
  }
  convolution_param {
    num_output: 20
    kernel_size: 5
    stride: 1
    weight_filler {
      type: "xavier"
    }
    bias_filler {
      type: "constant"
    }
  }
}
layer {
  name: "pool1"
  type: "Pooling"
  bottom: "conv1"
  top: "pool1"
  pooling_param {
    pool: MAX
    kernel_size: 2
    stride: 2
  }
}
layer {
  name: "conv2"
  type: "Convolution"
  bottom: "pool1"
  top: "conv2"
  param {
    lr_mult: 1
  }
  param {
    lr_mult: 2
  }
  convolution_param {
    num_output: 50
    kernel_size: 5
    stride: 1
    weight_filler {
      type: "xavier"
    }
    bias_filler {
      type: "constant"
    }
  }
}
layer {
  name: "pool2"
  type: "Pooling"
  bottom: "conv2"
  top: "pool2"
  pooling_param {
    pool: MAX
    kernel_size: 2
    stride: 2
  }
}
layer {
  name: "ip1"
  type: "InnerProduct"
  bottom: "pool2"
  top: "ip1"
  param {
    lr_mult: 1
  }
  param {
    lr_mult: 2
  }
  inner_product_param {
    num_output: 500
    weight_filler {
      type: "xavier"
    }
    bias_filler {
      type: "constant"
    }
  }
}
layer {
  name: "relu1"
  type: "ReLU"
  bottom: "ip1"
  top: "ip1"
}
layer {
  name: "ip2"
  type: "InnerProduct"
  bottom: "ip1"
  top: "ip2"
  param {
    lr_mult: 1
  }
  param {
    lr_mult: 2
  }
  inner_product_param {
    num_output: 10
    weight_filler {
      type: "xavier"
    }
    bias_filler {
      type: "constant"
    }
  }
}
layer {
  name: "loss"
  type: "SoftmaxWithLoss"
  bottom: "ip2"
  bottom: "label"
  top: "loss"
}
I1126 17:05:01.976826  8270 layer_factory.hpp:77] Creating layer mnist
I1126 17:05:01.976938  8270 db_lmdb.cpp:35] Opened lmdb /home/vtyurin/Diploma/lmdb/28/train_db
I1126 17:05:01.976965  8270 net.cpp:84] Creating Layer mnist
I1126 17:05:01.976975  8270 net.cpp:380] mnist -> data
I1126 17:05:01.976997  8270 net.cpp:380] mnist -> label
I1126 17:05:01.977715  8270 data_layer.cpp:45] output data size: 64,1,28,28
I1126 17:05:01.994333  8270 net.cpp:122] Setting up mnist
I1126 17:05:01.994357  8270 net.cpp:129] Top shape: 64 1 28 28 (50176)
I1126 17:05:01.994364  8270 net.cpp:129] Top shape: 64 (64)
I1126 17:05:01.994369  8270 net.cpp:137] Memory required for data: 200960
I1126 17:05:01.994377  8270 layer_factory.hpp:77] Creating layer conv1
I1126 17:05:01.994395  8270 net.cpp:84] Creating Layer conv1
I1126 17:05:01.994402  8270 net.cpp:406] conv1 <- data
I1126 17:05:01.994415  8270 net.cpp:380] conv1 -> conv1
I1126 17:05:01.995173  8270 net.cpp:122] Setting up conv1
I1126 17:05:01.995211  8270 net.cpp:129] Top shape: 64 20 24 24 (737280)
I1126 17:05:01.995224  8270 net.cpp:137] Memory required for data: 3150080
I1126 17:05:01.995256  8270 layer_factory.hpp:77] Creating layer pool1
I1126 17:05:01.995268  8270 net.cpp:84] Creating Layer pool1
I1126 17:05:01.995273  8270 net.cpp:406] pool1 <- conv1
I1126 17:05:01.995283  8270 net.cpp:380] pool1 -> pool1
I1126 17:05:01.995359  8270 net.cpp:122] Setting up pool1
I1126 17:05:01.995371  8270 net.cpp:129] Top shape: 64 20 12 12 (184320)
I1126 17:05:01.995376  8270 net.cpp:137] Memory required for data: 3887360
I1126 17:05:01.995380  8270 layer_factory.hpp:77] Creating layer conv2
I1126 17:05:01.995393  8270 net.cpp:84] Creating Layer conv2
I1126 17:05:01.995399  8270 net.cpp:406] conv2 <- pool1
I1126 17:05:01.995405  8270 net.cpp:380] conv2 -> conv2
I1126 17:05:01.997699  8270 net.cpp:122] Setting up conv2
I1126 17:05:01.997717  8270 net.cpp:129] Top shape: 64 50 8 8 (204800)
I1126 17:05:01.997722  8270 net.cpp:137] Memory required for data: 4706560
I1126 17:05:01.997733  8270 layer_factory.hpp:77] Creating layer pool2
I1126 17:05:01.997741  8270 net.cpp:84] Creating Layer pool2
I1126 17:05:01.997745  8270 net.cpp:406] pool2 <- conv2
I1126 17:05:01.997751  8270 net.cpp:380] pool2 -> pool2
I1126 17:05:01.997788  8270 net.cpp:122] Setting up pool2
I1126 17:05:01.997797  8270 net.cpp:129] Top shape: 64 50 4 4 (51200)
I1126 17:05:01.997802  8270 net.cpp:137] Memory required for data: 4911360
I1126 17:05:01.997805  8270 layer_factory.hpp:77] Creating layer ip1
I1126 17:05:01.997814  8270 net.cpp:84] Creating Layer ip1
I1126 17:05:01.997818  8270 net.cpp:406] ip1 <- pool2
I1126 17:05:01.997826  8270 net.cpp:380] ip1 -> ip1
I1126 17:05:02.001299  8270 net.cpp:122] Setting up ip1
I1126 17:05:02.001319  8270 net.cpp:129] Top shape: 64 500 (32000)
I1126 17:05:02.001324  8270 net.cpp:137] Memory required for data: 5039360
I1126 17:05:02.001334  8270 layer_factory.hpp:77] Creating layer relu1
I1126 17:05:02.001343  8270 net.cpp:84] Creating Layer relu1
I1126 17:05:02.001348  8270 net.cpp:406] relu1 <- ip1
I1126 17:05:02.001355  8270 net.cpp:367] relu1 -> ip1 (in-place)
I1126 17:05:02.001365  8270 net.cpp:122] Setting up relu1
I1126 17:05:02.001371  8270 net.cpp:129] Top shape: 64 500 (32000)
I1126 17:05:02.001375  8270 net.cpp:137] Memory required for data: 5167360
I1126 17:05:02.001379  8270 layer_factory.hpp:77] Creating layer ip2
I1126 17:05:02.001386  8270 net.cpp:84] Creating Layer ip2
I1126 17:05:02.001390  8270 net.cpp:406] ip2 <- ip1
I1126 17:05:02.001399  8270 net.cpp:380] ip2 -> ip2
I1126 17:05:02.002003  8270 net.cpp:122] Setting up ip2
I1126 17:05:02.002022  8270 net.cpp:129] Top shape: 64 10 (640)
I1126 17:05:02.002027  8270 net.cpp:137] Memory required for data: 5169920
I1126 17:05:02.002035  8270 layer_factory.hpp:77] Creating layer loss
I1126 17:05:02.002043  8270 net.cpp:84] Creating Layer loss
I1126 17:05:02.002048  8270 net.cpp:406] loss <- ip2
I1126 17:05:02.002053  8270 net.cpp:406] loss <- label
I1126 17:05:02.002063  8270 net.cpp:380] loss -> loss
I1126 17:05:02.002081  8270 layer_factory.hpp:77] Creating layer loss
…
I1126 17:05:02.002606  8270 solver.cpp:172] Creating test net (#0) specified by net file: /home/vtyurin/Diploma/CheckDataSet/leNet/var1/lenet_train_test.prototxt
I1126 17:05:02.002634  8270 net.cpp:294] The NetState phase (1) differed from the phase (0) specified by a rule in layer mnist
I1126 17:05:02.002717  8270 net.cpp:51] Initializing net from parameters: 
name: "LeNet"
state {
  phase: TEST
}
layer {
  name: "mnist"
  type: "Data"
  top: "data"
  top: "label"
  include {
    phase: TEST
  }
  transform_param {
    scale: 0.00390625
  }
  data_param {
    source: "/home/vtyurin/Diploma/lmdb/28/val_db"
    batch_size: 100
    backend: LMDB
  }
}
layer {
  name: "conv1"
  type: "Convolution"
  bottom: "data"
  top: "conv1"
  param {
    lr_mult: 1
  }
  param {
    lr_mult: 2
  }
  convolution_param {
    num_output: 20
    kernel_size: 5
    stride: 1
    weight_filler {
      type: "xavier"
    }
    bias_filler {
      type: "constant"
    }
  }
}
layer {
  name: "pool1"
  type: "Pooling"
  bottom: "conv1"
  top: "pool1"
  pooling_param {
    pool: MAX
    kernel_size: 2
    stride: 2
  }
}
layer {
  name: "conv2"
  type: "Convolution"
  bottom: "pool1"
  top: "conv2"
  param {
    lr_mult: 1
  }
  param {
    lr_mult: 2
  }
  convolution_param {
    num_output: 50
    kernel_size: 5
    stride: 1
    weight_filler {
      type: "xavier"
    }
    bias_filler {
      type: "constant"
    }
  }
}
layer {
  name: "pool2"
  type: "Pooling"
  bottom: "conv2"
  top: "pool2"
  pooling_param {
    pool: MAX
    kernel_size: 2
    stride: 2
  }
}
layer {
  name: "ip1"
  type: "InnerProduct"
  bottom: "pool2"
  top: "ip1"
  param {
    lr_mult: 1
  }
  param {
    lr_mult: 2
  }
  inner_product_param {
    num_output: 500
    weight_filler {
      type: "xavier"
    }
    bias_filler {
      type: "constant"
    }
  }
}
layer {
  name: "relu1"
  type: "ReLU"
  bottom: "ip1"
  top: "ip1"
}
layer {
  name: "ip2"
  type: "InnerProduct"
  bottom: "ip1"
  top: "ip2"
  param {
    lr_mult: 1
  }
  param {
    lr_mult: 2
  }
  inner_product_param {
    num_output: 10
    weight_filler {
      type: "xavier"
    }
    bias_filler {
      type: "constant"
    }
  }
}
layer {
  name: "accuracy"
  type: "Accuracy"
  bottom: "ip2"
  bottom: "label"
  top: "accuracy"
  include {
    phase: TEST
  }
}
layer {
  name: "loss"
  type: "SoftmaxWithLoss"
  bottom: "ip2"
  bottom: "label"
  top: "loss"
}
I1126 17:05:02.002786  8270 layer_factory.hpp:77] Creating layer mnist
I1126 17:05:02.002836  8270 db_lmdb.cpp:35] Opened lmdb /home/vtyurin/Diploma/lmdb/28/val_db
I1126 17:05:02.002853  8270 net.cpp:84] Creating Layer mnist
I1126 17:05:02.002862  8270 net.cpp:380] mnist -> data
I1126 17:05:02.002873  8270 net.cpp:380] mnist -> label
I1126 17:05:02.003002  8270 data_layer.cpp:45] output data size: 100,1,28,28
I1126 17:05:02.019372  8270 net.cpp:122] Setting up mnist
I1126 17:05:02.019397  8270 net.cpp:129] Top shape: 100 1 28 28 (78400)
I1126 17:05:02.019404  8270 net.cpp:129] Top shape: 100 (100)
I1126 17:05:02.019408  8270 net.cpp:137] Memory required for data: 314000
I1126 17:05:02.019413  8270 layer_factory.hpp:77] Creating layer label_mnist_1_split
I1126 17:05:02.019423  8270 net.cpp:84] Creating Layer label_mnist_1_split
I1126 17:05:02.019428  8270 net.cpp:406] label_mnist_1_split <- label
I1126 17:05:02.019435  8270 net.cpp:380] label_mnist_1_split -> label_mnist_1_split_0
I1126 17:05:02.019445  8270 net.cpp:380] label_mnist_1_split -> label_mnist_1_split_1
I1126 17:05:02.019520  8270 net.cpp:122] Setting up label_mnist_1_split
I1126 17:05:02.019532  8270 net.cpp:129] Top shape: 100 (100)
I1126 17:05:02.019538  8270 net.cpp:129] Top shape: 100 (100)
I1126 17:05:02.019542  8270 net.cpp:137] Memory required for data: 314800
I1126 17:05:02.019546  8270 layer_factory.hpp:77] Creating layer conv1
I1126 17:05:02.019560  8270 net.cpp:84] Creating Layer conv1
I1126 17:05:02.019567  8270 net.cpp:406] conv1 <- data
I1126 17:05:02.019573  8270 net.cpp:380] conv1 -> conv1
I1126 17:05:02.019789  8270 net.cpp:122] Setting up conv1
I1126 17:05:02.019804  8270 net.cpp:129] Top shape: 100 20 24 24 (1152000)
I1126 17:05:02.019815  8270 net.cpp:137] Memory required for data: 4922800
I1126 17:05:02.019826  8270 layer_factory.hpp:77] Creating layer pool1
I1126 17:05:02.019834  8270 net.cpp:84] Creating Layer pool1
I1126 17:05:02.019840  8270 net.cpp:406] pool1 <- conv1
I1126 17:05:02.019846  8270 net.cpp:380] pool1 -> pool1
I1126 17:05:02.019883  8270 net.cpp:122] Setting up pool1
I1126 17:05:02.019892  8270 net.cpp:129] Top shape: 100 20 12 12 (288000)
I1126 17:05:02.019896  8270 net.cpp:137] Memory required for data: 6074800
I1126 17:05:02.019908  8270 layer_factory.hpp:77] Creating layer conv2
I1126 17:05:02.019922  8270 net.cpp:84] Creating Layer conv2
I1126 17:05:02.019927  8270 net.cpp:406] conv2 <- pool1
I1126 17:05:02.019932  8270 net.cpp:380] conv2 -> conv2
I1126 17:05:02.022994  8270 net.cpp:122] Setting up conv2
I1126 17:05:02.023011  8270 net.cpp:129] Top shape: 100 50 8 8 (320000)
I1126 17:05:02.023016  8270 net.cpp:137] Memory required for data: 7354800
I1126 17:05:02.023026  8270 layer_factory.hpp:77] Creating layer pool2
I1126 17:05:02.023035  8270 net.cpp:84] Creating Layer pool2
I1126 17:05:02.023038  8270 net.cpp:406] pool2 <- conv2
I1126 17:05:02.023044  8270 net.cpp:380] pool2 -> pool2
I1126 17:05:02.023082  8270 net.cpp:122] Setting up pool2
I1126 17:05:02.023092  8270 net.cpp:129] Top shape: 100 50 4 4 (80000)
I1126 17:05:02.023095  8270 net.cpp:137] Memory required for data: 7674800
I1126 17:05:02.023105  8270 layer_factory.hpp:77] Creating layer ip1
I1126 17:05:02.023118  8270 net.cpp:84] Creating Layer ip1
I1126 17:05:02.023123  8270 net.cpp:406] ip1 <- pool2
I1126 17:05:02.023130  8270 net.cpp:380] ip1 -> ip1
I1126 17:05:02.026572  8270 net.cpp:122] Setting up ip1
I1126 17:05:02.026593  8270 net.cpp:129] Top shape: 100 500 (50000)
I1126 17:05:02.026598  8270 net.cpp:137] Memory required for data: 7874800
I1126 17:05:02.026608  8270 layer_factory.hpp:77] Creating layer relu1
I1126 17:05:02.026618  8270 net.cpp:84] Creating Layer relu1
I1126 17:05:02.026623  8270 net.cpp:406] relu1 <- ip1
I1126 17:05:02.026630  8270 net.cpp:367] relu1 -> ip1 (in-place)
I1126 17:05:02.026638  8270 net.cpp:122] Setting up relu1
I1126 17:05:02.026644  8270 net.cpp:129] Top shape: 100 500 (50000)
I1126 17:05:02.026648  8270 net.cpp:137] Memory required for data: 8074800
I1126 17:05:02.026652  8270 layer_factory.hpp:77] Creating layer ip2
I1126 17:05:02.026661  8270 net.cpp:84] Creating Layer ip2
I1126 17:05:02.026666  8270 net.cpp:406] ip2 <- ip1
I1126 17:05:02.026672  8270 net.cpp:380] ip2 -> ip2
I1126 17:05:02.026799  8270 net.cpp:122] Setting up ip2
I1126 17:05:02.026809  8270 net.cpp:129] Top shape: 100 10 (1000)
I1126 17:05:02.026813  8270 net.cpp:137] Memory required for data: 8078800
I1126 17:05:02.026829  8270 layer_factory.hpp:77] Creating layer ip2_ip2_0_split
I1126 17:05:02.026836  8270 net.cpp:84] Creating Layer ip2_ip2_0_split
I1126 17:05:02.026840  8270 net.cpp:406] ip2_ip2_0_split <- ip2
I1126 17:05:02.026846  8270 net.cpp:380] ip2_ip2_0_split -> ip2_ip2_0_split_0
I1126 17:05:02.026854  8270 net.cpp:380] ip2_ip2_0_split -> ip2_ip2_0_split_1
I1126 17:05:02.026895  8270 net.cpp:122] Setting up ip2_ip2_0_split
I1126 17:05:02.026903  8270 net.cpp:129] Top shape: 100 10 (1000)
I1126 17:05:02.026909  8270 net.cpp:129] Top shape: 100 10 (1000)
I1126 17:05:02.026913  8270 net.cpp:137] Memory required for data: 8086800
I1126 17:05:02.026917  8270 layer_factory.hpp:77] Creating layer accuracy
I1126 17:05:02.026928  8270 net.cpp:84] Creating Layer accuracy
I1126 17:05:02.026947  8270 net.cpp:406] accuracy <- ip2_ip2_0_split_0
I1126 17:05:02.026955  8270 net.cpp:406] accuracy <- label_mnist_1_split_0
I1126 17:05:02.026962  8270 net.cpp:380] accuracy -> accuracy
…
