…
I1207 23:12:09.472257  2017 solver.cpp:87] Creating training net from net file: train_val.prototxt
I1207 23:12:09.472548  2017 net.cpp:294] The NetState phase (0) differed from the phase (1) specified by a rule in layer data
I1207 23:12:09.472630  2017 net.cpp:51] Initializing net from parameters: 
state {
  phase: TRAIN
  level: 0
  stage: ""
}
layer {
  name: "data"
  type: "Data"
  top: "data"
  top: "label"
  include {
    phase: TRAIN
  }
  transform_param {
    scale: 0.0039215689
  }
  data_param {
    source: "/home/vtyurin/Diploma/lmdb/Large_256_gray/train_db"
    batch_size: 100
    backend: LMDB
  }
}
layer {
  name: "conv1"
  type: "Convolution"
  bottom: "data"
  top: "conv1"
  convolution_param {
    num_output: 20
    kernel_size: 2
    weight_filler {
      type: "xavier"
    }
  }
}
layer {
  name: "pool1"
  type: "Pooling"
  bottom: "conv1"
  top: "pool1"
  pooling_param {
    pool: MAX
    kernel_size: 2
    stride: 2
  }
}
layer {
  name: "conv2"
  type: "Convolution"
  bottom: "pool1"
  top: "conv2"
  convolution_param {
    num_output: 40
    kernel_size: 4
    weight_filler {
      type: "xavier"
    }
  }
}
layer {
  name: "relu2"
  type: "ReLU"
  bottom: "conv2"
  top: "conv2"
}
layer {
  name: "pool2"
  type: "Pooling"
  bottom: "conv2"
  top: "pool2"
  pooling_param {
    pool: MAX
    kernel_size: 2
    stride: 2
  }
}
layer {
  name: "fc1"
  type: "InnerProduct"
  bottom: "pool2"
  top: "fc1"
  inner_product_param {
    num_output: 500
    weight_filler {
      type: "xavier"
    }
  }
}
layer {
  name: "relu3"
  type: "ReLU"
  bottom: "fc1"
  top: "fc1"
}
layer {
  name: "score"
  type: "InnerProduct"
  bottom: "fc1"
  top: "score"
  inner_product_param {
    num_output: 2
    weight_filler {
      type: "xavier"
    }
  }
}
layer {
  name: "accuracy"
  type: "Accuracy"
  bottom: "score"
  bottom: "label"
  top: "accuracy"
}
layer {
  name: "loss"
  type: "SoftmaxWithLoss"
  bottom: "score"
  bottom: "label"
  top: "loss"
}
I1207 23:12:09.472723  2017 layer_factory.hpp:77] Creating layer data
I1207 23:12:09.472811  2017 db_lmdb.cpp:35] Opened lmdb /home/vtyurin/Diploma/lmdb/Large_256_gray/train_db
I1207 23:12:09.472859  2017 net.cpp:84] Creating Layer data
I1207 23:12:09.472873  2017 net.cpp:380] data -> data
I1207 23:12:09.472895  2017 net.cpp:380] data -> label
I1207 23:12:09.473829  2017 data_layer.cpp:45] output data size: 100,1,256,256
I1207 23:12:09.526079  2017 net.cpp:122] Setting up data
I1207 23:12:09.526120  2017 net.cpp:129] Top shape: 100 1 256 256 (6553600)
I1207 23:12:09.526129  2017 net.cpp:129] Top shape: 100 (100)
I1207 23:12:09.526134  2017 net.cpp:137] Memory required for data: 26214800
I1207 23:12:09.526144  2017 layer_factory.hpp:77] Creating layer label_data_1_split
I1207 23:12:09.526162  2017 net.cpp:84] Creating Layer label_data_1_split
I1207 23:12:09.526170  2017 net.cpp:406] label_data_1_split <- label
I1207 23:12:09.526183  2017 net.cpp:380] label_data_1_split -> label_data_1_split_0
I1207 23:12:09.526196  2017 net.cpp:380] label_data_1_split -> label_data_1_split_1
I1207 23:12:09.526249  2017 net.cpp:122] Setting up label_data_1_split
I1207 23:12:09.526258  2017 net.cpp:129] Top shape: 100 (100)
I1207 23:12:09.526263  2017 net.cpp:129] Top shape: 100 (100)
I1207 23:12:09.526268  2017 net.cpp:137] Memory required for data: 26215600
I1207 23:12:09.526273  2017 layer_factory.hpp:77] Creating layer conv1
I1207 23:12:09.526290  2017 net.cpp:84] Creating Layer conv1
I1207 23:12:09.526294  2017 net.cpp:406] conv1 <- data
I1207 23:12:09.526302  2017 net.cpp:380] conv1 -> conv1
I1207 23:12:09.527060  2017 net.cpp:122] Setting up conv1
I1207 23:12:09.527096  2017 net.cpp:129] Top shape: 100 20 255 255 (130050000)
I1207 23:12:09.527101  2017 net.cpp:137] Memory required for data: 546415600
I1207 23:12:09.527118  2017 layer_factory.hpp:77] Creating layer pool1
I1207 23:12:09.527129  2017 net.cpp:84] Creating Layer pool1
I1207 23:12:09.527135  2017 net.cpp:406] pool1 <- conv1
I1207 23:12:09.527142  2017 net.cpp:380] pool1 -> pool1
I1207 23:12:09.527209  2017 net.cpp:122] Setting up pool1
I1207 23:12:09.527221  2017 net.cpp:129] Top shape: 100 20 128 128 (32768000)
I1207 23:12:09.527225  2017 net.cpp:137] Memory required for data: 677487600
I1207 23:12:09.527230  2017 layer_factory.hpp:77] Creating layer conv2
I1207 23:12:09.527240  2017 net.cpp:84] Creating Layer conv2
I1207 23:12:09.527245  2017 net.cpp:406] conv2 <- pool1
I1207 23:12:09.527254  2017 net.cpp:380] conv2 -> conv2
I1207 23:12:09.530519  2017 net.cpp:122] Setting up conv2
I1207 23:12:09.530539  2017 net.cpp:129] Top shape: 100 40 125 125 (62500000)
I1207 23:12:09.530545  2017 net.cpp:137] Memory required for data: 927487600
I1207 23:12:09.530555  2017 layer_factory.hpp:77] Creating layer relu2
I1207 23:12:09.530566  2017 net.cpp:84] Creating Layer relu2
I1207 23:12:09.530571  2017 net.cpp:406] relu2 <- conv2
I1207 23:12:09.530577  2017 net.cpp:367] relu2 -> conv2 (in-place)
I1207 23:12:09.530586  2017 net.cpp:122] Setting up relu2
I1207 23:12:09.530591  2017 net.cpp:129] Top shape: 100 40 125 125 (62500000)
I1207 23:12:09.530596  2017 net.cpp:137] Memory required for data: 1177487600
I1207 23:12:09.530599  2017 layer_factory.hpp:77] Creating layer pool2
I1207 23:12:09.530606  2017 net.cpp:84] Creating Layer pool2
I1207 23:12:09.530609  2017 net.cpp:406] pool2 <- conv2
I1207 23:12:09.530616  2017 net.cpp:380] pool2 -> pool2
I1207 23:12:09.530652  2017 net.cpp:122] Setting up pool2
I1207 23:12:09.530660  2017 net.cpp:129] Top shape: 100 40 63 63 (15876000)
I1207 23:12:09.530665  2017 net.cpp:137] Memory required for data: 1240991600
I1207 23:12:09.530669  2017 layer_factory.hpp:77] Creating layer fc1
I1207 23:12:09.530678  2017 net.cpp:84] Creating Layer fc1
I1207 23:12:09.530681  2017 net.cpp:406] fc1 <- pool2
I1207 23:12:09.530691  2017 net.cpp:380] fc1 -> fc1
I1207 23:12:10.187716  2017 net.cpp:122] Setting up fc1
I1207 23:12:10.187755  2017 net.cpp:129] Top shape: 100 500 (50000)
I1207 23:12:10.187762  2017 net.cpp:137] Memory required for data: 1241191600
I1207 23:12:10.187777  2017 layer_factory.hpp:77] Creating layer relu3
I1207 23:12:10.187793  2017 net.cpp:84] Creating Layer relu3
I1207 23:12:10.187800  2017 net.cpp:406] relu3 <- fc1
I1207 23:12:10.187808  2017 net.cpp:367] relu3 -> fc1 (in-place)
I1207 23:12:10.187819  2017 net.cpp:122] Setting up relu3
I1207 23:12:10.187824  2017 net.cpp:129] Top shape: 100 500 (50000)
I1207 23:12:10.187829  2017 net.cpp:137] Memory required for data: 1241391600
I1207 23:12:10.187834  2017 layer_factory.hpp:77] Creating layer score
I1207 23:12:10.187841  2017 net.cpp:84] Creating Layer score
I1207 23:12:10.187846  2017 net.cpp:406] score <- fc1
I1207 23:12:10.187855  2017 net.cpp:380] score -> score
I1207 23:12:10.187958  2017 net.cpp:122] Setting up score
I1207 23:12:10.187966  2017 net.cpp:129] Top shape: 100 2 (200)
I1207 23:12:10.187971  2017 net.cpp:137] Memory required for data: 1241392400
I1207 23:12:10.187978  2017 layer_factory.hpp:77] Creating layer score_score_0_split
I1207 23:12:10.187986  2017 net.cpp:84] Creating Layer score_score_0_split
I1207 23:12:10.187990  2017 net.cpp:406] score_score_0_split <- score
I1207 23:12:10.187997  2017 net.cpp:380] score_score_0_split -> score_score_0_split_0
I1207 23:12:10.188005  2017 net.cpp:380] score_score_0_split -> score_score_0_split_1
I1207 23:12:10.188037  2017 net.cpp:122] Setting up score_score_0_split
I1207 23:12:10.188050  2017 net.cpp:129] Top shape: 100 2 (200)
I1207 23:12:10.188055  2017 net.cpp:129] Top shape: 100 2 (200)
I1207 23:12:10.188060  2017 net.cpp:137] Memory required for data: 1241394000
I1207 23:12:10.188071  2017 layer_factory.hpp:77] Creating layer accuracy
I1207 23:12:10.188086  2017 net.cpp:84] Creating Layer accuracy
I1207 23:12:10.188102  2017 net.cpp:406] accuracy <- score_score_0_split_0
I1207 23:12:10.188107  2017 net.cpp:406] accuracy <- label_data_1_split_0
I1207 23:12:10.188113  2017 net.cpp:380] accuracy -> accuracy
…
I1207 23:12:10.188623  2017 solver.cpp:172] Creating test net (#0) specified by net file: train_val.prototxt
I1207 23:12:10.188652  2017 net.cpp:294] The NetState phase (1) differed from the phase (0) specified by a rule in layer data
I1207 23:12:10.188724  2017 net.cpp:51] Initializing net from parameters: 
state {
  phase: TEST
}
layer {
  name: "data"
  type: "Data"
  top: "data"
  top: "label"
  include {
    phase: TEST
  }
  transform_param {
    scale: 0.0039215689
  }
  data_param {
    source: "/home/vtyurin/Diploma/lmdb/Large_256_gray/val_db"
    batch_size: 120
    backend: LMDB
  }
}
layer {
  name: "conv1"
  type: "Convolution"
  bottom: "data"
  top: "conv1"
  convolution_param {
    num_output: 20
    kernel_size: 2
    weight_filler {
      type: "xavier"
    }
  }
}
layer {
  name: "pool1"
  type: "Pooling"
  bottom: "conv1"
  top: "pool1"
  pooling_param {
    pool: MAX
    kernel_size: 2
    stride: 2
  }
}
layer {
  name: "conv2"
  type: "Convolution"
  bottom: "pool1"
  top: "conv2"
  convolution_param {
    num_output: 40
    kernel_size: 4
    weight_filler {
      type: "xavier"
    }
  }
}
layer {
  name: "relu2"
  type: "ReLU"
  bottom: "conv2"
  top: "conv2"
}
layer {
  name: "pool2"
  type: "Pooling"
  bottom: "conv2"
  top: "pool2"
  pooling_param {
    pool: MAX
    kernel_size: 2
    stride: 2
  }
}
layer {
  name: "fc1"
  type: "InnerProduct"
  bottom: "pool2"
  top: "fc1"
  inner_product_param {
    num_output: 500
    weight_filler {
      type: "xavier"
    }
  }
}
layer {
  name: "relu3"
  type: "ReLU"
  bottom: "fc1"
  top: "fc1"
}
layer {
  name: "score"
  type: "InnerProduct"
  bottom: "fc1"
  top: "score"
  inner_product_param {
    num_output: 2
    weight_filler {
      type: "xavier"
    }
  }
}
layer {
  name: "accuracy"
  type: "Accuracy"
  bottom: "score"
  bottom: "label"
  top: "accuracy"
}
layer {
  name: "loss"
  type: "SoftmaxWithLoss"
  bottom: "score"
  bottom: "label"
  top: "loss"
}
I1207 23:12:10.188796  2017 layer_factory.hpp:77] Creating layer data
I1207 23:12:10.188849  2017 db_lmdb.cpp:35] Opened lmdb /home/vtyurin/Diploma/lmdb/Large_256_gray/val_db
I1207 23:12:10.188890  2017 net.cpp:84] Creating Layer data
I1207 23:12:10.188900  2017 net.cpp:380] data -> data
I1207 23:12:10.188910  2017 net.cpp:380] data -> label
I1207 23:12:10.189343  2017 data_layer.cpp:45] output data size: 120,1,256,256
I1207 23:12:10.269752  2017 net.cpp:122] Setting up data
I1207 23:12:10.269794  2017 net.cpp:129] Top shape: 120 1 256 256 (7864320)
I1207 23:12:10.269801  2017 net.cpp:129] Top shape: 120 (120)
I1207 23:12:10.269806  2017 net.cpp:137] Memory required for data: 31457760
I1207 23:12:10.269814  2017 layer_factory.hpp:77] Creating layer label_data_1_split
I1207 23:12:10.269827  2017 net.cpp:84] Creating Layer label_data_1_split
I1207 23:12:10.269834  2017 net.cpp:406] label_data_1_split <- label
I1207 23:12:10.269841  2017 net.cpp:380] label_data_1_split -> label_data_1_split_0
I1207 23:12:10.269853  2017 net.cpp:380] label_data_1_split -> label_data_1_split_1
I1207 23:12:10.269917  2017 net.cpp:122] Setting up label_data_1_split
I1207 23:12:10.269928  2017 net.cpp:129] Top shape: 120 (120)
I1207 23:12:10.269933  2017 net.cpp:129] Top shape: 120 (120)
I1207 23:12:10.269938  2017 net.cpp:137] Memory required for data: 31458720
I1207 23:12:10.269942  2017 layer_factory.hpp:77] Creating layer conv1
I1207 23:12:10.269956  2017 net.cpp:84] Creating Layer conv1
I1207 23:12:10.269961  2017 net.cpp:406] conv1 <- data
I1207 23:12:10.269968  2017 net.cpp:380] conv1 -> conv1
I1207 23:12:10.270241  2017 net.cpp:122] Setting up conv1
I1207 23:12:10.270252  2017 net.cpp:129] Top shape: 120 20 255 255 (156060000)
I1207 23:12:10.270257  2017 net.cpp:137] Memory required for data: 655698720
I1207 23:12:10.270269  2017 layer_factory.hpp:77] Creating layer pool1
I1207 23:12:10.270279  2017 net.cpp:84] Creating Layer pool1
I1207 23:12:10.270283  2017 net.cpp:406] pool1 <- conv1
I1207 23:12:10.270294  2017 net.cpp:380] pool1 -> pool1
I1207 23:12:10.270332  2017 net.cpp:122] Setting up pool1
I1207 23:12:10.270341  2017 net.cpp:129] Top shape: 120 20 128 128 (39321600)
I1207 23:12:10.270345  2017 net.cpp:137] Memory required for data: 812985120
I1207 23:12:10.270349  2017 layer_factory.hpp:77] Creating layer conv2
I1207 23:12:10.270360  2017 net.cpp:84] Creating Layer conv2
I1207 23:12:10.270366  2017 net.cpp:406] conv2 <- pool1
I1207 23:12:10.270372  2017 net.cpp:380] conv2 -> conv2
I1207 23:12:10.270709  2017 net.cpp:122] Setting up conv2
I1207 23:12:10.270723  2017 net.cpp:129] Top shape: 120 40 125 125 (75000000)
I1207 23:12:10.270727  2017 net.cpp:137] Memory required for data: 1112985120
I1207 23:12:10.270737  2017 layer_factory.hpp:77] Creating layer relu2
I1207 23:12:10.270746  2017 net.cpp:84] Creating Layer relu2
I1207 23:12:10.270751  2017 net.cpp:406] relu2 <- conv2
I1207 23:12:10.270757  2017 net.cpp:367] relu2 -> conv2 (in-place)
I1207 23:12:10.270766  2017 net.cpp:122] Setting up relu2
I1207 23:12:10.270771  2017 net.cpp:129] Top shape: 120 40 125 125 (75000000)
I1207 23:12:10.270776  2017 net.cpp:137] Memory required for data: 1412985120
I1207 23:12:10.270779  2017 layer_factory.hpp:77] Creating layer pool2
I1207 23:12:10.270786  2017 net.cpp:84] Creating Layer pool2
I1207 23:12:10.270790  2017 net.cpp:406] pool2 <- conv2
I1207 23:12:10.270798  2017 net.cpp:380] pool2 -> pool2
I1207 23:12:10.270833  2017 net.cpp:122] Setting up pool2
I1207 23:12:10.270841  2017 net.cpp:129] Top shape: 120 40 63 63 (19051200)
I1207 23:12:10.270846  2017 net.cpp:137] Memory required for data: 1489189920
I1207 23:12:10.270850  2017 layer_factory.hpp:77] Creating layer fc1
I1207 23:12:10.270864  2017 net.cpp:84] Creating Layer fc1
I1207 23:12:10.270876  2017 net.cpp:406] fc1 <- pool2
I1207 23:12:10.270884  2017 net.cpp:380] fc1 -> fc1
I1207 23:12:10.922933  2017 net.cpp:122] Setting up fc1
I1207 23:12:10.922973  2017 net.cpp:129] Top shape: 120 500 (60000)
I1207 23:12:10.922978  2017 net.cpp:137] Memory required for data: 1489429920
I1207 23:12:10.922993  2017 layer_factory.hpp:77] Creating layer relu3
I1207 23:12:10.923008  2017 net.cpp:84] Creating Layer relu3
I1207 23:12:10.923014  2017 net.cpp:406] relu3 <- fc1
I1207 23:12:10.923022  2017 net.cpp:367] relu3 -> fc1 (in-place)
I1207 23:12:10.923032  2017 net.cpp:122] Setting up relu3
I1207 23:12:10.923038  2017 net.cpp:129] Top shape: 120 500 (60000)
I1207 23:12:10.923043  2017 net.cpp:137] Memory required for data: 1489669920
I1207 23:12:10.923048  2017 layer_factory.hpp:77] Creating layer score
I1207 23:12:10.923055  2017 net.cpp:84] Creating Layer score
I1207 23:12:10.923060  2017 net.cpp:406] score <- fc1
I1207 23:12:10.923069  2017 net.cpp:380] score -> score
I1207 23:12:10.923173  2017 net.cpp:122] Setting up score
I1207 23:12:10.923192  2017 net.cpp:129] Top shape: 120 2 (240)
I1207 23:12:10.923198  2017 net.cpp:137] Memory required for data: 1489670880
I1207 23:12:10.923205  2017 layer_factory.hpp:77] Creating layer score_score_0_split
I1207 23:12:10.923214  2017 net.cpp:84] Creating Layer score_score_0_split
I1207 23:12:10.923219  2017 net.cpp:406] score_score_0_split <- score
I1207 23:12:10.923228  2017 net.cpp:380] score_score_0_split -> score_score_0_split_0
I1207 23:12:10.923235  2017 net.cpp:380] score_score_0_split -> score_score_0_split_1
I1207 23:12:10.923269  2017 net.cpp:122] Setting up score_score_0_split
I1207 23:12:10.923277  2017 net.cpp:129] Top shape: 120 2 (240)
I1207 23:12:10.923283  2017 net.cpp:129] Top shape: 120 2 (240)
I1207 23:12:10.923287  2017 net.cpp:137] Memory required for data: 1489672800
I1207 23:12:10.923292  2017 layer_factory.hpp:77] Creating layer accuracy
I1207 23:12:10.923300  2017 net.cpp:84] Creating Layer accuracy
I1207 23:12:10.923305  2017 net.cpp:406] accuracy <- score_score_0_split_0
I1207 23:12:10.923311  2017 net.cpp:406] accuracy <- label_data_1_split_0
I1207 23:12:10.923316  2017 net.cpp:380] accuracy -> accuracy
…
