…
I1128 23:15:28.228796 30648 net.cpp:294] The NetState phase (0) differed from the phase (1) specified by a rule in layer accuracy
I1128 23:15:28.229122 30648 net.cpp:51] Initializing net from parameters: 
name: "AlexNet"
state {
  phase: TRAIN
  level: 0
  stage: ""
}
layer {
  name: "data"
  type: "Data"
  top: "data"
  top: "label"
  include {
    phase: TRAIN
  }
  transform_param {
    mirror: true
    crop_size: 227
    mean_file: "/home/styurin/DataSet/227/mean.binaryproto"
  }
  data_param {
    source: "/home/styurin/DataSet/227/train_db"
    batch_size: 256
    backend: LMDB
  }
}
layer {
  name: "conv1"
  type: "Convolution"
  bottom: "data"
  top: "conv1"
  param {
    lr_mult: 1
    decay_mult: 1
  }
  param {
    lr_mult: 2
    decay_mult: 0
  }
  convolution_param {
    num_output: 96
    kernel_size: 11
    stride: 4
    weight_filler {
      type: "gaussian"
      std: 0.01
    }
    bias_filler {
      type: "constant"
      value: 0
    }
  }
}
layer {
  name: "relu1"
  type: "ReLU"
  bottom: "conv1"
  top: "conv1"
}
layer {
  name: "norm1"
  type: "LRN"
  bottom: "conv1"
  top: "norm1"
  lrn_param {
    local_size: 5
    alpha: 0.0001
    beta: 0.75
  }
}
layer {
  name: "pool1"
  type: "Pooling"
  bottom: "norm1"
  top: "pool1"
  pooling_param {
    pool: MAX
    kernel_size: 3
    stride: 2
  }
}
layer {
  name: "conv2"
  type: "Convolution"
  bottom: "pool1"
  top: "conv2"
  param {
    lr_mult: 1
    decay_mult: 1
  }
  param {
    lr_mult: 2
    decay_mult: 0
  }
  convolution_param {
    num_output: 256
    pad: 2
    kernel_size: 5
    group: 2
    weight_filler {
      type: "gaussian"
      std: 0.01
    }
    bias_filler {
      type: "constant"
      value: 0.1
    }
  }
}
layer {
  name: "relu2"
  type: "ReLU"
  bottom: "conv2"
  top: "conv2"
}
layer {
  name: "norm2"
  type: "LRN"
  bottom: "conv2"
  top: "norm2"
  lrn_param {
    local_size: 5
    alpha: 0.0001
    beta: 0.75
  }
}
layer {
  name: "pool2"
  type: "Pooling"
  bottom: "norm2"
  top: "pool2"
  pooling_param {
    pool: MAX
    kernel_size: 3
    stride: 2
  }
}
layer {
  name: "conv3"
  type: "Convolution"
  bottom: "pool2"
  top: "conv3"
  param {
    lr_mult: 1
    decay_mult: 1
  }
  param {
    lr_mult: 2
    decay_mult: 0
  }
  convolution_param {
    num_output: 384
    pad: 1
    kernel_size: 3
    weight_filler {
      type: "gaussian"
      std: 0.01
    }
    bias_filler {
      type: "constant"
      value: 0
    }
  }
}
layer {
  name: "relu3"
  type: "ReLU"
  bottom: "conv3"
  top: "conv3"
}
layer {
  name: "conv4"
  type: "Convolution"
  bottom: "conv3"
  top: "conv4"
  param {
    lr_mult: 1
    decay_mult: 1
  }
  param {
    lr_mult: 2
    decay_mult: 0
  }
  convolution_param {
    num_output: 384
    pad: 1
    kernel_size: 3
    group: 2
    weight_filler {
      type: "gaussian"
      std: 0.01
    }
    bias_filler {
      type: "constant"
      value: 0.1
    }
  }
}
layer {
  name: "relu4"
  type: "ReLU"
  bottom: "conv4"
  top: "conv4"
}
layer {
  name: "conv5"
  type: "Convolution"
  bottom: "conv4"
  top: "conv5"
  param {
    lr_mult: 1
    decay_mult: 1
  }
  param {
    lr_mult: 2
    decay_mult: 0
  }
  convolution_param {
    num_output: 256
    pad: 1
    kernel_size: 3
    group: 2
    weight_filler {
      type: "gaussian"
      std: 0.01
    }
    bias_filler {
      type: "constant"
      value: 0.1
    }
  }
}
layer {
  name: "relu5"
  type: "ReLU"
  bottom: "conv5"
  top: "conv5"
}
layer {
  name: "pool5"
  type: "Pooling"
  bottom: "conv5"
  top: "pool5"
  pooling_param {
    pool: MAX
    kernel_size: 3
    stride: 2
  }
}
layer {
  name: "fc6"
  type: "InnerProduct"
  bottom: "pool5"
  top: "fc6"
  param {
    lr_mult: 1
    decay_mult: 1
  }
  param {
    lr_mult: 2
    decay_mult: 0
  }
  inner_product_param {
    num_output: 4096
    weight_filler {
      type: "gaussian"
      std: 0.005
    }
    bias_filler {
      type: "constant"
      value: 0.1
    }
  }
}
layer {
  name: "relu6"
  type: "ReLU"
  bottom: "fc6"
  top: "fc6"
}
layer {
  name: "drop6"
  type: "Dropout"
  bottom: "fc6"
  top: "fc6"
  dropout_param {
    dropout_ratio: 0.5
  }
}
layer {
  name: "fc7"
  type: "InnerProduct"
  bottom: "fc6"
  top: "fc7"
  param {
    lr_mult: 1
    decay_mult: 1
  }
  param {
    lr_mult: 2
    decay_mult: 0
  }
  inner_product_param {
    num_output: 4096
    weight_filler {
      type: "gaussian"
      std: 0.005
    }
    bias_filler {
      type: "constant"
      value: 0.1
    }
  }
}
layer {
  name: "relu7"
  type: "ReLU"
  bottom: "fc7"
  top: "fc7"
}
layer {
  name: "drop7"
  type: "Dropout"
  bottom: "fc7"
  top: "fc7"
  dropout_param {
    dropout_ratio: 0.5
  }
}
layer {
  name: "fc8"
  type: "InnerProduct"
  bottom: "fc7"
  top: "fc8"
  param {
    lr_mult: 1
    decay_mult: 1
  }
  param {
    lr_mult: 2
    decay_mult: 0
  }
  inner_product_param {
    num_output: 1000
    weight_filler {
      type: "gaussian"
      std: 0.01
    }
    bias_filler {
      type: "constant"
      value: 0
    }
  }
}
layer {
  name: "loss"
  type: "SoftmaxWithLoss"
  bottom: "fc8"
  bottom: "label"
  top: "loss"
}
I1128 23:15:28.229933 30648 layer_factory.hpp:77] Creating layer data
I1128 23:15:28.230443 30648 db_lmdb.cpp:35] Opened lmdb /home/styurin/DataSet/227/train_db
I1128 23:15:28.230557 30648 net.cpp:84] Creating Layer data
I1128 23:15:28.230576 30648 net.cpp:380] data -> data
I1128 23:15:28.230633 30648 net.cpp:380] data -> label
I1128 23:15:28.230661 30648 data_transformer.cpp:25] Loading mean file from: /home/styurin/DataSet/227/mean.binaryproto
I1128 23:15:28.264818 30648 data_layer.cpp:45] output data size: 256,3,227,227
I1128 23:15:28.883316 30648 net.cpp:122] Setting up data
I1128 23:15:28.883383 30648 net.cpp:129] Top shape: 256 3 227 227 (39574272)
I1128 23:15:28.883391 30648 net.cpp:129] Top shape: 256 (256)
I1128 23:15:28.883396 30648 net.cpp:137] Memory required for data: 158298112
I1128 23:15:28.883412 30648 layer_factory.hpp:77] Creating layer conv1
I1128 23:15:28.883446 30648 net.cpp:84] Creating Layer conv1
I1128 23:15:28.883455 30648 net.cpp:406] conv1 <- data
I1128 23:15:28.883473 30648 net.cpp:380] conv1 -> conv1
I1128 23:15:28.885944 30648 net.cpp:122] Setting up conv1
I1128 23:15:28.885964 30648 net.cpp:129] Top shape: 256 96 55 55 (74342400)
I1128 23:15:28.885970 30648 net.cpp:137] Memory required for data: 455667712
I1128 23:15:28.885987 30648 layer_factory.hpp:77] Creating layer relu1
I1128 23:15:28.885999 30648 net.cpp:84] Creating Layer relu1
I1128 23:15:28.886004 30648 net.cpp:406] relu1 <- conv1
I1128 23:15:28.886011 30648 net.cpp:367] relu1 -> conv1 (in-place)
I1128 23:15:28.886021 30648 net.cpp:122] Setting up relu1
I1128 23:15:28.886027 30648 net.cpp:129] Top shape: 256 96 55 55 (74342400)
I1128 23:15:28.886031 30648 net.cpp:137] Memory required for data: 753037312
I1128 23:15:28.886036 30648 layer_factory.hpp:77] Creating layer norm1
I1128 23:15:28.886045 30648 net.cpp:84] Creating Layer norm1
I1128 23:15:28.886050 30648 net.cpp:406] norm1 <- conv1
I1128 23:15:28.886056 30648 net.cpp:380] norm1 -> norm1
I1128 23:15:28.886101 30648 net.cpp:122] Setting up norm1
I1128 23:15:28.886109 30648 net.cpp:129] Top shape: 256 96 55 55 (74342400)
I1128 23:15:28.886114 30648 net.cpp:137] Memory required for data: 1050406912
I1128 23:15:28.886118 30648 layer_factory.hpp:77] Creating layer pool1
I1128 23:15:28.886129 30648 net.cpp:84] Creating Layer pool1
I1128 23:15:28.886143 30648 net.cpp:406] pool1 <- norm1
I1128 23:15:28.886150 30648 net.cpp:380] pool1 -> pool1
I1128 23:15:28.907157 30648 net.cpp:122] Setting up pool1
I1128 23:15:28.907356 30648 net.cpp:129] Top shape: 256 96 27 27 (17915904)
I1128 23:15:28.907369 30648 net.cpp:137] Memory required for data: 1122070528
I1128 23:15:28.907393 30648 layer_factory.hpp:77] Creating layer conv2
I1128 23:15:28.907449 30648 net.cpp:84] Creating Layer conv2
I1128 23:15:28.907464 30648 net.cpp:406] conv2 <- pool1
I1128 23:15:28.907485 30648 net.cpp:380] conv2 -> conv2
I1128 23:15:28.922408 30648 net.cpp:122] Setting up conv2
I1128 23:15:28.922485 30648 net.cpp:129] Top shape: 256 256 27 27 (47775744)
I1128 23:15:28.922492 30648 net.cpp:137] Memory required for data: 1313173504
I1128 23:15:28.922520 30648 layer_factory.hpp:77] Creating layer relu2
I1128 23:15:28.922544 30648 net.cpp:84] Creating Layer relu2
I1128 23:15:28.922551 30648 net.cpp:406] relu2 <- conv2
I1128 23:15:28.922569 30648 net.cpp:367] relu2 -> conv2 (in-place)
I1128 23:15:28.922598 30648 net.cpp:122] Setting up relu2
I1128 23:15:28.922605 30648 net.cpp:129] Top shape: 256 256 27 27 (47775744)
I1128 23:15:28.922610 30648 net.cpp:137] Memory required for data: 1504276480
I1128 23:15:28.922628 30648 layer_factory.hpp:77] Creating layer norm2
I1128 23:15:28.922642 30648 net.cpp:84] Creating Layer norm2
I1128 23:15:28.922647 30648 net.cpp:406] norm2 <- conv2
I1128 23:15:28.922655 30648 net.cpp:380] norm2 -> norm2
I1128 23:15:28.922706 30648 net.cpp:122] Setting up norm2
I1128 23:15:28.922714 30648 net.cpp:129] Top shape: 256 256 27 27 (47775744)
I1128 23:15:28.922719 30648 net.cpp:137] Memory required for data: 1695379456
I1128 23:15:28.922724 30648 layer_factory.hpp:77] Creating layer pool2
I1128 23:15:28.922739 30648 net.cpp:84] Creating Layer pool2
I1128 23:15:28.922744 30648 net.cpp:406] pool2 <- norm2
I1128 23:15:28.922751 30648 net.cpp:380] pool2 -> pool2
I1128 23:15:28.922787 30648 net.cpp:122] Setting up pool2
I1128 23:15:28.922796 30648 net.cpp:129] Top shape: 256 256 13 13 (11075584)
I1128 23:15:28.922799 30648 net.cpp:137] Memory required for data: 1739681792
I1128 23:15:28.922803 30648 layer_factory.hpp:77] Creating layer conv3
I1128 23:15:28.922819 30648 net.cpp:84] Creating Layer conv3
I1128 23:15:28.922824 30648 net.cpp:406] conv3 <- pool2
I1128 23:15:28.922832 30648 net.cpp:380] conv3 -> conv3
I1128 23:15:28.951539 30648 net.cpp:122] Setting up conv3
I1128 23:15:28.951557 30648 net.cpp:129] Top shape: 256 384 13 13 (16613376)
I1128 23:15:28.951563 30648 net.cpp:137] Memory required for data: 1806135296
I1128 23:15:28.951575 30648 layer_factory.hpp:77] Creating layer relu3
I1128 23:15:28.951583 30648 net.cpp:84] Creating Layer relu3
I1128 23:15:28.951588 30648 net.cpp:406] relu3 <- conv3
I1128 23:15:28.951594 30648 net.cpp:367] relu3 -> conv3 (in-place)
I1128 23:15:28.951602 30648 net.cpp:122] Setting up relu3
I1128 23:15:28.951609 30648 net.cpp:129] Top shape: 256 384 13 13 (16613376)
I1128 23:15:28.951613 30648 net.cpp:137] Memory required for data: 1872588800
I1128 23:15:28.951617 30648 layer_factory.hpp:77] Creating layer conv4
I1128 23:15:28.951629 30648 net.cpp:84] Creating Layer conv4
I1128 23:15:28.951634 30648 net.cpp:406] conv4 <- conv3
I1128 23:15:28.951642 30648 net.cpp:380] conv4 -> conv4
I1128 23:15:28.973011 30648 net.cpp:122] Setting up conv4
I1128 23:15:28.973029 30648 net.cpp:129] Top shape: 256 384 13 13 (16613376)
I1128 23:15:28.973034 30648 net.cpp:137] Memory required for data: 1939042304
I1128 23:15:28.973042 30648 layer_factory.hpp:77] Creating layer relu4
I1128 23:15:28.973052 30648 net.cpp:84] Creating Layer relu4
I1128 23:15:28.973057 30648 net.cpp:406] relu4 <- conv4
I1128 23:15:28.973063 30648 net.cpp:367] relu4 -> conv4 (in-place)
I1128 23:15:28.973070 30648 net.cpp:122] Setting up relu4
I1128 23:15:28.973076 30648 net.cpp:129] Top shape: 256 384 13 13 (16613376)
I1128 23:15:28.973081 30648 net.cpp:137] Memory required for data: 2005495808
I1128 23:15:28.973085 30648 layer_factory.hpp:77] Creating layer conv5
I1128 23:15:28.973107 30648 net.cpp:84] Creating Layer conv5
I1128 23:15:28.973114 30648 net.cpp:406] conv5 <- conv4
I1128 23:15:28.973132 30648 net.cpp:380] conv5 -> conv5
I1128 23:15:28.987498 30648 net.cpp:122] Setting up conv5
I1128 23:15:28.987517 30648 net.cpp:129] Top shape: 256 256 13 13 (11075584)
I1128 23:15:28.987522 30648 net.cpp:137] Memory required for data: 2049798144
I1128 23:15:28.987534 30648 layer_factory.hpp:77] Creating layer relu5
I1128 23:15:28.987541 30648 net.cpp:84] Creating Layer relu5
I1128 23:15:28.987546 30648 net.cpp:406] relu5 <- conv5
I1128 23:15:28.987553 30648 net.cpp:367] relu5 -> conv5 (in-place)
I1128 23:15:28.987560 30648 net.cpp:122] Setting up relu5
I1128 23:15:28.987566 30648 net.cpp:129] Top shape: 256 256 13 13 (11075584)
I1128 23:15:28.987571 30648 net.cpp:137] Memory required for data: 2094100480
I1128 23:15:28.987576 30648 layer_factory.hpp:77] Creating layer pool5
I1128 23:15:28.987583 30648 net.cpp:84] Creating Layer pool5
I1128 23:15:28.987587 30648 net.cpp:406] pool5 <- conv5
I1128 23:15:28.987593 30648 net.cpp:380] pool5 -> pool5
I1128 23:15:28.987632 30648 net.cpp:122] Setting up pool5
I1128 23:15:28.987640 30648 net.cpp:129] Top shape: 256 256 6 6 (2359296)
I1128 23:15:28.987644 30648 net.cpp:137] Memory required for data: 2103537664
I1128 23:15:28.987648 30648 layer_factory.hpp:77] Creating layer fc6
I1128 23:15:28.987665 30648 net.cpp:84] Creating Layer fc6
I1128 23:15:28.987671 30648 net.cpp:406] fc6 <- pool5
I1128 23:15:28.987679 30648 net.cpp:380] fc6 -> fc6
I1128 23:15:30.244971 30648 net.cpp:122] Setting up fc6
I1128 23:15:30.245023 30648 net.cpp:129] Top shape: 256 4096 (1048576)
I1128 23:15:30.245030 30648 net.cpp:137] Memory required for data: 2107731968
I1128 23:15:30.245043 30648 layer_factory.hpp:77] Creating layer relu6
I1128 23:15:30.245057 30648 net.cpp:84] Creating Layer relu6
I1128 23:15:30.245064 30648 net.cpp:406] relu6 <- fc6
I1128 23:15:30.245074 30648 net.cpp:367] relu6 -> fc6 (in-place)
I1128 23:15:30.245086 30648 net.cpp:122] Setting up relu6
I1128 23:15:30.245092 30648 net.cpp:129] Top shape: 256 4096 (1048576)
I1128 23:15:30.245097 30648 net.cpp:137] Memory required for data: 2111926272
I1128 23:15:30.245101 30648 layer_factory.hpp:77] Creating layer drop6
I1128 23:15:30.245111 30648 net.cpp:84] Creating Layer drop6
I1128 23:15:30.245115 30648 net.cpp:406] drop6 <- fc6
I1128 23:15:30.245121 30648 net.cpp:367] drop6 -> fc6 (in-place)
I1128 23:15:30.245158 30648 net.cpp:122] Setting up drop6
I1128 23:15:30.245167 30648 net.cpp:129] Top shape: 256 4096 (1048576)
I1128 23:15:30.245172 30648 net.cpp:137] Memory required for data: 2116120576
I1128 23:15:30.245175 30648 layer_factory.hpp:77] Creating layer fc7
I1128 23:15:30.245187 30648 net.cpp:84] Creating Layer fc7
I1128 23:15:30.245190 30648 net.cpp:406] fc7 <- fc6
I1128 23:15:30.245198 30648 net.cpp:380] fc7 -> fc7
I1128 23:15:30.891592 30648 net.cpp:122] Setting up fc7
I1128 23:15:30.891690 30648 net.cpp:129] Top shape: 256 4096 (1048576)
I1128 23:15:30.891697 30648 net.cpp:137] Memory required for data: 2120314880
I1128 23:15:30.891715 30648 layer_factory.hpp:77] Creating layer relu7
I1128 23:15:30.891736 30648 net.cpp:84] Creating Layer relu7
I1128 23:15:30.891743 30648 net.cpp:406] relu7 <- fc7
I1128 23:15:30.891755 30648 net.cpp:367] relu7 -> fc7 (in-place)
I1128 23:15:30.891772 30648 net.cpp:122] Setting up relu7
I1128 23:15:30.891779 30648 net.cpp:129] Top shape: 256 4096 (1048576)
I1128 23:15:30.891784 30648 net.cpp:137] Memory required for data: 2124509184
I1128 23:15:30.891789 30648 layer_factory.hpp:77] Creating layer drop7
I1128 23:15:30.891803 30648 net.cpp:84] Creating Layer drop7
I1128 23:15:30.891808 30648 net.cpp:406] drop7 <- fc7
I1128 23:15:30.891814 30648 net.cpp:367] drop7 -> fc7 (in-place)
I1128 23:15:30.891840 30648 net.cpp:122] Setting up drop7
I1128 23:15:30.891849 30648 net.cpp:129] Top shape: 256 4096 (1048576)
I1128 23:15:30.891855 30648 net.cpp:137] Memory required for data: 2128703488
I1128 23:15:30.891860 30648 layer_factory.hpp:77] Creating layer fc8
I1128 23:15:30.891892 30648 net.cpp:84] Creating Layer fc8
I1128 23:15:30.891898 30648 net.cpp:406] fc8 <- fc7
I1128 23:15:30.891929 30648 net.cpp:380] fc8 -> fc8
I1128 23:15:31.035435 30648 net.cpp:122] Setting up fc8
I1128 23:15:31.035487 30648 net.cpp:129] Top shape: 256 1000 (256000)
I1128 23:15:31.035495 30648 net.cpp:137] Memory required for data: 2129727488
I1128 23:15:31.035507 30648 layer_factory.hpp:77] Creating layer loss
I1128 23:15:31.035521 30648 net.cpp:84] Creating Layer loss
I1128 23:15:31.035527 30648 net.cpp:406] loss <- fc8
I1128 23:15:31.035535 30648 net.cpp:406] loss <- label
I1128 23:15:31.035545 30648 net.cpp:380] loss -> loss
I1128 23:15:31.035576 30648 layer_factory.hpp:77] Creating layer loss
…
I1128 23:15:31.037395 30648 net.cpp:294] The NetState phase (1) differed from the phase (0) specified by a rule in layer data
I1128 23:15:31.037569 30648 net.cpp:51] Initializing net from parameters: 
name: "AlexNet"
state {
  phase: TEST
}
layer {
  name: "data"
  type: "Data"
  top: "data"
  top: "label"
  include {
    phase: TEST
  }
  transform_param {
    mirror: false
    crop_size: 227
    mean_file: "/home/styurin/DataSet/227/mean.binaryproto"
  }
  data_param {
    source: "/home/styurin/DataSet/227/val_db"
    batch_size: 32
    backend: LMDB
  }
}
layer {
  name: "conv1"
  type: "Convolution"
  bottom: "data"
  top: "conv1"
  param {
    lr_mult: 1
    decay_mult: 1
  }
  param {
    lr_mult: 2
    decay_mult: 0
  }
  convolution_param {
    num_output: 96
    kernel_size: 11
    stride: 4
    weight_filler {
      type: "gaussian"
      std: 0.01
    }
    bias_filler {
      type: "constant"
      value: 0
    }
  }
}
layer {
  name: "relu1"
  type: "ReLU"
  bottom: "conv1"
  top: "conv1"
}
layer {
  name: "norm1"
  type: "LRN"
  bottom: "conv1"
  top: "norm1"
  lrn_param {
    local_size: 5
    alpha: 0.0001
    beta: 0.75
  }
}
layer {
  name: "pool1"
  type: "Pooling"
  bottom: "norm1"
  top: "pool1"
  pooling_param {
    pool: MAX
    kernel_size: 3
    stride: 2
  }
}
layer {
  name: "conv2"
  type: "Convolution"
  bottom: "pool1"
  top: "conv2"
  param {
    lr_mult: 1
    decay_mult: 1
  }
  param {
    lr_mult: 2
    decay_mult: 0
  }
  convolution_param {
    num_output: 256
    pad: 2
    kernel_size: 5
    group: 2
    weight_filler {
      type: "gaussian"
      std: 0.01
    }
    bias_filler {
      type: "constant"
      value: 0.1
    }
  }
}
layer {
  name: "relu2"
  type: "ReLU"
  bottom: "conv2"
  top: "conv2"
}
layer {
  name: "norm2"
  type: "LRN"
  bottom: "conv2"
  top: "norm2"
  lrn_param {
    local_size: 5
    alpha: 0.0001
    beta: 0.75
  }
}
layer {
  name: "pool2"
  type: "Pooling"
  bottom: "norm2"
  top: "pool2"
  pooling_param {
    pool: MAX
    kernel_size: 3
    stride: 2
  }
}
layer {
  name: "conv3"
  type: "Convolution"
  bottom: "pool2"
  top: "conv3"
  param {
    lr_mult: 1
    decay_mult: 1
  }
  param {
    lr_mult: 2
    decay_mult: 0
  }
  convolution_param {
    num_output: 384
    pad: 1
    kernel_size: 3
    weight_filler {
      type: "gaussian"
      std: 0.01
    }
    bias_filler {
      type: "constant"
      value: 0
    }
  }
}
layer {
  name: "relu3"
  type: "ReLU"
  bottom: "conv3"
  top: "conv3"
}
layer {
  name: "conv4"
  type: "Convolution"
  bottom: "conv3"
  top: "conv4"
  param {
    lr_mult: 1
    decay_mult: 1
  }
  param {
    lr_mult: 2
    decay_mult: 0
  }
  convolution_param {
    num_output: 384
    pad: 1
    kernel_size: 3
    group: 2
    weight_filler {
      type: "gaussian"
      std: 0.01
    }
    bias_filler {
      type: "constant"
      value: 0.1
    }
  }
}
layer {
  name: "relu4"
  type: "ReLU"
  bottom: "conv4"
  top: "conv4"
}
layer {
  name: "conv5"
  type: "Convolution"
  bottom: "conv4"
  top: "conv5"
  param {
    lr_mult: 1
    decay_mult: 1
  }
  param {
    lr_mult: 2
    decay_mult: 0
  }
  convolution_param {
    num_output: 256
    pad: 1
    kernel_size: 3
    group: 2
    weight_filler {
      type: "gaussian"
      std: 0.01
    }
    bias_filler {
      type: "constant"
      value: 0.1
    }
  }
}
layer {
  name: "relu5"
  type: "ReLU"
  bottom: "conv5"
  top: "conv5"
}
layer {
  name: "pool5"
  type: "Pooling"
  bottom: "conv5"
  top: "pool5"
  pooling_param {
    pool: MAX
    kernel_size: 3
    stride: 2
  }
}
layer {
  name: "fc6"
  type: "InnerProduct"
  bottom: "pool5"
  top: "fc6"
  param {
    lr_mult: 1
    decay_mult: 1
  }
  param {
    lr_mult: 2
    decay_mult: 0
  }
  inner_product_param {
    num_output: 4096
    weight_filler {
      type: "gaussian"
      std: 0.005
    }
    bias_filler {
      type: "constant"
      value: 0.1
    }
  }
}
layer {
  name: "relu6"
  type: "ReLU"
  bottom: "fc6"
  top: "fc6"
}
layer {
  name: "drop6"
  type: "Dropout"
  bottom: "fc6"
  top: "fc6"
  dropout_param {
    dropout_ratio: 0.5
  }
}
layer {
  name: "fc7"
  type: "InnerProduct"
  bottom: "fc6"
  top: "fc7"
  param {
    lr_mult: 1
    decay_mult: 1
  }
  param {
    lr_mult: 2
    decay_mult: 0
  }
  inner_product_param {
    num_output: 4096
    weight_filler {
      type: "gaussian"
      std: 0.005
    }
    bias_filler {
      type: "constant"
      value: 0.1
    }
  }
}
layer {
  name: "relu7"
  type: "ReLU"
  bottom: "fc7"
  top: "fc7"
}
layer {
  name: "drop7"
  type: "Dropout"
  bottom: "fc7"
  top: "fc7"
  dropout_param {
    dropout_ratio: 0.5
  }
}
layer {
  name: "fc8"
  type: "InnerProduct"
  bottom: "fc7"
  top: "fc8"
  param {
    lr_mult: 1
    decay_mult: 1
  }
  param {
    lr_mult: 2
    decay_mult: 0
  }
  inner_product_param {
    num_output: 1000
    weight_filler {
      type: "gaussian"
      std: 0.01
    }
    bias_filler {
      type: "constant"
      value: 0
    }
  }
}
layer {
  name: "accuracy"
  type: "Accuracy"
  bottom: "fc8"
  bottom: "label"
  top: "accuracy"
  include {
    phase: TEST
  }
}
layer {
  name: "loss"
  type: "SoftmaxWithLoss"
  bottom: "fc8"
  bottom: "label"
  top: "loss"
}
I1128 23:15:31.037708 30648 layer_factory.hpp:77] Creating layer data
I1128 23:15:31.037786 30648 db_lmdb.cpp:35] Opened lmdb /home/styurin/DataSet/227/val_db
I1128 23:15:31.037814 30648 net.cpp:84] Creating Layer data
I1128 23:15:31.037822 30648 net.cpp:380] data -> data
I1128 23:15:31.037833 30648 net.cpp:380] data -> label
I1128 23:15:31.037842 30648 data_transformer.cpp:25] Loading mean file from: /home/styurin/DataSet/227/mean.binaryproto
I1128 23:15:31.041553 30648 data_layer.cpp:45] output data size: 32,3,227,227
I1128 23:15:31.083528 30648 net.cpp:122] Setting up data
I1128 23:15:31.083575 30648 net.cpp:129] Top shape: 32 3 227 227 (4946784)
I1128 23:15:31.083583 30648 net.cpp:129] Top shape: 32 (32)
I1128 23:15:31.083588 30648 net.cpp:137] Memory required for data: 19787264
I1128 23:15:31.083596 30648 layer_factory.hpp:77] Creating layer label_data_1_split
I1128 23:15:31.083614 30648 net.cpp:84] Creating Layer label_data_1_split
I1128 23:15:31.083621 30648 net.cpp:406] label_data_1_split <- label
I1128 23:15:31.083631 30648 net.cpp:380] label_data_1_split -> label_data_1_split_0
I1128 23:15:31.083643 30648 net.cpp:380] label_data_1_split -> label_data_1_split_1
I1128 23:15:31.083715 30648 net.cpp:122] Setting up label_data_1_split
I1128 23:15:31.083729 30648 net.cpp:129] Top shape: 32 (32)
I1128 23:15:31.083734 30648 net.cpp:129] Top shape: 32 (32)
I1128 23:15:31.083737 30648 net.cpp:137] Memory required for data: 19787520
I1128 23:15:31.083742 30648 layer_factory.hpp:77] Creating layer conv1
I1128 23:15:31.083760 30648 net.cpp:84] Creating Layer conv1
I1128 23:15:31.083765 30648 net.cpp:406] conv1 <- data
I1128 23:15:31.083775 30648 net.cpp:380] conv1 -> conv1
I1128 23:15:31.085110 30648 net.cpp:122] Setting up conv1
I1128 23:15:31.085125 30648 net.cpp:129] Top shape: 32 96 55 55 (9292800)
I1128 23:15:31.085130 30648 net.cpp:137] Memory required for data: 56958720
I1128 23:15:31.085142 30648 layer_factory.hpp:77] Creating layer relu1
I1128 23:15:31.085152 30648 net.cpp:84] Creating Layer relu1
I1128 23:15:31.085156 30648 net.cpp:406] relu1 <- conv1
I1128 23:15:31.085163 30648 net.cpp:367] relu1 -> conv1 (in-place)
I1128 23:15:31.085170 30648 net.cpp:122] Setting up relu1
I1128 23:15:31.085176 30648 net.cpp:129] Top shape: 32 96 55 55 (9292800)
I1128 23:15:31.085181 30648 net.cpp:137] Memory required for data: 94129920
I1128 23:15:31.085186 30648 layer_factory.hpp:77] Creating layer norm1
I1128 23:15:31.085196 30648 net.cpp:84] Creating Layer norm1
I1128 23:15:31.085201 30648 net.cpp:406] norm1 <- conv1
I1128 23:15:31.085207 30648 net.cpp:380] norm1 -> norm1
I1128 23:15:31.085244 30648 net.cpp:122] Setting up norm1
I1128 23:15:31.085253 30648 net.cpp:129] Top shape: 32 96 55 55 (9292800)
I1128 23:15:31.085256 30648 net.cpp:137] Memory required for data: 131301120
I1128 23:15:31.085261 30648 layer_factory.hpp:77] Creating layer pool1
I1128 23:15:31.085270 30648 net.cpp:84] Creating Layer pool1
I1128 23:15:31.085275 30648 net.cpp:406] pool1 <- norm1
I1128 23:15:31.085281 30648 net.cpp:380] pool1 -> pool1
I1128 23:15:31.085316 30648 net.cpp:122] Setting up pool1
I1128 23:15:31.085325 30648 net.cpp:129] Top shape: 32 96 27 27 (2239488)
I1128 23:15:31.085328 30648 net.cpp:137] Memory required for data: 140259072
I1128 23:15:31.085332 30648 layer_factory.hpp:77] Creating layer conv2
I1128 23:15:31.085345 30648 net.cpp:84] Creating Layer conv2
I1128 23:15:31.085348 30648 net.cpp:406] conv2 <- pool1
I1128 23:15:31.085356 30648 net.cpp:380] conv2 -> conv2
I1128 23:15:31.095508 30648 net.cpp:122] Setting up conv2
I1128 23:15:31.095528 30648 net.cpp:129] Top shape: 32 256 27 27 (5971968)
I1128 23:15:31.095533 30648 net.cpp:137] Memory required for data: 164146944
I1128 23:15:31.095544 30648 layer_factory.hpp:77] Creating layer relu2
I1128 23:15:31.095554 30648 net.cpp:84] Creating Layer relu2
I1128 23:15:31.095559 30648 net.cpp:406] relu2 <- conv2
I1128 23:15:31.095566 30648 net.cpp:367] relu2 -> conv2 (in-place)
I1128 23:15:31.095584 30648 net.cpp:122] Setting up relu2
I1128 23:15:31.095592 30648 net.cpp:129] Top shape: 32 256 27 27 (5971968)
I1128 23:15:31.095608 30648 net.cpp:137] Memory required for data: 188034816
I1128 23:15:31.095613 30648 layer_factory.hpp:77] Creating layer norm2
I1128 23:15:31.095623 30648 net.cpp:84] Creating Layer norm2
I1128 23:15:31.095628 30648 net.cpp:406] norm2 <- conv2
I1128 23:15:31.095634 30648 net.cpp:380] norm2 -> norm2
I1128 23:15:31.095674 30648 net.cpp:122] Setting up norm2
I1128 23:15:31.095682 30648 net.cpp:129] Top shape: 32 256 27 27 (5971968)
I1128 23:15:31.095686 30648 net.cpp:137] Memory required for data: 211922688
I1128 23:15:31.095691 30648 layer_factory.hpp:77] Creating layer pool2
I1128 23:15:31.095705 30648 net.cpp:84] Creating Layer pool2
I1128 23:15:31.095712 30648 net.cpp:406] pool2 <- norm2
I1128 23:15:31.095719 30648 net.cpp:380] pool2 -> pool2
I1128 23:15:31.095758 30648 net.cpp:122] Setting up pool2
I1128 23:15:31.095767 30648 net.cpp:129] Top shape: 32 256 13 13 (1384448)
I1128 23:15:31.095770 30648 net.cpp:137] Memory required for data: 217460480
I1128 23:15:31.095775 30648 layer_factory.hpp:77] Creating layer conv3
I1128 23:15:31.095788 30648 net.cpp:84] Creating Layer conv3
I1128 23:15:31.095793 30648 net.cpp:406] conv3 <- pool2
I1128 23:15:31.095799 30648 net.cpp:380] conv3 -> conv3
I1128 23:15:31.124243 30648 net.cpp:122] Setting up conv3
I1128 23:15:31.124271 30648 net.cpp:129] Top shape: 32 384 13 13 (2076672)
I1128 23:15:31.124277 30648 net.cpp:137] Memory required for data: 225767168
I1128 23:15:31.124289 30648 layer_factory.hpp:77] Creating layer relu3
I1128 23:15:31.124300 30648 net.cpp:84] Creating Layer relu3
I1128 23:15:31.124303 30648 net.cpp:406] relu3 <- conv3
I1128 23:15:31.124310 30648 net.cpp:367] relu3 -> conv3 (in-place)
I1128 23:15:31.124318 30648 net.cpp:122] Setting up relu3
I1128 23:15:31.124325 30648 net.cpp:129] Top shape: 32 384 13 13 (2076672)
I1128 23:15:31.124328 30648 net.cpp:137] Memory required for data: 234073856
I1128 23:15:31.124332 30648 layer_factory.hpp:77] Creating layer conv4
I1128 23:15:31.124344 30648 net.cpp:84] Creating Layer conv4
I1128 23:15:31.124348 30648 net.cpp:406] conv4 <- conv3
I1128 23:15:31.124356 30648 net.cpp:380] conv4 -> conv4
I1128 23:15:31.145763 30648 net.cpp:122] Setting up conv4
I1128 23:15:31.145783 30648 net.cpp:129] Top shape: 32 384 13 13 (2076672)
I1128 23:15:31.145788 30648 net.cpp:137] Memory required for data: 242380544
I1128 23:15:31.145797 30648 layer_factory.hpp:77] Creating layer relu4
I1128 23:15:31.145804 30648 net.cpp:84] Creating Layer relu4
I1128 23:15:31.145809 30648 net.cpp:406] relu4 <- conv4
I1128 23:15:31.145817 30648 net.cpp:367] relu4 -> conv4 (in-place)
I1128 23:15:31.145824 30648 net.cpp:122] Setting up relu4
I1128 23:15:31.145830 30648 net.cpp:129] Top shape: 32 384 13 13 (2076672)
I1128 23:15:31.145834 30648 net.cpp:137] Memory required for data: 250687232
I1128 23:15:31.145838 30648 layer_factory.hpp:77] Creating layer conv5
I1128 23:15:31.145849 30648 net.cpp:84] Creating Layer conv5
I1128 23:15:31.145853 30648 net.cpp:406] conv5 <- conv4
I1128 23:15:31.145861 30648 net.cpp:380] conv5 -> conv5
I1128 23:15:31.192028 30648 net.cpp:122] Setting up conv5
I1128 23:15:31.192095 30648 net.cpp:129] Top shape: 32 256 13 13 (1384448)
I1128 23:15:31.192101 30648 net.cpp:137] Memory required for data: 256225024
I1128 23:15:31.192118 30648 layer_factory.hpp:77] Creating layer relu5
I1128 23:15:31.192134 30648 net.cpp:84] Creating Layer relu5
I1128 23:15:31.192147 30648 net.cpp:406] relu5 <- conv5
I1128 23:15:31.192157 30648 net.cpp:367] relu5 -> conv5 (in-place)
I1128 23:15:31.192169 30648 net.cpp:122] Setting up relu5
I1128 23:15:31.192175 30648 net.cpp:129] Top shape: 32 256 13 13 (1384448)
I1128 23:15:31.192180 30648 net.cpp:137] Memory required for data: 261762816
I1128 23:15:31.192184 30648 layer_factory.hpp:77] Creating layer pool5
I1128 23:15:31.192200 30648 net.cpp:84] Creating Layer pool5
I1128 23:15:31.192205 30648 net.cpp:406] pool5 <- conv5
I1128 23:15:31.192212 30648 net.cpp:380] pool5 -> pool5
I1128 23:15:31.192275 30648 net.cpp:122] Setting up pool5
I1128 23:15:31.192284 30648 net.cpp:129] Top shape: 32 256 6 6 (294912)
I1128 23:15:31.192302 30648 net.cpp:137] Memory required for data: 262942464
I1128 23:15:31.192307 30648 layer_factory.hpp:77] Creating layer fc6
I1128 23:15:31.192319 30648 net.cpp:84] Creating Layer fc6
I1128 23:15:31.192324 30648 net.cpp:406] fc6 <- pool5
I1128 23:15:31.192330 30648 net.cpp:380] fc6 -> fc6
I1128 23:15:32.594473 30648 net.cpp:122] Setting up fc6
I1128 23:15:32.594547 30648 net.cpp:129] Top shape: 32 4096 (131072)
I1128 23:15:32.594553 30648 net.cpp:137] Memory required for data: 263466752
I1128 23:15:32.594568 30648 layer_factory.hpp:77] Creating layer relu6
I1128 23:15:32.594585 30648 net.cpp:84] Creating Layer relu6
I1128 23:15:32.594594 30648 net.cpp:406] relu6 <- fc6
I1128 23:15:32.594605 30648 net.cpp:367] relu6 -> fc6 (in-place)
I1128 23:15:32.594619 30648 net.cpp:122] Setting up relu6
I1128 23:15:32.594626 30648 net.cpp:129] Top shape: 32 4096 (131072)
I1128 23:15:32.594631 30648 net.cpp:137] Memory required for data: 263991040
I1128 23:15:32.594636 30648 layer_factory.hpp:77] Creating layer drop6
I1128 23:15:32.594645 30648 net.cpp:84] Creating Layer drop6
I1128 23:15:32.594650 30648 net.cpp:406] drop6 <- fc6
I1128 23:15:32.594656 30648 net.cpp:367] drop6 -> fc6 (in-place)
I1128 23:15:32.594703 30648 net.cpp:122] Setting up drop6
I1128 23:15:32.594713 30648 net.cpp:129] Top shape: 32 4096 (131072)
I1128 23:15:32.594718 30648 net.cpp:137] Memory required for data: 264515328
I1128 23:15:32.594723 30648 layer_factory.hpp:77] Creating layer fc7
I1128 23:15:32.594735 30648 net.cpp:84] Creating Layer fc7
I1128 23:15:32.594740 30648 net.cpp:406] fc7 <- fc6
I1128 23:15:32.594749 30648 net.cpp:380] fc7 -> fc7
I1128 23:15:33.317988 30648 net.cpp:122] Setting up fc7
I1128 23:15:33.318056 30648 net.cpp:129] Top shape: 32 4096 (131072)
I1128 23:15:33.318063 30648 net.cpp:137] Memory required for data: 265039616
I1128 23:15:33.318076 30648 layer_factory.hpp:77] Creating layer relu7
I1128 23:15:33.318094 30648 net.cpp:84] Creating Layer relu7
I1128 23:15:33.318102 30648 net.cpp:406] relu7 <- fc7
I1128 23:15:33.318110 30648 net.cpp:367] relu7 -> fc7 (in-place)
I1128 23:15:33.318122 30648 net.cpp:122] Setting up relu7
I1128 23:15:33.318130 30648 net.cpp:129] Top shape: 32 4096 (131072)
I1128 23:15:33.318133 30648 net.cpp:137] Memory required for data: 265563904
I1128 23:15:33.318138 30648 layer_factory.hpp:77] Creating layer drop7
I1128 23:15:33.318148 30648 net.cpp:84] Creating Layer drop7
I1128 23:15:33.318155 30648 net.cpp:406] drop7 <- fc7
I1128 23:15:33.318159 30648 net.cpp:367] drop7 -> fc7 (in-place)
I1128 23:15:33.318192 30648 net.cpp:122] Setting up drop7
I1128 23:15:33.318199 30648 net.cpp:129] Top shape: 32 4096 (131072)
I1128 23:15:33.318203 30648 net.cpp:137] Memory required for data: 266088192
I1128 23:15:33.318207 30648 layer_factory.hpp:77] Creating layer fc8
I1128 23:15:33.318220 30648 net.cpp:84] Creating Layer fc8
I1128 23:15:33.318225 30648 net.cpp:406] fc8 <- fc7
I1128 23:15:33.318233 30648 net.cpp:380] fc8 -> fc8
I1128 23:15:33.448252 30648 net.cpp:122] Setting up fc8
I1128 23:15:33.448276 30648 net.cpp:129] Top shape: 32 1000 (32000)
I1128 23:15:33.448282 30648 net.cpp:137] Memory required for data: 266216192
I1128 23:15:33.448290 30648 layer_factory.hpp:77] Creating layer fc8_fc8_0_split
I1128 23:15:33.448300 30648 net.cpp:84] Creating Layer fc8_fc8_0_split
I1128 23:15:33.448305 30648 net.cpp:406] fc8_fc8_0_split <- fc8
I1128 23:15:33.448314 30648 net.cpp:380] fc8_fc8_0_split -> fc8_fc8_0_split_0
I1128 23:15:33.448324 30648 net.cpp:380] fc8_fc8_0_split -> fc8_fc8_0_split_1
I1128 23:15:33.448365 30648 net.cpp:122] Setting up fc8_fc8_0_split
I1128 23:15:33.448374 30648 net.cpp:129] Top shape: 32 1000 (32000)
I1128 23:15:33.448379 30648 net.cpp:129] Top shape: 32 1000 (32000)
I1128 23:15:33.448384 30648 net.cpp:137] Memory required for data: 266472192
I1128 23:15:33.448388 30648 layer_factory.hpp:77] Creating layer accuracy
I1128 23:15:33.448411 30648 net.cpp:84] Creating Layer accuracy
I1128 23:15:33.448426 30648 net.cpp:406] accuracy <- fc8_fc8_0_split_0
I1128 23:15:33.448444 30648 net.cpp:406] accuracy <- label_data_1_split_0
I1128 23:15:33.448451 30648 net.cpp:380] accuracy -> accuracy
…
