…
I1130 02:28:13.602358 24320 net.cpp:294] The NetState phase (0) differed from the phase (1) specified by a rule in layer loss3/top-5
I1130 02:28:13.603121 24320 net.cpp:51] Initializing net from parameters: 
name: "GoogleNet"
state {
  phase: TRAIN
  level: 0
  stage: ""
}
layer {
  name: "data"
  type: "Data"
  top: "data"
  top: "label"
  include {
    phase: TRAIN
  }
  transform_param {
    mirror: true
    crop_size: 224
    mean_value: 104
    mean_value: 117
    mean_value: 123
  }
  data_param {
    source: "/home/styurin/DataSet/227/train_db"
    batch_size: 16
    backend: LMDB
  }
}
layer {
  name: "conv1/7x7_s2"
  type: "Convolution"
  bottom: "data"
  top: "conv1/7x7_s2"
  param {
    lr_mult: 1
    decay_mult: 1
  }
  param {
    lr_mult: 2
    decay_mult: 0
  }
  convolution_param {
    num_output: 64
    pad: 3
    kernel_size: 7
    stride: 2
    weight_filler {
      type: "xavier"
    }
    bias_filler {
      type: "constant"
      value: 0.2
    }
  }
}
layer {
  name: "conv1/relu_7x7"
  type: "ReLU"
  bottom: "conv1/7x7_s2"
  top: "conv1/7x7_s2"
}
layer {
  name: "pool1/3x3_s2"
  type: "Pooling"
  bottom: "conv1/7x7_s2"
  top: "pool1/3x3_s2"
  pooling_param {
    pool: MAX
    kernel_size: 3
    stride: 2
  }
}
layer {
  name: "pool1/norm1"
  type: "LRN"
  bottom: "pool1/3x3_s2"
  top: "pool1/norm1"
  lrn_param {
    local_size: 5
    alpha: 0.0001
    beta: 0.75
  }
}
layer {
  name: "conv2/3x3_reduce"
  type: "Convolution"
  bottom: "pool1/norm1"
  top: "conv2/3x3_reduce"
  param {
    lr_mult: 1
    decay_mult: 1
  }
  param {
    lr_mult: 2
    decay_mult: 0
  }
  convolution_param {
    num_output: 64
    kernel_size: 1
    weight_filler {
      type: "xavier"
    }
    bias_filler {
      type: "constant"
      value: 0.2
    }
  }
}
layer {
  name: "conv2/relu_3x3_reduce"
  type: "ReLU"
  bottom: "conv2/3x3_reduce"
  top: "conv2/3x3_reduce"
}
layer {
  name: "conv2/3x3"
  type: "Convolution"
  bottom: "conv2/3x3_reduce"
  top: "conv2/3x3"
  param {
    lr_mult: 1
    decay_mult: 1
  }
  param {
    lr_mult: 2
    decay_mult: 0
  }
  convolution_param {
    num_output: 192
    pad: 1
    kernel_size: 3
    weight_filler {
      type: "xavier"
    }
    bias_filler {
      type: "constant"
      value: 0.2
    }
  }
}
layer {
  name: "conv2/relu_3x3"
  type: "ReLU"
  bottom: "conv2/3x3"
  top: "conv2/3x3"
}
layer {
  name: "conv2/norm2"
  type: "LRN"
  bottom: "conv2/3x3"
  top: "conv2/norm2"
  lrn_param {
    local_size: 5
    alpha: 0.0001
    beta: 0.75
  }
}
layer {
  name: "pool2/3x3_s2"
  type: "Pooling"
  bottom: "conv2/norm2"
  top: "pool2/3x3_s2"
  pooling_param {
    pool: MAX
    kernel_size: 3
    stride: 2
  }
}
layer {
  name: "inception_3a/1x1"
  type: "Convolution"
  bottom: "pool2/3x3_s2"
  top: "inception_3a/1x1"
  param {
    lr_mult: 1
    decay_mult: 1
  }
  param {
    lr_mult: 2
    decay_mult: 0
  }
  convolution_param {
    num_output: 64
    kernel_size: 1
    weight_filler {
      type: "xavier"
    }
    bias_filler {
      type: "constant"
      value: 0.2
    }
  }
}
layer {
  name: "inception_3a/relu_1x1"
  type: "ReLU"
  bottom: "inception_3a/1x1"
  top: "inception_3a/1x1"
}
layer {
  name: "inception_3a/3x3_reduce"
  type: "Convolution"
  bottom: "pool2/3x3_s2"
  top: "inception_3a/3x3_reduce"
  param {
    lr_mult: 1
    decay_mult: 1
  }
  param {
    lr_mult: 2
    decay_mult: 0
  }
  convolution_param {
    num_output: 96
    kernel_size: 1
    weight_filler {
      type: "xavier"
    }
    bias_filler {
      type: "constant"
      value: 0.2
    }
  }
}
layer {
  name: "inception_3a/relu_3x3_reduce"
  type: "ReLU"
  bottom: "inception_3a/3x3_reduce"
  top: "inception_3a/3x3_reduce"
}
layer {
  name: "inception_3a/3x3"
  type: "Convolution"
  bottom: "inception_3a/3x3_reduce"
  top: "inception_3a/3x3"
  param {
    lr_mult: 1
    decay_mult: 1
  }
  param {
    lr_mult: 2
    decay_mult: 0
  }
  convolution_param {
    num_output: 128
    pad: 1
    kernel_size: 3
    weight_filler {
      type: "xavier"
    }
    bias_filler {
      type: "constant"
      value: 0.2
    }
  }
}
layer {
  name: "inception_3a/relu_3x3"
  type: "ReLU"
  bottom: "inception_3a/3x3"
  top: "inception_3a/3x3"
}
layer {
  name: "inception_3a/5x5_reduce"
  type: "Convolution"
  bottom: "pool2/3x3_s2"
  top: "inception_3a/5x5_reduce"
  param {
    lr_mult: 1
    decay_mult: 1
  }
  param {
    lr_mult: 2
    decay_mult: 0
  }
  convolution_param {
    num_output: 16
    kernel_size: 1
    weight_filler {
      type: "xavier"
    }
    bias_filler {
      type: "constant"
      value: 0.2
    }
  }
}
layer {
  name: "inception_3a/relu_5x5_reduce"
  type: "ReLU"
  bottom: "inception_3a/5x5_reduce"
  top: "inception_3a/5x5_reduce"
}
layer {
  name: "inception_3a/5x5"
  type: "Convolution"
  bottom: "inception_3a/5x5_reduce"
  top: "inception_3a/5x5"
  param {
    lr_mult: 1
    decay_mult: 1
  }
  param {
    lr_mult: 2
    decay_mult: 0
  }
  convolution_param {
    num_output: 32
    pad: 2
    kernel_size: 5
    weight_filler {
      type: "xavier"
    }
    bias_filler {
      type: "constant"
      value: 0.2
    }
  }
}
layer {
  name: "inception_3a/relu_5x5"
  type: "ReLU"
  bottom: "inception_3a/5x5"
  top: "inception_3a/5x5"
}
layer {
  name: "inception_3a/pool"
  type: "Pooling"
  bottom: "pool2/3x3_s2"
  top: "inception_3a/pool"
  pooling_param {
    pool: MAX
    kernel_size: 3
    stride: 1
    pad: 1
  }
}
layer {
  name: "inception_3a/pool_proj"
  type: "Convolution"
  bottom: "inception_3a/pool"
  top: "inception_3a/pool_proj"
  param {
    lr_mult: 1
    decay_mult: 1
  }
  param {
    lr_mult: 2
    decay_mult: 0
  }
  convolution_param {
    num_output: 32
    kernel_size: 1
    weight_filler {
      type: "xavier"
    }
    bias_filler {
      type: "constant"
      value: 0.2
    }
  }
}
layer {
  name: "inception_3a/relu_pool_proj"
  type: "ReLU"
  bottom: "inception_3a/pool_proj"
  top: "inception_3a/pool_proj"
}
layer {
  name: "inception_3a/output"
  type: "Concat"
  bottom: "inception_3a/1x1"
  bottom: "inception_3a/3x3"
  bottom: "inception_3a/5x5"
  bottom: "inception_3a/pool_proj"
  top: "inception_3a/output"
}
layer {
  name: "inception_3b/1x1"
  type: "Convolution"
  bottom: "inception_3a/output"
  top: "inception_3b/1x1"
  param {
    lr_mult: 1
    decay_mult: 1
  }
  param {
    lr_mult: 2
    decay_mult: 0
  }
  convolution_param {
    num_output: 128
    kernel_size: 1
    weight_filler {
      type: "xavier"
    }
    bias_filler {
      type: "constant"
      value: 0.2
    }
  }
}
layer {
  name: "inception_3b/relu_1x1"
  type: "ReLU"
  bottom: "inception_3b/1x1"
  top: "inception_3b/1x1"
}
layer {
  name: "inception_3b/3x3_reduce"
  type: "Convolution"
  bottom: "inception_3a/output"
  top: "inception_3b/3x3_reduce"
  param {
    lr_mult: 1
    decay_mult: 1
  }
  param {
    lr_mult: 2
    decay_mult: 0
  }
  convolution_param {
    num_output: 128
    kernel_size: 1
    weight_filler {
      type: "xavier"
    }
    bias_filler {
      type: "constant"
      value: 0.2
    }
  }
}
layer {
  name: "inception_3b/relu_3x3_reduce"
  type: "ReLU"
  bottom: "inception_3b/3x3_reduce"
  top: "inception_3b/3x3_reduce"
}
layer {
  name: "inception_3b/3x3"
  type: "Convolution"
  bottom: "inception_3b/3x3_reduce"
  top: "inception_3b/3x3"
  param {
    lr_mult: 1
    decay_mult: 1
  }
  param {
    lr_mult: 2
    decay_mult: 0
  }
  convolution_param {
    num_output: 192
    pad: 1
    kernel_size: 3
    weight_filler {
      type: "xavier"
    }
    bias_filler {
      type: "constant"
      value: 0.2
    }
  }
}
layer {
  name: "inception_3b/relu_3x3"
  type: "ReLU"
  bottom: "inception_3b/3x3"
  top: "inception_3b/3x3"
}
layer {
  name: "inception_3b/5x5_reduce"
  type: "Convolution"
  bottom: "inception_3a/output"
  top: "inception_3b/5x5_reduce"
  param {
    lr_mult: 1
    decay_mult: 1
  }
  param {
    lr_mult: 2
    decay_mult: 0
  }
  convolution_param {
    num_output: 32
    kernel_size: 1
    weight_filler {
      type: "xavier"
    }
    bias_filler {
      type: "constant"
      value: 0.2
    }
  }
}
layer {
  name: "inception_3b/relu_5x5_reduce"
  type: "ReLU"
  bottom: "inception_3b/5x5_reduce"
  top: "inception_3b/5x5_reduce"
}
layer {
  name: "inception_3b/5x5"
  type: "Convolution"
  bottom: "inception_3b/5x5_reduce"
  top: "inception_3b/5x5"
  param {
    lr_mult: 1
    decay_mult: 1
  }
  param {
    lr_mult: 2
    decay_mult: 0
  }
  convolution_param {
    num_output: 96
    pad: 2
    kernel_size: 5
    weight_filler {
      type: "xavier"
    }
    bias_filler {
      type: "constant"
      value: 0.2
    }
  }
}
layer {
  name: "inception_3b/relu_5x5"
  type: "ReLU"
  bottom: "inception_3b/5x5"
  top: "inception_3b/5x5"
}
layer {
  name: "inception_3b/pool"
  type: "Pooling"
  bottom: "inception_3a/output"
  top: "inception_3b/pool"
  pooling_param {
    pool: MAX
    kernel_size: 3
    stride: 1
    pad: 1
  }
}
layer {
  name: "inception_3b/pool_proj"
  type: "Convolution"
  bottom: "inception_3b/pool"
  top: "inception_3b/pool_proj"
  param {
    lr_mult: 1
    decay_mult: 1
  }
  param {
    lr_mult: 2
    decay_mult: 0
  }
  convolution_param {
    num_output: 64
    kernel_size: 1
    weight_filler {
      type: "xavier"
    }
    bias_filler {
      type: "constant"
      value: 0.2
    }
  }
}
layer {
  name: "inception_3b/relu_pool_proj"
  type: "ReLU"
  bottom: "inception_3b/pool_proj"
  top: "inception_3b/pool_proj"
}
layer {
  name: "inception_3b/output"
  type: "Concat"
  bottom: "inception_3b/1x1"
  bottom: "inception_3b/3x3"
  bottom: "inception_3b/5x5"
  bottom: "inception_3b/pool_proj"
  top: "inception_3b/output"
}
layer {
  name: "pool3/3x3_s2"
  type: "Pooling"
  bottom: "inception_3b/output"
  top: "pool3/3x3_s2"
  pooling_param {
    pool: MAX
    kernel_size: 3
    stride: 2
  }
}
layer {
  name: "inception_4a/1x1"
  type: "Convolution"
  bottom: "pool3/3x3_s2"
  top: "inception_4a/1x1"
  param {
    lr_mult: 1
    decay_mult: 1
  }
  param {
    lr_mult: 2
    decay_mult: 0
  }
  convolution_param {
    num_output: 192
    kernel_size: 1
    weight_filler {
      type: "xavier"
    }
    bias_filler {
      type: "constant"
      value: 0.2
    }
  }
}
layer {
  name: "inception_4a/relu_1x1"
  type: "ReLU"
  bottom: "inception_4a/1x1"
  top: "inception_4a/1x1"
}
layer {
  name: "inception_4a/3x3_reduce"
  type: "Convolution"
  bottom: "pool3/3x3_s2"
  top: "inception_4a/3x3_reduce"
  param {
    lr_mult: 1
    decay_mult: 1
  }
  param {
    lr_mult: 2
    decay_mult: 0
  }
  convolution_param {
    num_output: 96
    kernel_size: 1
    weight_filler {
      type: "xavier"
    }
    bias_filler {
      type: "constant"
      value: 0.2
    }
  }
}
layer {
  name: "inception_4a/relu_3x3_reduce"
  type: "ReLU"
  bottom: "inception_4a/3x3_reduce"
  top: "inception_4a/3x3_reduce"
}
layer {
  name: "inception_4a/3x3"
  type: "Convolution"
  bottom: "inception_4a/3x3_reduce"
  top: "inception_4a/3x3"
  param {
    lr_mult: 1
    decay_mult: 1
  }
  param {
    lr_mult: 2
    decay_mult: 0
  }
  convolution_param {
    num_output: 208
    pad: 1
    kernel_size: 3
    weight_filler {
      type: "xavier"
    }
    bias_filler {
      type: "constant"
      value: 0.2
    }
  }
}
layer {
  name: "inception_4a/relu_3x3"
  type: "ReLU"
  bottom: "inception_4a/3x3"
  top: "inception_4a/3x3"
}
layer {
  name: "inception_4a/5x5_reduce"
  type: "Convolution"
  bottom: "pool3/3x3_s2"
  top: "inception_4a/5x5_reduce"
  param {
    lr_mult: 1
    decay_mult: 1
  }
  param {
    lr_mult: 2
    decay_mult: 0
  }
  convolution_param {
    num_output: 16
    kernel_size: 1
    weight_filler {
      type: "xavier"
    }
    bias_filler {
      type: "constant"
      value: 0.2
    }
  }
}
layer {
  name: "inception_4a/relu_5x5_reduce"
  type: "ReLU"
  bottom: "inception_4a/5x5_reduce"
  top: "inception_4a/5x5_reduce"
}
layer {
  name: "inception_4a/5x5"
  type: "Convolution"
  bottom: "inception_4a/5x5_reduce"
  top: "inception_4a/5x5"
  param {
    lr_mult: 1
    decay_mult: 1
  }
  param {
    lr_mult: 2
    decay_mult: 0
  }
  convolution_param {
    num_output: 48
    pad: 2
    kernel_size: 5
    weight_filler {
      type: "xavier"
    }
    bias_filler {
      type: "constant"
      value: 0.2
    }
  }
}
layer {
  name: "inception_4a/relu_5x5"
  type: "ReLU"
  bottom: "inception_4a/5x5"
  top: "inception_4a/5x5"
}
layer {
  name: "inception_4a/pool"
  type: "Pooling"
  bottom: "pool3/3x3_s2"
  top: "inception_4a/pool"
  pooling_param {
    pool: MAX
    kernel_size: 3
    stride: 1
    pad: 1
  }
}
layer {
  name: "inception_4a/pool_proj"
  type: "Convolution"
  bottom: "inception_4a/pool"
  top: "inception_4a/pool_proj"
  param {
    lr_mult: 1
    decay_mult: 1
  }
  param {
    lr_mult: 2
    decay_mult: 0
  }
  convolution_param {
    num_output: 64
    kernel_size: 1
    weight_filler {
      type: "xavier"
    }
    bias_filler {
      type: "constant"
      value: 0.2
    }
  }
}
layer {
  name: "inception_4a/relu_pool_proj"
  type: "ReLU"
  bottom: "inception_4a/pool_proj"
  top: "inception_4a/pool_proj"
}
layer {
  name: "inception_4a/output"
  type: "Concat"
  bottom: "inception_4a/1x1"
  bottom: "inception_4a/3x3"
  bottom: "inception_4a/5x5"
  bottom: "inception_4a/pool_proj"
  top: "inception_4a/output"
}
layer {
  name: "loss1/ave_pool"
  type: "Pooling"
  bottom: "inception_4a/output"
  top: "loss1/ave_pool"
  pooling_param {
    pool: AVE
    kernel_size: 5
    stride: 3
  }
}
layer {
  name: "loss1/conv"
  type: "Convolution"
  bottom: "loss1/ave_pool"
  top: "loss1/conv"
  param {
    lr_mult: 1
    decay_mult: 1
  }
  param {
    lr_mult: 2
    decay_mult: 0
  }
  convolution_param {
    num_output: 128
    kernel_size: 1
    weight_filler {
      type: "xavier"
    }
    bias_filler {
      type: "constant"
      value: 0.2
    }
  }
}
layer {
  name: "loss1/relu_conv"
  type: "ReLU"
  bottom: "loss1/conv"
  top: "loss1/conv"
}
layer {
  name: "loss1/fc"
  type: "InnerProduct"
  bottom: "loss1/conv"
  top: "loss1/fc"
  param {
    lr_mult: 1
    decay_mult: 1
  }
  param {
    lr_mult: 2
    decay_mult: 0
  }
  inner_product_param {
    num_output: 1024
    weight_filler {
      type: "xavier"
    }
    bias_filler {
      type: "constant"
      value: 0.2
    }
  }
}
layer {
  name: "loss1/relu_fc"
  type: "ReLU"
  bottom: "loss1/fc"
  top: "loss1/fc"
}
layer {
  name: "loss1/drop_fc"
  type: "Dropout"
  bottom: "loss1/fc"
  top: "loss1/fc"
  dropout_param {
    dropout_ratio: 0.7
  }
}
layer {
  name: "loss1/classifier"
  type: "InnerProduct"
  bottom: "loss1/fc"
  top: "loss1/classifier"
  param {
    lr_mult: 1
    decay_mult: 1
  }
  param {
    lr_mult: 2
    decay_mult: 0
  }
  inner_product_param {
    num_output: 1000
    weight_filler {
      type: "xavier"
    }
    bias_filler {
      type: "constant"
      value: 0
    }
  }
}
layer {
  name: "loss1/loss"
  type: "SoftmaxWithLoss"
  bottom: "loss1/classifier"
  bottom: "label"
  top: "loss1/loss1"
  loss_weight: 0.3
}
layer {
  name: "inception_4b/1x1"
  type: "Convolution"
  bottom: "inception_4a/output"
  top: "inception_4b/1x1"
  param {
    lr_mult: 1
    decay_mult: 1
  }
  param {
    lr_mult: 2
    decay_mult: 0
  }
  convolution_param {
    num_output: 160
    kernel_size: 1
    weight_filler {
      type: "xavier"
    }
    bias_filler {
      type: "constant"
      value: 0.2
    }
  }
}
layer {
  name: "inception_4b/relu_1x1"
  type: "ReLU"
  bottom: "inception_4b/1x1"
  top: "inception_4b/1x1"
}
layer {
  name: "inception_4b/3x3_reduce"
  type: "Convolution"
  bottom: "inception_4a/output"
  top: "inception_4b/3x3_reduce"
  param {
    lr_mult: 1
    decay_mult: 1
  }
  param {
    lr_mult: 2
    decay_mult: 0
  }
  convolution_param {
    num_output: 112
    kernel_size: 1
    weight_filler {
      type: "xavier"
    }
    bias_filler {
      type: "constant"
      value: 0.2
    }
  }
}
layer {
  name: "inception_4b/relu_3x3_reduce"
  type: "ReLU"
  bottom: "inception_4b/3x3_reduce"
  top: "inception_4b/3x3_reduce"
}
layer {
  name: "inception_4b/3x3"
  type: "Convolution"
  bottom: "inception_4b/3x3_reduce"
  top: "inception_4b/3x3"
  param {
    lr_mult: 1
    decay_mult: 1
  }
  param {
    lr_mult: 2
    decay_mult: 0
  }
  convolution_param {
    num_output: 224
    pad: 1
    kernel_size: 3
    weight_filler {
      type: "xavier"
    }
    bias_filler {
      type: "constant"
      value: 0.2
    }
  }
}
layer {
  name: "inception_4b/relu_3x3"
  type: "ReLU"
  bottom: "inception_4b/3x3"
  top: "inception_4b/3x3"
}
layer {
  name: "inception_4b/5x5_reduce"
  type: "Convolution"
  bottom: "inception_4a/output"
  top: "inception_4b/5x5_reduce"
  param {
    lr_mult: 1
    decay_mult: 1
  }
  param {
    lr_mult: 2
    decay_mult: 0
  }
  convolution_param {
    num_output: 24
    kernel_size: 1
    weight_filler {
      type: "xavier"
    }
    bias_filler {
      type: "constant"
      value: 0.2
    }
  }
}
layer {
  name: "inception_4b/relu_5x5_reduce"
  type: "ReLU"
  bottom: "inception_4b/5x5_reduce"
  top: "inception_4b/5x5_reduce"
}
layer {
  name: "inception_4b/5x5"
  type: "Convolution"
  bottom: "inception_4b/5x5_reduce"
  top: "inception_4b/5x5"
  param {
    lr_mult: 1
    decay_mult: 1
  }
  param {
    lr_mult: 2
    decay_mult: 0
  }
  convolution_param {
    num_output: 64
    pad: 2
    kernel_size: 5
    weight_filler {
      type: "xavier"
    }
    bias_filler {
      type: "constant"
      value: 0.2
    }
  }
}
layer {
  name: "inception_4b/relu_5x5"
  type: "ReLU"
  bottom: "inception_4b/5x5"
  top: "inception_4b/5x5"
}
layer {
  name: "inception_4b/pool"
  type: "Pooling"
  bottom: "inception_4a/output"
  top: "inception_4b/pool"
  pooling_param {
    pool: MAX
    kernel_size: 3
    stride: 1
    pad: 1
  }
}
layer {
  name: "inception_4b/pool_proj"
  type: "Convolution"
  bottom: "inception_4b/pool"
  top: "inception_4b/pool_proj"
  param {
    lr_mult: 1
    decay_mult: 1
  }
  param {
    lr_mult: 2
    decay_mult: 0
  }
  convolution_param {
    num_output: 64
    kernel_size: 1
    weight_filler {
      type: "xavier"
    }
    bias_filler {
      type: "constant"
      value: 0.2
    }
  }
}
layer {
  name: "inception_4b/relu_pool_proj"
  type: "ReLU"
  bottom: "inception_4b/pool_proj"
  top: "inception_4b/pool_proj"
}
layer {
  name: "inception_4b/output"
  type: "Concat"
  bottom: "inception_4b/1x1"
  bottom: "inception_4b/3x3"
  bottom: "inception_4b/5x5"
  bottom: "inception_4b/pool_proj"
  top: "inception_4b/output"
}
layer {
  name: "inception_4c/1x1"
  type: "Convolution"
  bottom: "inception_4b/output"
  top: "inception_4c/1x1"
  param {
    lr_mult: 1
    decay_mult: 1
  }
  param {
    lr_mult: 2
    decay_mult: 0
  }
  convolution_param {
    num_output: 128
    kernel_size: 1
    weight_filler {
      type: "xavier"
    }
    bias_filler {
      type: "constant"
      value: 0.2
    }
  }
}
layer {
  name: "inception_4c/relu_1x1"
  type: "ReLU"
  bottom: "inception_4c/1x1"
  top: "inception_4c/1x1"
}
layer {
  name: "inception_4c/3x3_reduce"
  type: "Convolution"
  bottom: "inception_4b/output"
  top: "inception_4c/3x3_reduce"
  param {
    lr_mult: 1
    decay_mult: 1
  }
  param {
    lr_mult: 2
    decay_mult: 0
  }
  convolution_param {
    num_output: 128
    kernel_size: 1
    weight_filler {
      type: "xavier"
    }
    bias_filler {
      type: "constant"
      value: 0.2
    }
  }
}
layer {
  name: "inception_4c/relu_3x3_reduce"
  type: "ReLU"
  bottom: "inception_4c/3x3_reduce"
  top: "inception_4c/3x3_reduce"
}
layer {
  name: "inception_4c/3x3"
  type: "Convolution"
  bottom: "inception_4c/3x3_reduce"
  top: "inception_4c/3x3"
  param {
    lr_mult: 1
    decay_mult: 1
  }
  param {
    lr_mult: 2
    decay_mult: 0
  }
  convolution_param {
    num_output: 256
    pad: 1
    kernel_size: 3
    weight_filler {
      type: "xavier"
    }
    bias_filler {
      type: "constant"
      value: 0.2
    }
  }
}
layer {
  name: "inception_4c/relu_3x3"
  type: "ReLU"
  bottom: "inception_4c/3x3"
  top: "inception_4c/3x3"
}
layer {
  name: "inception_4c/5x5_reduce"
  type: "Convolution"
  bottom: "inception_4b/output"
  top: "inception_4c/5x5_reduce"
  param {
    lr_mult: 1
    decay_mult: 1
  }
  param {
    lr_mult: 2
    decay_mult: 0
  }
  convolution_param {
    num_output: 24
    kernel_size: 1
    weight_filler {
      type: "xavier"
    }
    bias_filler {
      type: "constant"
      value: 0.2
    }
  }
}
layer {
  name: "inception_4c/relu_5x5_reduce"
  type: "ReLU"
  bottom: "inception_4c/5x5_reduce"
  top: "inception_4c/5x5_reduce"
}
layer {
  name: "inception_4c/5x5"
  type: "Convolution"
  bottom: "inception_4c/5x5_reduce"
  top: "inception_4c/5x5"
  param {
    lr_mult: 1
    decay_mult: 1
  }
  param {
    lr_mult: 2
    decay_mult: 0
  }
  convolution_param {
    num_output: 64
    pad: 2
    kernel_size: 5
    weight_filler {
      type: "xavier"
    }
    bias_filler {
      type: "constant"
      value: 0.2
    }
  }
}
layer {
  name: "inception_4c/relu_5x5"
  type: "ReLU"
  bottom: "inception_4c/5x5"
  top: "inception_4c/5x5"
}
layer {
  name: "inception_4c/pool"
  type: "Pooling"
  bottom: "inception_4b/output"
  top: "inception_4c/pool"
  pooling_param {
    pool: MAX
    kernel_size: 3
    stride: 1
    pad: 1
  }
}
layer {
  name: "inception_4c/pool_proj"
  type: "Convolution"
  bottom: "inception_4c/pool"
  top: "inception_4c/pool_proj"
  param {
    lr_mult: 1
    decay_mult: 1
  }
  param {
    lr_mult: 2
    decay_mult: 0
  }
  convolution_param {
    num_output: 64
    kernel_size: 1
    weight_filler {
      type: "xavier"
    }
    bias_filler {
      type: "constant"
      value: 0.2
    }
  }
}
layer {
  name: "inception_4c/relu_pool_proj"
  type: "ReLU"
  bottom: "inception_4c/pool_proj"
  top: "inception_4c/pool_proj"
}
layer {
  name: "inception_4c/output"
  type: "Concat"
  bottom: "inception_4c/1x1"
  bottom: "inception_4c/3x3"
  bottom: "inception_4c/5x5"
  bottom: "inception_4c/pool_proj"
  top: "inception_4c/output"
}
layer {
  name: "inception_4d/1x1"
  type: "Convolution"
  bottom: "inception_4c/output"
  top: "inception_4d/1x1"
  param {
    lr_mult: 1
    decay_mult: 1
  }
  param {
    lr_mult: 2
    decay_mult: 0
  }
  convolution_param {
    num_output: 112
    kernel_size: 1
    weight_filler {
      type: "xavier"
    }
    bias_filler {
      type: "constant"
      value: 0.2
    }
  }
}
layer {
  name: "inception_4d/relu_1x1"
  type: "ReLU"
  bottom: "inception_4d/1x1"
  top: "inception_4d/1x1"
}
layer {
  name: "inception_4d/3x3_reduce"
  type: "Convolution"
  bottom: "inception_4c/output"
  top: "inception_4d/3x3_reduce"
  param {
    lr_mult: 1
    decay_mult: 1
  }
  param {
    lr_mult: 2
    decay_mult: 0
  }
  convolution_param {
    num_output: 144
    kernel_size: 1
    weight_filler {
      type: "xavier"
    }
    bias_filler {
      type: "constant"
      value: 0.2
    }
  }
}
layer {
  name: "inception_4d/relu_3x3_reduce"
  type: "ReLU"
  bottom: "inception_4d/3x3_reduce"
  top: "inception_4d/3x3_reduce"
}
layer {
  name: "inception_4d/3x3"
  type: "Convolution"
  bottom: "inception_4d/3x3_reduce"
  top: "inception_4d/3x3"
  param {
    lr_mult: 1
    decay_mult: 1
  }
  param {
    lr_mult: 2
    decay_mult: 0
  }
  convolution_param {
    num_output: 288
    pad: 1
    kernel_size: 3
    weight_filler {
      type: "xavier"
    }
    bias_filler {
      type: "constant"
      value: 0.2
    }
  }
}
layer {
  name: "inception_4d/relu_3x3"
  type: "ReLU"
  bottom: "inception_4d/3x3"
  top: "inception_4d/3x3"
}
layer {
  name: "inception_4d/5x5_reduce"
  type: "Convolution"
  bottom: "inception_4c/output"
  top: "inception_4d/5x5_reduce"
  param {
    lr_mult: 1
    decay_mult: 1
  }
  param {
    lr_mult: 2
    decay_mult: 0
  }
  convolution_param {
    num_output: 32
    kernel_size: 1
    weight_filler {
      type: "xavier"
    }
    bias_filler {
      type: "constant"
      value: 0.2
    }
  }
}
layer {
  name: "inception_4d/relu_5x5_reduce"
  type: "ReLU"
  bottom: "inception_4d/5x5_reduce"
  top: "inception_4d/5x5_reduce"
}
layer {
  name: "inception_4d/5x5"
  type: "Convolution"
  bottom: "inception_4d/5x5_reduce"
  top: "inception_4d/5x5"
  param {
    lr_mult: 1
    decay_mult: 1
  }
  param {
    lr_mult: 2
    decay_mult: 0
  }
  convolution_param {
    num_output: 64
    pad: 2
    kernel_size: 5
    weight_filler {
      type: "xavier"
    }
    bias_filler {
      type: "constant"
      value: 0.2
    }
  }
}
layer {
  name: "inception_4d/relu_5x5"
  type: "ReLU"
  bottom: "inception_4d/5x5"
  top: "inception_4d/5x5"
}
layer {
  name: "inception_4d/pool"
  type: "Pooling"
  bottom: "inception_4c/output"
  top: "inception_4d/pool"
  pooling_param {
    pool: MAX
    kernel_size: 3
    stride: 1
    pad: 1
  }
}
layer {
  name: "inception_4d/pool_proj"
  type: "Convolution"
  bottom: "inception_4d/pool"
  top: "inception_4d/pool_proj"
  param {
    lr_mult: 1
    decay_mult: 1
  }
  param {
    lr_mult: 2
    decay_mult: 0
  }
  convolution_param {
    num_output: 64
    kernel_size: 1
    weight_filler {
      type: "xavier"
    }
    bias_filler {
      type: "constant"
      value: 0.2
    }
  }
}
layer {
  name: "inception_4d/relu_pool_proj"
  type: "ReLU"
  bottom: "inception_4d/pool_proj"
  top: "inception_4d/pool_proj"
}
layer {
  name: "inception_4d/output"
  type: "Concat"
  bottom: "inception_4d/1x1"
  bottom: "inception_4d/3x3"
  bottom: "inception_4d/5x5"
  bottom: "inception_4d/pool_proj"
  top: "inception_4d/output"
}
layer {
  name: "loss2/ave_pool"
  type: "Pooling"
  bottom: "inception_4d/output"
  top: "loss2/ave_pool"
  pooling_param {
    pool: AVE
    kernel_size: 5
    stride: 3
  }
}
layer {
  name: "loss2/conv"
  type: "Convolution"
  bottom: "loss2/ave_pool"
  top: "loss2/conv"
  param {
    lr_mult: 1
    decay_mult: 1
  }
  param {
    lr_mult: 2
    decay_mult: 0
  }
  convolution_param {
    num_output: 128
    kernel_size: 1
    weight_filler {
      type: "xavier"
    }
    bias_filler {
      type: "constant"
      value: 0.2
    }
  }
}
layer {
  name: "loss2/relu_conv"
  type: "ReLU"
  bottom: "loss2/conv"
  top: "loss2/conv"
}
layer {
  name: "loss2/fc"
  type: "InnerProduct"
  bottom: "loss2/conv"
  top: "loss2/fc"
  param {
    lr_mult: 1
    decay_mult: 1
  }
  param {
    lr_mult: 2
    decay_mult: 0
  }
  inner_product_param {
    num_output: 1024
    weight_filler {
      type: "xavier"
    }
    bias_filler {
      type: "constant"
      value: 0.2
    }
  }
}
layer {
  name: "loss2/relu_fc"
  type: "ReLU"
  bottom: "loss2/fc"
  top: "loss2/fc"
}
layer {
  name: "loss2/drop_fc"
  type: "Dropout"
  bottom: "loss2/fc"
  top: "loss2/fc"
  dropout_param {
    dropout_ratio: 0.7
  }
}
layer {
  name: "loss2/classifier"
  type: "InnerProduct"
  bottom: "loss2/fc"
  top: "loss2/classifier"
  param {
    lr_mult: 1
    decay_mult: 1
  }
  param {
    lr_mult: 2
    decay_mult: 0
  }
  inner_product_param {
    num_output: 1000
    weight_filler {
      type: "xavier"
    }
    bias_filler {
      type: "constant"
      value: 0
    }
  }
}
layer {
  name: "loss2/loss"
  type: "SoftmaxWithLoss"
  bottom: "loss2/classifier"
  bottom: "label"
  top: "loss2/loss2"
  loss_weight: 0.3
}
layer {
  name: "inception_4e/1x1"
  type: "Convolution"
  bottom: "inception_4d/output"
  top: "inception_4e/1x1"
  param {
    lr_mult: 1
    decay_mult: 1
  }
  param {
    lr_mult: 2
    decay_mult: 0
  }
  convolution_param {
    num_output: 256
    kernel_size: 1
    weight_filler {
      type: "xavier"
    }
    bias_filler {
      type: "constant"
      value: 0.2
    }
  }
}
layer {
  name: "inception_4e/relu_1x1"
  type: "ReLU"
  bottom: "inception_4e/1x1"
  top: "inception_4e/1x1"
}
layer {
  name: "inception_4e/3x3_reduce"
  type: "Convolution"
  bottom: "inception_4d/output"
  top: "inception_4e/3x3_reduce"
  param {
    lr_mult: 1
    decay_mult: 1
  }
  param {
    lr_mult: 2
    decay_mult: 0
  }
  convolution_param {
    num_output: 160
    kernel_size: 1
    weight_filler {
      type: "xavier"
    }
    bias_filler {
      type: "constant"
      value: 0.2
    }
  }
}
layer {
  name: "inception_4e/relu_3x3_reduce"
  type: "ReLU"
  bottom: "inception_4e/3x3_reduce"
  top: "inception_4e/3x3_reduce"
}
layer {
  name: "inception_4e/3x3"
  type: "Convolution"
  bottom: "inception_4e/3x3_reduce"
  top: "inception_4e/3x3"
  param {
    lr_mult: 1
    decay_mult: 1
  }
  param {
    lr_mult: 2
    decay_mult: 0
  }
  convolution_param {
    num_output: 320
    pad: 1
    kernel_size: 3
    weight_filler {
      type: "xavier"
    }
    bias_filler {
      type: "constant"
      value: 0.2
    }
  }
}
layer {
  name: "inception_4e/relu_3x3"
  type: "ReLU"
  bottom: "inception_4e/3x3"
  top: "inception_4e/3x3"
}
layer {
  name: "inception_4e/5x5_reduce"
  type: "Convolution"
  bottom: "inception_4d/output"
  top: "inception_4e/5x5_reduce"
  param {
    lr_mult: 1
    decay_mult: 1
  }
  param {
    lr_mult: 2
    decay_mult: 0
  }
  convolution_param {
    num_output: 32
    kernel_size: 1
    weight_filler {
      type: "xavier"
    }
    bias_filler {
      type: "constant"
      value: 0.2
    }
  }
}
layer {
  name: "inception_4e/relu_5x5_reduce"
  type: "ReLU"
  bottom: "inception_4e/5x5_reduce"
  top: "inception_4e/5x5_reduce"
}
layer {
  name: "inception_4e/5x5"
  type: "Convolution"
  bottom: "inception_4e/5x5_reduce"
  top: "inception_4e/5x5"
  param {
    lr_mult: 1
    decay_mult: 1
  }
  param {
    lr_mult: 2
    decay_mult: 0
  }
  convolution_param {
    num_output: 128
    pad: 2
    kernel_size: 5
    weight_filler {
      type: "xavier"
    }
    bias_filler {
      type: "constant"
      value: 0.2
    }
  }
}
layer {
  name: "inception_4e/relu_5x5"
  type: "ReLU"
  bottom: "inception_4e/5x5"
  top: "inception_4e/5x5"
}
layer {
  name: "inception_4e/pool"
  type: "Pooling"
  bottom: "inception_4d/output"
  top: "inception_4e/pool"
  pooling_param {
    pool: MAX
    kernel_si
I1130 02:28:13.603828 24320 layer_factory.hpp:77] Creating layer data
I1130 02:28:13.603922 24320 db_lmdb.cpp:35] Opened lmdb /home/styurin/DataSet/227/train_db
I1130 02:28:13.603960 24320 net.cpp:84] Creating Layer data
I1130 02:28:13.603971 24320 net.cpp:380] data -> data
I1130 02:28:13.603992 24320 net.cpp:380] data -> label
I1130 02:28:13.606669 24320 data_layer.cpp:45] output data size: 16,3,224,224
I1130 02:28:13.629123 24320 net.cpp:122] Setting up data
I1130 02:28:13.629155 24320 net.cpp:129] Top shape: 16 3 224 224 (2408448)
I1130 02:28:13.629163 24320 net.cpp:129] Top shape: 16 (16)
I1130 02:28:13.629168 24320 net.cpp:137] Memory required for data: 9633856
I1130 02:28:13.629179 24320 layer_factory.hpp:77] Creating layer label_data_1_split
I1130 02:28:13.629197 24320 net.cpp:84] Creating Layer label_data_1_split
I1130 02:28:13.629205 24320 net.cpp:406] label_data_1_split <- label
I1130 02:28:13.629218 24320 net.cpp:380] label_data_1_split -> label_data_1_split_0
I1130 02:28:13.629230 24320 net.cpp:380] label_data_1_split -> label_data_1_split_1
I1130 02:28:13.629236 24320 net.cpp:380] label_data_1_split -> label_data_1_split_2
I1130 02:28:13.629302 24320 net.cpp:122] Setting up label_data_1_split
I1130 02:28:13.629312 24320 net.cpp:129] Top shape: 16 (16)
I1130 02:28:13.629326 24320 net.cpp:129] Top shape: 16 (16)
I1130 02:28:13.629333 24320 net.cpp:129] Top shape: 16 (16)
I1130 02:28:13.629336 24320 net.cpp:137] Memory required for data: 9634048
I1130 02:28:13.629340 24320 layer_factory.hpp:77] Creating layer conv1/7x7_s2
I1130 02:28:13.629359 24320 net.cpp:84] Creating Layer conv1/7x7_s2
I1130 02:28:13.629364 24320 net.cpp:406] conv1/7x7_s2 <- data
I1130 02:28:13.629371 24320 net.cpp:380] conv1/7x7_s2 -> conv1/7x7_s2
I1130 02:28:13.630138 24320 net.cpp:122] Setting up conv1/7x7_s2
I1130 02:28:13.630156 24320 net.cpp:129] Top shape: 16 64 112 112 (12845056)
I1130 02:28:13.630162 24320 net.cpp:137] Memory required for data: 61014272
I1130 02:28:13.630175 24320 layer_factory.hpp:77] Creating layer conv1/relu_7x7
I1130 02:28:13.630184 24320 net.cpp:84] Creating Layer conv1/relu_7x7
I1130 02:28:13.630189 24320 net.cpp:406] conv1/relu_7x7 <- conv1/7x7_s2
I1130 02:28:13.630197 24320 net.cpp:367] conv1/relu_7x7 -> conv1/7x7_s2 (in-place)
I1130 02:28:13.630204 24320 net.cpp:122] Setting up conv1/relu_7x7
I1130 02:28:13.630210 24320 net.cpp:129] Top shape: 16 64 112 112 (12845056)
I1130 02:28:13.630214 24320 net.cpp:137] Memory required for data: 112394496
I1130 02:28:13.630218 24320 layer_factory.hpp:77] Creating layer pool1/3x3_s2
I1130 02:28:13.630226 24320 net.cpp:84] Creating Layer pool1/3x3_s2
I1130 02:28:13.630231 24320 net.cpp:406] pool1/3x3_s2 <- conv1/7x7_s2
I1130 02:28:13.630237 24320 net.cpp:380] pool1/3x3_s2 -> pool1/3x3_s2
I1130 02:28:13.630285 24320 net.cpp:122] Setting up pool1/3x3_s2
I1130 02:28:13.630293 24320 net.cpp:129] Top shape: 16 64 56 56 (3211264)
I1130 02:28:13.630297 24320 net.cpp:137] Memory required for data: 125239552
I1130 02:28:13.630302 24320 layer_factory.hpp:77] Creating layer pool1/norm1
I1130 02:28:13.630311 24320 net.cpp:84] Creating Layer pool1/norm1
I1130 02:28:13.630316 24320 net.cpp:406] pool1/norm1 <- pool1/3x3_s2
I1130 02:28:13.630321 24320 net.cpp:380] pool1/norm1 -> pool1/norm1
I1130 02:28:13.630352 24320 net.cpp:122] Setting up pool1/norm1
I1130 02:28:13.630358 24320 net.cpp:129] Top shape: 16 64 56 56 (3211264)
I1130 02:28:13.630362 24320 net.cpp:137] Memory required for data: 138084608
I1130 02:28:13.630367 24320 layer_factory.hpp:77] Creating layer conv2/3x3_reduce
I1130 02:28:13.630378 24320 net.cpp:84] Creating Layer conv2/3x3_reduce
I1130 02:28:13.630381 24320 net.cpp:406] conv2/3x3_reduce <- pool1/norm1
I1130 02:28:13.630388 24320 net.cpp:380] conv2/3x3_reduce -> conv2/3x3_reduce
I1130 02:28:13.631050 24320 net.cpp:122] Setting up conv2/3x3_reduce
I1130 02:28:13.631068 24320 net.cpp:129] Top shape: 16 64 56 56 (3211264)
I1130 02:28:13.631073 24320 net.cpp:137] Memory required for data: 150929664
I1130 02:28:13.631083 24320 layer_factory.hpp:77] Creating layer conv2/relu_3x3_reduce
I1130 02:28:13.631091 24320 net.cpp:84] Creating Layer conv2/relu_3x3_reduce
I1130 02:28:13.631096 24320 net.cpp:406] conv2/relu_3x3_reduce <- conv2/3x3_reduce
I1130 02:28:13.631103 24320 net.cpp:367] conv2/relu_3x3_reduce -> conv2/3x3_reduce (in-place)
I1130 02:28:13.631111 24320 net.cpp:122] Setting up conv2/relu_3x3_reduce
I1130 02:28:13.631117 24320 net.cpp:129] Top shape: 16 64 56 56 (3211264)
I1130 02:28:13.631121 24320 net.cpp:137] Memory required for data: 163774720
I1130 02:28:13.631125 24320 layer_factory.hpp:77] Creating layer conv2/3x3
I1130 02:28:13.631135 24320 net.cpp:84] Creating Layer conv2/3x3
I1130 02:28:13.631140 24320 net.cpp:406] conv2/3x3 <- conv2/3x3_reduce
I1130 02:28:13.631147 24320 net.cpp:380] conv2/3x3 -> conv2/3x3
I1130 02:28:13.632884 24320 net.cpp:122] Setting up conv2/3x3
I1130 02:28:13.632906 24320 net.cpp:129] Top shape: 16 192 56 56 (9633792)
I1130 02:28:13.632911 24320 net.cpp:137] Memory required for data: 202309888
I1130 02:28:13.632922 24320 layer_factory.hpp:77] Creating layer conv2/relu_3x3
I1130 02:28:13.632931 24320 net.cpp:84] Creating Layer conv2/relu_3x3
I1130 02:28:13.632936 24320 net.cpp:406] conv2/relu_3x3 <- conv2/3x3
I1130 02:28:13.632949 24320 net.cpp:367] conv2/relu_3x3 -> conv2/3x3 (in-place)
I1130 02:28:13.632964 24320 net.cpp:122] Setting up conv2/relu_3x3
I1130 02:28:13.632972 24320 net.cpp:129] Top shape: 16 192 56 56 (9633792)
I1130 02:28:13.632975 24320 net.cpp:137] Memory required for data: 240845056
I1130 02:28:13.632979 24320 layer_factory.hpp:77] Creating layer conv2/norm2
I1130 02:28:13.632987 24320 net.cpp:84] Creating Layer conv2/norm2
I1130 02:28:13.632992 24320 net.cpp:406] conv2/norm2 <- conv2/3x3
I1130 02:28:13.632997 24320 net.cpp:380] conv2/norm2 -> conv2/norm2
I1130 02:28:13.633033 24320 net.cpp:122] Setting up conv2/norm2
I1130 02:28:13.633040 24320 net.cpp:129] Top shape: 16 192 56 56 (9633792)
I1130 02:28:13.633045 24320 net.cpp:137] Memory required for data: 279380224
I1130 02:28:13.633049 24320 layer_factory.hpp:77] Creating layer pool2/3x3_s2
I1130 02:28:13.633056 24320 net.cpp:84] Creating Layer pool2/3x3_s2
I1130 02:28:13.633060 24320 net.cpp:406] pool2/3x3_s2 <- conv2/norm2
I1130 02:28:13.633067 24320 net.cpp:380] pool2/3x3_s2 -> pool2/3x3_s2
I1130 02:28:13.633096 24320 net.cpp:122] Setting up pool2/3x3_s2
I1130 02:28:13.633105 24320 net.cpp:129] Top shape: 16 192 28 28 (2408448)
I1130 02:28:13.633108 24320 net.cpp:137] Memory required for data: 289014016
I1130 02:28:13.633112 24320 layer_factory.hpp:77] Creating layer pool2/3x3_s2_pool2/3x3_s2_0_split
I1130 02:28:13.633119 24320 net.cpp:84] Creating Layer pool2/3x3_s2_pool2/3x3_s2_0_split
I1130 02:28:13.633123 24320 net.cpp:406] pool2/3x3_s2_pool2/3x3_s2_0_split <- pool2/3x3_s2
I1130 02:28:13.633129 24320 net.cpp:380] pool2/3x3_s2_pool2/3x3_s2_0_split -> pool2/3x3_s2_pool2/3x3_s2_0_split_0
I1130 02:28:13.633136 24320 net.cpp:380] pool2/3x3_s2_pool2/3x3_s2_0_split -> pool2/3x3_s2_pool2/3x3_s2_0_split_1
I1130 02:28:13.633143 24320 net.cpp:380] pool2/3x3_s2_pool2/3x3_s2_0_split -> pool2/3x3_s2_pool2/3x3_s2_0_split_2
I1130 02:28:13.633149 24320 net.cpp:380] pool2/3x3_s2_pool2/3x3_s2_0_split -> pool2/3x3_s2_pool2/3x3_s2_0_split_3
I1130 02:28:13.633193 24320 net.cpp:122] Setting up pool2/3x3_s2_pool2/3x3_s2_0_split
I1130 02:28:13.633200 24320 net.cpp:129] Top shape: 16 192 28 28 (2408448)
I1130 02:28:13.633205 24320 net.cpp:129] Top shape: 16 192 28 28 (2408448)
I1130 02:28:13.633210 24320 net.cpp:129] Top shape: 16 192 28 28 (2408448)
I1130 02:28:13.633214 24320 net.cpp:129] Top shape: 16 192 28 28 (2408448)
I1130 02:28:13.633219 24320 net.cpp:137] Memory required for data: 327549184
I1130 02:28:13.633222 24320 layer_factory.hpp:77] Creating layer inception_3a/1x1
I1130 02:28:13.633232 24320 net.cpp:84] Creating Layer inception_3a/1x1
I1130 02:28:13.633237 24320 net.cpp:406] inception_3a/1x1 <- pool2/3x3_s2_pool2/3x3_s2_0_split_0
I1130 02:28:13.633245 24320 net.cpp:380] inception_3a/1x1 -> inception_3a/1x1
I1130 02:28:13.633970 24320 net.cpp:122] Setting up inception_3a/1x1
I1130 02:28:13.633987 24320 net.cpp:129] Top shape: 16 64 28 28 (802816)
I1130 02:28:13.633993 24320 net.cpp:137] Memory required for data: 330760448
I1130 02:28:13.634001 24320 layer_factory.hpp:77] Creating layer inception_3a/relu_1x1
I1130 02:28:13.634008 24320 net.cpp:84] Creating Layer inception_3a/relu_1x1
I1130 02:28:13.634013 24320 net.cpp:406] inception_3a/relu_1x1 <- inception_3a/1x1
I1130 02:28:13.634019 24320 net.cpp:367] inception_3a/relu_1x1 -> inception_3a/1x1 (in-place)
I1130 02:28:13.634027 24320 net.cpp:122] Setting up inception_3a/relu_1x1
I1130 02:28:13.634033 24320 net.cpp:129] Top shape: 16 64 28 28 (802816)
I1130 02:28:13.634037 24320 net.cpp:137] Memory required for data: 333971712
I1130 02:28:13.634042 24320 layer_factory.hpp:77] Creating layer inception_3a/3x3_reduce
I1130 02:28:13.634053 24320 net.cpp:84] Creating Layer inception_3a/3x3_reduce
I1130 02:28:13.634059 24320 net.cpp:406] inception_3a/3x3_reduce <- pool2/3x3_s2_pool2/3x3_s2_0_split_1
I1130 02:28:13.634066 24320 net.cpp:380] inception_3a/3x3_reduce -> inception_3a/3x3_reduce
I1130 02:28:13.634842 24320 net.cpp:122] Setting up inception_3a/3x3_reduce
I1130 02:28:13.634865 24320 net.cpp:129] Top shape: 16 96 28 28 (1204224)
I1130 02:28:13.634869 24320 net.cpp:137] Memory required for data: 338788608
I1130 02:28:13.634886 24320 layer_factory.hpp:77] Creating layer inception_3a/relu_3x3_reduce
I1130 02:28:13.634897 24320 net.cpp:84] Creating Layer inception_3a/relu_3x3_reduce
I1130 02:28:13.634902 24320 net.cpp:406] inception_3a/relu_3x3_reduce <- inception_3a/3x3_reduce
I1130 02:28:13.634908 24320 net.cpp:367] inception_3a/relu_3x3_reduce -> inception_3a/3x3_reduce (in-place)
I1130 02:28:13.634917 24320 net.cpp:122] Setting up inception_3a/relu_3x3_reduce
I1130 02:28:13.634922 24320 net.cpp:129] Top shape: 16 96 28 28 (1204224)
I1130 02:28:13.634927 24320 net.cpp:137] Memory required for data: 343605504
I1130 02:28:13.634930 24320 layer_factory.hpp:77] Creating layer inception_3a/3x3
I1130 02:28:13.634941 24320 net.cpp:84] Creating Layer inception_3a/3x3
I1130 02:28:13.634945 24320 net.cpp:406] inception_3a/3x3 <- inception_3a/3x3_reduce
I1130 02:28:13.634953 24320 net.cpp:380] inception_3a/3x3 -> inception_3a/3x3
I1130 02:28:13.635932 24320 net.cpp:122] Setting up inception_3a/3x3
I1130 02:28:13.635949 24320 net.cpp:129] Top shape: 16 128 28 28 (1605632)
I1130 02:28:13.635954 24320 net.cpp:137] Memory required for data: 350028032
I1130 02:28:13.635962 24320 layer_factory.hpp:77] Creating layer inception_3a/relu_3x3
I1130 02:28:13.635968 24320 net.cpp:84] Creating Layer inception_3a/relu_3x3
I1130 02:28:13.635972 24320 net.cpp:406] inception_3a/relu_3x3 <- inception_3a/3x3
I1130 02:28:13.635978 24320 net.cpp:367] inception_3a/relu_3x3 -> inception_3a/3x3 (in-place)
I1130 02:28:13.635985 24320 net.cpp:122] Setting up inception_3a/relu_3x3
I1130 02:28:13.635992 24320 net.cpp:129] Top shape: 16 128 28 28 (1605632)
I1130 02:28:13.635995 24320 net.cpp:137] Memory required for data: 356450560
I1130 02:28:13.635999 24320 layer_factory.hpp:77] Creating layer inception_3a/5x5_reduce
I1130 02:28:13.636011 24320 net.cpp:84] Creating Layer inception_3a/5x5_reduce
I1130 02:28:13.636016 24320 net.cpp:406] inception_3a/5x5_reduce <- pool2/3x3_s2_pool2/3x3_s2_0_split_2
I1130 02:28:13.636024 24320 net.cpp:380] inception_3a/5x5_reduce -> inception_3a/5x5_reduce
I1130 02:28:13.636248 24320 net.cpp:122] Setting up inception_3a/5x5_reduce
I1130 02:28:13.636258 24320 net.cpp:129] Top shape: 16 16 28 28 (200704)
I1130 02:28:13.636263 24320 net.cpp:137] Memory required for data: 357253376
I1130 02:28:13.636270 24320 layer_factory.hpp:77] Creating layer inception_3a/relu_5x5_reduce
I1130 02:28:13.636276 24320 net.cpp:84] Creating Layer inception_3a/relu_5x5_reduce
I1130 02:28:13.636281 24320 net.cpp:406] inception_3a/relu_5x5_reduce <- inception_3a/5x5_reduce
I1130 02:28:13.636287 24320 net.cpp:367] inception_3a/relu_5x5_reduce -> inception_3a/5x5_reduce (in-place)
I1130 02:28:13.636294 24320 net.cpp:122] Setting up inception_3a/relu_5x5_reduce
I1130 02:28:13.636299 24320 net.cpp:129] Top shape: 16 16 28 28 (200704)
I1130 02:28:13.636303 24320 net.cpp:137] Memory required for data: 358056192
I1130 02:28:13.636307 24320 layer_factory.hpp:77] Creating layer inception_3a/5x5
I1130 02:28:13.636315 24320 net.cpp:84] Creating Layer inception_3a/5x5
I1130 02:28:13.636320 24320 net.cpp:406] inception_3a/5x5 <- inception_3a/5x5_reduce
I1130 02:28:13.636328 24320 net.cpp:380] inception_3a/5x5 -> inception_3a/5x5
I1130 02:28:13.636608 24320 net.cpp:122] Setting up inception_3a/5x5
I1130 02:28:13.636618 24320 net.cpp:129] Top shape: 16 32 28 28 (401408)
I1130 02:28:13.636623 24320 net.cpp:137] Memory required for data: 359661824
I1130 02:28:13.636629 24320 layer_factory.hpp:77] Creating layer inception_3a/relu_5x5
I1130 02:28:13.636637 24320 net.cpp:84] Creating Layer inception_3a/relu_5x5
I1130 02:28:13.636642 24320 net.cpp:406] inception_3a/relu_5x5 <- inception_3a/5x5
I1130 02:28:13.636647 24320 net.cpp:367] inception_3a/relu_5x5 -> inception_3a/5x5 (in-place)
I1130 02:28:13.636654 24320 net.cpp:122] Setting up inception_3a/relu_5x5
I1130 02:28:13.636659 24320 net.cpp:129] Top shape: 16 32 28 28 (401408)
I1130 02:28:13.636667 24320 net.cpp:137] Memory required for data: 361267456
I1130 02:28:13.636672 24320 layer_factory.hpp:77] Creating layer inception_3a/pool
I1130 02:28:13.636685 24320 net.cpp:84] Creating Layer inception_3a/pool
I1130 02:28:13.636692 24320 net.cpp:406] inception_3a/pool <- pool2/3x3_s2_pool2/3x3_s2_0_split_3
I1130 02:28:13.636698 24320 net.cpp:380] inception_3a/pool -> inception_3a/pool
I1130 02:28:13.636731 24320 net.cpp:122] Setting up inception_3a/pool
I1130 02:28:13.636741 24320 net.cpp:129] Top shape: 16 192 28 28 (2408448)
I1130 02:28:13.636745 24320 net.cpp:137] Memory required for data: 370901248
I1130 02:28:13.636749 24320 layer_factory.hpp:77] Creating layer inception_3a/pool_proj
I1130 02:28:13.636759 24320 net.cpp:84] Creating Layer inception_3a/pool_proj
I1130 02:28:13.636762 24320 net.cpp:406] inception_3a/pool_proj <- inception_3a/pool
I1130 02:28:13.636770 24320 net.cpp:380] inception_3a/pool_proj -> inception_3a/pool_proj
I1130 02:28:13.637001 24320 net.cpp:122] Setting up inception_3a/pool_proj
I1130 02:28:13.637009 24320 net.cpp:129] Top shape: 16 32 28 28 (401408)
I1130 02:28:13.637014 24320 net.cpp:137] Memory required for data: 372506880
I1130 02:28:13.637025 24320 layer_factory.hpp:77] Creating layer inception_3a/relu_pool_proj
I1130 02:28:13.637032 24320 net.cpp:84] Creating Layer inception_3a/relu_pool_proj
I1130 02:28:13.637037 24320 net.cpp:406] inception_3a/relu_pool_proj <- inception_3a/pool_proj
I1130 02:28:13.637043 24320 net.cpp:367] inception_3a/relu_pool_proj -> inception_3a/pool_proj (in-place)
I1130 02:28:13.637050 24320 net.cpp:122] Setting up inception_3a/relu_pool_proj
I1130 02:28:13.637056 24320 net.cpp:129] Top shape: 16 32 28 28 (401408)
I1130 02:28:13.637060 24320 net.cpp:137] Memory required for data: 374112512
I1130 02:28:13.637064 24320 layer_factory.hpp:77] Creating layer inception_3a/output
I1130 02:28:13.637082 24320 net.cpp:84] Creating Layer inception_3a/output
I1130 02:28:13.637089 24320 net.cpp:406] inception_3a/output <- inception_3a/1x1
I1130 02:28:13.637094 24320 net.cpp:406] inception_3a/output <- inception_3a/3x3
I1130 02:28:13.637099 24320 net.cpp:406] inception_3a/output <- inception_3a/5x5
I1130 02:28:13.637102 24320 net.cpp:406] inception_3a/output <- inception_3a/pool_proj
I1130 02:28:13.637109 24320 net.cpp:380] inception_3a/output -> inception_3a/output
I1130 02:28:13.637140 24320 net.cpp:122] Setting up inception_3a/output
I1130 02:28:13.637148 24320 net.cpp:129] Top shape: 16 256 28 28 (3211264)
I1130 02:28:13.637152 24320 net.cpp:137] Memory required for data: 386957568
I1130 02:28:13.637156 24320 layer_factory.hpp:77] Creating layer inception_3a/output_inception_3a/output_0_split
I1130 02:28:13.637163 24320 net.cpp:84] Creating Layer inception_3a/output_inception_3a/output_0_split
I1130 02:28:13.637167 24320 net.cpp:406] inception_3a/output_inception_3a/output_0_split <- inception_3a/output
I1130 02:28:13.637174 24320 net.cpp:380] inception_3a/output_inception_3a/output_0_split -> inception_3a/output_inception_3a/output_0_split_0
I1130 02:28:13.637181 24320 net.cpp:380] inception_3a/output_inception_3a/output_0_split -> inception_3a/output_inception_3a/output_0_split_1
I1130 02:28:13.637187 24320 net.cpp:380] inception_3a/output_inception_3a/output_0_split -> inception_3a/output_inception_3a/output_0_split_2
I1130 02:28:13.637194 24320 net.cpp:380] inception_3a/output_inception_3a/output_0_split -> inception_3a/output_inception_3a/output_0_split_3
I1130 02:28:13.637243 24320 net.cpp:122] Setting up inception_3a/output_inception_3a/output_0_split
I1130 02:28:13.637250 24320 net.cpp:129] Top shape: 16 256 28 28 (3211264)
I1130 02:28:13.637256 24320 net.cpp:129] Top shape: 16 256 28 28 (3211264)
I1130 02:28:13.637261 24320 net.cpp:129] Top shape: 16 256 28 28 (3211264)
I1130 02:28:13.637265 24320 net.cpp:129] Top shape: 16 256 28 28 (3211264)
I1130 02:28:13.637269 24320 net.cpp:137] Memory required for data: 438337792
I1130 02:28:13.637274 24320 layer_factory.hpp:77] Creating layer inception_3b/1x1
I1130 02:28:13.637284 24320 net.cpp:84] Creating Layer inception_3b/1x1
I1130 02:28:13.637293 24320 net.cpp:406] inception_3b/1x1 <- inception_3a/output_inception_3a/output_0_split_0
I1130 02:28:13.637312 24320 net.cpp:380] inception_3b/1x1 -> inception_3b/1x1
I1130 02:28:13.637749 24320 net.cpp:122] Setting up inception_3b/1x1
I1130 02:28:13.637760 24320 net.cpp:129] Top shape: 16 128 28 28 (1605632)
I1130 02:28:13.637765 24320 net.cpp:137] Memory required for data: 444760320
I1130 02:28:13.637773 24320 layer_factory.hpp:77] Creating layer inception_3b/relu_1x1
I1130 02:28:13.637778 24320 net.cpp:84] Creating Layer inception_3b/relu_1x1
I1130 02:28:13.637784 24320 net.cpp:406] inception_3b/relu_1x1 <- inception_3b/1x1
I1130 02:28:13.637790 24320 net.cpp:367] inception_3b/relu_1x1 -> inception_3b/1x1 (in-place)
I1130 02:28:13.637799 24320 net.cpp:122] Setting up inception_3b/relu_1x1
I1130 02:28:13.637804 24320 net.cpp:129] Top shape: 16 128 28 28 (1605632)
I1130 02:28:13.637807 24320 net.cpp:137] Memory required for data: 451182848
I1130 02:28:13.637812 24320 layer_factory.hpp:77] Creating layer inception_3b/3x3_reduce
I1130 02:28:13.637822 24320 net.cpp:84] Creating Layer inception_3b/3x3_reduce
I1130 02:28:13.637827 24320 net.cpp:406] inception_3b/3x3_reduce <- inception_3a/output_inception_3a/output_0_split_1
I1130 02:28:13.637833 24320 net.cpp:380] inception_3b/3x3_reduce -> inception_3b/3x3_reduce
I1130 02:28:13.638243 24320 net.cpp:122] Setting up inception_3b/3x3_reduce
I1130 02:28:13.638253 24320 net.cpp:129] Top shape: 16 128 28 28 (1605632)
I1130 02:28:13.638258 24320 net.cpp:137] Memory required for data: 457605376
I1130 02:28:13.638264 24320 layer_factory.hpp:77] Creating layer inception_3b/relu_3x3_reduce
I1130 02:28:13.638273 24320 net.cpp:84] Creating Layer inception_3b/relu_3x3_reduce
I1130 02:28:13.638278 24320 net.cpp:406] inception_3b/relu_3x3_reduce <- inception_3b/3x3_reduce
I1130 02:28:13.638284 24320 net.cpp:367] inception_3b/relu_3x3_reduce -> inception_3b/3x3_reduce (in-place)
I1130 02:28:13.638290 24320 net.cpp:122] Setting up inception_3b/relu_3x3_reduce
I1130 02:28:13.638296 24320 net.cpp:129] Top shape: 16 128 28 28 (1605632)
I1130 02:28:13.638300 24320 net.cpp:137] Memory required for data: 464027904
I1130 02:28:13.638304 24320 layer_factory.hpp:77] Creating layer inception_3b/3x3
I1130 02:28:13.638317 24320 net.cpp:84] Creating Layer inception_3b/3x3
I1130 02:28:13.638322 24320 net.cpp:406] inception_3b/3x3 <- inception_3b/3x3_reduce
I1130 02:28:13.638330 24320 net.cpp:380] inception_3b/3x3 -> inception_3b/3x3
I1130 02:28:13.640491 24320 net.cpp:122] Setting up inception_3b/3x3
I1130 02:28:13.640509 24320 net.cpp:129] Top shape: 16 192 28 28 (2408448)
I1130 02:28:13.640514 24320 net.cpp:137] Memory required for data: 473661696
I1130 02:28:13.640522 24320 layer_factory.hpp:77] Creating layer inception_3b/relu_3x3
I1130 02:28:13.640528 24320 net.cpp:84] Creating Layer inception_3b/relu_3x3
I1130 02:28:13.640534 24320 net.cpp:406] inception_3b/relu_3x3 <- inception_3b/3x3
I1130 02:28:13.640542 24320 net.cpp:367] inception_3b/relu_3x3 -> inception_3b/3x3 (in-place)
I1130 02:28:13.640549 24320 net.cpp:122] Setting up inception_3b/relu_3x3
I1130 02:28:13.640555 24320 net.cpp:129] Top shape: 16 192 28 28 (2408448)
I1130 02:28:13.640565 24320 net.cpp:137] Memory required for data: 483295488
I1130 02:28:13.640569 24320 layer_factory.hpp:77] Creating layer inception_3b/5x5_reduce
I1130 02:28:13.640581 24320 net.cpp:84] Creating Layer inception_3b/5x5_reduce
I1130 02:28:13.640586 24320 net.cpp:406] inception_3b/5x5_reduce <- inception_3a/output_inception_3a/output_0_split_2
I1130 02:28:13.640594 24320 net.cpp:380] inception_3b/5x5_reduce -> inception_3b/5x5_reduce
I1130 02:28:13.640847 24320 net.cpp:122] Setting up inception_3b/5x5_reduce
I1130 02:28:13.640858 24320 net.cpp:129] Top shape: 16 32 28 28 (401408)
I1130 02:28:13.640862 24320 net.cpp:137] Memory required for data: 484901120
I1130 02:28:13.640869 24320 layer_factory.hpp:77] Creating layer inception_3b/relu_5x5_reduce
I1130 02:28:13.640877 24320 net.cpp:84] Creating Layer inception_3b/relu_5x5_reduce
I1130 02:28:13.640887 24320 net.cpp:406] inception_3b/relu_5x5_reduce <- inception_3b/5x5_reduce
I1130 02:28:13.640898 24320 net.cpp:367] inception_3b/relu_5x5_reduce -> inception_3b/5x5_reduce (in-place)
I1130 02:28:13.640907 24320 net.cpp:122] Setting up inception_3b/relu_5x5_reduce
I1130 02:28:13.640913 24320 net.cpp:129] Top shape: 16 32 28 28 (401408)
I1130 02:28:13.640916 24320 net.cpp:137] Memory required for data: 486506752
I1130 02:28:13.640920 24320 layer_factory.hpp:77] Creating layer inception_3b/5x5
I1130 02:28:13.640930 24320 net.cpp:84] Creating Layer inception_3b/5x5
I1130 02:28:13.640935 24320 net.cpp:406] inception_3b/5x5 <- inception_3b/5x5_reduce
I1130 02:28:13.640944 24320 net.cpp:380] inception_3b/5x5 -> inception_3b/5x5
I1130 02:28:13.642134 24320 net.cpp:122] Setting up inception_3b/5x5
I1130 02:28:13.642153 24320 net.cpp:129] Top shape: 16 96 28 28 (1204224)
I1130 02:28:13.642158 24320 net.cpp:137] Memory required for data: 491323648
I1130 02:28:13.642164 24320 layer_factory.hpp:77] Creating layer inception_3b/relu_5x5
I1130 02:28:13.642172 24320 net.cpp:84] Creating Layer inception_3b/relu_5x5
I1130 02:28:13.642177 24320 net.cpp:406] inception_3b/relu_5x5 <- inception_3b/5x5
I1130 02:28:13.642185 24320 net.cpp:367] inception_3b/relu_5x5 -> inception_3b/5x5 (in-place)
I1130 02:28:13.642194 24320 net.cpp:122] Setting up inception_3b/relu_5x5
I1130 02:28:13.642199 24320 net.cpp:129] Top shape: 16 96 28 28 (1204224)
I1130 02:28:13.642204 24320 net.cpp:137] Memory required for data: 496140544
I1130 02:28:13.642207 24320 layer_factory.hpp:77] Creating layer inception_3b/pool
I1130 02:28:13.642213 24320 net.cpp:84] Creating Layer inception_3b/pool
I1130 02:28:13.642218 24320 net.cpp:406] inception_3b/pool <- inception_3a/output_inception_3a/output_0_split_3
I1130 02:28:13.642225 24320 net.cpp:380] inception_3b/pool -> inception_3b/pool
I1130 02:28:13.642261 24320 net.cpp:122] Setting up inception_3b/pool
I1130 02:28:13.642271 24320 net.cpp:129] Top shape: 16 256 28 28 (3211264)
I1130 02:28:13.642274 24320 net.cpp:137] Memory required for data: 508985600
I1130 02:28:13.642278 24320 layer_factory.hpp:77] Creating layer inception_3b/pool_proj
I1130 02:28:13.642289 24320 net.cpp:84] Creating Layer inception_3b/pool_proj
I1130 02:28:13.642294 24320 net.cpp:406] inception_3b/pool_proj <- inception_3b/pool
I1130 02:28:13.642302 24320 net.cpp:380] inception_3b/pool_proj -> inception_3b/pool_proj
I1130 02:28:13.642612 24320 net.cpp:122] Setting up inception_3b/pool_proj
I1130 02:28:13.642623 24320 net.cpp:129] Top shape: 16 64 28 28 (802816)
I1130 02:28:13.642627 24320 net.cpp:137] Memory required for data: 512196864
I1130 02:28:13.642634 24320 layer_factory.hpp:77] Creating layer inception_3b/relu_pool_proj
I1130 02:28:13.642640 24320 net.cpp:84] Creating Layer inception_3b/relu_pool_proj
I1130 02:28:13.642645 24320 net.cpp:406] inception_3b/relu_pool_proj <- inception_3b/pool_proj
I1130 02:28:13.642652 24320 net.cpp:367] inception_3b/relu_pool_proj -> inception_3b/pool_proj (in-place)
I1130 02:28:13.642660 24320 net.cpp:122] Setting up inception_3b/relu_pool_proj
I1130 02:28:13.642665 24320 net.cpp:129] Top shape: 16 64 28 28 (802816)
I1130 02:28:13.642669 24320 net.cpp:137] Memory required for data: 515408128
I1130 02:28:13.642674 24320 layer_factory.hpp:77] Creating layer inception_3b/output
I1130 02:28:13.642680 24320 net.cpp:84] Creating Layer inception_3b/output
I1130 02:28:13.642684 24320 net.cpp:406] inception_3b/output <- inception_3b/1x1
I1130 02:28:13.642689 24320 net.cpp:406] inception_3b/output <- inception_3b/3x3
I1130 02:28:13.642694 24320 net.cpp:406] inception_3b/output <- inception_3b/5x5
I1130 02:28:13.642699 24320 net.cpp:406] inception_3b/output <- inception_3b/pool_proj
I1130 02:28:13.642704 24320 net.cpp:380] inception_3b/output -> inception_3b/output
I1130 02:28:13.642729 24320 net.cpp:122] Setting up inception_3b/output
I1130 02:28:13.642736 24320 net.cpp:129] Top shape: 16 480 28 28 (6021120)
I1130 02:28:13.642740 24320 net.cpp:137] Memory required for data: 539492608
I1130 02:28:13.642750 24320 layer_factory.hpp:77] Creating layer pool3/3x3_s2
I1130 02:28:13.642756 24320 net.cpp:84] Creating Layer pool3/3x3_s2
I1130 02:28:13.642766 24320 net.cpp:406] pool3/3x3_s2 <- inception_3b/output
I1130 02:28:13.642774 24320 net.cpp:380] pool3/3x3_s2 -> pool3/3x3_s2
I1130 02:28:13.642809 24320 net.cpp:122] Setting up pool3/3x3_s2
I1130 02:28:13.642817 24320 net.cpp:129] Top shape: 16 480 14 14 (1505280)
I1130 02:28:13.642822 24320 net.cpp:137] Memory required for data: 545513728
I1130 02:28:13.642825 24320 layer_factory.hpp:77] Creating layer pool3/3x3_s2_pool3/3x3_s2_0_split
I1130 02:28:13.642832 24320 net.cpp:84] Creating Layer pool3/3x3_s2_pool3/3x3_s2_0_split
I1130 02:28:13.642835 24320 net.cpp:406] pool3/3x3_s2_pool3/3x3_s2_0_split <- pool3/3x3_s2
I1130 02:28:13.642843 24320 net.cpp:380] pool3/3x3_s2_pool3/3x3_s2_0_split -> pool3/3x3_s2_pool3/3x3_s2_0_split_0
I1130 02:28:13.642850 24320 net.cpp:380] pool3/3x3_s2_pool3/3x3_s2_0_split -> pool3/3x3_s2_pool3/3x3_s2_0_split_1
I1130 02:28:13.642856 24320 net.cpp:380] pool3/3x3_s2_pool3/3x3_s2_0_split -> pool3/3x3_s2_pool3/3x3_s2_0_split_2
I1130 02:28:13.642863 24320 net.cpp:380] pool3/3x3_s2_pool3/3x3_s2_0_split -> pool3/3x3_s2_pool3/3x3_s2_0_split_3
I1130 02:28:13.642910 24320 net.cpp:122] Setting up pool3/3x3_s2_pool3/3x3_s2_0_split
I1130 02:28:13.642917 24320 net.cpp:129] Top shape: 16 480 14 14 (1505280)
I1130 02:28:13.642923 24320 net.cpp:129] Top shape: 16 480 14 14 (1505280)
I1130 02:28:13.642928 24320 net.cpp:129] Top shape: 16 480 14 14 (1505280)
I1130 02:28:13.642932 24320 net.cpp:129] Top shape: 16 480 14 14 (1505280)
I1130 02:28:13.642936 24320 net.cpp:137] Memory required for data: 569598208
I1130 02:28:13.642940 24320 layer_factory.hpp:77] Creating layer inception_4a/1x1
I1130 02:28:13.642948 24320 net.cpp:84] Creating Layer inception_4a/1x1
I1130 02:28:13.642953 24320 net.cpp:406] inception_4a/1x1 <- pool3/3x3_s2_pool3/3x3_s2_0_split_0
I1130 02:28:13.642962 24320 net.cpp:380] inception_4a/1x1 -> inception_4a/1x1
I1130 02:28:13.643787 24320 net.cpp:122] Setting up inception_4a/1x1
I1130 02:28:13.643800 24320 net.cpp:129] Top shape: 16 192 14 14 (602112)
I1130 02:28:13.643805 24320 net.cpp:137] Memory required for data: 572006656
I1130 02:28:13.643812 24320 layer_factory.hpp:77] Creating layer inception_4a/relu_1x1
I1130 02:28:13.643821 24320 net.cpp:84] Creating Layer inception_4a/relu_1x1
I1130 02:28:13.643826 24320 net.cpp:406] inception_4a/relu_1x1 <- inception_4a/1x1
I1130 02:28:13.643831 24320 net.cpp:367] inception_4a/relu_1x1 -> inception_4a/1x1 (in-place)
I1130 02:28:13.643837 24320 net.cpp:122] Setting up inception_4a/relu_1x1
I1130 02:28:13.643843 24320 net.cpp:129] Top shape: 16 192 14 14 (602112)
I1130 02:28:13.643847 24320 net.cpp:137] Memory required for data: 574415104
I1130 02:28:13.643851 24320 layer_factory.hpp:77] Creating layer inception_4a/3x3_reduce
I1130 02:28:13.643862 24320 net.cpp:84] Creating Layer inception_4a/3x3_reduce
I1130 02:28:13.643867 24320 net.cpp:406] inception_4a/3x3_reduce <- pool3/3x3_s2_pool3/3x3_s2_0_split_1
I1130 02:28:13.643872 24320 net.cpp:380] inception_4a/3x3_reduce -> inception_4a/3x3_reduce
I1130 02:28:13.644385 24320 net.cpp:122] Setting up inception_4a/3x3_reduce
I1130 02:28:13.644397 24320 net.cpp:129] Top shape: 16 96 14 14 (301056)
I1130 02:28:13.644400 24320 net.cpp:137] Memory required for data: 575619328
I1130 02:28:13.644412 24320 layer_factory.hpp:77] Creating layer inception_4a/relu_3x3_reduce
I1130 02:28:13.644418 24320 net.cpp:84] Creating Layer inception_4a/relu_3x3_reduce
I1130 02:28:13.644423 24320 net.cpp:406] inception_4a/relu_3x3_reduce <- inception_4a/3x3_reduce
I1130 02:28:13.644429 24320 net.cpp:367] inception_4a/relu_3x3_reduce -> inception_4a/3x3_reduce (in-place)
I1130 02:28:13.644439 24320 net.cpp:122] Setting up inception_4a/relu_3x3_reduce
I1130 02:28:13.644445 24320 net.cpp:129] Top shape: 16 96 14 14 (301056)
I1130 02:28:13.644449 24320 net.cpp:137] Memory required for data: 576823552
I1130 02:28:13.644453 24320 layer_factory.hpp:77] Creating layer inception_4a/3x3
I1130 02:28:13.644465 24320 net.cpp:84] Creating Layer inception_4a/3x3
I1130 02:28:13.644475 24320 net.cpp:406] inception_4a/3x3 <- inception_4a/3x3_reduce
I1130 02:28:13.644484 24320 net.cpp:380] inception_4a/3x3 -> inception_4a/3x3
I1130 02:28:13.646364 24320 net.cpp:122] Setting up inception_4a/3x3
I1130 02:28:13.646381 24320 net.cpp:129] Top shape: 16 208 14 14 (652288)
I1130 02:28:13.646386 24320 net.cpp:137] Memory required for data: 579432704
I1130 02:28:13.646394 24320 layer_factory.hpp:77] Creating layer inception_4a/relu_3x3
I1130 02:28:13.646401 24320 net.cpp:84] Creating Layer inception_4a/relu_3x3
I1130 02:28:13.646406 24320 net.cpp:406] inception_4a/relu_3x3 <- inception_4a/3x3
I1130 02:28:13.646414 24320 net.cpp:367] inception_4a/relu_3x3 -> inception_4a/3x3 (in-place)
I1130 02:28:13.646422 24320 net.cpp:122] Setting up inception_4a/relu_3x3
I1130 02:28:13.646428 24320 net.cpp:129] Top shape: 16 208 14 14 (652288)
I1130 02:28:13.646432 24320 net.cpp:137] Memory required for data: 582041856
I1130 02:28:13.646437 24320 layer_factory.hpp:77] Creating layer inception_4a/5x5_reduce
I1130 02:28:13.646445 24320 net.cpp:84] Creating Layer inception_4a/5x5_reduce
I1130 02:28:13.646450 24320 net.cpp:406] inception_4a/5x5_reduce <- pool3/3x3_s2_pool3/3x3_s2_0_split_2
I1130 02:28:13.646461 24320 net.cpp:380] inception_4a/5x5_reduce -> inception_4a/5x5_reduce
I1130 02:28:13.646718 24320 net.cpp:122] Setting up inception_4a/5x5_reduce
I1130 02:28:13.646729 24320 net.cpp:129] Top shape: 16 16 14 14 (50176)
I1130 02:28:13.646733 24320 net.cpp:137] Memory required for data: 582242560
I1130 02:28:13.646740 24320 layer_factory.hpp:77] Creating layer inception_4a/relu_5x5_reduce
I1130 02:28:13.646749 24320 net.cpp:84] Creating Layer inception_4a/relu_5x5_reduce
I1130 02:28:13.646754 24320 net.cpp:406] inception_4a/relu_5x5_reduce <- inception_4a/5x5_reduce
I1130 02:28:13.646759 24320 net.cpp:367] inception_4a/relu_5x5_reduce -> inception_4a/5x5_reduce (in-place)
I1130 02:28:13.646766 24320 net.cpp:122] Setting up inception_4a/relu_5x5_reduce
I1130 02:28:13.646771 24320 net.cpp:129] Top shape: 16 16 14 14 (50176)
I1130 02:28:13.646776 24320 net.cpp:137] Memory required for data: 582443264
I1130 02:28:13.646780 24320 layer_factory.hpp:77] Creating layer inception_4a/5x5
I1130 02:28:13.646790 24320 net.cpp:84] Creating Layer inception_4a/5x5
I1130 02:28:13.646795 24320 net.cpp:406] inception_4a/5x5 <- inception_4a/5x5_reduce
I1130 02:28:13.646816 24320 net.cpp:380] inception_4a/5x5 -> inception_4a/5x5
I1130 02:28:13.647147 24320 net.cpp:122] Setting up inception_4a/5x5
I1130 02:28:13.647158 24320 net.cpp:129] Top shape: 16 48 14 14 (150528)
I1130 02:28:13.647162 24320 net.cpp:137] Memory required for data: 583045376
I1130 02:28:13.647169 24320 layer_factory.hpp:77] Creating layer inception_4a/relu_5x5
I1130 02:28:13.647176 24320 net.cpp:84] Creating Layer inception_4a/relu_5x5
I1130 02:28:13.647181 24320 net.cpp:406] inception_4a/relu_5x5 <- inception_4a/5x5
I1130 02:28:13.647197 24320 net.cpp:367] inception_4a/relu_5x5 -> inception_4a/5x5 (in-place)
I1130 02:28:13.647205 24320 net.cpp:122] Setting up inception_4a/relu_5x5
I1130 02:28:13.647212 24320 net.cpp:129] Top shape: 16 48 14 14 (150528)
I1130 02:28:13.647215 24320 net.cpp:137] Memory required for data: 583647488
I1130 02:28:13.647220 24320 layer_factory.hpp:77] Creating layer inception_4a/pool
I1130 02:28:13.647228 24320 net.cpp:84] Creating Layer inception_4a/pool
I1130 02:28:13.647233 24320 net.cpp:406] inception_4a/pool <- pool3/3x3_s2_pool3/3x3_s2_0_split_3
I1130 02:28:13.647239 24320 net.cpp:380] inception_4a/pool -> inception_4a/pool
I1130 02:28:13.647279 24320 net.cpp:122] Setting up inception_4a/pool
I1130 02:28:13.647287 24320 net.cpp:129] Top shape: 16 480 14 14 (1505280)
I1130 02:28:13.647291 24320 net.cpp:137] Memory required for data: 589668608
I1130 02:28:13.647295 24320 layer_factory.hpp:77] Creating layer inception_4a/pool_proj
I1130 02:28:13.647305 24320 net.cpp:84] Creating Layer inception_4a/pool_proj
I1130 02:28:13.647311 24320 net.cpp:406] inception_4a/pool_proj <- inception_4a/pool
I1130 02:28:13.647323 24320 net.cpp:380] inception_4a/pool_proj -> inception_4a/pool_proj
I1130 02:28:13.647742 24320 net.cpp:122] Setting up inception_4a/pool_proj
I1130 02:28:13.647753 24320 net.cpp:129] Top shape: 16 64 14 14 (200704)
I1130 02:28:13.647758 24320 net.cpp:137] Memory required for data: 590471424
I1130 02:28:13.647764 24320 layer_factory.hpp:77] Creating layer inception_4a/relu_pool_proj
I1130 02:28:13.647770 24320 net.cpp:84] Creating Layer inception_4a/relu_pool_proj
I1130 02:28:13.647775 24320 net.cpp:406] inception_4a/relu_pool_proj <- inception_4a/pool_proj
I1130 02:28:13.647780 24320 net.cpp:367] inception_4a/relu_pool_proj -> inception_4a/pool_proj (in-place)
I1130 02:28:13.647788 24320 net.cpp:122] Setting up inception_4a/relu_pool_proj
I1130 02:28:13.647794 24320 net.cpp:129] Top shape: 16 64 14 14 (200704)
I1130 02:28:13.647797 24320 net.cpp:137] Memory required for data: 591274240
I1130 02:28:13.647801 24320 layer_factory.hpp:77] Creating layer inception_4a/output
I1130 02:28:13.647809 24320 net.cpp:84] Creating Layer inception_4a/output
I1130 02:28:13.647814 24320 net.cpp:406] inception_4a/output <- inception_4a/1x1
I1130 02:28:13.647819 24320 net.cpp:406] inception_4a/output <- inception_4a/3x3
I1130 02:28:13.647825 24320 net.cpp:406] inception_4a/output <- inception_4a/5x5
I1130 02:28:13.647828 24320 net.cpp:406] inception_4a/output <- inception_4a/pool_proj
I1130 02:28:13.647835 24320 net.cpp:380] inception_4a/output -> inception_4a/output
I1130 02:28:13.647862 24320 net.cpp:122] Setting up inception_4a/output
I1130 02:28:13.647871 24320 net.cpp:129] Top shape: 16 512 14 14 (1605632)
I1130 02:28:13.647874 24320 net.cpp:137] Memory required for data: 597696768
I1130 02:28:13.647878 24320 layer_factory.hpp:77] Creating layer inception_4a/output_inception_4a/output_0_split
I1130 02:28:13.647886 24320 net.cpp:84] Creating Layer inception_4a/output_inception_4a/output_0_split
I1130 02:28:13.647891 24320 net.cpp:406] inception_4a/output_inception_4a/output_0_split <- inception_4a/output
I1130 02:28:13.647895 24320 net.cpp:380] inception_4a/output_inception_4a/output_0_split -> inception_4a/output_inception_4a/output_0_split_0
I1130 02:28:13.647904 24320 net.cpp:380] inception_4a/output_inception_4a/output_0_split -> inception_4a/output_inception_4a/output_0_split_1
I1130 02:28:13.647910 24320 net.cpp:380] inception_4a/output_inception_4a/output_0_split -> inception_4a/output_inception_4a/output_0_split_2
I1130 02:28:13.647917 24320 net.cpp:380] inception_4a/output_inception_4a/output_0_split -> inception_4a/output_inception_4a/output_0_split_3
I1130 02:28:13.647923 24320 net.cpp:380] inception_4a/output_inception_4a/output_0_split -> inception_4a/output_inception_4a/output_0_split_4
I1130 02:28:13.647984 24320 net.cpp:122] Setting up inception_4a/output_inception_4a/output_0_split
I1130 02:28:13.647994 24320 net.cpp:129] Top shape: 16 512 14 14 (1605632)
I1130 02:28:13.648000 24320 net.cpp:129] Top shape: 16 512 14 14 (1605632)
I1130 02:28:13.648005 24320 net.cpp:129] Top shape: 16 512 14 14 (1605632)
I1130 02:28:13.648010 24320 net.cpp:129] Top shape: 16 512 14 14 (1605632)
I1130 02:28:13.648013 24320 net.cpp:129] Top shape: 16 512 14 14 (1605632)
I1130 02:28:13.648017 24320 net.cpp:137] Memory required for data: 629809408
I1130 02:28:13.648021 24320 layer_factory.hpp:77] Creating layer loss1/ave_pool
I1130 02:28:13.648027 24320 net.cpp:84] Creating Layer loss1/ave_pool
I1130 02:28:13.648032 24320 net.cpp:406] loss1/ave_pool <- inception_4a/output_inception_4a/output_0_split_0
I1130 02:28:13.648038 24320 net.cpp:380] loss1/ave_pool -> loss1/ave_pool
I1130 02:28:13.648061 24320 net.cpp:122] Setting up loss1/ave_pool
I1130 02:28:13.648068 24320 net.cpp:129] Top shape: 16 512 4 4 (131072)
I1130 02:28:13.648072 24320 net.cpp:137] Memory required for data: 630333696
I1130 02:28:13.648077 24320 layer_factory.hpp:77] Creating layer loss1/conv
I1130 02:28:13.648087 24320 net.cpp:84] Creating Layer loss1/conv
I1130 02:28:13.648092 24320 net.cpp:406] loss1/conv <- loss1/ave_pool
I1130 02:28:13.648102 24320 net.cpp:380] loss1/conv -> loss1/conv
I1130 02:28:13.648743 24320 net.cpp:122] Setting up loss1/conv
I1130 02:28:13.648754 24320 net.cpp:129] Top shape: 16 128 4 4 (32768)
I1130 02:28:13.648758 24320 net.cpp:137] Memory required for data: 630464768
I1130 02:28:13.648766 24320 layer_factory.hpp:77] Creating layer loss1/relu_conv
I1130 02:28:13.648772 24320 net.cpp:84] Creating Layer loss1/relu_conv
I1130 02:28:13.648777 24320 net.cpp:406] loss1/relu_conv <- loss1/conv
I1130 02:28:13.648782 24320 net.cpp:367] loss1/relu_conv -> loss1/conv (in-place)
I1130 02:28:13.648789 24320 net.cpp:122] Setting up loss1/relu_conv
I1130 02:28:13.648794 24320 net.cpp:129] Top shape: 16 128 4 4 (32768)
I1130 02:28:13.648798 24320 net.cpp:137] Memory required for data: 630595840
I1130 02:28:13.648802 24320 layer_factory.hpp:77] Creating layer loss1/fc
I1130 02:28:13.648813 24320 net.cpp:84] Creating Layer loss1/fc
I1130 02:28:13.648818 24320 net.cpp:406] loss1/fc <- loss1/conv
I1130 02:28:13.648824 24320 net.cpp:380] loss1/fc -> loss1/fc
I1130 02:28:13.665486 24320 net.cpp:122] Setting up loss1/fc
I1130 02:28:13.665505 24320 net.cpp:129] Top shape: 16 1024 (16384)
I1130 02:28:13.665510 24320 net.cpp:137] Memory required for data: 630661376
I1130 02:28:13.665518 24320 layer_factory.hpp:77] Creating layer loss1/relu_fc
I1130 02:28:13.665525 24320 net.cpp:84] Creating Layer loss1/relu_fc
I1130 02:28:13.665530 24320 net.cpp:406] loss1/relu_fc <- loss1/fc
I1130 02:28:13.665539 24320 net.cpp:367] loss1/relu_fc -> loss1/fc (in-place)
I1130 02:28:13.665549 24320 net.cpp:122] Setting up loss1/relu_fc
I1130 02:28:13.665555 24320 net.cpp:129] Top shape: 16 1024 (16384)
I1130 02:28:13.665558 24320 net.cpp:137] Memory required for data: 630726912
I1130 02:28:13.665562 24320 layer_factory.hpp:77] Creating layer loss1/drop_fc
I1130 02:28:13.665580 24320 net.cpp:84] Creating Layer loss1/drop_fc
I1130 02:28:13.665585 24320 net.cpp:406] loss1/drop_fc <- loss1/fc
I1130 02:28:13.665591 24320 net.cpp:367] loss1/drop_fc -> loss1/fc (in-place)
I1130 02:28:13.665622 24320 net.cpp:122] Setting up loss1/drop_fc
I1130 02:28:13.665632 24320 net.cpp:129] Top shape: 16 1024 (16384)
I1130 02:28:13.665635 24320 net.cpp:137] Memory required for data: 630792448
I1130 02:28:13.665639 24320 layer_factory.hpp:77] Creating layer loss1/classifier
I1130 02:28:13.665649 24320 net.cpp:84] Creating Layer loss1/classifier
I1130 02:28:13.665653 24320 net.cpp:406] loss1/classifier <- loss1/fc
I1130 02:28:13.665659 24320 net.cpp:380] loss1/classifier -> loss1/classifier
I1130 02:28:13.673981 24320 net.cpp:122] Setting up loss1/classifier
I1130 02:28:13.674000 24320 net.cpp:129] Top shape: 16 1000 (16000)
I1130 02:28:13.674005 24320 net.cpp:137] Memory required for data: 630856448
I1130 02:28:13.674012 24320 layer_factory.hpp:77] Creating layer loss1/loss
I1130 02:28:13.674022 24320 net.cpp:84] Creating Layer loss1/loss
I1130 02:28:13.674027 24320 net.cpp:406] loss1/loss <- loss1/classifier
I1130 02:28:13.674033 24320 net.cpp:406] loss1/loss <- label_data_1_split_0
I1130 02:28:13.674039 24320 net.cpp:380] loss1/loss -> loss1/loss1
I1130 02:28:13.674055 24320 layer_factory.hpp:77] Creating layer loss1/loss
I1130 02:28:13.674160 24320 net.cpp:122] Setting up loss1/loss
I1130 02:28:13.674170 24320 net.cpp:129] Top shape: (1)
I1130 02:28:13.674175 24320 net.cpp:132]     with loss weight 0.3
I1130 02:28:13.674197 24320 net.cpp:137] Memory required for data: 630856452
I1130 02:28:13.674201 24320 layer_factory.hpp:77] Creating layer inception_4b/1x1
I1130 02:28:13.674212 24320 net.cpp:84] Creating Layer inception_4b/1x1
I1130 02:28:13.674217 24320 net.cpp:406] inception_4b/1x1 <- inception_4a/output_inception_4a/output_0_split_1
I1130 02:28:13.674224 24320 net.cpp:380] inception_4b/1x1 -> inception_4b/1x1
I1130 02:28:13.675462 24320 net.cpp:122] Setting up inception_4b/1x1
I1130 02:28:13.675478 24320 net.cpp:129] Top shape: 16 160 14 14 (501760)
I1130 02:28:13.675482 24320 net.cpp:137] Memory required for data: 632863492
I1130 02:28:13.675495 24320 layer_factory.hpp:77] Creating layer inception_4b/relu_1x1
I1130 02:28:13.675503 24320 net.cpp:84] Creating Layer inception_4b/relu_1x1
I1130 02:28:13.675518 24320 net.cpp:406] inception_4b/relu_1x1 <- inception_4b/1x1
I1130 02:28:13.675524 24320 net.cpp:367] inception_4b/relu_1x1 -> inception_4b/1x1 (in-place)
I1130 02:28:13.675531 24320 net.cpp:122] Setting up inception_4b/relu_1x1
I1130 02:28:13.675537 24320 net.cpp:129] Top shape: 16 160 14 14 (501760)
I1130 02:28:13.675541 24320 net.cpp:137] Memory required for data: 634870532
I1130 02:28:13.675545 24320 layer_factory.hpp:77] Creating layer inception_4b/3x3_reduce
I1130 02:28:13.675556 24320 net.cpp:84] Creating Layer inception_4b/3x3_reduce
I1130 02:28:13.675561 24320 net.cpp:406] inception_4b/3x3_reduce <- inception_4a/output_inception_4a/output_0_split_2
I1130 02:28:13.675570 24320 net.cpp:380] inception_4b/3x3_reduce -> inception_4b/3x3_reduce
I1130 02:28:13.676627 24320 net.cpp:122] Setting up inception_4b/3x3_reduce
I1130 02:28:13.676645 24320 net.cpp:129] Top shape: 16 112 14 14 (351232)
I1130 02:28:13.676651 24320 net.cpp:137] Memory required for data: 636275460
I1130 02:28:13.676657 24320 layer_factory.hpp:77] Creating layer inception_4b/relu_3x3_reduce
I1130 02:28:13.676664 24320 net.cpp:84] Creating Layer inception_4b/relu_3x3_reduce
I1130 02:28:13.676671 24320 net.cpp:406] inception_4b/relu_3x3_reduce <- inception_4b/3x3_reduce
I1130 02:28:13.676677 24320 net.cpp:367] inception_4b/relu_3x3_reduce -> inception_4b/3x3_reduce (in-place)
I1130 02:28:13.676687 24320 net.cpp:122] Setting up inception_4b/relu_3x3_reduce
I1130 02:28:13.676692 24320 net.cpp:129] Top shape: 16 112 14 14 (351232)
I1130 02:28:13.676697 24320 net.cpp:137] Memory required for data: 637680388
I1130 02:28:13.676700 24320 layer_factory.hpp:77] Creating layer inception_4b/3x3
I1130 02:28:13.676712 24320 net.cpp:84] Creating Layer inception_4b/3x3
I1130 02:28:13.676717 24320 net.cpp:406] inception_4b/3x3 <- inception_4b/3x3_reduce
I1130 02:28:13.676723 24320 net.cpp:380] inception_4b/3x3 -> inception_4b/3x3
I1130 02:28:13.678912 24320 net.cpp:122] Setting up inception_4b/3x3
I1130 02:28:13.678930 24320 net.cpp:129] Top shape: 16 224 14 14 (702464)
I1130 02:28:13.678934 24320 net.cpp:137] Memory required for data: 640490244
I1130 02:28:13.678942 24320 layer_factory.hpp:77] Creating layer inception_4b/relu_3x3
I1130 02:28:13.678949 24320 net.cpp:84] Creating Layer inception_4b/relu_3x3
I1130 02:28:13.678956 24320 net.cpp:406] inception_4b/relu_3x3 <- inception_4b/3x3
I1130 02:28:13.678961 24320 net.cpp:367] inception_4b/relu_3x3 -> inception_4b/3x3 (in-place)
I1130 02:28:13.678969 24320 net.cpp:122] Setting up inception_4b/relu_3x3
I1130 02:28:13.678975 24320 net.cpp:129] Top shape: 16 224 14 14 (702464)
I1130 02:28:13.678979 24320 net.cpp:137] Memory required for data: 643300100
I1130 02:28:13.678983 24320 layer_factory.hpp:77] Creating layer inception_4b/5x5_reduce
I1130 02:28:13.678995 24320 net.cpp:84] Creating Layer inception_4b/5x5_reduce
I1130 02:28:13.679000 24320 net.cpp:406] inception_4b/5x5_reduce <- inception_4a/output_inception_4a/output_0_split_3
I1130 02:28:13.679008 24320 net.cpp:380] inception_4b/5x5_reduce -> inception_4b/5x5_reduce
I1130 02:28:13.679319 24320 net.cpp:122] Setting up inception_4b/5x5_reduce
I1130 02:28:13.679332 24320 net.cpp:129] Top shape: 16 24 14 14 (75264)
I1130 02:28:13.679337 24320 net.cpp:137] Memory required for data: 643601156
I1130 02:28:13.679344 24320 layer_factory.hpp:77] Creating layer inception_4b/relu_5x5_reduce
I1130 02:28:13.679352 24320 net.cpp:84] Creating Layer inception_4b/relu_5x5_reduce
I1130 02:28:13.679356 24320 net.cpp:406] inception_4b/relu_5x5_reduce <- inception_4b/5x5_reduce
I1130 02:28:13.679363 24320 net.cpp:367] inception_4b/relu_5x5_reduce -> inception_4b/5x5_reduce (in-place)
I1130 02:28:13.679370 24320 net.cpp:122] Setting up inception_4b/relu_5x5_reduce
I1130 02:28:13.679376 24320 net.cpp:129] Top shape: 16 24 14 14 (75264)
I1130 02:28:13.679380 24320 net.cpp:137] Memory required for data: 643902212
I1130 02:28:13.679388 24320 layer_factory.hpp:77] Creating layer inception_4b/5x5
I1130 02:28:13.679399 24320 net.cpp:84] Creating Layer inception_4b/5x5
I1130 02:28:13.679412 24320 net.cpp:406] inception_4b/5x5 <- inception_4b/5x5_reduce
I1130 02:28:13.679419 24320 net.cpp:380] inception_4b/5x5 -> inception_4b/5x5
I1130 02:28:13.679884 24320 net.cpp:122] Setting up inception_4b/5x5
I1130 02:28:13.679896 24320 net.cpp:129] Top shape: 16 64 14 14 (200704)
I1130 02:28:13.679900 24320 net.cpp:137] Memory required for data: 644705028
I1130 02:28:13.679908 24320 layer_factory.hpp:77] Creating layer inception_4b/relu_5x5
I1130 02:28:13.679913 24320 net.cpp:84] Creating Layer inception_4b/relu_5x5
I1130 02:28:13.679919 24320 net.cpp:406] inception_4b/relu_5x5 <- inception_4b/5x5
I1130 02:28:13.679924 24320 net.cpp:367] inception_4b/relu_5x5 -> inception_4b/5x5 (in-place)
I1130 02:28:13.679930 24320 net.cpp:122] Setting up inception_4b/relu_5x5
I1130 02:28:13.679936 24320 net.cpp:129] Top shape: 16 64 14 14 (200704)
I1130 02:28:13.679940 24320 net.cpp:137] Memory required for data: 645507844
I1130 02:28:13.679944 24320 layer_factory.hpp:77] Creating layer inception_4b/pool
I1130 02:28:13.679950 24320 net.cpp:84] Creating Layer inception_4b/pool
I1130 02:28:13.679955 24320 net.cpp:406] inception_4b/pool <- inception_4a/output_inception_4a/output_0_split_4
I1130 02:28:13.679962 24320 net.cpp:380] inception_4b/pool -> inception_4b/pool
I1130 02:28:13.680008 24320 net.cpp:122] Setting up inception_4b/pool
I1130 02:28:13.680019 24320 net.cpp:129] Top shape: 16 512 14 14 (1605632)
I1130 02:28:13.680023 24320 net.cpp:137] Memory required for data: 651930372
I1130 02:28:13.680028 24320 layer_factory.hpp:77] Creating layer inception_4b/pool_proj
I1130 02:28:13.680037 24320 net.cpp:84] Creating Layer inception_4b/pool_proj
I1130 02:28:13.680042 24320 net.cpp:406] inception_4b/pool_proj <- inception_4b/pool
I1130 02:28:13.680049 24320 net.cpp:380] inception_4b/pool_proj -> inception_4b/pool_proj
I1130 02:28:13.680465 24320 net.cpp:122] Setting up inception_4b/pool_proj
I1130 02:28:13.680475 24320 net.cpp:129] Top shape: 16 64 14 14 (200704)
I1130 02:28:13.680480 24320 net.cpp:137] Memory required for data: 652733188
I1130 02:28:13.680486 24320 layer_factory.hpp:77] Creating layer inception_4b/relu_pool_proj
I1130 02:28:13.680492 24320 net.cpp:84] Creating Layer inception_4b/relu_pool_proj
I1130 02:28:13.680497 24320 net.cpp:406] inception_4b/relu_pool_proj <- inception_4b/pool_proj
I1130 02:28:13.680505 24320 net.cpp:367] inception_4b/relu_pool_proj -> inception_4b/pool_proj (in-place)
I1130 02:28:13.680511 24320 net.cpp:122] Setting up inception_4b/relu_pool_proj
I1130 02:28:13.680516 24320 net.cpp:129] Top shape: 16 64 14 14 (200704)
I1130 02:28:13.680521 24320 net.cpp:137] Memory required for data: 653536004
I1130 02:28:13.680526 24320 layer_factory.hpp:77] Creating layer inception_4b/output
I1130 02:28:13.680531 24320 net.cpp:84] Creating Layer inception_4b/output
I1130 02:28:13.680536 24320 net.cpp:406] inception_4b/output <- inception_4b/1x1
I1130 02:28:13.680541 24320 net.cpp:406] inception_4b/output <- inception_4b/3x3
I1130 02:28:13.680546 24320 net.cpp:406] inception_4b/output <- inception_4b/5x5
I1130 02:28:13.680550 24320 net.cpp:406] inception_4b/output <- inception_4b/pool_proj
I1130 02:28:13.680557 24320 net.cpp:380] inception_4b/output -> inception_4b/output
I1130 02:28:13.680600 24320 net.cpp:122] Setting up inception_4b/output
I1130 02:28:13.680608 24320 net.cpp:129] Top shape: 16 512 14 14 (1605632)
I1130 02:28:13.680613 24320 net.cpp:137] Memory required for data: 659958532
I1130 02:28:13.680616 24320 layer_factory.hpp:77] Creating layer inception_4b/output_inception_4b/output_0_split
I1130 02:28:13.680624 24320 net.cpp:84] Creating Layer inception_4b/output_inception_4b/output_0_split
I1130 02:28:13.680627 24320 net.cpp:406] inception_4b/output_inception_4b/output_0_split <- inception_4b/output
I1130 02:28:13.680635 24320 net.cpp:380] inception_4b/output_inception_4b/output_0_split -> inception_4b/output_inception_4b/output_0_split_0
I1130 02:28:13.680646 24320 net.cpp:380] inception_4b/output_inception_4b/output_0_split -> inception_4b/output_inception_4b/output_0_split_1
I1130 02:28:13.680661 24320 net.cpp:380] inception_4b/output_inception_4b/output_0_split -> inception_4b/output_inception_4b/output_0_split_2
I1130 02:28:13.680670 24320 net.cpp:380] inception_4b/output_inception_4b/output_0_split -> inception_4b/output_inception_4b/output_0_split_3
I1130 02:28:13.680725 24320 net.cpp:122] Setting up inception_4b/output_inception_4b/output_0_split
I1130 02:28:13.680740 24320 net.cpp:129] Top shape: 16 512 14 14 (1605632)
I1130 02:28:13.680747 24320 net.cpp:129] Top shape: 16 512 14 14 (1605632)
I1130 02:28:13.680750 24320 net.cpp:129] Top shape: 16 512 14 14 (1605632)
I1130 02:28:13.680755 24320 net.cpp:129] Top shape: 16 512 14 14 (1605632)
I1130 02:28:13.680759 24320 net.cpp:137] Memory required for data: 685648644
I1130 02:28:13.680764 24320 layer_factory.hpp:77] Creating layer inception_4c/1x1
I1130 02:28:13.680775 24320 net.cpp:84] Creating Layer inception_4c/1x1
I1130 02:28:13.680780 24320 net.cpp:406] inception_4c/1x1 <- inception_4b/output_inception_4b/output_0_split_0
I1130 02:28:13.680790 24320 net.cpp:380] inception_4c/1x1 -> inception_4c/1x1
I1130 02:28:13.681432 24320 net.cpp:122] Setting up inception_4c/1x1
I1130 02:28:13.681443 24320 net.cpp:129] Top shape: 16 128 14 14 (401408)
I1130 02:28:13.681447 24320 net.cpp:137] Memory required for data: 687254276
I1130 02:28:13.681454 24320 layer_factory.hpp:77] Creating layer inception_4c/relu_1x1
I1130 02:28:13.681460 24320 net.cpp:84] Creating Layer inception_4c/relu_1x1
I1130 02:28:13.681465 24320 net.cpp:406] inception_4c/relu_1x1 <- inception_4c/1x1
I1130 02:28:13.681471 24320 net.cpp:367] inception_4c/relu_1x1 -> inception_4c/1x1 (in-place)
I1130 02:28:13.681478 24320 net.cpp:122] Setting up inception_4c/relu_1x1
I1130 02:28:13.681483 24320 net.cpp:129] Top shape: 16 128 14 14 (401408)
I1130 02:28:13.681488 24320 net.cpp:137] Memory required for data: 688859908
I1130 02:28:13.681491 24320 layer_factory.hpp:77] Creating layer inception_4c/3x3_reduce
I1130 02:28:13.681500 24320 net.cpp:84] Creating Layer inception_4c/3x3_reduce
I1130 02:28:13.681506 24320 net.cpp:406] inception_4c/3x3_reduce <- inception_4b/output_inception_4b/output_0_split_1
I1130 02:28:13.681514 24320 net.cpp:380] inception_4c/3x3_reduce -> inception_4c/3x3_reduce
I1130 02:28:13.682154 24320 net.cpp:122] Setting up inception_4c/3x3_reduce
I1130 02:28:13.682164 24320 net.cpp:129] Top shape: 16 128 14 14 (401408)
I1130 02:28:13.682169 24320 net.cpp:137] Memory required for data: 690465540
I1130 02:28:13.682175 24320 layer_factory.hpp:77] Creating layer inception_4c/relu_3x3_reduce
I1130 02:28:13.682183 24320 net.cpp:84] Creating Layer inception_4c/relu_3x3_reduce
I1130 02:28:13.682188 24320 net.cpp:406] inception_4c/relu_3x3_reduce <- inception_4c/3x3_reduce
I1130 02:28:13.682194 24320 net.cpp:367] inception_4c/relu_3x3_reduce -> inception_4c/3x3_reduce (in-place)
I1130 02:28:13.682201 24320 net.cpp:122] Setting up inception_4c/relu_3x3_reduce
I1130 02:28:13.682206 24320 net.cpp:129] Top shape: 16 128 14 14 (401408)
I1130 02:28:13.682210 24320 net.cpp:137] Memory required for data: 692071172
I1130 02:28:13.682214 24320 layer_factory.hpp:77] Creating layer inception_4c/3x3
I1130 02:28:13.682224 24320 net.cpp:84] Creating Layer inception_4c/3x3
I1130 02:28:13.682229 24320 net.cpp:406] inception_4c/3x3 <- inception_4c/3x3_reduce
I1130 02:28:13.682236 24320 net.cpp:380] inception_4c/3x3 -> inception_4c/3x3
I1130 02:28:13.684931 24320 net.cpp:122] Setting up inception_4c/3x3
I1130 02:28:13.684950 24320 net.cpp:129] Top shape: 16 256 14 14 (802816)
I1130 02:28:13.684955 24320 net.cpp:137] Memory required for data: 695282436
I1130 02:28:13.684974 24320 layer_factory.hpp:77] Creating layer inception_4c/relu_3x3
I1130 02:28:13.684983 24320 net.cpp:84] Creating Layer inception_4c/relu_3x3
I1130 02:28:13.684989 24320 net.cpp:406] inception_4c/relu_3x3 <- inception_4c/3x3
I1130 02:28:13.684995 24320 net.cpp:367] inception_4c/relu_3x3 -> inception_4c/3x3 (in-place)
I1130 02:28:13.685009 24320 net.cpp:122] Setting up inception_4c/relu_3x3
I1130 02:28:13.685022 24320 net.cpp:129] Top shape: 16 256 14 14 (802816)
I1130 02:28:13.685026 24320 net.cpp:137] Memory required for data: 698493700
I1130 02:28:13.685031 24320 layer_factory.hpp:77] Creating layer inception_4c/5x5_reduce
I1130 02:28:13.685041 24320 net.cpp:84] Creating Layer inception_4c/5x5_reduce
I1130 02:28:13.685047 24320 net.cpp:406] inception_4c/5x5_reduce <- inception_4b/output_inception_4b/output_0_split_2
I1130 02:28:13.685055 24320 net.cpp:380] inception_4c/5x5_reduce -> inception_4c/5x5_reduce
I1130 02:28:13.685354 24320 net.cpp:122] Setting up inception_4c/5x5_reduce
I1130 02:28:13.685365 24320 net.cpp:129] Top shape: 16 24 14 14 (75264)
I1130 02:28:13.685369 24320 net.cpp:137] Memory required for data: 698794756
I1130 02:28:13.685376 24320 layer_factory.hpp:77] Creating layer inception_4c/relu_5x5_reduce
I1130 02:28:13.685384 24320 net.cpp:84] Creating Layer inception_4c/relu_5x5_reduce
I1130 02:28:13.685387 24320 net.cpp:406] inception_4c/relu_5x5_reduce <- inception_4c/5x5_reduce
I1130 02:28:13.685394 24320 net.cpp:367] inception_4c/relu_5x5_reduce -> inception_4c/5x5_reduce (in-place)
I1130 02:28:13.685400 24320 net.cpp:122] Setting up inception_4c/relu_5x5_reduce
I1130 02:28:13.685406 24320 net.cpp:129] Top shape: 16 24 14 14 (75264)
I1130 02:28:13.685410 24320 net.cpp:137] Memory required for data: 699095812
I1130 02:28:13.685415 24320 layer_factory.hpp:77] Creating layer inception_4c/5x5
I1130 02:28:13.685425 24320 net.cpp:84] Creating Layer inception_4c/5x5
I1130 02:28:13.685430 24320 net.cpp:406] inception_4c/5x5 <- inception_4c/5x5_reduce
I1130 02:28:13.685436 24320 net.cpp:380] inception_4c/5x5 -> inception_4c/5x5
I1130 02:28:13.686370 24320 net.cpp:122] Setting up inception_4c/5x5
I1130 02:28:13.686388 24320 net.cpp:129] Top shape: 16 64 14 14 (200704)
I1130 02:28:13.686393 24320 net.cpp:137] Memory required for data: 699898628
I1130 02:28:13.686400 24320 layer_factory.hpp:77] Creating layer inception_4c/relu_5x5
I1130 02:28:13.686408 24320 net.cpp:84] Creating Layer inception_4c/relu_5x5
I1130 02:28:13.686414 24320 net.cpp:406] inception_4c/relu_5x5 <- inception_4c/5x5
I1130 02:28:13.686419 24320 net.cpp:367] inception_4c/relu_5x5 -> inception_4c/5x5 (in-place)
I1130 02:28:13.686427 24320 net.cpp:122] Setting up inception_4c/relu_5x5
I1130 02:28:13.686432 24320 net.cpp:129] Top shape: 16 64 14 14 (200704)
I1130 02:28:13.686436 24320 net.cpp:137] Memory required for data: 700701444
I1130 02:28:13.686441 24320 layer_factory.hpp:77] Creating layer inception_4c/pool
I1130 02:28:13.686450 24320 net.cpp:84] Creating Layer inception_4c/pool
I1130 02:28:13.686455 24320 net.cpp:406] inception_4c/pool <- inception_4b/output_inception_4b/output_0_split_3
I1130 02:28:13.686460 24320 net.cpp:380] inception_4c/pool -> inception_4c/pool
I1130 02:28:13.686501 24320 net.cpp:122] Setting up inception_4c/pool
I1130 02:28:13.686511 24320 net.cpp:129] Top shape: 16 512 14 14 (1605632)
I1130 02:28:13.686514 24320 net.cpp:137] Memory required for data: 707123972
I1130 02:28:13.686518 24320 layer_factory.hpp:77] Creating layer inception_4c/pool_proj
I1130 02:28:13.686529 24320 net.cpp:84] Creating Layer inception_4c/pool_proj
I1130 02:28:13.686534 24320 net.cpp:406] inception_4c/pool_proj <- inception_4c/pool
I1130 02:28:13.686542 24320 net.cpp:380] inception_4c/pool_proj -> inception_4c/pool_proj
I1130 02:28:13.686976 24320 net.cpp:122] Setting up inception_4c/pool_proj
I1130 02:28:13.686988 24320 net.cpp:129] Top shape: 16 64 14 14 (200704)
I1130 02:28:13.686992 24320 net.cpp:137] Memory required for data: 707926788
I1130 02:28:13.687000 24320 layer_factory.hpp:77] Creating layer inception_4c/relu_pool_proj
I1130 02:28:13.687005 24320 net.cpp:84] Creating Layer inception_4c/relu_pool_proj
I1130 02:28:13.687011 24320 net.cpp:406] inception_4c/relu_pool_proj <- inception_4c/pool_proj
I1130 02:28:13.687016 24320 net.cpp:367] inception_4c/relu_pool_proj -> inception_4c/pool_proj (in-place)
I1130 02:28:13.687029 24320 net.cpp:122] Setting up inception_4c/relu_pool_proj
I1130 02:28:13.687036 24320 net.cpp:129] Top shape: 16 64 14 14 (200704)
I1130 02:28:13.687045 24320 net.cpp:137] Memory required for data: 708729604
I1130 02:28:13.687049 24320 layer_factory.hpp:77] Creating layer inception_4c/output
I1130 02:28:13.687058 24320 net.cpp:84] Creating Layer inception_4c/output
I1130 02:28:13.687062 24320 net.cpp:406] inception_4c/output <- inception_4c/1x1
I1130 02:28:13.687068 24320 net.cpp:406] inception_4c/output <- inception_4c/3x3
I1130 02:28:13.687073 24320 net.cpp:406] inception_4c/output <- inception_4c/5x5
I1130 02:28:13.687077 24320 net.cpp:406] inception_4c/output <- inception_4c/pool_proj
I1130 02:28:13.687083 24320 net.cpp:380] inception_4c/output -> inception_4c/output
I1130 02:28:13.687110 24320 net.cpp:122] Setting up inception_4c/output
I1130 02:28:13.687119 24320 net.cpp:129] Top shape: 16 512 14 14 (1605632)
I1130 02:28:13.687122 24320 net.cpp:137] Memory required for data: 715152132
I1130 02:28:13.687127 24320 layer_factory.hpp:77] Creating layer inception_4c/output_inception_4c/output_0_split
I1130 02:28:13.687134 24320 net.cpp:84] Creating Layer inception_4c/output_inception_4c/output_0_split
I1130 02:28:13.687139 24320 net.cpp:406] inception_4c/output_inception_4c/output_0_split <- inception_4c/output
I1130 02:28:13.687145 24320 net.cpp:380] inception_4c/output_inception_4c/output_0_split -> inception_4c/output_inception_4c/output_0_split_0
I1130 02:28:13.687153 24320 net.cpp:380] inception_4c/output_inception_4c/output_0_split -> inception_4c/output_inception_4c/output_0_split_1
I1130 02:28:13.687160 24320 net.cpp:380] inception_4c/output_inception_4c/output_0_split -> inception_4c/output_inception_4c/output_0_split_2
I1130 02:28:13.687166 24320 net.cpp:380] inception_4c/output_inception_4c/output_0_split -> inception_4c/output_inception_4c/output_0_split_3
I1130 02:28:13.687238 24320 net.cpp:122] Setting up inception_4c/output_inception_4c/output_0_split
I1130 02:28:13.687249 24320 net.cpp:129] Top shape: 16 512 14 14 (1605632)
I1130 02:28:13.687255 24320 net.cpp:129] Top shape: 16 512 14 14 (1605632)
I1130 02:28:13.687259 24320 net.cpp:129] Top shape: 16 512 14 14 (1605632)
I1130 02:28:13.687264 24320 net.cpp:129] Top shape: 16 512 14 14 (1605632)
I1130 02:28:13.687268 24320 net.cpp:137] Memory required for data: 740842244
I1130 02:28:13.687273 24320 layer_factory.hpp:77] Creating layer inception_4d/1x1
I1130 02:28:13.687284 24320 net.cpp:84] Creating Layer inception_4d/1x1
I1130 02:28:13.687290 24320 net.cpp:406] inception_4d/1x1 <- inception_4c/output_inception_4c/output_0_split_0
I1130 02:28:13.687297 24320 net.cpp:380] inception_4d/1x1 -> inception_4d/1x1
I1130 02:28:13.687887 24320 net.cpp:122] Setting up inception_4d/1x1
I1130 02:28:13.687899 24320 net.cpp:129] Top shape: 16 112 14 14 (351232)
I1130 02:28:13.687904 24320 net.cpp:137] Memory required for data: 742247172
I1130 02:28:13.687911 24320 layer_factory.hpp:77] Creating layer inception_4d/relu_1x1
I1130 02:28:13.687917 24320 net.cpp:84] Creating Layer inception_4d/relu_1x1
I1130 02:28:13.687922 24320 net.cpp:406] inception_4d/relu_1x1 <- inception_4d/1x1
I1130 02:28:13.687928 24320 net.cpp:367] inception_4d/relu_1x1 -> inception_4d/1x1 (in-place)
I1130 02:28:13.687935 24320 net.cpp:122] Setting up inception_4d/relu_1x1
I1130 02:28:13.687940 24320 net.cpp:129] Top shape: 16 112 14 14 (351232)
I1130 02:28:13.687944 24320 net.cpp:137] Memory required for data: 743652100
I1130 02:28:13.687948 24320 layer_factory.hpp:77] Creating layer inception_4d/3x3_reduce
I1130 02:28:13.687958 24320 net.cpp:84] Creating Layer inception_4d/3x3_reduce
I1130 02:28:13.687963 24320 net.cpp:406] inception_4d/3x3_reduce <- inception_4c/output_inception_4c/output_0_split_1
I1130 02:28:13.687971 24320 net.cpp:380] inception_4d/3x3_reduce -> inception_4d/3x3_reduce
I1130 02:28:13.688719 24320 net.cpp:122] Setting up inception_4d/3x3_reduce
I1130 02:28:13.688731 24320 net.cpp:129] Top shape: 16 144 14 14 (451584)
I1130 02:28:13.688735 24320 net.cpp:137] Memory required for data: 745458436
I1130 02:28:13.688746 24320 layer_factory.hpp:77] Creating layer inception_4d/relu_3x3_reduce
I1130 02:28:13.688760 24320 net.cpp:84] Creating Layer inception_4d/relu_3x3_reduce
I1130 02:28:13.688765 24320 net.cpp:406] inception_4d/relu_3x3_reduce <- inception_4d/3x3_reduce
I1130 02:28:13.688771 24320 net.cpp:367] inception_4d/relu_3x3_reduce -> inception_4d/3x3_reduce (in-place)
I1130 02:28:13.688781 24320 net.cpp:122] Setting up inception_4d/relu_3x3_reduce
I1130 02:28:13.688786 24320 net.cpp:129] Top shape: 16 144 14 14 (451584)
I1130 02:28:13.688791 24320 net.cpp:137] Memory required for data: 747264772
I1130 02:28:13.688794 24320 layer_factory.hpp:77] Creating layer inception_4d/3x3
I1130 02:28:13.688803 24320 net.cpp:84] Creating Layer inception_4d/3x3
I1130 02:28:13.688807 24320 net.cpp:406] inception_4d/3x3 <- inception_4d/3x3_reduce
I1130 02:28:13.688815 24320 net.cpp:380] inception_4d/3x3 -> inception_4d/3x3
I1130 02:28:13.692131 24320 net.cpp:122] Setting up inception_4d/3x3
I1130 02:28:13.692148 24320 net.cpp:129] Top shape: 16 288 14 14 (903168)
I1130 02:28:13.692153 24320 net.cpp:137] Memory required for data: 750877444
I1130 02:28:13.692160 24320 layer_factory.hpp:77] Creating layer inception_4d/relu_3x3
I1130 02:28:13.692169 24320 net.cpp:84] Creating Layer inception_4d/relu_3x3
I1130 02:28:13.692175 24320 net.cpp:406] inception_4d/relu_3x3 <- inception_4d/3x3
I1130 02:28:13.692181 24320 net.cpp:367] inception_4d/relu_3x3 -> inception_4d/3x3 (in-place)
I1130 02:28:13.692189 24320 net.cpp:122] Setting up inception_4d/relu_3x3
I1130 02:28:13.692195 24320 net.cpp:129] Top shape: 16 288 14 14 (903168)
I1130 02:28:13.692199 24320 net.cpp:137] Memory required for data: 754490116
I1130 02:28:13.692203 24320 layer_factory.hpp:77] Creating layer inception_4d/5x5_reduce
I1130 02:28:13.692214 24320 net.cpp:84] Creating Layer inception_4d/5x5_reduce
I1130 02:28:13.692219 24320 net.cpp:406] inception_4d/5x5_reduce <- inception_4c/output_inception_4c/output_0_split_2
I1130 02:28:13.692225 24320 net.cpp:380] inception_4d/5x5_reduce -> inception_4d/5x5_reduce
I1130 02:28:13.692553 24320 net.cpp:122] Setting up inception_4d/5x5_reduce
I1130 02:28:13.692564 24320 net.cpp:129] Top shape: 16 32 14 14 (100352)
I1130 02:28:13.692567 24320 net.cpp:137] Memory required for data: 754891524
I1130 02:28:13.692574 24320 layer_factory.hpp:77] Creating layer inception_4d/relu_5x5_reduce
I1130 02:28:13.692581 24320 net.cpp:84] Creating Layer inception_4d/relu_5x5_reduce
I1130 02:28:13.692587 24320 net.cpp:406] inception_4d/relu_5x5_reduce <- inception_4d/5x5_reduce
I1130 02:28:13.692592 24320 net.cpp:367] inception_4d/relu_5x5_reduce -> inception_4d/5x5_reduce (in-place)
I1130 02:28:13.692600 24320 net.cpp:122] Setting up inception_4d/relu_5x5_reduce
I1130 02:28:13.692605 24320 net.cpp:129] Top shape: 16 32 14 14 (100352)
I1130 02:28:13.692610 24320 net.cpp:137] Memory required for data: 755292932
I1130 02:28:13.692613 24320 layer_factory.hpp:77] Creating layer inception_4d/5x5
I1130 02:28:13.692623 24320 net.cpp:84] Creating Layer inception_4d/5x5
I1130 02:28:13.692628 24320 net.cpp:406] inception_4d/5x5 <- inception_4d/5x5_reduce
I1130 02:28:13.692639 24320 net.cpp:380] inception_4d/5x5 -> inception_4d/5x5
I1130 02:28:13.693204 24320 net.cpp:122] Setting up inception_4d/5x5
I1130 02:28:13.693217 24320 net.cpp:129] Top shape: 16 64 14 14 (200704)
I1130 02:28:13.693222 24320 net.cpp:137] Memory required for data: 756095748
I1130 02:28:13.693228 24320 layer_factory.hpp:77] Creating layer inception_4d/relu_5x5
I1130 02:28:13.693235 24320 net.cpp:84] Creating Layer inception_4d/relu_5x5
I1130 02:28:13.693240 24320 net.cpp:406] inception_4d/relu_5x5 <- inception_4d/5x5
I1130 02:28:13.693246 24320 net.cpp:367] inception_4d/relu_5x5 -> inception_4d/5x5 (in-place)
I1130 02:28:13.693253 24320 net.cpp:122] Setting up inception_4d/relu_5x5
I1130 02:28:13.693259 24320 net.cpp:129] Top shape: 16 64 14 14 (200704)
I1130 02:28:13.693262 24320 net.cpp:137] Memory required for data: 756898564
I1130 02:28:13.693266 24320 layer_factory.hpp:77] Creating layer inception_4d/pool
I1130 02:28:13.693279 24320 net.cpp:84] Creating Layer inception_4d/pool
I1130 02:28:13.693290 24320 net.cpp:406] inception_4d/pool <- inception_4c/output_inception_4c/output_0_split_3
I1130 02:28:13.693297 24320 net.cpp:380] inception_4d/pool -> inception_4d/pool
I1130 02:28:13.693338 24320 net.cpp:122] Setting up inception_4d/pool
I1130 02:28:13.693347 24320 net.cpp:129] Top shape: 16 512 14 14 (1605632)
I1130 02:28:13.693351 24320 net.cpp:137] Memory required for data: 763321092
I1130 02:28:13.693356 24320 layer_factory.hpp:77] Creating layer inception_4d/pool_proj
I1130 02:28:13.693366 24320 net.cpp:84] Creating Layer inception_4d/pool_proj
I1130 02:28:13.693370 24320 net.cpp:406] inception_4d/pool_proj <- inception_4d/pool
I1130 02:28:13.693378 24320 net.cpp:380] inception_4d/pool_proj -> inception_4d/pool_proj
I1130 02:28:13.693812 24320 net.cpp:122] Setting up inception_4d/pool_proj
I1130 02:28:13.693825 24320 net.cpp:129] Top shape: 16 64 14 14 (200704)
I1130 02:28:13.693828 24320 net.cpp:137] Memory required for data: 764123908
I1130 02:28:13.693835 24320 layer_factory.hpp:77] Creating layer inception_4d/relu_pool_proj
I1130 02:28:13.693842 24320 net.cpp:84] Creating Layer inception_4d/relu_pool_proj
I1130 02:28:13.693846 24320 net.cpp:406] inception_4d/relu_pool_proj <- inception_4d/pool_proj
I1130 02:28:13.693852 24320 net.cpp:367] inception_4d/relu_pool_proj -> inception_4d/pool_proj (in-place)
I1130 02:28:13.693859 24320 net.cpp:122] Setting up inception_4d/relu_pool_proj
I1130 02:28:13.693866 24320 net.cpp:129] Top shape: 16 64 14 14 (200704)
I1130 02:28:13.693869 24320 net.cpp:137] Memory required for data: 764926724
I1130 02:28:13.693873 24320 layer_factory.hpp:77] Creating layer inception_4d/output
I1130 02:28:13.693881 24320 net.cpp:84] Creating Layer inception_4d/output
I1130 02:28:13.693886 24320 net.cpp:406] inception_4d/output <- inception_4d/1x1
I1130 02:28:13.693892 24320 net.cpp:406] inception_4d/output <- inception_4d/3x3
I1130 02:28:13.693897 24320 net.cpp:406] inception_4d/output <- inception_4d/5x5
I1130 02:28:13.693902 24320 net.cpp:406] inception_4d/output <- inception_4d/pool_proj
I1130 02:28:13.693907 24320 net.cpp:380] inception_4d/output -> inception_4d/output
I1130 02:28:13.693933 24320 net.cpp:122] Setting up inception_4d/output
I1130 02:28:13.693941 24320 net.cpp:129] Top shape: 16 528 14 14 (1655808)
I1130 02:28:13.693945 24320 net.cpp:137] Memory required for data: 771549956
I1130 02:28:13.693949 24320 layer_factory.hpp:77] Creating layer inception_4d/output_inception_4d/output_0_split
I1130 02:28:13.693956 24320 net.cpp:84] Creating Layer inception_4d/output_inception_4d/output_0_split
I1130 02:28:13.693961 24320 net.cpp:406] inception_4d/output_inception_4d/output_0_split <- inception_4d/output
I1130 02:28:13.693969 24320 net.cpp:380] inception_4d/output_inception_4d/output_0_split -> inception_4d/output_inception_4d/output_0_split_0
I1130 02:28:13.693975 24320 net.cpp:380] inception_4d/output_inception_4d/output_0_split -> inception_4d/output_inception_4d/output_0_split_1
I1130 02:28:13.693982 24320 net.cpp:380] inception_4d/output_inception_4d/output_0_split -> inception_4d/output_inception_4d/output_0_split_2
I1130 02:28:13.693989 24320 net.cpp:380] inception_4d/output_inception_4d/output_0_split -> inception_4d/output_inception_4d/output_0_split_3
I1130 02:28:13.693994 24320 net.cpp:380] inception_4d/output_inception_4d/output_0_split -> inception_4d/output_inception_4d/output_0_split_4
I1130 02:28:13.694059 24320 net.cpp:122] Setting up inception_4d/output_inception_4d/output_0_split
I1130 02:28:13.694067 24320 net.cpp:129] Top shape: 16 528 14 14 (1655808)
I1130 02:28:13.694073 24320 net.cpp:129] Top shape: 16 528 14 14 (1655808)
I1130 02:28:13.694078 24320 net.cpp:129] Top shape: 16 528 14 14 (1655808)
I1130 02:28:13.694082 24320 net.cpp:129] Top shape: 16 528 14 14 (1655808)
I1130 02:28:13.694087 24320 net.cpp:129] Top shape: 16 528 14 14 (1655808)
I1130 02:28:13.694092 24320 net.cpp:137] Memory required for data: 804666116
I1130 02:28:13.694100 24320 layer_factory.hpp:77] Creating layer loss2/ave_pool
I1130 02:28:13.694113 24320 net.cpp:84] Creating Layer loss2/ave_pool
I1130 02:28:13.694118 24320 net.cpp:406] loss2/ave_pool <- inception_4d/output_inception_4d/output_0_split_0
I1130 02:28:13.694124 24320 net.cpp:380] loss2/ave_pool -> loss2/ave_pool
I1130 02:28:13.694149 24320 net.cpp:122] Setting up loss2/ave_pool
I1130 02:28:13.694157 24320 net.cpp:129] Top shape: 16 528 4 4 (135168)
I1130 02:28:13.694162 24320 net.cpp:137] Memory required for data: 805206788
I1130 02:28:13.694166 24320 layer_factory.hpp:77] Creating layer loss2/conv
I1130 02:28:13.694176 24320 net.cpp:84] Creating Layer loss2/conv
I1130 02:28:13.694181 24320 net.cpp:406] loss2/conv <- loss2/ave_pool
I1130 02:28:13.694190 24320 net.cpp:380] loss2/conv -> loss2/conv
I1130 02:28:13.695336 24320 net.cpp:122] Setting up loss2/conv
I1130 02:28:13.695354 24320 net.cpp:129] Top shape: 16 128 4 4 (32768)
I1130 02:28:13.695359 24320 net.cpp:137] Memory required for data: 805337860
I1130 02:28:13.695367 24320 layer_factory.hpp:77] Creating layer loss2/relu_conv
I1130 02:28:13.695374 24320 net.cpp:84] Creating Layer loss2/relu_conv
I1130 02:28:13.695382 24320 net.cpp:406] loss2/relu_conv <- loss2/conv
I1130 02:28:13.695389 24320 net.cpp:367] loss2/relu_conv -> loss2/conv (in-place)
I1130 02:28:13.695396 24320 net.cpp:122] Setting up loss2/relu_conv
I1130 02:28:13.695401 24320 net.cpp:129] Top shape: 16 128 4 4 (32768)
I1130 02:28:13.695405 24320 net.cpp:137] Memory required for data: 805468932
I1130 02:28:13.695410 24320 layer_factory.hpp:77] Creating layer loss2/fc
I1130 02:28:13.695418 24320 net.cpp:84] Creating Layer loss2/fc
I1130 02:28:13.695422 24320 net.cpp:406] loss2/fc <- loss2/conv
I1130 02:28:13.695430 24320 net.cpp:380] loss2/fc -> loss2/fc
I1130 02:28:13.712100 24320 net.cpp:122] Setting up loss2/fc
I1130 02:28:13.712119 24320 net.cpp:129] Top shape: 16 1024 (16384)
I1130 02:28:13.712124 24320 net.cpp:137] Memory required for data: 805534468
I1130 02:28:13.712132 24320 layer_factory.hpp:77] Creating layer loss2/relu_fc
I1130 02:28:13.712139 24320 net.cpp:84] Creating Layer loss2/relu_fc
I1130 02:28:13.712144 24320 net.cpp:406] loss2/relu_fc <- loss2/fc
I1130 02:28:13.712151 24320 net.cpp:367] loss2/relu_fc -> loss2/fc (in-place)
I1130 02:28:13.712158 24320 net.cpp:122] Setting up loss2/relu_fc
I1130 02:28:13.712163 24320 net.cpp:129] Top shape: 16 1024 (16384)
I1130 02:28:13.712167 24320 net.cpp:137] Memory required for data: 805600004
I1130 02:28:13.712172 24320 layer_factory.hpp:77] Creating layer loss2/drop_fc
I1130 02:28:13.712178 24320 net.cpp:84] Creating Layer loss2/drop_fc
I1130 02:28:13.712182 24320 net.cpp:406] loss2/drop_fc <- loss2/fc
I1130 02:28:13.712189 24320 net.cpp:367] loss2/drop_fc -> loss2/fc (in-place)
I1130 02:28:13.712216 24320 net.cpp:122] Setting up loss2/drop_fc
I1130 02:28:13.712225 24320 net.cpp:129] Top shape: 16 1024 (16384)
I1130 02:28:13.712235 24320 net.cpp:137] Memory required for data: 805665540
I1130 02:28:13.712241 24320 layer_factory.hpp:77] Creating layer loss2/classifier
I1130 02:28:13.712249 24320 net.cpp:84] Creating Layer loss2/classifier
I1130 02:28:13.712254 24320 net.cpp:406] loss2/classifier <- loss2/fc
I1130 02:28:13.712262 24320 net.cpp:380] loss2/classifier -> loss2/classifier
I1130 02:28:13.720551 24320 net.cpp:122] Setting up loss2/classifier
I1130 02:28:13.720573 24320 net.cpp:129] Top shape: 16 1000 (16000)
I1130 02:28:13.720578 24320 net.cpp:137] Memory required for data: 805729540
I1130 02:28:13.720587 24320 layer_factory.hpp:77] Creating layer loss2/loss
I1130 02:28:13.720597 24320 net.cpp:84] Creating Layer loss2/loss
I1130 02:28:13.720603 24320 net.cpp:406] loss2/loss <- loss2/classifier
I1130 02:28:13.720609 24320 net.cpp:406] loss2/loss <- label_data_1_split_1
I1130 02:28:13.720615 24320 net.cpp:380] loss2/loss -> loss2/loss2
I1130 02:28:13.720624 24320 layer_factory.hpp:77] Creating layer loss2/loss
I1130 02:28:13.720731 24320 net.cpp:122] Setting up loss2/loss
I1130 02:28:13.720741 24320 net.cpp:129] Top shape: (1)
I1130 02:28:13.720751 24320 net.cpp:132]     with loss weight 0.3
I1130 02:28:13.720769 24320 net.cpp:137] Memory required for data: 805729544
I1130 02:28:13.720774 24320 layer_factory.hpp:77] Creating layer inception_4e/1x1
I1130 02:28:13.720784 24320 net.cpp:84] Creating Layer inception_4e/1x1
I1130 02:28:13.720790 24320 net.cpp:406] inception_4e/1x1 <- inception_4d/output_inception_4d/output_0_split_1
I1130 02:28:13.720798 24320 net.cpp:380] inception_4e/1x1 -> inception_4e/1x1
I1130 02:28:13.721951 24320 net.cpp:122] Setting up inception_4e/1x1
I1130 02:28:13.721963 24320 net.cpp:129] Top shape: 16 256 14 14 (802816)
I1130 02:28:13.721967 24320 net.cpp:137] Memory required for data: 808940808
I1130 02:28:13.721974 24320 layer_factory.hpp:77] Creating layer inception_4e/relu_1x1
I1130 02:28:13.721982 24320 net.cpp:84] Creating Layer inception_4e/relu_1x1
I1130 02:28:13.721987 24320 net.cpp:406] inception_4e/relu_1x1 <- inception_4e/1x1
I1130 02:28:13.721993 24320 net.cpp:367] inception_4e/relu_1x1 -> inception_4e/1x1 (in-place)
I1130 02:28:13.722002 24320 net.cpp:122] Setting up inception_4e/relu_1x1
I1130 02:28:13.722007 24320 net.cpp:129] Top shape: 16 256 14 14 (802816)
I1130 02:28:13.722012 24320 net.cpp:137] Memory required for data: 812152072
I1130 02:28:13.722015 24320 layer_factory.hpp:77] Creating layer inception_4e/3x3_reduce
I1130 02:28:13.722025 24320 net.cpp:84] Creating Layer inception_4e/3x3_reduce
I1130 02:28:13.722030 24320 net.cpp:406] inception_4e/3x3_reduce <- inception_4d/output_inception_4d/output_0_split_2
I1130 02:28:13.722038 24320 net.cpp:380] inception_4e/3x3_reduce -> inception_4e/3x3_reduce
I1130 02:28:13.723318 24320 net.cpp:122] Setting up inception_4e/3x3_reduce
I1130 02:28:13.723336 24320 net.cpp:129] Top shape: 16 160 14 14 (501760)
I1130 02:28:13.723341 24320 net.cpp:137] Memory required for data: 814159112
I1130 02:28:13.723350 24320 layer_factory.hpp:77] Creating layer inception_4e/relu_3x3_reduce
I1130 02:28:13.723358 24320 net.cpp:84] Creating Layer inception_4e/relu_3x3_reduce
I1130 02:28:13.723364 24320 net.cpp:406] inception_4e/relu_3x3_reduce <- inception_4e/3x3_reduce
I1130 02:28:13.723371 24320 net.cpp:367] inception_4e/relu_3x3_reduce -> inception_4e/3x3_reduce (in-place)
I1130 02:28:13.723377 24320 net.cpp:122] Setting up inception_4e/relu_3x3_reduce
I1130 02:28:13.723383 24320 net.cpp:129] Top shape: 16 160 14 14 (501760)
I1130 02:28:13.723388 24320 net.cpp:137] Memory required for data: 816166152
I1130 02:28:13.723392 24320 layer_factory.hpp:77] Creating layer inception_4e/3x3
I1130 02:28:13.723402 24320 net.cpp:84] Creating Layer inception_4e/3x3
I1130 02:28:13.723408 24320 net.cpp:406] inception_4e/3x3 <- inception_4e/3x3_reduce
I1130 02:28:13.723415 24320 net.cpp:380] inception_4e/3x3 -> inception_4e/3x3
I1130 02:28:13.727438 24320 net.cpp:122] Setting up inception_4e/3x3
I1130 02:28:13.727455 24320 net.cpp:129] Top shape: 16 320 14 14 (1003520)
I1130 02:28:13.727460 24320 net.cpp:137] Memory required for data: 820180232
I1130 02:28:13.727468 24320 layer_factory.hpp:77] Creating layer inception_4e/relu_3x3
I1130 02:28:13.727475 24320 net.cpp:84] Creating Layer inception_4e/relu_3x3
I1130 02:28:13.727480 24320 net.cpp:406] inception_4e/relu_3x3 <- inception_4e/3x3
I1130 02:28:13.727488 24320 net.cpp:367] inception_4e/relu_3x3 -> inception_4e/3x3 (in-place)
I1130 02:28:13.727497 24320 net.cpp:122] Setting up inception_4e/relu_3x3
I1130 02:28:13.727504 24320 net.cpp:129] Top shape: 16 320 14 14 (1003520)
I1130 02:28:13.727507 24320 net.cpp:137] Memory required for data: 824194312
I1130 02:28:13.727511 24320 layer_factory.hpp:77] Creating layer inception_4e/5x5_reduce
I1130 02:28:13.727520 24320 net.cpp:84] Creating Layer inception_4e/5x5_reduce
I1130 02:28:13.727525 24320 net.cpp:406] inception_4e/5x5_reduce <- inception_4d/output_inception_4d/output_0_split_3
I1130 02:28:13.727535 24320 net.cpp:380] inception_4e/5x5_reduce -> inception_4e/5x5_reduce
I1130 02:28:13.727877 24320 net.cpp:122] Setting up inception_4e/5x5_reduce
I1130 02:28:13.727888 24320 net.cpp:129] Top shape: 16 32 14 14 (100352)
I1130 02:28:13.727898 24320 net.cpp:137] Memory required for data: 824595720
I1130 02:28:13.727912 24320 layer_factory.hpp:77] Creating layer inception_4e/relu_5x5_reduce
I1130 02:28:13.727921 24320 net.cpp:84] Creating Layer inception_4e/relu_5x5_reduce
I1130 02:28:13.727926 24320 net.cpp:406] inception_4e/relu_5x5_reduce <- inception_4e/5x5_reduce
I1130 02:28:13.727933 24320 net.cpp:367] inception_4e/relu_5x5_reduce -> inception_4e/5x5_reduce (in-place)
I1130 02:28:13.727941 24320 net.cpp:122] Setting up inception_4e/relu_5x5_reduce
I1130 02:28:13.727946 24320 net.cpp:129] Top shape: 16 32 14 14 (100352)
I1130 02:28:13.727951 24320 net.cpp:137] Memory required for data: 824997128
I1130 02:28:13.727954 24320 layer_factory.hpp:77] Creating layer inception_4e/5x5
I1130 02:28:13.727982 24320 net.cpp:84] Creating Layer inception_4e/5x5
I1130 02:28:13.727988 24320 net.cpp:406] inception_4e/5x5 <- inception_4e/5x5_reduce
I1130 02:28:13.727994 24320 net.cpp:380] inception_4e/5x5 -> inception_4e/5x5
I1130 02:28:13.728916 24320 net.cpp:122] Setting up inception_4e/5x5
I1130 02:28:13.728929 24320 net.cpp:129] Top shape: 16 128 14 14 (401408)
I1130 02:28:13.728934 24320 net.cpp:137] Memory required for data: 826602760
I1130 02:28:13.728941 24320 layer_factory.hpp:77] Creating layer inception_4e/relu_5x5
I1130 02:28:13.728947 24320 net.cpp:84] Creating Layer inception_4e/relu_5x5
I1130 02:28:13.728953 24320 net.cpp:406] inception_4e/relu_5x5 <- inception_4e/5x5
I1130 02:28:13.728960 24320 net.cpp:367] inception_4e/relu_5x5 -> inception_4e/5x5 (in-place)
I1130 02:28:13.728967 24320 net.cpp:122] Setting up inception_4e/relu_5x5
I1130 02:28:13.728973 24320 net.cpp:129] Top shape: 16 128 14 14 (401408)
I1130 02:28:13.728977 24320 net.cpp:137] Memory required for data: 828208392
I1130 02:28:13.728981 24320 layer_factory.hpp:77] Creating layer inception_4e/pool
I1130 02:28:13.728988 24320 net.cpp:84] Creating Layer inception_4e/pool
I1130 02:28:13.728993 24320 net.cpp:406] inception_4e/pool <- inception_4d/output_inception_4d/output_0_split_4
I1130 02:28:13.729001 24320 net.cpp:380] inception_4e/pool -> inception_4e/pool
I1130 02:28:13.729041 24320 net.cpp:122] Setting up inception_4e/pool
I1130 02:28:13.729050 24320 net.cpp:129] Top shape: 16 528 14 14 (1655808)
I1130 02:28:13.729054 24320 net.cpp:137] Memory required for data: 834831624
I1130 02:28:13.729058 24320 layer_factory.hpp:77] Creating layer inception_4e/pool_proj
I1130 02:28:13.729070 24320 net.cpp:84] Creating Layer inception_4e/pool_proj
I1130 02:28:13.729075 24320 net.cpp:406] inception_4e/pool_proj <- inception_4e/pool
I1130 02:28:13.729084 24320 net.cpp:380] inception_4e/pool_proj -> inception_4e/pool_proj
I1130 02:28:13.729753 24320 net.cpp:122] Setting up inception_4e/pool_proj
I1130 02:28:13.729763 24320 net.cpp:129] Top shape: 16 128 14 14 (401408)
I1130 02:28:13.729768 24320 net.cpp:137] Memory required for data: 836437256
I1130 02:28:13.729774 24320 layer_factory.hpp:77] Creating layer inception_4e/relu_pool_proj
I1130 02:28:13.729782 24320 net.cpp:84] Creating Layer inception_4e/relu_pool_proj
I1130 02:28:13.729787 24320 net.cpp:406] inception_4e/relu_pool_proj <- inception_4e/pool_proj
I1130 02:28:13.729792 24320 net.cpp:367] inception_4e/relu_pool_proj -> inception_4e/pool_proj (in-place)
I1130 02:28:13.729799 24320 net.cpp:122] Setting up inception_4e/relu_pool_proj
I1130 02:28:13.729805 24320 net.cpp:129] Top shape: 16 128 14 14 (401408)
I1130 02:28:13.729809 24320 net.cpp:137] Memory required for data: 838042888
I1130 02:28:13.729813 24320 layer_factory.hpp:77] Creating layer inception_4e/output
I1130 02:28:13.729821 24320 net.cpp:84] Creating Layer inception_4e/output
I1130 02:28:13.729826 24320 net.cpp:406] inception_4e/output <- inception_4e/1x1
I1130 02:28:13.729831 24320 net.cpp:406] inception_4e/output <- inception_4e/3x3
I1130 02:28:13.729836 24320 net.cpp:406] inception_4e/output <- inception_4e/5x5
I1130 02:28:13.729841 24320 net.cpp:406] inception_4e/output <- inception_4e/pool_proj
I1130 02:28:13.729851 24320 net.cpp:380] inception_4e/output -> inception_4e/output
I1130 02:28:13.729877 24320 net.cpp:122] Setting up inception_4e/output
I1130 02:28:13.729892 24320 net.cpp:129] Top shape: 16 832 14 14 (2609152)
I1130 02:28:13.729897 24320 net.cpp:137] Memory required for data: 848479496
I1130 02:28:13.729900 24320 layer_factory.hpp:77] Creating layer pool4/3x3_s2
I1130 02:28:13.729910 24320 net.cpp:84] Creating Layer pool4/3x3_s2
I1130 02:28:13.729915 24320 net.cpp:406] pool4/3x3_s2 <- inception_4e/output
I1130 02:28:13.729923 24320 net.cpp:380] pool4/3x3_s2 -> pool4/3x3_s2
I1130 02:28:13.729960 24320 net.cpp:122] Setting up pool4/3x3_s2
I1130 02:28:13.729969 24320 net.cpp:129] Top shape: 16 832 7 7 (652288)
I1130 02:28:13.729974 24320 net.cpp:137] Memory required for data: 851088648
I1130 02:28:13.729977 24320 layer_factory.hpp:77] Creating layer pool4/3x3_s2_pool4/3x3_s2_0_split
I1130 02:28:13.729985 24320 net.cpp:84] Creating Layer pool4/3x3_s2_pool4/3x3_s2_0_split
I1130 02:28:13.729990 24320 net.cpp:406] pool4/3x3_s2_pool4/3x3_s2_0_split <- pool4/3x3_s2
I1130 02:28:13.729996 24320 net.cpp:380] pool4/3x3_s2_pool4/3x3_s2_0_split -> pool4/3x3_s2_pool4/3x3_s2_0_split_0
I1130 02:28:13.730003 24320 net.cpp:380] pool4/3x3_s2_pool4/3x3_s2_0_split -> pool4/3x3_s2_pool4/3x3_s2_0_split_1
I1130 02:28:13.730010 24320 net.cpp:380] pool4/3x3_s2_pool4/3x3_s2_0_split -> pool4/3x3_s2_pool4/3x3_s2_0_split_2
I1130 02:28:13.730016 24320 net.cpp:380] pool4/3x3_s2_pool4/3x3_s2_0_split -> pool4/3x3_s2_pool4/3x3_s2_0_split_3
I1130 02:28:13.730072 24320 net.cpp:122] Setting up pool4/3x3_s2_pool4/3x3_s2_0_split
I1130 02:28:13.730079 24320 net.cpp:129] Top shape: 16 832 7 7 (652288)
I1130 02:28:13.730085 24320 net.cpp:129] Top shape: 16 832 7 7 (652288)
I1130 02:28:13.730090 24320 net.cpp:129] Top shape: 16 832 7 7 (652288)
I1130 02:28:13.730094 24320 net.cpp:129] Top shape: 16 832 7 7 (652288)
I1130 02:28:13.730098 24320 net.cpp:137] Memory required for data: 861525256
I1130 02:28:13.730103 24320 layer_factory.hpp:77] Creating layer inception_5a/1x1
I1130 02:28:13.730113 24320 net.cpp:84] Creating Layer inception_5a/1x1
I1130 02:28:13.730118 24320 net.cpp:406] inception_5a/1x1 <- pool4/3x3_s2_pool4/3x3_s2_0_split_0
I1130 02:28:13.730126 24320 net.cpp:380] inception_5a/1x1 -> inception_5a/1x1
I1130 02:28:13.732249 24320 net.cpp:122] Setting up inception_5a/1x1
I1130 02:28:13.732267 24320 net.cpp:129] Top shape: 16 256 7 7 (200704)
I1130 02:28:13.732272 24320 net.cpp:137] Memory required for data: 862328072
I1130 02:28:13.732280 24320 layer_factory.hpp:77] Creating layer inception_5a/relu_1x1
I1130 02:28:13.732288 24320 net.cpp:84] Creating Layer inception_5a/relu_1x1
I1130 02:28:13.732293 24320 net.cpp:406] inception_5a/relu_1x1 <- inception_5a/1x1
I1130 02:28:13.732300 24320 net.cpp:367] inception_5a/relu_1x1 -> inception_5a/1x1 (in-place)
I1130 02:28:13.732307 24320 net.cpp:122] Setting up inception_5a/relu_1x1
I1130 02:28:13.732313 24320 net.cpp:129] Top shape: 16 256 7 7 (200704)
I1130 02:28:13.732317 24320 net.cpp:137] Memory required for data: 863130888
I1130 02:28:13.732321 24320 layer_factory.hpp:77] Creating layer inception_5a/3x3_reduce
I1130 02:28:13.732332 24320 net.cpp:84] Creating Layer inception_5a/3x3_reduce
I1130 02:28:13.732337 24320 net.cpp:406] inception_5a/3x3_reduce <- pool4/3x3_s2_pool4/3x3_s2_0_split_1
I1130 02:28:13.732347 24320 net.cpp:380] inception_5a/3x3_reduce -> inception_5a/3x3_reduce
I1130 02:28:13.733923 24320 net.cpp:122] Setting up inception_5a/3x3_reduce
I1130 02:28:13.733940 24320 net.cpp:129] Top shape: 16 160 7 7 (125440)
I1130 02:28:13.733945 24320 net.cpp:137] Memory required for data: 863632648
I1130 02:28:13.733953 24320 layer_factory.hpp:77] Creating layer inception_5a/relu_3x3_reduce
I1130 02:28:13.733960 24320 net.cpp:84] Creating Layer inception_5a/relu_3x3_reduce
I1130 02:28:13.733966 24320 net.cpp:406] inception_5a/relu_3x3_reduce <- inception_5a/3x3_reduce
I1130 02:28:13.733973 24320 net.cpp:367] inception_5a/relu_3x3_reduce -> inception_5a/3x3_reduce (in-place)
I1130 02:28:13.733983 24320 net.cpp:122] Setting up inception_5a/relu_3x3_reduce
I1130 02:28:13.733994 24320 net.cpp:129] Top shape: 16 160 7 7 (125440)
I1130 02:28:13.734010 24320 net.cpp:137] Memory required for data: 864134408
I1130 02:28:13.734016 24320 layer_factory.hpp:77] Creating layer inception_5a/3x3
I1130 02:28:13.734028 24320 net.cpp:84] Creating Layer inception_5a/3x3
I1130 02:28:13.734035 24320 net.cpp:406] inception_5a/3x3 <- inception_5a/3x3_reduce
I1130 02:28:13.734041 24320 net.cpp:380] inception_5a/3x3 -> inception_5a/3x3
I1130 02:28:13.738062 24320 net.cpp:122] Setting up inception_5a/3x3
I1130 02:28:13.738081 24320 net.cpp:129] Top shape: 16 320 7 7 (250880)
I1130 02:28:13.738086 24320 net.cpp:137] Memory required for data: 865137928
I1130 02:28:13.738093 24320 layer_factory.hpp:77] Creating layer inception_5a/relu_3x3
I1130 02:28:13.738103 24320 net.cpp:84] Creating Layer inception_5a/relu_3x3
I1130 02:28:13.738109 24320 net.cpp:406] inception_5a/relu_3x3 <- inception_5a/3x3
I1130 02:28:13.738116 24320 net.cpp:367] inception_5a/relu_3x3 -> inception_5a/3x3 (in-place)
I1130 02:28:13.738123 24320 net.cpp:122] Setting up inception_5a/relu_3x3
I1130 02:28:13.738129 24320 net.cpp:129] Top shape: 16 320 7 7 (250880)
I1130 02:28:13.738133 24320 net.cpp:137] Memory required for data: 866141448
I1130 02:28:13.738137 24320 layer_factory.hpp:77] Creating layer inception_5a/5x5_reduce
I1130 02:28:13.738148 24320 net.cpp:84] Creating Layer inception_5a/5x5_reduce
I1130 02:28:13.738153 24320 net.cpp:406] inception_5a/5x5_reduce <- pool4/3x3_s2_pool4/3x3_s2_0_split_2
I1130 02:28:13.738160 24320 net.cpp:380] inception_5a/5x5_reduce -> inception_5a/5x5_reduce
I1130 02:28:13.738589 24320 net.cpp:122] Setting up inception_5a/5x5_reduce
I1130 02:28:13.738601 24320 net.cpp:129] Top shape: 16 32 7 7 (25088)
I1130 02:28:13.738605 24320 net.cpp:137] Memory required for data: 866241800
I1130 02:28:13.738612 24320 layer_factory.hpp:77] Creating layer inception_5a/relu_5x5_reduce
I1130 02:28:13.738620 24320 net.cpp:84] Creating Layer inception_5a/relu_5x5_reduce
I1130 02:28:13.738625 24320 net.cpp:406] inception_5a/relu_5x5_reduce <- inception_5a/5x5_reduce
I1130 02:28:13.738631 24320 net.cpp:367] inception_5a/relu_5x5_reduce -> inception_5a/5x5_reduce (in-place)
I1130 02:28:13.738637 24320 net.cpp:122] Setting up inception_5a/relu_5x5_reduce
I1130 02:28:13.738642 24320 net.cpp:129] Top shape: 16 32 7 7 (25088)
I1130 02:28:13.738646 24320 net.cpp:137] Memory required for data: 866342152
I1130 02:28:13.738651 24320 layer_factory.hpp:77] Creating layer inception_5a/5x5
I1130 02:28:13.738662 24320 net.cpp:84] Creating Layer inception_5a/5x5
I1130 02:28:13.738667 24320 net.cpp:406] inception_5a/5x5 <- inception_5a/5x5_reduce
I1130 02:28:13.738675 24320 net.cpp:380] inception_5a/5x5 -> inception_5a/5x5
I1130 02:28:13.739603 24320 net.cpp:122] Setting up inception_5a/5x5
I1130 02:28:13.739615 24320 net.cpp:129] Top shape: 16 128 7 7 (100352)
I1130 02:28:13.739620 24320 net.cpp:137] Memory required for data: 866743560
I1130 02:28:13.739627 24320 layer_factory.hpp:77] Creating layer inception_5a/relu_5x5
I1130 02:28:13.739634 24320 net.cpp:84] Creating Layer inception_5a/relu_5x5
I1130 02:28:13.739639 24320 net.cpp:406] inception_5a/relu_5x5 <- inception_5a/5x5
I1130 02:28:13.739646 24320 net.cpp:367] inception_5a/relu_5x5 -> inception_5a/5x5 (in-place)
I1130 02:28:13.739653 24320 net.cpp:122] Setting up inception_5a/relu_5x5
I1130 02:28:13.739660 24320 net.cpp:129] Top shape: 16 128 7 7 (100352)
I1130 02:28:13.739663 24320 net.cpp:137] Memory required for data: 867144968
I1130 02:28:13.739667 24320 layer_factory.hpp:77] Creating layer inception_5a/pool
I1130 02:28:13.739673 24320 net.cpp:84] Creating Layer inception_5a/pool
I1130 02:28:13.739678 24320 net.cpp:406] inception_5a/pool <- pool4/3x3_s2_pool4/3x3_s2_0_split_3
I1130 02:28:13.739684 24320 net.cpp:380] inception_5a/pool -> inception_5a/pool
I1130 02:28:13.739727 24320 net.cpp:122] Setting up inception_5a/pool
I1130 02:28:13.739735 24320 net.cpp:129] Top shape: 16 832 7 7 (652288)
I1130 02:28:13.739739 24320 net.cpp:137] Memory required for data: 869754120
I1130 02:28:13.739748 24320 layer_factory.hpp:77] Creating layer inception_5a/pool_proj
I1130 02:28:13.739764 24320 net.cpp:84] Creating Layer inception_5a/pool_proj
I1130 02:28:13.739770 24320 net.cpp:406] inception_5a/pool_proj <- inception_5a/pool
I1130 02:28:13.739779 24320 net.cpp:380] inception_5a/pool_proj -> inception_5a/pool_proj
I1130 02:28:13.741178 24320 net.cpp:122] Setting up inception_5a/pool_proj
I1130 02:28:13.741196 24320 net.cpp:129] Top shape: 16 128 7 7 (100352)
I1130 02:28:13.741201 24320 net.cpp:137] Memory required for data: 870155528
I1130 02:28:13.741209 24320 layer_factory.hpp:77] Creating layer inception_5a/relu_pool_proj
I1130 02:28:13.741216 24320 net.cpp:84] Creating Layer inception_5a/relu_pool_proj
I1130 02:28:13.741222 24320 net.cpp:406] inception_5a/relu_pool_proj <- inception_5a/pool_proj
I1130 02:28:13.741228 24320 net.cpp:367] inception_5a/relu_pool_proj -> inception_5a/pool_proj (in-place)
I1130 02:28:13.741236 24320 net.cpp:122] Setting up inception_5a/relu_pool_proj
I1130 02:28:13.741242 24320 net.cpp:129] Top shape: 16 128 7 7 (100352)
I1130 02:28:13.741246 24320 net.cpp:137] Memory required for data: 870556936
I1130 02:28:13.741250 24320 layer_factory.hpp:77] Creating layer inception_5a/output
I1130 02:28:13.741258 24320 net.cpp:84] Creating Layer inception_5a/output
I1130 02:28:13.741264 24320 net.cpp:406] inception_5a/output <- inception_5a/1x1
I1130 02:28:13.741269 24320 net.cpp:406] inception_5a/output <- inception_5a/3x3
I1130 02:28:13.741274 24320 net.cpp:406] inception_5a/output <- inception_5a/5x5
I1130 02:28:13.741279 24320 net.cpp:406] inception_5a/output <- inception_5a/pool_proj
I1130 02:28:13.741284 24320 net.cpp:380] inception_5a/output -> inception_5a/output
I1130 02:28:13.741314 24320 net.cpp:122] Setting up inception_5a/output
I1130 02:28:13.741322 24320 net.cpp:129] Top shape: 16 832 7 7 (652288)
I1130 02:28:13.741328 24320 net.cpp:137] Memory required for data: 873166088
I1130 02:28:13.741331 24320 layer_factory.hpp:77] Creating layer inception_5a/output_inception_5a/output_0_split
I1130 02:28:13.741338 24320 net.cpp:84] Creating Layer inception_5a/output_inception_5a/output_0_split
I1130 02:28:13.741343 24320 net.cpp:406] inception_5a/output_inception_5a/output_0_split <- inception_5a/output
I1130 02:28:13.741349 24320 net.cpp:380] inception_5a/output_inception_5a/output_0_split -> inception_5a/output_inception_5a/output_0_split_0
I1130 02:28:13.741358 24320 net.cpp:380] inception_5a/output_inception_5a/output_0_split -> inception_5a/output_inception_5a/output_0_split_1
I1130 02:28:13.741364 24320 net.cpp:380] inception_5a/output_inception_5a/output_0_split -> inception_5a/output_inception_5a/output_0_split_2
I1130 02:28:13.741370 24320 net.cpp:380] inception_5a/output_inception_5a/output_0_split -> inception_5a/output_inception_5a/output_0_split_3
I1130 02:28:13.741428 24320 net.cpp:122] Setting up inception_5a/output_inception_5a/output_0_split
I1130 02:28:13.741436 24320 net.cpp:129] Top shape: 16 832 7 7 (652288)
I1130 02:28:13.741441 24320 net.cpp:129] Top shape: 16 832 7 7 (652288)
I1130 02:28:13.741446 24320 net.cpp:129] Top shape: 16 832 7 7 (652288)
I1130 02:28:13.741451 24320 net.cpp:129] Top shape: 16 832 7 7 (652288)
I1130 02:28:13.741456 24320 net.cpp:137] Memory required for data: 883602696
I1130 02:28:13.741459 24320 layer_factory.hpp:77] Creating layer inception_5b/1x1
I1130 02:28:13.741472 24320 net.cpp:84] Creating Layer inception_5b/1x1
I1130 02:28:13.741477 24320 net.cpp:406] inception_5b/1x1 <- inception_5a/output_inception_5a/output_0_split_0
I1130 02:28:13.741483 24320 net.cpp:380] inception_5b/1x1 -> inception_5b/1x1
I1130 02:28:13.744387 24320 net.cpp:122] Setting up inception_5b/1x1
I1130 02:28:13.744405 24320 net.cpp:129] Top shape: 16 384 7 7 (301056)
I1130 02:28:13.744410 24320 net.cpp:137] Memory required for data: 884806920
I1130 02:28:13.744418 24320 layer_factory.hpp:77] Creating layer inception_5b/relu_1x1
I1130 02:28:13.744427 24320 net.cpp:84] Creating Layer inception_5b/relu_1x1
I1130 02:28:13.744437 24320 net.cpp:406] inception_5b/relu_1x1 <- inception_5b/1x1
I1130 02:28:13.744449 24320 net.cpp:367] inception_5b/relu_1x1 -> inception_5b/1x1 (in-place)
I1130 02:28:13.744457 24320 net.cpp:122] Setting up inception_5b/relu_1x1
I1130 02:28:13.744464 24320 net.cpp:129] Top shape: 16 384 7 7 (301056)
I1130 02:28:13.744468 24320 net.cpp:137] Memory required for data: 886011144
I1130 02:28:13.744472 24320 layer_factory.hpp:77] Creating layer inception_5b/3x3_reduce
I1130 02:28:13.744483 24320 net.cpp:84] Creating Layer inception_5b/3x3_reduce
I1130 02:28:13.744488 24320 net.cpp:406] inception_5b/3x3_reduce <- inception_5a/output_inception_5a/output_0_split_1
I1130 02:28:13.744495 24320 net.cpp:380] inception_5b/3x3_reduce -> inception_5b/3x3_reduce
I1130 02:28:13.746268 24320 net.cpp:122] Setting up inception_5b/3x3_reduce
I1130 02:28:13.746286 24320 net.cpp:129] Top shape: 16 192 7 7 (150528)
I1130 02:28:13.746291 24320 net.cpp:137] Memory required for data: 886613256
I1130 02:28:13.746299 24320 layer_factory.hpp:77] Creating layer inception_5b/relu_3x3_reduce
I1130 02:28:13.746305 24320 net.cpp:84] Creating Layer inception_5b/relu_3x3_reduce
I1130 02:28:13.746311 24320 net.cpp:406] inception_5b/relu_3x3_reduce <- inception_5b/3x3_reduce
I1130 02:28:13.746320 24320 net.cpp:367] inception_5b/relu_3x3_reduce -> inception_5b/3x3_reduce (in-place)
I1130 02:28:13.746327 24320 net.cpp:122] Setting up inception_5b/relu_3x3_reduce
I1130 02:28:13.746333 24320 net.cpp:129] Top shape: 16 192 7 7 (150528)
I1130 02:28:13.746338 24320 net.cpp:137] Memory required for data: 887215368
I1130 02:28:13.746342 24320 layer_factory.hpp:77] Creating layer inception_5b/3x3
I1130 02:28:13.746351 24320 net.cpp:84] Creating Layer inception_5b/3x3
I1130 02:28:13.746356 24320 net.cpp:406] inception_5b/3x3 <- inception_5b/3x3_reduce
I1130 02:28:13.746364 24320 net.cpp:380] inception_5b/3x3 -> inception_5b/3x3
I1130 02:28:13.751993 24320 net.cpp:122] Setting up inception_5b/3x3
I1130 02:28:13.752014 24320 net.cpp:129] Top shape: 16 384 7 7 (301056)
I1130 02:28:13.752019 24320 net.cpp:137] Memory required for data: 888419592
I1130 02:28:13.752027 24320 layer_factory.hpp:77] Creating layer inception_5b/relu_3x3
I1130 02:28:13.752034 24320 net.cpp:84] Creating Layer inception_5b/relu_3x3
I1130 02:28:13.752040 24320 net.cpp:406] inception_5b/relu_3x3 <- inception_5b/3x3
I1130 02:28:13.752048 24320 net.cpp:367] inception_5b/relu_3x3 -> inception_5b/3x3 (in-place)
I1130 02:28:13.752056 24320 net.cpp:122] Setting up inception_5b/relu_3x3
I1130 02:28:13.752063 24320 net.cpp:129] Top shape: 16 384 7 7 (301056)
I1130 02:28:13.752066 24320 net.cpp:137] Memory required for data: 889623816
I1130 02:28:13.752070 24320 layer_factory.hpp:77] Creating layer inception_5b/5x5_reduce
I1130 02:28:13.752079 24320 net.cpp:84] Creating Layer inception_5b/5x5_reduce
I1130 02:28:13.752084 24320 net.cpp:406] inception_5b/5x5_reduce <- inception_5a/output_inception_5a/output_0_split_2
I1130 02:28:13.752095 24320 net.cpp:380] inception_5b/5x5_reduce -> inception_5b/5x5_reduce
I1130 02:28:13.753054 24320 net.cpp:122] Setting up inception_5b/5x5_reduce
I1130 02:28:13.753073 24320 net.cpp:129] Top shape: 16 48 7 7 (37632)
I1130 02:28:13.753078 24320 net.cpp:137] Memory required for data: 889774344
I1130 02:28:13.753085 24320 layer_factory.hpp:77] Creating layer inception_5b/relu_5x5_reduce
I1130 02:28:13.753093 24320 net.cpp:84] Creating Layer inception_5b/relu_5x5_reduce
I1130 02:28:13.753098 24320 net.cpp:406] inception_5b/relu_5x5_reduce <- inception_5b/5x5_reduce
I1130 02:28:13.753104 24320 net.cpp:367] inception_5b/relu_5x5_reduce -> inception_5b/5x5_reduce (in-place)
I1130 02:28:13.753113 24320 net.cpp:122] Setting up inception_5b/relu_5x5_reduce
I1130 02:28:13.753118 24320 net.cpp:129] Top shape: 16 48 7 7 (37632)
I1130 02:28:13.753123 24320 net.cpp:137] Memory required for data: 889924872
I1130 02:28:13.753127 24320 layer_factory.hpp:77] Creating layer inception_5b/5x5
I1130 02:28:13.753137 24320 net.cpp:84] Creating Layer inception_5b/5x5
I1130 02:28:13.753147 24320 net.cpp:406] inception_5b/5x5 <- inception_5b/5x5_reduce
I1130 02:28:13.753155 24320 net.cpp:380] inception_5b/5x5 -> inception_5b/5x5
I1130 02:28:13.754439 24320 net.cpp:122] Setting up inception_5b/5x5
I1130 02:28:13.754453 24320 net.cpp:129] Top shape: 16 128 7 7 (100352)
I1130 02:28:13.754458 24320 net.cpp:137] Memory required for data: 890326280
I1130 02:28:13.754465 24320 layer_factory.hpp:77] Creating layer inception_5b/relu_5x5
I1130 02:28:13.754474 24320 net.cpp:84] Creating Layer inception_5b/relu_5x5
I1130 02:28:13.754480 24320 net.cpp:406] inception_5b/relu_5x5 <- inception_5b/5x5
I1130 02:28:13.754485 24320 net.cpp:367] inception_5b/relu_5x5 -> inception_5b/5x5 (in-place)
I1130 02:28:13.754493 24320 net.cpp:122] Setting up inception_5b/relu_5x5
I1130 02:28:13.754498 24320 net.cpp:129] Top shape: 16 128 7 7 (100352)
I1130 02:28:13.754503 24320 net.cpp:137] Memory required for data: 890727688
I1130 02:28:13.754508 24320 layer_factory.hpp:77] Creating layer inception_5b/pool
I1130 02:28:13.754514 24320 net.cpp:84] Creating Layer inception_5b/pool
I1130 02:28:13.754519 24320 net.cpp:406] inception_5b/pool <- inception_5a/output_inception_5a/output_0_split_3
I1130 02:28:13.754526 24320 net.cpp:380] inception_5b/pool -> inception_5b/pool
I1130 02:28:13.754570 24320 net.cpp:122] Setting up inception_5b/pool
I1130 02:28:13.754578 24320 net.cpp:129] Top shape: 16 832 7 7 (652288)
I1130 02:28:13.754582 24320 net.cpp:137] Memory required for data: 893336840
I1130 02:28:13.754586 24320 layer_factory.hpp:77] Creating layer inception_5b/pool_proj
I1130 02:28:13.754596 24320 net.cpp:84] Creating Layer inception_5b/pool_proj
I1130 02:28:13.754601 24320 net.cpp:406] inception_5b/pool_proj <- inception_5b/pool
I1130 02:28:13.754608 24320 net.cpp:380] inception_5b/pool_proj -> inception_5b/pool_proj
I1130 02:28:13.756008 24320 net.cpp:122] Setting up inception_5b/pool_proj
I1130 02:28:13.756026 24320 net.cpp:129] Top shape: 16 128 7 7 (100352)
I1130 02:28:13.756031 24320 net.cpp:137] Memory required for data: 893738248
I1130 02:28:13.756039 24320 layer_factory.hpp:77] Creating layer inception_5b/relu_pool_proj
I1130 02:28:13.756047 24320 net.cpp:84] Creating Layer inception_5b/relu_pool_proj
I1130 02:28:13.756053 24320 net.cpp:406] inception_5b/relu_pool_proj <- inception_5b/pool_proj
I1130 02:28:13.756059 24320 net.cpp:367] inception_5b/relu_pool_proj -> inception_5b/pool_proj (in-place)
I1130 02:28:13.756067 24320 net.cpp:122] Setting up inception_5b/relu_pool_proj
I1130 02:28:13.756073 24320 net.cpp:129] Top shape: 16 128 7 7 (100352)
I1130 02:28:13.756078 24320 net.cpp:137] Memory required for data: 894139656
I1130 02:28:13.756081 24320 layer_factory.hpp:77] Creating layer inception_5b/output
I1130 02:28:13.756088 24320 net.cpp:84] Creating Layer inception_5b/output
I1130 02:28:13.756093 24320 net.cpp:406] inception_5b/output <- inception_5b/1x1
I1130 02:28:13.756098 24320 net.cpp:406] inception_5b/output <- inception_5b/3x3
I1130 02:28:13.756103 24320 net.cpp:406] inception_5b/output <- inception_5b/5x5
I1130 02:28:13.756108 24320 net.cpp:406] inception_5b/output <- inception_5b/pool_proj
I1130 02:28:13.756114 24320 net.cpp:380] inception_5b/output -> inception_5b/output
I1130 02:28:13.756142 24320 net.cpp:122] Setting up inception_5b/output
I1130 02:28:13.756150 24320 net.cpp:129] Top shape: 16 1024 7 7 (802816)
I1130 02:28:13.756155 24320 net.cpp:137] Memory required for data: 897350920
I1130 02:28:13.756160 24320 layer_factory.hpp:77] Creating layer pool5/7x7_s1
I1130 02:28:13.756167 24320 net.cpp:84] Creating Layer pool5/7x7_s1
I1130 02:28:13.756172 24320 net.cpp:406] pool5/7x7_s1 <- inception_5b/output
I1130 02:28:13.756178 24320 net.cpp:380] pool5/7x7_s1 -> pool5/7x7_s1
I1130 02:28:13.756204 24320 net.cpp:122] Setting up pool5/7x7_s1
I1130 02:28:13.756212 24320 net.cpp:129] Top shape: 16 1024 1 1 (16384)
I1130 02:28:13.756217 24320 net.cpp:137] Memory required for data: 897416456
I1130 02:28:13.756222 24320 layer_factory.hpp:77] Creating layer pool5/drop_7x7_s1
I1130 02:28:13.756227 24320 net.cpp:84] Creating Layer pool5/drop_7x7_s1
I1130 02:28:13.756237 24320 net.cpp:406] pool5/drop_7x7_s1 <- pool5/7x7_s1
I1130 02:28:13.756249 24320 net.cpp:367] pool5/drop_7x7_s1 -> pool5/7x7_s1 (in-place)
I1130 02:28:13.756274 24320 net.cpp:122] Setting up pool5/drop_7x7_s1
I1130 02:28:13.756283 24320 net.cpp:129] Top shape: 16 1024 1 1 (16384)
I1130 02:28:13.756286 24320 net.cpp:137] Memory required for data: 897481992
I1130 02:28:13.756291 24320 layer_factory.hpp:77] Creating layer loss3/classifier
I1130 02:28:13.756301 24320 net.cpp:84] Creating Layer loss3/classifier
I1130 02:28:13.756305 24320 net.cpp:406] loss3/classifier <- pool5/7x7_s1
I1130 02:28:13.756314 24320 net.cpp:380] loss3/classifier -> loss3/classifier
I1130 02:28:13.764631 24320 net.cpp:122] Setting up loss3/classifier
I1130 02:28:13.764648 24320 net.cpp:129] Top shape: 16 1000 (16000)
I1130 02:28:13.764653 24320 net.cpp:137] Memory required for data: 897545992
I1130 02:28:13.764662 24320 layer_factory.hpp:77] Creating layer loss3/loss3
I1130 02:28:13.764672 24320 net.cpp:84] Creating Layer loss3/loss3
I1130 02:28:13.764678 24320 net.cpp:406] loss3/loss3 <- loss3/classifier
I1130 02:28:13.764683 24320 net.cpp:406] loss3/loss3 <- label_data_1_split_2
I1130 02:28:13.764689 24320 net.cpp:380] loss3/loss3 -> loss3/loss3
…
I1130 02:28:13.769234 24320 net.cpp:294] The NetState phase (1) differed from the phase (0) specified by a rule in layer data
I1130 02:28:13.770088 24320 net.cpp:51] Initializing net from parameters: 
name: "GoogleNet"
state {
  phase: TEST
}
layer {
  name: "data"
  type: "Data"
  top: "data"
  top: "label"
  include {
    phase: TEST
  }
  transform_param {
    mirror: false
    crop_size: 224
    mean_value: 104
    mean_value: 117
    mean_value: 123
  }
  data_param {
    source: "/home/styurin/DataSet/227/val_db"
    batch_size: 32
    backend: LMDB
  }
}
layer {
  name: "conv1/7x7_s2"
  type: "Convolution"
  bottom: "data"
  top: "conv1/7x7_s2"
  param {
    lr_mult: 1
    decay_mult: 1
  }
  param {
    lr_mult: 2
    decay_mult: 0
  }
  convolution_param {
    num_output: 64
    pad: 3
    kernel_size: 7
    stride: 2
    weight_filler {
      type: "xavier"
    }
    bias_filler {
      type: "constant"
      value: 0.2
    }
  }
}
layer {
  name: "conv1/relu_7x7"
  type: "ReLU"
  bottom: "conv1/7x7_s2"
  top: "conv1/7x7_s2"
}
layer {
  name: "pool1/3x3_s2"
  type: "Pooling"
  bottom: "conv1/7x7_s2"
  top: "pool1/3x3_s2"
  pooling_param {
    pool: MAX
    kernel_size: 3
    stride: 2
  }
}
layer {
  name: "pool1/norm1"
  type: "LRN"
  bottom: "pool1/3x3_s2"
  top: "pool1/norm1"
  lrn_param {
    local_size: 5
    alpha: 0.0001
    beta: 0.75
  }
}
layer {
  name: "conv2/3x3_reduce"
  type: "Convolution"
  bottom: "pool1/norm1"
  top: "conv2/3x3_reduce"
  param {
    lr_mult: 1
    decay_mult: 1
  }
  param {
    lr_mult: 2
    decay_mult: 0
  }
  convolution_param {
    num_output: 64
    kernel_size: 1
    weight_filler {
      type: "xavier"
    }
    bias_filler {
      type: "constant"
      value: 0.2
    }
  }
}
layer {
  name: "conv2/relu_3x3_reduce"
  type: "ReLU"
  bottom: "conv2/3x3_reduce"
  top: "conv2/3x3_reduce"
}
layer {
  name: "conv2/3x3"
  type: "Convolution"
  bottom: "conv2/3x3_reduce"
  top: "conv2/3x3"
  param {
    lr_mult: 1
    decay_mult: 1
  }
  param {
    lr_mult: 2
    decay_mult: 0
  }
  convolution_param {
    num_output: 192
    pad: 1
    kernel_size: 3
    weight_filler {
      type: "xavier"
    }
    bias_filler {
      type: "constant"
      value: 0.2
    }
  }
}
layer {
  name: "conv2/relu_3x3"
  type: "ReLU"
  bottom: "conv2/3x3"
  top: "conv2/3x3"
}
layer {
  name: "conv2/norm2"
  type: "LRN"
  bottom: "conv2/3x3"
  top: "conv2/norm2"
  lrn_param {
    local_size: 5
    alpha: 0.0001
    beta: 0.75
  }
}
layer {
  name: "pool2/3x3_s2"
  type: "Pooling"
  bottom: "conv2/norm2"
  top: "pool2/3x3_s2"
  pooling_param {
    pool: MAX
    kernel_size: 3
    stride: 2
  }
}
layer {
  name: "inception_3a/1x1"
  type: "Convolution"
  bottom: "pool2/3x3_s2"
  top: "inception_3a/1x1"
  param {
    lr_mult: 1
    decay_mult: 1
  }
  param {
    lr_mult: 2
    decay_mult: 0
  }
  convolution_param {
    num_output: 64
    kernel_size: 1
    weight_filler {
      type: "xavier"
    }
    bias_filler {
      type: "constant"
      value: 0.2
    }
  }
}
layer {
  name: "inception_3a/relu_1x1"
  type: "ReLU"
  bottom: "inception_3a/1x1"
  top: "inception_3a/1x1"
}
layer {
  name: "inception_3a/3x3_reduce"
  type: "Convolution"
  bottom: "pool2/3x3_s2"
  top: "inception_3a/3x3_reduce"
  param {
    lr_mult: 1
    decay_mult: 1
  }
  param {
    lr_mult: 2
    decay_mult: 0
  }
  convolution_param {
    num_output: 96
    kernel_size: 1
    weight_filler {
      type: "xavier"
    }
    bias_filler {
      type: "constant"
      value: 0.2
    }
  }
}
layer {
  name: "inception_3a/relu_3x3_reduce"
  type: "ReLU"
  bottom: "inception_3a/3x3_reduce"
  top: "inception_3a/3x3_reduce"
}
layer {
  name: "inception_3a/3x3"
  type: "Convolution"
  bottom: "inception_3a/3x3_reduce"
  top: "inception_3a/3x3"
  param {
    lr_mult: 1
    decay_mult: 1
  }
  param {
    lr_mult: 2
    decay_mult: 0
  }
  convolution_param {
    num_output: 128
    pad: 1
    kernel_size: 3
    weight_filler {
      type: "xavier"
    }
    bias_filler {
      type: "constant"
      value: 0.2
    }
  }
}
layer {
  name: "inception_3a/relu_3x3"
  type: "ReLU"
  bottom: "inception_3a/3x3"
  top: "inception_3a/3x3"
}
layer {
  name: "inception_3a/5x5_reduce"
  type: "Convolution"
  bottom: "pool2/3x3_s2"
  top: "inception_3a/5x5_reduce"
  param {
    lr_mult: 1
    decay_mult: 1
  }
  param {
    lr_mult: 2
    decay_mult: 0
  }
  convolution_param {
    num_output: 16
    kernel_size: 1
    weight_filler {
      type: "xavier"
    }
    bias_filler {
      type: "constant"
      value: 0.2
    }
  }
}
layer {
  name: "inception_3a/relu_5x5_reduce"
  type: "ReLU"
  bottom: "inception_3a/5x5_reduce"
  top: "inception_3a/5x5_reduce"
}
layer {
  name: "inception_3a/5x5"
  type: "Convolution"
  bottom: "inception_3a/5x5_reduce"
  top: "inception_3a/5x5"
  param {
    lr_mult: 1
    decay_mult: 1
  }
  param {
    lr_mult: 2
    decay_mult: 0
  }
  convolution_param {
    num_output: 32
    pad: 2
    kernel_size: 5
    weight_filler {
      type: "xavier"
    }
    bias_filler {
      type: "constant"
      value: 0.2
    }
  }
}
layer {
  name: "inception_3a/relu_5x5"
  type: "ReLU"
  bottom: "inception_3a/5x5"
  top: "inception_3a/5x5"
}
layer {
  name: "inception_3a/pool"
  type: "Pooling"
  bottom: "pool2/3x3_s2"
  top: "inception_3a/pool"
  pooling_param {
    pool: MAX
    kernel_size: 3
    stride: 1
    pad: 1
  }
}
layer {
  name: "inception_3a/pool_proj"
  type: "Convolution"
  bottom: "inception_3a/pool"
  top: "inception_3a/pool_proj"
  param {
    lr_mult: 1
    decay_mult: 1
  }
  param {
    lr_mult: 2
    decay_mult: 0
  }
  convolution_param {
    num_output: 32
    kernel_size: 1
    weight_filler {
      type: "xavier"
    }
    bias_filler {
      type: "constant"
      value: 0.2
    }
  }
}
layer {
  name: "inception_3a/relu_pool_proj"
  type: "ReLU"
  bottom: "inception_3a/pool_proj"
  top: "inception_3a/pool_proj"
}
layer {
  name: "inception_3a/output"
  type: "Concat"
  bottom: "inception_3a/1x1"
  bottom: "inception_3a/3x3"
  bottom: "inception_3a/5x5"
  bottom: "inception_3a/pool_proj"
  top: "inception_3a/output"
}
layer {
  name: "inception_3b/1x1"
  type: "Convolution"
  bottom: "inception_3a/output"
  top: "inception_3b/1x1"
  param {
    lr_mult: 1
    decay_mult: 1
  }
  param {
    lr_mult: 2
    decay_mult: 0
  }
  convolution_param {
    num_output: 128
    kernel_size: 1
    weight_filler {
      type: "xavier"
    }
    bias_filler {
      type: "constant"
      value: 0.2
    }
  }
}
layer {
  name: "inception_3b/relu_1x1"
  type: "ReLU"
  bottom: "inception_3b/1x1"
  top: "inception_3b/1x1"
}
layer {
  name: "inception_3b/3x3_reduce"
  type: "Convolution"
  bottom: "inception_3a/output"
  top: "inception_3b/3x3_reduce"
  param {
    lr_mult: 1
    decay_mult: 1
  }
  param {
    lr_mult: 2
    decay_mult: 0
  }
  convolution_param {
    num_output: 128
    kernel_size: 1
    weight_filler {
      type: "xavier"
    }
    bias_filler {
      type: "constant"
      value: 0.2
    }
  }
}
layer {
  name: "inception_3b/relu_3x3_reduce"
  type: "ReLU"
  bottom: "inception_3b/3x3_reduce"
  top: "inception_3b/3x3_reduce"
}
layer {
  name: "inception_3b/3x3"
  type: "Convolution"
  bottom: "inception_3b/3x3_reduce"
  top: "inception_3b/3x3"
  param {
    lr_mult: 1
    decay_mult: 1
  }
  param {
    lr_mult: 2
    decay_mult: 0
  }
  convolution_param {
    num_output: 192
    pad: 1
    kernel_size: 3
    weight_filler {
      type: "xavier"
    }
    bias_filler {
      type: "constant"
      value: 0.2
    }
  }
}
layer {
  name: "inception_3b/relu_3x3"
  type: "ReLU"
  bottom: "inception_3b/3x3"
  top: "inception_3b/3x3"
}
layer {
  name: "inception_3b/5x5_reduce"
  type: "Convolution"
  bottom: "inception_3a/output"
  top: "inception_3b/5x5_reduce"
  param {
    lr_mult: 1
    decay_mult: 1
  }
  param {
    lr_mult: 2
    decay_mult: 0
  }
  convolution_param {
    num_output: 32
    kernel_size: 1
    weight_filler {
      type: "xavier"
    }
    bias_filler {
      type: "constant"
      value: 0.2
    }
  }
}
layer {
  name: "inception_3b/relu_5x5_reduce"
  type: "ReLU"
  bottom: "inception_3b/5x5_reduce"
  top: "inception_3b/5x5_reduce"
}
layer {
  name: "inception_3b/5x5"
  type: "Convolution"
  bottom: "inception_3b/5x5_reduce"
  top: "inception_3b/5x5"
  param {
    lr_mult: 1
    decay_mult: 1
  }
  param {
    lr_mult: 2
    decay_mult: 0
  }
  convolution_param {
    num_output: 96
    pad: 2
    kernel_size: 5
    weight_filler {
      type: "xavier"
    }
    bias_filler {
      type: "constant"
      value: 0.2
    }
  }
}
layer {
  name: "inception_3b/relu_5x5"
  type: "ReLU"
  bottom: "inception_3b/5x5"
  top: "inception_3b/5x5"
}
layer {
  name: "inception_3b/pool"
  type: "Pooling"
  bottom: "inception_3a/output"
  top: "inception_3b/pool"
  pooling_param {
    pool: MAX
    kernel_size: 3
    stride: 1
    pad: 1
  }
}
layer {
  name: "inception_3b/pool_proj"
  type: "Convolution"
  bottom: "inception_3b/pool"
  top: "inception_3b/pool_proj"
  param {
    lr_mult: 1
    decay_mult: 1
  }
  param {
    lr_mult: 2
    decay_mult: 0
  }
  convolution_param {
    num_output: 64
    kernel_size: 1
    weight_filler {
      type: "xavier"
    }
    bias_filler {
      type: "constant"
      value: 0.2
    }
  }
}
layer {
  name: "inception_3b/relu_pool_proj"
  type: "ReLU"
  bottom: "inception_3b/pool_proj"
  top: "inception_3b/pool_proj"
}
layer {
  name: "inception_3b/output"
  type: "Concat"
  bottom: "inception_3b/1x1"
  bottom: "inception_3b/3x3"
  bottom: "inception_3b/5x5"
  bottom: "inception_3b/pool_proj"
  top: "inception_3b/output"
}
layer {
  name: "pool3/3x3_s2"
  type: "Pooling"
  bottom: "inception_3b/output"
  top: "pool3/3x3_s2"
  pooling_param {
    pool: MAX
    kernel_size: 3
    stride: 2
  }
}
layer {
  name: "inception_4a/1x1"
  type: "Convolution"
  bottom: "pool3/3x3_s2"
  top: "inception_4a/1x1"
  param {
    lr_mult: 1
    decay_mult: 1
  }
  param {
    lr_mult: 2
    decay_mult: 0
  }
  convolution_param {
    num_output: 192
    kernel_size: 1
    weight_filler {
      type: "xavier"
    }
    bias_filler {
      type: "constant"
      value: 0.2
    }
  }
}
layer {
  name: "inception_4a/relu_1x1"
  type: "ReLU"
  bottom: "inception_4a/1x1"
  top: "inception_4a/1x1"
}
layer {
  name: "inception_4a/3x3_reduce"
  type: "Convolution"
  bottom: "pool3/3x3_s2"
  top: "inception_4a/3x3_reduce"
  param {
    lr_mult: 1
    decay_mult: 1
  }
  param {
    lr_mult: 2
    decay_mult: 0
  }
  convolution_param {
    num_output: 96
    kernel_size: 1
    weight_filler {
      type: "xavier"
    }
    bias_filler {
      type: "constant"
      value: 0.2
    }
  }
}
layer {
  name: "inception_4a/relu_3x3_reduce"
  type: "ReLU"
  bottom: "inception_4a/3x3_reduce"
  top: "inception_4a/3x3_reduce"
}
layer {
  name: "inception_4a/3x3"
  type: "Convolution"
  bottom: "inception_4a/3x3_reduce"
  top: "inception_4a/3x3"
  param {
    lr_mult: 1
    decay_mult: 1
  }
  param {
    lr_mult: 2
    decay_mult: 0
  }
  convolution_param {
    num_output: 208
    pad: 1
    kernel_size: 3
    weight_filler {
      type: "xavier"
    }
    bias_filler {
      type: "constant"
      value: 0.2
    }
  }
}
layer {
  name: "inception_4a/relu_3x3"
  type: "ReLU"
  bottom: "inception_4a/3x3"
  top: "inception_4a/3x3"
}
layer {
  name: "inception_4a/5x5_reduce"
  type: "Convolution"
  bottom: "pool3/3x3_s2"
  top: "inception_4a/5x5_reduce"
  param {
    lr_mult: 1
    decay_mult: 1
  }
  param {
    lr_mult: 2
    decay_mult: 0
  }
  convolution_param {
    num_output: 16
    kernel_size: 1
    weight_filler {
      type: "xavier"
    }
    bias_filler {
      type: "constant"
      value: 0.2
    }
  }
}
layer {
  name: "inception_4a/relu_5x5_reduce"
  type: "ReLU"
  bottom: "inception_4a/5x5_reduce"
  top: "inception_4a/5x5_reduce"
}
layer {
  name: "inception_4a/5x5"
  type: "Convolution"
  bottom: "inception_4a/5x5_reduce"
  top: "inception_4a/5x5"
  param {
    lr_mult: 1
    decay_mult: 1
  }
  param {
    lr_mult: 2
    decay_mult: 0
  }
  convolution_param {
    num_output: 48
    pad: 2
    kernel_size: 5
    weight_filler {
      type: "xavier"
    }
    bias_filler {
      type: "constant"
      value: 0.2
    }
  }
}
layer {
  name: "inception_4a/relu_5x5"
  type: "ReLU"
  bottom: "inception_4a/5x5"
  top: "inception_4a/5x5"
}
layer {
  name: "inception_4a/pool"
  type: "Pooling"
  bottom: "pool3/3x3_s2"
  top: "inception_4a/pool"
  pooling_param {
    pool: MAX
    kernel_size: 3
    stride: 1
    pad: 1
  }
}
layer {
  name: "inception_4a/pool_proj"
  type: "Convolution"
  bottom: "inception_4a/pool"
  top: "inception_4a/pool_proj"
  param {
    lr_mult: 1
    decay_mult: 1
  }
  param {
    lr_mult: 2
    decay_mult: 0
  }
  convolution_param {
    num_output: 64
    kernel_size: 1
    weight_filler {
      type: "xavier"
    }
    bias_filler {
      type: "constant"
      value: 0.2
    }
  }
}
layer {
  name: "inception_4a/relu_pool_proj"
  type: "ReLU"
  bottom: "inception_4a/pool_proj"
  top: "inception_4a/pool_proj"
}
layer {
  name: "inception_4a/output"
  type: "Concat"
  bottom: "inception_4a/1x1"
  bottom: "inception_4a/3x3"
  bottom: "inception_4a/5x5"
  bottom: "inception_4a/pool_proj"
  top: "inception_4a/output"
}
layer {
  name: "loss1/ave_pool"
  type: "Pooling"
  bottom: "inception_4a/output"
  top: "loss1/ave_pool"
  pooling_param {
    pool: AVE
    kernel_size: 5
    stride: 3
  }
}
layer {
  name: "loss1/conv"
  type: "Convolution"
  bottom: "loss1/ave_pool"
  top: "loss1/conv"
  param {
    lr_mult: 1
    decay_mult: 1
  }
  param {
    lr_mult: 2
    decay_mult: 0
  }
  convolution_param {
    num_output: 128
    kernel_size: 1
    weight_filler {
      type: "xavier"
    }
    bias_filler {
      type: "constant"
      value: 0.2
    }
  }
}
layer {
  name: "loss1/relu_conv"
  type: "ReLU"
  bottom: "loss1/conv"
  top: "loss1/conv"
}
layer {
  name: "loss1/fc"
  type: "InnerProduct"
  bottom: "loss1/conv"
  top: "loss1/fc"
  param {
    lr_mult: 1
    decay_mult: 1
  }
  param {
    lr_mult: 2
    decay_mult: 0
  }
  inner_product_param {
    num_output: 1024
    weight_filler {
      type: "xavier"
    }
    bias_filler {
      type: "constant"
      value: 0.2
    }
  }
}
layer {
  name: "loss1/relu_fc"
  type: "ReLU"
  bottom: "loss1/fc"
  top: "loss1/fc"
}
layer {
  name: "loss1/drop_fc"
  type: "Dropout"
  bottom: "loss1/fc"
  top: "loss1/fc"
  dropout_param {
    dropout_ratio: 0.7
  }
}
layer {
  name: "loss1/classifier"
  type: "InnerProduct"
  bottom: "loss1/fc"
  top: "loss1/classifier"
  param {
    lr_mult: 1
    decay_mult: 1
  }
  param {
    lr_mult: 2
    decay_mult: 0
  }
  inner_product_param {
    num_output: 1000
    weight_filler {
      type: "xavier"
    }
    bias_filler {
      type: "constant"
      value: 0
    }
  }
}
layer {
  name: "loss1/loss"
  type: "SoftmaxWithLoss"
…
I1130 02:28:13.884649 24320 net.cpp:129] Top shape: 32 64 14 14 (401408)
I1130 02:28:13.884654 24320 net.cpp:137] Memory required for data: 1401787660
I1130 02:28:13.884657 24320 layer_factory.hpp:77] Creating layer inception_4c/pool
I1130 02:28:13.884663 24320 net.cpp:84] Creating Layer inception_4c/pool
I1130 02:28:13.884668 24320 net.cpp:406] inception_4c/pool <- inception_4b/output_inception_4b/output_0_split_3
I1130 02:28:13.884675 24320 net.cpp:380] inception_4c/pool -> inception_4c/pool
I1130 02:28:13.884719 24320 net.cpp:122] Setting up inception_4c/pool
I1130 02:28:13.884728 24320 net.cpp:129] Top shape: 32 512 14 14 (3211264)
I1130 02:28:13.884732 24320 net.cpp:137] Memory required for data: 1414632716
I1130 02:28:13.884737 24320 layer_factory.hpp:77] Creating layer inception_4c/pool_proj
I1130 02:28:13.884747 24320 net.cpp:84] Creating Layer inception_4c/pool_proj
I1130 02:28:13.884752 24320 net.cpp:406] inception_4c/pool_proj <- inception_4c/pool
I1130 02:28:13.884762 24320 net.cpp:380] inception_4c/pool_proj -> inception_4c/pool_proj
I1130 02:28:13.885237 24320 net.cpp:122] Setting up inception_4c/pool_proj
I1130 02:28:13.885249 24320 net.cpp:129] Top shape: 32 64 14 14 (401408)
I1130 02:28:13.885253 24320 net.cpp:137] Memory required for data: 1416238348
I1130 02:28:13.885260 24320 layer_factory.hpp:77] Creating layer inception_4c/relu_pool_proj
I1130 02:28:13.885267 24320 net.cpp:84] Creating Layer inception_4c/relu_pool_proj
I1130 02:28:13.885272 24320 net.cpp:406] inception_4c/relu_pool_proj <- inception_4c/pool_proj
I1130 02:28:13.885279 24320 net.cpp:367] inception_4c/relu_pool_proj -> inception_4c/pool_proj (in-place)
I1130 02:28:13.885288 24320 net.cpp:122] Setting up inception_4c/relu_pool_proj
I1130 02:28:13.885293 24320 net.cpp:129] Top shape: 32 64 14 14 (401408)
I1130 02:28:13.885298 24320 net.cpp:137] Memory required for data: 1417843980
I1130 02:28:13.885301 24320 layer_factory.hpp:77] Creating layer inception_4c/output
I1130 02:28:13.885308 24320 net.cpp:84] Creating Layer inception_4c/output
I1130 02:28:13.885313 24320 net.cpp:406] inception_4c/output <- inception_4c/1x1
I1130 02:28:13.885318 24320 net.cpp:406] inception_4c/output <- inception_4c/3x3
I1130 02:28:13.885324 24320 net.cpp:406] inception_4c/output <- inception_4c/5x5
I1130 02:28:13.885329 24320 net.cpp:406] inception_4c/output <- inception_4c/pool_proj
I1130 02:28:13.885334 24320 net.cpp:380] inception_4c/output -> inception_4c/output
I1130 02:28:13.885365 24320 net.cpp:122] Setting up inception_4c/output
I1130 02:28:13.885373 24320 net.cpp:129] Top shape: 32 512 14 14 (3211264)
I1130 02:28:13.885377 24320 net.cpp:137] Memory required for data: 1430689036
I1130 02:28:13.885381 24320 layer_factory.hpp:77] Creating layer inception_4c/output_inception_4c/output_0_split
I1130 02:28:13.885387 24320 net.cpp:84] Creating Layer inception_4c/output_inception_4c/output_0_split
I1130 02:28:13.885396 24320 net.cpp:406] inception_4c/output_inception_4c/output_0_split <- inception_4c/output
I1130 02:28:13.885406 24320 net.cpp:380] inception_4c/output_inception_4c/output_0_split -> inception_4c/output_inception_4c/output_0_split_0
I1130 02:28:13.885419 24320 net.cpp:380] inception_4c/output_inception_4c/output_0_split -> inception_4c/output_inception_4c/output_0_split_1
I1130 02:28:13.885426 24320 net.cpp:380] inception_4c/output_inception_4c/output_0_split -> inception_4c/output_inception_4c/output_0_split_2
I1130 02:28:13.885432 24320 net.cpp:380] inception_4c/output_inception_4c/output_0_split -> inception_4c/output_inception_4c/output_0_split_3
I1130 02:28:13.885498 24320 net.cpp:122] Setting up inception_4c/output_inception_4c/output_0_split
I1130 02:28:13.885506 24320 net.cpp:129] Top shape: 32 512 14 14 (3211264)
I1130 02:28:13.885511 24320 net.cpp:129] Top shape: 32 512 14 14 (3211264)
I1130 02:28:13.885516 24320 net.cpp:129] Top shape: 32 512 14 14 (3211264)
I1130 02:28:13.885521 24320 net.cpp:129] Top shape: 32 512 14 14 (3211264)
I1130 02:28:13.885524 24320 net.cpp:137] Memory required for data: 1482069260
I1130 02:28:13.885529 24320 layer_factory.hpp:77] Creating layer inception_4d/1x1
I1130 02:28:13.885540 24320 net.cpp:84] Creating Layer inception_4d/1x1
I1130 02:28:13.885545 24320 net.cpp:406] inception_4d/1x1 <- inception_4c/output_inception_4c/output_0_split_0
I1130 02:28:13.885551 24320 net.cpp:380] inception_4d/1x1 -> inception_4d/1x1
I1130 02:28:13.886189 24320 net.cpp:122] Setting up inception_4d/1x1
I1130 02:28:13.886201 24320 net.cpp:129] Top shape: 32 112 14 14 (702464)
I1130 02:28:13.886205 24320 net.cpp:137] Memory required for data: 1484879116
I1130 02:28:13.886212 24320 layer_factory.hpp:77] Creating layer inception_4d/relu_1x1
I1130 02:28:13.886220 24320 net.cpp:84] Creating Layer inception_4d/relu_1x1
I1130 02:28:13.886226 24320 net.cpp:406] inception_4d/relu_1x1 <- inception_4d/1x1
I1130 02:28:13.886231 24320 net.cpp:367] inception_4d/relu_1x1 -> inception_4d/1x1 (in-place)
I1130 02:28:13.886238 24320 net.cpp:122] Setting up inception_4d/relu_1x1
I1130 02:28:13.886245 24320 net.cpp:129] Top shape: 32 112 14 14 (702464)
I1130 02:28:13.886248 24320 net.cpp:137] Memory required for data: 1487688972
I1130 02:28:13.886252 24320 layer_factory.hpp:77] Creating layer inception_4d/3x3_reduce
I1130 02:28:13.886262 24320 net.cpp:84] Creating Layer inception_4d/3x3_reduce
I1130 02:28:13.886267 24320 net.cpp:406] inception_4d/3x3_reduce <- inception_4c/output_inception_4c/output_0_split_1
I1130 02:28:13.886276 24320 net.cpp:380] inception_4d/3x3_reduce -> inception_4d/3x3_reduce
I1130 02:28:13.887035 24320 net.cpp:122] Setting up inception_4d/3x3_reduce
I1130 02:28:13.887046 24320 net.cpp:129] Top shape: 32 144 14 14 (903168)
I1130 02:28:13.887051 24320 net.cpp:137] Memory required for data: 1491301644
I1130 02:28:13.887058 24320 layer_factory.hpp:77] Creating layer inception_4d/relu_3x3_reduce
I1130 02:28:13.887064 24320 net.cpp:84] Creating Layer inception_4d/relu_3x3_reduce
I1130 02:28:13.887069 24320 net.cpp:406] inception_4d/relu_3x3_reduce <- inception_4d/3x3_reduce
I1130 02:28:13.887075 24320 net.cpp:367] inception_4d/relu_3x3_reduce -> inception_4d/3x3_reduce (in-place)
I1130 02:28:13.887081 24320 net.cpp:122] Setting up inception_4d/relu_3x3_reduce
I1130 02:28:13.887087 24320 net.cpp:129] Top shape: 32 144 14 14 (903168)
I1130 02:28:13.887091 24320 net.cpp:137] Memory required for data: 1494914316
I1130 02:28:13.887095 24320 layer_factory.hpp:77] Creating layer inception_4d/3x3
I1130 02:28:13.887106 24320 net.cpp:84] Creating Layer inception_4d/3x3
I1130 02:28:13.887111 24320 net.cpp:406] inception_4d/3x3 <- inception_4d/3x3_reduce
I1130 02:28:13.887118 24320 net.cpp:380] inception_4d/3x3 -> inception_4d/3x3
I1130 02:28:13.890492 24320 net.cpp:122] Setting up inception_4d/3x3
I1130 02:28:13.890511 24320 net.cpp:129] Top shape: 32 288 14 14 (1806336)
I1130 02:28:13.890516 24320 net.cpp:137] Memory required for data: 1502139660
I1130 02:28:13.890524 24320 layer_factory.hpp:77] Creating layer inception_4d/relu_3x3
I1130 02:28:13.890532 24320 net.cpp:84] Creating Layer inception_4d/relu_3x3
I1130 02:28:13.890543 24320 net.cpp:406] inception_4d/relu_3x3 <- inception_4d/3x3
I1130 02:28:13.890558 24320 net.cpp:367] inception_4d/relu_3x3 -> inception_4d/3x3 (in-place)
I1130 02:28:13.890573 24320 net.cpp:122] Setting up inception_4d/relu_3x3
I1130 02:28:13.890578 24320 net.cpp:129] Top shape: 32 288 14 14 (1806336)
I1130 02:28:13.890583 24320 net.cpp:137] Memory required for data: 1509365004
I1130 02:28:13.890588 24320 layer_factory.hpp:77] Creating layer inception_4d/5x5_reduce
I1130 02:28:13.890599 24320 net.cpp:84] Creating Layer inception_4d/5x5_reduce
I1130 02:28:13.890604 24320 net.cpp:406] inception_4d/5x5_reduce <- inception_4c/output_inception_4c/output_0_split_2
I1130 02:28:13.890611 24320 net.cpp:380] inception_4d/5x5_reduce -> inception_4d/5x5_reduce
I1130 02:28:13.890969 24320 net.cpp:122] Setting up inception_4d/5x5_reduce
I1130 02:28:13.890983 24320 net.cpp:129] Top shape: 32 32 14 14 (200704)
I1130 02:28:13.890987 24320 net.cpp:137] Memory required for data: 1510167820
I1130 02:28:13.890995 24320 layer_factory.hpp:77] Creating layer inception_4d/relu_5x5_reduce
I1130 02:28:13.891001 24320 net.cpp:84] Creating Layer inception_4d/relu_5x5_reduce
I1130 02:28:13.891006 24320 net.cpp:406] inception_4d/relu_5x5_reduce <- inception_4d/5x5_reduce
I1130 02:28:13.891011 24320 net.cpp:367] inception_4d/relu_5x5_reduce -> inception_4d/5x5_reduce (in-place)
I1130 02:28:13.891018 24320 net.cpp:122] Setting up inception_4d/relu_5x5_reduce
I1130 02:28:13.891024 24320 net.cpp:129] Top shape: 32 32 14 14 (200704)
I1130 02:28:13.891028 24320 net.cpp:137] Memory required for data: 1510970636
I1130 02:28:13.891032 24320 layer_factory.hpp:77] Creating layer inception_4d/5x5
I1130 02:28:13.891042 24320 net.cpp:84] Creating Layer inception_4d/5x5
I1130 02:28:13.891047 24320 net.cpp:406] inception_4d/5x5 <- inception_4d/5x5_reduce
I1130 02:28:13.891055 24320 net.cpp:380] inception_4d/5x5 -> inception_4d/5x5
I1130 02:28:13.892148 24320 net.cpp:122] Setting up inception_4d/5x5
I1130 02:28:13.892166 24320 net.cpp:129] Top shape: 32 64 14 14 (401408)
I1130 02:28:13.892176 24320 net.cpp:137] Memory required for data: 1512576268
I1130 02:28:13.892184 24320 layer_factory.hpp:77] Creating layer inception_4d/relu_5x5
I1130 02:28:13.892190 24320 net.cpp:84] Creating Layer inception_4d/relu_5x5
I1130 02:28:13.892196 24320 net.cpp:406] inception_4d/relu_5x5 <- inception_4d/5x5
I1130 02:28:13.892204 24320 net.cpp:367] inception_4d/relu_5x5 -> inception_4d/5x5 (in-place)
I1130 02:28:13.892212 24320 net.cpp:122] Setting up inception_4d/relu_5x5
I1130 02:28:13.892222 24320 net.cpp:129] Top shape: 32 64 14 14 (401408)
I1130 02:28:13.892227 24320 net.cpp:137] Memory required for data: 1514181900
I1130 02:28:13.892231 24320 layer_factory.hpp:77] Creating layer inception_4d/pool
I1130 02:28:13.892237 24320 net.cpp:84] Creating Layer inception_4d/pool
I1130 02:28:13.892242 24320 net.cpp:406] inception_4d/pool <- inception_4c/output_inception_4c/output_0_split_3
I1130 02:28:13.892251 24320 net.cpp:380] inception_4d/pool -> inception_4d/pool
I1130 02:28:13.892297 24320 net.cpp:122] Setting up inception_4d/pool
I1130 02:28:13.892305 24320 net.cpp:129] Top shape: 32 512 14 14 (3211264)
I1130 02:28:13.892309 24320 net.cpp:137] Memory required for data: 1527026956
I1130 02:28:13.892314 24320 layer_factory.hpp:77] Creating layer inception_4d/pool_proj
I1130 02:28:13.892326 24320 net.cpp:84] Creating Layer inception_4d/pool_proj
I1130 02:28:13.892331 24320 net.cpp:406] inception_4d/pool_proj <- inception_4d/pool
I1130 02:28:13.892340 24320 net.cpp:380] inception_4d/pool_proj -> inception_4d/pool_proj
I1130 02:28:13.892818 24320 net.cpp:122] Setting up inception_4d/pool_proj
I1130 02:28:13.892832 24320 net.cpp:129] Top shape: 32 64 14 14 (401408)
I1130 02:28:13.892837 24320 net.cpp:137] Memory required for data: 1528632588
I1130 02:28:13.892843 24320 layer_factory.hpp:77] Creating layer inception_4d/relu_pool_proj
I1130 02:28:13.892849 24320 net.cpp:84] Creating Layer inception_4d/relu_pool_proj
I1130 02:28:13.892854 24320 net.cpp:406] inception_4d/relu_pool_proj <- inception_4d/pool_proj
I1130 02:28:13.892868 24320 net.cpp:367] inception_4d/relu_pool_proj -> inception_4d/pool_proj (in-place)
I1130 02:28:13.892884 24320 net.cpp:122] Setting up inception_4d/relu_pool_proj
I1130 02:28:13.892889 24320 net.cpp:129] Top shape: 32 64 14 14 (401408)
I1130 02:28:13.892894 24320 net.cpp:137] Memory required for data: 1530238220
I1130 02:28:13.892899 24320 layer_factory.hpp:77] Creating layer inception_4d/output
I1130 02:28:13.892904 24320 net.cpp:84] Creating Layer inception_4d/output
I1130 02:28:13.892910 24320 net.cpp:406] inception_4d/output <- inception_4d/1x1
I1130 02:28:13.892915 24320 net.cpp:406] inception_4d/output <- inception_4d/3x3
I1130 02:28:13.892920 24320 net.cpp:406] inception_4d/output <- inception_4d/5x5
I1130 02:28:13.892925 24320 net.cpp:406] inception_4d/output <- inception_4d/pool_proj
I1130 02:28:13.892930 24320 net.cpp:380] inception_4d/output -> inception_4d/output
I1130 02:28:13.892962 24320 net.cpp:122] Setting up inception_4d/output
I1130 02:28:13.892971 24320 net.cpp:129] Top shape: 32 528 14 14 (3311616)
I1130 02:28:13.892976 24320 net.cpp:137] Memory required for data: 1543484684
I1130 02:28:13.892979 24320 layer_factory.hpp:77] Creating layer inception_4d/output_inception_4d/output_0_split
I1130 02:28:13.892987 24320 net.cpp:84] Creating Layer inception_4d/output_inception_4d/output_0_split
I1130 02:28:13.892992 24320 net.cpp:406] inception_4d/output_inception_4d/output_0_split <- inception_4d/output
I1130 02:28:13.892998 24320 net.cpp:380] inception_4d/output_inception_4d/output_0_split -> inception_4d/output_inception_4d/output_0_split_0
I1130 02:28:13.893007 24320 net.cpp:380] inception_4d/output_inception_4d/output_0_split -> inception_4d/output_inception_4d/output_0_split_1
I1130 02:28:13.893013 24320 net.cpp:380] inception_4d/output_inception_4d/output_0_split -> inception_4d/output_inception_4d/output_0_split_2
I1130 02:28:13.893019 24320 net.cpp:380] inception_4d/output_inception_4d/output_0_split -> inception_4d/output_inception_4d/output_0_split_3
I1130 02:28:13.893025 24320 net.cpp:380] inception_4d/output_inception_4d/output_0_split -> inception_4d/output_inception_4d/output_0_split_4
I1130 02:28:13.893100 24320 net.cpp:122] Setting up inception_4d/output_inception_4d/output_0_split
I1130 02:28:13.893108 24320 net.cpp:129] Top shape: 32 528 14 14 (3311616)
I1130 02:28:13.893113 24320 net.cpp:129] Top shape: 32 528 14 14 (3311616)
I1130 02:28:13.893118 24320 net.cpp:129] Top shape: 32 528 14 14 (3311616)
I1130 02:28:13.893123 24320 net.cpp:129] Top shape: 32 528 14 14 (3311616)
I1130 02:28:13.893127 24320 net.cpp:129] Top shape: 32 528 14 14 (3311616)
I1130 02:28:13.893131 24320 net.cpp:137] Memory required for data: 1609717004
I1130 02:28:13.893136 24320 layer_factory.hpp:77] Creating layer loss2/ave_pool
I1130 02:28:13.893142 24320 net.cpp:84] Creating Layer loss2/ave_pool
I1130 02:28:13.893147 24320 net.cpp:406] loss2/ave_pool <- inception_4d/output_inception_4d/output_0_split_0
I1130 02:28:13.893154 24320 net.cpp:380] loss2/ave_pool -> loss2/ave_pool
I1130 02:28:13.893182 24320 net.cpp:122] Setting up loss2/ave_pool
I1130 02:28:13.893191 24320 net.cpp:129] Top shape: 32 528 4 4 (270336)
I1130 02:28:13.893195 24320 net.cpp:137] Memory required for data: 1610798348
I1130 02:28:13.893200 24320 layer_factory.hpp:77] Creating layer loss2/conv
I1130 02:28:13.893208 24320 net.cpp:84] Creating Layer loss2/conv
I1130 02:28:13.893214 24320 net.cpp:406] loss2/conv <- loss2/ave_pool
I1130 02:28:13.893224 24320 net.cpp:380] loss2/conv -> loss2/conv
I1130 02:28:13.894373 24320 net.cpp:122] Setting up loss2/conv
I1130 02:28:13.894390 24320 net.cpp:129] Top shape: 32 128 4 4 (65536)
I1130 02:28:13.894397 24320 net.cpp:137] Memory required for data: 1611060492
I1130 02:28:13.894403 24320 layer_factory.hpp:77] Creating layer loss2/relu_conv
I1130 02:28:13.894412 24320 net.cpp:84] Creating Layer loss2/relu_conv
I1130 02:28:13.894418 24320 net.cpp:406] loss2/relu_conv <- loss2/conv
I1130 02:28:13.894424 24320 net.cpp:367] loss2/relu_conv -> loss2/conv (in-place)
I1130 02:28:13.894439 24320 net.cpp:122] Setting up loss2/relu_conv
I1130 02:28:13.894451 24320 net.cpp:129] Top shape: 32 128 4 4 (65536)
I1130 02:28:13.894456 24320 net.cpp:137] Memory required for data: 1611322636
I1130 02:28:13.894460 24320 layer_factory.hpp:77] Creating layer loss2/fc
I1130 02:28:13.894467 24320 net.cpp:84] Creating Layer loss2/fc
I1130 02:28:13.894472 24320 net.cpp:406] loss2/fc <- loss2/conv
I1130 02:28:13.894480 24320 net.cpp:380] loss2/fc -> loss2/fc
I1130 02:28:13.911209 24320 net.cpp:122] Setting up loss2/fc
I1130 02:28:13.911229 24320 net.cpp:129] Top shape: 32 1024 (32768)
I1130 02:28:13.911234 24320 net.cpp:137] Memory required for data: 1611453708
I1130 02:28:13.911242 24320 layer_factory.hpp:77] Creating layer loss2/relu_fc
I1130 02:28:13.911249 24320 net.cpp:84] Creating Layer loss2/relu_fc
I1130 02:28:13.911255 24320 net.cpp:406] loss2/relu_fc <- loss2/fc
I1130 02:28:13.911262 24320 net.cpp:367] loss2/relu_fc -> loss2/fc (in-place)
I1130 02:28:13.911269 24320 net.cpp:122] Setting up loss2/relu_fc
I1130 02:28:13.911275 24320 net.cpp:129] Top shape: 32 1024 (32768)
I1130 02:28:13.911279 24320 net.cpp:137] Memory required for data: 1611584780
I1130 02:28:13.911283 24320 layer_factory.hpp:77] Creating layer loss2/drop_fc
I1130 02:28:13.911293 24320 net.cpp:84] Creating Layer loss2/drop_fc
I1130 02:28:13.911296 24320 net.cpp:406] loss2/drop_fc <- loss2/fc
I1130 02:28:13.911303 24320 net.cpp:367] loss2/drop_fc -> loss2/fc (in-place)
I1130 02:28:13.913045 24320 net.cpp:122] Setting up loss2/drop_fc
I1130 02:28:13.913058 24320 net.cpp:129] Top shape: 32 1024 (32768)
I1130 02:28:13.913063 24320 net.cpp:137] Memory required for data: 1611715852
I1130 02:28:13.913067 24320 layer_factory.hpp:77] Creating layer loss2/classifier
I1130 02:28:13.913075 24320 net.cpp:84] Creating Layer loss2/classifier
I1130 02:28:13.913079 24320 net.cpp:406] loss2/classifier <- loss2/fc
I1130 02:28:13.913089 24320 net.cpp:380] loss2/classifier -> loss2/classifier
I1130 02:28:13.921404 24320 net.cpp:122] Setting up loss2/classifier
I1130 02:28:13.921422 24320 net.cpp:129] Top shape: 32 1000 (32000)
I1130 02:28:13.921428 24320 net.cpp:137] Memory required for data: 1611843852
I1130 02:28:13.921435 24320 layer_factory.hpp:77] Creating layer loss2/classifier_loss2/classifier_0_split
I1130 02:28:13.921443 24320 net.cpp:84] Creating Layer loss2/classifier_loss2/classifier_0_split
I1130 02:28:13.921448 24320 net.cpp:406] loss2/classifier_loss2/classifier_0_split <- loss2/classifier
I1130 02:28:13.921458 24320 net.cpp:380] loss2/classifier_loss2/classifier_0_split -> loss2/classifier_loss2/classifier_0_split_0
I1130 02:28:13.921465 24320 net.cpp:380] loss2/classifier_loss2/classifier_0_split -> loss2/classifier_loss2/classifier_0_split_1
I1130 02:28:13.921473 24320 net.cpp:380] loss2/classifier_loss2/classifier_0_split -> loss2/classifier_loss2/classifier_0_split_2
I1130 02:28:13.921532 24320 net.cpp:122] Setting up loss2/classifier_loss2/classifier_0_split
I1130 02:28:13.921542 24320 net.cpp:129] Top shape: 32 1000 (32000)
I1130 02:28:13.921547 24320 net.cpp:129] Top shape: 32 1000 (32000)
I1130 02:28:13.921551 24320 net.cpp:129] Top shape: 32 1000 (32000)
I1130 02:28:13.921555 24320 net.cpp:137] Memory required for data: 1612227852
I1130 02:28:13.921561 24320 layer_factory.hpp:77] Creating layer loss2/loss
I1130 02:28:13.921568 24320 net.cpp:84] Creating Layer loss2/loss
I1130 02:28:13.921573 24320 net.cpp:406] loss2/loss <- loss2/classifier_loss2/classifier_0_split_0
I1130 02:28:13.921579 24320 net.cpp:406] loss2/loss <- label_data_1_split_3
…
I1130 02:28:13.921840 24320 net.cpp:122] Setting up loss2/top-5
I1130 02:28:13.921846 24320 net.cpp:129] Top shape: (1)
I1130 02:28:13.921850 24320 net.cpp:137] Memory required for data: 1612227864
I1130 02:28:13.921854 24320 layer_factory.hpp:77] Creating layer inception_4e/1x1
I1130 02:28:13.921865 24320 net.cpp:84] Creating Layer inception_4e/1x1
I1130 02:28:13.921870 24320 net.cpp:406] inception_4e/1x1 <- inception_4d/output_inception_4d/output_0_split_1
I1130 02:28:13.921877 24320 net.cpp:380] inception_4e/1x1 -> inception_4e/1x1
I1130 02:28:13.923065 24320 net.cpp:122] Setting up inception_4e/1x1
I1130 02:28:13.923084 24320 net.cpp:129] Top shape: 32 256 14 14 (1605632)
I1130 02:28:13.923089 24320 net.cpp:137] Memory required for data: 1618650392
I1130 02:28:13.923095 24320 layer_factory.hpp:77] Creating layer inception_4e/relu_1x1
I1130 02:28:13.923102 24320 net.cpp:84] Creating Layer inception_4e/relu_1x1
I1130 02:28:13.923107 24320 net.cpp:406] inception_4e/relu_1x1 <- inception_4e/1x1
I1130 02:28:13.923115 24320 net.cpp:367] inception_4e/relu_1x1 -> inception_4e/1x1 (in-place)
I1130 02:28:13.923125 24320 net.cpp:122] Setting up inception_4e/relu_1x1
I1130 02:28:13.923131 24320 net.cpp:129] Top shape: 32 256 14 14 (1605632)
I1130 02:28:13.923135 24320 net.cpp:137] Memory required for data: 1625072920
I1130 02:28:13.923140 24320 layer_factory.hpp:77] Creating layer inception_4e/3x3_reduce
I1130 02:28:13.923164 24320 net.cpp:84] Creating Layer inception_4e/3x3_reduce
I1130 02:28:13.923171 24320 net.cpp:406] inception_4e/3x3_reduce <- inception_4d/output_inception_4d/output_0_split_2
I1130 02:28:13.923177 24320 net.cpp:380] inception_4e/3x3_reduce -> inception_4e/3x3_reduce
I1130 02:28:13.924491 24320 net.cpp:122] Setting up inception_4e/3x3_reduce
I1130 02:28:13.924511 24320 net.cpp:129] Top shape: 32 160 14 14 (1003520)
I1130 02:28:13.924517 24320 net.cpp:137] Memory required for data: 1629087000
I1130 02:28:13.924525 24320 layer_factory.hpp:77] Creating layer inception_4e/relu_3x3_reduce
I1130 02:28:13.924532 24320 net.cpp:84] Creating Layer inception_4e/relu_3x3_reduce
I1130 02:28:13.924538 24320 net.cpp:406] inception_4e/relu_3x3_reduce <- inception_4e/3x3_reduce
I1130 02:28:13.924543 24320 net.cpp:367] inception_4e/relu_3x3_reduce -> inception_4e/3x3_reduce (in-place)
I1130 02:28:13.924551 24320 net.cpp:122] Setting up inception_4e/relu_3x3_reduce
I1130 02:28:13.924557 24320 net.cpp:129] Top shape: 32 160 14 14 (1003520)
I1130 02:28:13.924561 24320 net.cpp:137] Memory required for data: 1633101080
I1130 02:28:13.924566 24320 layer_factory.hpp:77] Creating layer inception_4e/3x3
I1130 02:28:13.924577 24320 net.cpp:84] Creating Layer inception_4e/3x3
I1130 02:28:13.924582 24320 net.cpp:406] inception_4e/3x3 <- inception_4e/3x3_reduce
I1130 02:28:13.924590 24320 net.cpp:380] inception_4e/3x3 -> inception_4e/3x3
I1130 02:28:13.929092 24320 net.cpp:122] Setting up inception_4e/3x3
I1130 02:28:13.929111 24320 net.cpp:129] Top shape: 32 320 14 14 (2007040)
I1130 02:28:13.929117 24320 net.cpp:137] Memory required for data: 1641129240
I1130 02:28:13.929126 24320 layer_factory.hpp:77] Creating layer inception_4e/relu_3x3
I1130 02:28:13.929139 24320 net.cpp:84] Creating Layer inception_4e/relu_3x3
I1130 02:28:13.929152 24320 net.cpp:406] inception_4e/relu_3x3 <- inception_4e/3x3
I1130 02:28:13.929160 24320 net.cpp:367] inception_4e/relu_3x3 -> inception_4e/3x3 (in-place)
I1130 02:28:13.929169 24320 net.cpp:122] Setting up inception_4e/relu_3x3
I1130 02:28:13.929175 24320 net.cpp:129] Top shape: 32 320 14 14 (2007040)
I1130 02:28:13.929179 24320 net.cpp:137] Memory required for data: 1649157400
I1130 02:28:13.929183 24320 layer_factory.hpp:77] Creating layer inception_4e/5x5_reduce
I1130 02:28:13.929193 24320 net.cpp:84] Creating Layer inception_4e/5x5_reduce
I1130 02:28:13.929198 24320 net.cpp:406] inception_4e/5x5_reduce <- inception_4d/output_inception_4d/output_0_split_3
I1130 02:28:13.929206 24320 net.cpp:380] inception_4e/5x5_reduce -> inception_4e/5x5_reduce
I1130 02:28:13.929533 24320 net.cpp:122] Setting up inception_4e/5x5_reduce
I1130 02:28:13.929544 24320 net.cpp:129] Top shape: 32 32 14 14 (200704)
I1130 02:28:13.929549 24320 net.cpp:137] Memory required for data: 1649960216
I1130 02:28:13.929556 24320 layer_factory.hpp:77] Creating layer inception_4e/relu_5x5_reduce
I1130 02:28:13.929569 24320 net.cpp:84] Creating Layer inception_4e/relu_5x5_reduce
I1130 02:28:13.929574 24320 net.cpp:406] inception_4e/relu_5x5_reduce <- inception_4e/5x5_reduce
I1130 02:28:13.929581 24320 net.cpp:367] inception_4e/relu_5x5_reduce -> inception_4e/5x5_reduce (in-place)
I1130 02:28:13.929589 24320 net.cpp:122] Setting up inception_4e/relu_5x5_reduce
I1130 02:28:13.929594 24320 net.cpp:129] Top shape: 32 32 14 14 (200704)
I1130 02:28:13.929599 24320 net.cpp:137] Memory required for data: 1650763032
I1130 02:28:13.929602 24320 layer_factory.hpp:77] Creating layer inception_4e/5x5
I1130 02:28:13.929612 24320 net.cpp:84] Creating Layer inception_4e/5x5
I1130 02:28:13.929617 24320 net.cpp:406] inception_4e/5x5 <- inception_4e/5x5_reduce
I1130 02:28:13.929625 24320 net.cpp:380] inception_4e/5x5 -> inception_4e/5x5
I1130 02:28:13.930531 24320 net.cpp:122] Setting up inception_4e/5x5
I1130 02:28:13.930544 24320 net.cpp:129] Top shape: 32 128 14 14 (802816)
I1130 02:28:13.930548 24320 net.cpp:137] Memory required for data: 1653974296
I1130 02:28:13.930555 24320 layer_factory.hpp:77] Creating layer inception_4e/relu_5x5
I1130 02:28:13.930569 24320 net.cpp:84] Creating Layer inception_4e/relu_5x5
I1130 02:28:13.930577 24320 net.cpp:406] inception_4e/relu_5x5 <- inception_4e/5x5
I1130 02:28:13.930583 24320 net.cpp:367] inception_4e/relu_5x5 -> inception_4e/5x5 (in-place)
I1130 02:28:13.930589 24320 net.cpp:122] Setting up inception_4e/relu_5x5
I1130 02:28:13.930594 24320 net.cpp:129] Top shape: 32 128 14 14 (802816)
I1130 02:28:13.930599 24320 net.cpp:137] Memory required for data: 1657185560
I1130 02:28:13.930603 24320 layer_factory.hpp:77] Creating layer inception_4e/pool
I1130 02:28:13.930609 24320 net.cpp:84] Creating Layer inception_4e/pool
I1130 02:28:13.930614 24320 net.cpp:406] inception_4e/pool <- inception_4d/output_inception_4d/output_0_split_4
I1130 02:28:13.930622 24320 net.cpp:380] inception_4e/pool -> inception_4e/pool
I1130 02:28:13.930661 24320 net.cpp:122] Setting up inception_4e/pool
I1130 02:28:13.930670 24320 net.cpp:129] Top shape: 32 528 14 14 (3311616)
I1130 02:28:13.930675 24320 net.cpp:137] Memory required for data: 1670432024
I1130 02:28:13.930678 24320 layer_factory.hpp:77] Creating layer inception_4e/pool_proj
I1130 02:28:13.930690 24320 net.cpp:84] Creating Layer inception_4e/pool_proj
I1130 02:28:13.930694 24320 net.cpp:406] inception_4e/pool_proj <- inception_4e/pool
I1130 02:28:13.930702 24320 net.cpp:380] inception_4e/pool_proj -> inception_4e/pool_proj
I1130 02:28:13.931367 24320 net.cpp:122] Setting up inception_4e/pool_proj
I1130 02:28:13.931380 24320 net.cpp:129] Top shape: 32 128 14 14 (802816)
I1130 02:28:13.931383 24320 net.cpp:137] Memory required for data: 1673643288
I1130 02:28:13.931391 24320 layer_factory.hpp:77] Creating layer inception_4e/relu_pool_proj
I1130 02:28:13.931397 24320 net.cpp:84] Creating Layer inception_4e/relu_pool_proj
I1130 02:28:13.931407 24320 net.cpp:406] inception_4e/relu_pool_proj <- inception_4e/pool_proj
I1130 02:28:13.931421 24320 net.cpp:367] inception_4e/relu_pool_proj -> inception_4e/pool_proj (in-place)
I1130 02:28:13.931429 24320 net.cpp:122] Setting up inception_4e/relu_pool_proj
I1130 02:28:13.931435 24320 net.cpp:129] Top shape: 32 128 14 14 (802816)
I1130 02:28:13.931439 24320 net.cpp:137] Memory required for data: 1676854552
I1130 02:28:13.931443 24320 layer_factory.hpp:77] Creating layer inception_4e/output
I1130 02:28:13.931450 24320 net.cpp:84] Creating Layer inception_4e/output
I1130 02:28:13.931454 24320 net.cpp:406] inception_4e/output <- inception_4e/1x1
I1130 02:28:13.931459 24320 net.cpp:406] inception_4e/output <- inception_4e/3x3
I1130 02:28:13.931464 24320 net.cpp:406] inception_4e/output <- inception_4e/5x5
I1130 02:28:13.931469 24320 net.cpp:406] inception_4e/output <- inception_4e/pool_proj
I1130 02:28:13.931475 24320 net.cpp:380] inception_4e/output -> inception_4e/output
I1130 02:28:13.931502 24320 net.cpp:122] Setting up inception_4e/output
I1130 02:28:13.931510 24320 net.cpp:129] Top shape: 32 832 14 14 (5218304)
I1130 02:28:13.931514 24320 net.cpp:137] Memory required for data: 1697727768
I1130 02:28:13.931519 24320 layer_factory.hpp:77] Creating layer pool4/3x3_s2
I1130 02:28:13.931525 24320 net.cpp:84] Creating Layer pool4/3x3_s2
I1130 02:28:13.931529 24320 net.cpp:406] pool4/3x3_s2 <- inception_4e/output
I1130 02:28:13.931537 24320 net.cpp:380] pool4/3x3_s2 -> pool4/3x3_s2
I1130 02:28:13.931571 24320 net.cpp:122] Setting up pool4/3x3_s2
I1130 02:28:13.931579 24320 net.cpp:129] Top shape: 32 832 7 7 (1304576)
I1130 02:28:13.931584 24320 net.cpp:137] Memory required for data: 1702946072
I1130 02:28:13.931588 24320 layer_factory.hpp:77] Creating layer pool4/3x3_s2_pool4/3x3_s2_0_split
I1130 02:28:13.931596 24320 net.cpp:84] Creating Layer pool4/3x3_s2_pool4/3x3_s2_0_split
I1130 02:28:13.931599 24320 net.cpp:406] pool4/3x3_s2_pool4/3x3_s2_0_split <- pool4/3x3_s2
I1130 02:28:13.931605 24320 net.cpp:380] pool4/3x3_s2_pool4/3x3_s2_0_split -> pool4/3x3_s2_pool4/3x3_s2_0_split_0
I1130 02:28:13.931612 24320 net.cpp:380] pool4/3x3_s2_pool4/3x3_s2_0_split -> pool4/3x3_s2_pool4/3x3_s2_0_split_1
I1130 02:28:13.931618 24320 net.cpp:380] pool4/3x3_s2_pool4/3x3_s2_0_split -> pool4/3x3_s2_pool4/3x3_s2_0_split_2
I1130 02:28:13.931641 24320 net.cpp:380] pool4/3x3_s2_pool4/3x3_s2_0_split -> pool4/3x3_s2_pool4/3x3_s2_0_split_3
I1130 02:28:13.931695 24320 net.cpp:122] Setting up pool4/3x3_s2_pool4/3x3_s2_0_split
I1130 02:28:13.931704 24320 net.cpp:129] Top shape: 32 832 7 7 (1304576)
I1130 02:28:13.931710 24320 net.cpp:129] Top shape: 32 832 7 7 (1304576)
I1130 02:28:13.931715 24320 net.cpp:129] Top shape: 32 832 7 7 (1304576)
I1130 02:28:13.931720 24320 net.cpp:129] Top shape: 32 832 7 7 (1304576)
I1130 02:28:13.931723 24320 net.cpp:137] Memory required for data: 1723819288
I1130 02:28:13.931727 24320 layer_factory.hpp:77] Creating layer inception_5a/1x1
I1130 02:28:13.931738 24320 net.cpp:84] Creating Layer inception_5a/1x1
I1130 02:28:13.931743 24320 net.cpp:406] inception_5a/1x1 <- pool4/3x3_s2_pool4/3x3_s2_0_split_0
I1130 02:28:13.931752 24320 net.cpp:380] inception_5a/1x1 -> inception_5a/1x1
I1130 02:28:13.933858 24320 net.cpp:122] Setting up inception_5a/1x1
I1130 02:28:13.933876 24320 net.cpp:129] Top shape: 32 256 7 7 (401408)
I1130 02:28:13.933881 24320 net.cpp:137] Memory required for data: 1725424920
I1130 02:28:13.933888 24320 layer_factory.hpp:77] Creating layer inception_5a/relu_1x1
I1130 02:28:13.933897 24320 net.cpp:84] Creating Layer inception_5a/relu_1x1
I1130 02:28:13.933902 24320 net.cpp:406] inception_5a/relu_1x1 <- inception_5a/1x1
I1130 02:28:13.933907 24320 net.cpp:367] inception_5a/relu_1x1 -> inception_5a/1x1 (in-place)
I1130 02:28:13.933915 24320 net.cpp:122] Setting up inception_5a/relu_1x1
I1130 02:28:13.933921 24320 net.cpp:129] Top shape: 32 256 7 7 (401408)
I1130 02:28:13.933925 24320 net.cpp:137] Memory required for data: 1727030552
I1130 02:28:13.933934 24320 layer_factory.hpp:77] Creating layer inception_5a/3x3_reduce
I1130 02:28:13.933951 24320 net.cpp:84] Creating Layer inception_5a/3x3_reduce
I1130 02:28:13.933957 24320 net.cpp:406] inception_5a/3x3_reduce <- pool4/3x3_s2_pool4/3x3_s2_0_split_1
I1130 02:28:13.933965 24320 net.cpp:380] inception_5a/3x3_reduce -> inception_5a/3x3_reduce
I1130 02:28:13.935552 24320 net.cpp:122] Setting up inception_5a/3x3_reduce
I1130 02:28:13.935570 24320 net.cpp:129] Top shape: 32 160 7 7 (250880)
I1130 02:28:13.935575 24320 net.cpp:137] Memory required for data: 1728034072
I1130 02:28:13.935582 24320 layer_factory.hpp:77] Creating layer inception_5a/relu_3x3_reduce
I1130 02:28:13.935590 24320 net.cpp:84] Creating Layer inception_5a/relu_3x3_reduce
I1130 02:28:13.935595 24320 net.cpp:406] inception_5a/relu_3x3_reduce <- inception_5a/3x3_reduce
I1130 02:28:13.935603 24320 net.cpp:367] inception_5a/relu_3x3_reduce -> inception_5a/3x3_reduce (in-place)
I1130 02:28:13.935612 24320 net.cpp:122] Setting up inception_5a/relu_3x3_reduce
I1130 02:28:13.935618 24320 net.cpp:129] Top shape: 32 160 7 7 (250880)
I1130 02:28:13.935622 24320 net.cpp:137] Memory required for data: 1729037592
I1130 02:28:13.935626 24320 layer_factory.hpp:77] Creating layer inception_5a/3x3
I1130 02:28:13.935636 24320 net.cpp:84] Creating Layer inception_5a/3x3
I1130 02:28:13.935642 24320 net.cpp:406] inception_5a/3x3 <- inception_5a/3x3_reduce
I1130 02:28:13.935648 24320 net.cpp:380] inception_5a/3x3 -> inception_5a/3x3
I1130 02:28:13.939663 24320 net.cpp:122] Setting up inception_5a/3x3
I1130 02:28:13.939682 24320 net.cpp:129] Top shape: 32 320 7 7 (501760)
I1130 02:28:13.939687 24320 net.cpp:137] Memory required for data: 1731044632
I1130 02:28:13.939694 24320 layer_factory.hpp:77] Creating layer inception_5a/relu_3x3
I1130 02:28:13.939703 24320 net.cpp:84] Creating Layer inception_5a/relu_3x3
I1130 02:28:13.939709 24320 net.cpp:406] inception_5a/relu_3x3 <- inception_5a/3x3
I1130 02:28:13.939715 24320 net.cpp:367] inception_5a/relu_3x3 -> inception_5a/3x3 (in-place)
I1130 02:28:13.939724 24320 net.cpp:122] Setting up inception_5a/relu_3x3
I1130 02:28:13.939729 24320 net.cpp:129] Top shape: 32 320 7 7 (501760)
I1130 02:28:13.939733 24320 net.cpp:137] Memory required for data: 1733051672
I1130 02:28:13.939738 24320 layer_factory.hpp:77] Creating layer inception_5a/5x5_reduce
I1130 02:28:13.939749 24320 net.cpp:84] Creating Layer inception_5a/5x5_reduce
I1130 02:28:13.939754 24320 net.cpp:406] inception_5a/5x5_reduce <- pool4/3x3_s2_pool4/3x3_s2_0_split_2
I1130 02:28:13.939761 24320 net.cpp:380] inception_5a/5x5_reduce -> inception_5a/5x5_reduce
I1130 02:28:13.940165 24320 net.cpp:122] Setting up inception_5a/5x5_reduce
I1130 02:28:13.940176 24320 net.cpp:129] Top shape: 32 32 7 7 (50176)
I1130 02:28:13.940179 24320 net.cpp:137] Memory required for data: 1733252376
I1130 02:28:13.940186 24320 layer_factory.hpp:77] Creating layer inception_5a/relu_5x5_reduce
I1130 02:28:13.940192 24320 net.cpp:84] Creating Layer inception_5a/relu_5x5_reduce
I1130 02:28:13.940197 24320 net.cpp:406] inception_5a/relu_5x5_reduce <- inception_5a/5x5_reduce
I1130 02:28:13.940203 24320 net.cpp:367] inception_5a/relu_5x5_reduce -> inception_5a/5x5_reduce (in-place)
I1130 02:28:13.940210 24320 net.cpp:122] Setting up inception_5a/relu_5x5_reduce
I1130 02:28:13.940215 24320 net.cpp:129] Top shape: 32 32 7 7 (50176)
I1130 02:28:13.940219 24320 net.cpp:137] Memory required for data: 1733453080
I1130 02:28:13.940223 24320 layer_factory.hpp:77] Creating layer inception_5a/5x5
I1130 02:28:13.940234 24320 net.cpp:84] Creating Layer inception_5a/5x5
I1130 02:28:13.940239 24320 net.cpp:406] inception_5a/5x5 <- inception_5a/5x5_reduce
I1130 02:28:13.940248 24320 net.cpp:380] inception_5a/5x5 -> inception_5a/5x5
I1130 02:28:13.941144 24320 net.cpp:122] Setting up inception_5a/5x5
I1130 02:28:13.941155 24320 net.cpp:129] Top shape: 32 128 7 7 (200704)
I1130 02:28:13.941160 24320 net.cpp:137] Memory required for data: 1734255896
I1130 02:28:13.941166 24320 layer_factory.hpp:77] Creating layer inception_5a/relu_5x5
I1130 02:28:13.941177 24320 net.cpp:84] Creating Layer inception_5a/relu_5x5
I1130 02:28:13.941190 24320 net.cpp:406] inception_5a/relu_5x5 <- inception_5a/5x5
I1130 02:28:13.941197 24320 net.cpp:367] inception_5a/relu_5x5 -> inception_5a/5x5 (in-place)
I1130 02:28:13.941205 24320 net.cpp:122] Setting up inception_5a/relu_5x5
I1130 02:28:13.941210 24320 net.cpp:129] Top shape: 32 128 7 7 (200704)
I1130 02:28:13.941215 24320 net.cpp:137] Memory required for data: 1735058712
I1130 02:28:13.941218 24320 layer_factory.hpp:77] Creating layer inception_5a/pool
I1130 02:28:13.941226 24320 net.cpp:84] Creating Layer inception_5a/pool
I1130 02:28:13.941231 24320 net.cpp:406] inception_5a/pool <- pool4/3x3_s2_pool4/3x3_s2_0_split_3
I1130 02:28:13.941236 24320 net.cpp:380] inception_5a/pool -> inception_5a/pool
I1130 02:28:13.941277 24320 net.cpp:122] Setting up inception_5a/pool
I1130 02:28:13.941284 24320 net.cpp:129] Top shape: 32 832 7 7 (1304576)
I1130 02:28:13.941288 24320 net.cpp:137] Memory required for data: 1740277016
I1130 02:28:13.941293 24320 layer_factory.hpp:77] Creating layer inception_5a/pool_proj
I1130 02:28:13.941303 24320 net.cpp:84] Creating Layer inception_5a/pool_proj
I1130 02:28:13.941309 24320 net.cpp:406] inception_5a/pool_proj <- inception_5a/pool
I1130 02:28:13.941318 24320 net.cpp:380] inception_5a/pool_proj -> inception_5a/pool_proj
I1130 02:28:13.942709 24320 net.cpp:122] Setting up inception_5a/pool_proj
I1130 02:28:13.942728 24320 net.cpp:129] Top shape: 32 128 7 7 (200704)
I1130 02:28:13.942733 24320 net.cpp:137] Memory required for data: 1741079832
I1130 02:28:13.942739 24320 layer_factory.hpp:77] Creating layer inception_5a/relu_pool_proj
I1130 02:28:13.942747 24320 net.cpp:84] Creating Layer inception_5a/relu_pool_proj
I1130 02:28:13.942752 24320 net.cpp:406] inception_5a/relu_pool_proj <- inception_5a/pool_proj
I1130 02:28:13.942759 24320 net.cpp:367] inception_5a/relu_pool_proj -> inception_5a/pool_proj (in-place)
I1130 02:28:13.942767 24320 net.cpp:122] Setting up inception_5a/relu_pool_proj
I1130 02:28:13.942773 24320 net.cpp:129] Top shape: 32 128 7 7 (200704)
I1130 02:28:13.942777 24320 net.cpp:137] Memory required for data: 1741882648
I1130 02:28:13.942781 24320 layer_factory.hpp:77] Creating layer inception_5a/output
I1130 02:28:13.942790 24320 net.cpp:84] Creating Layer inception_5a/output
I1130 02:28:13.942795 24320 net.cpp:406] inception_5a/output <- inception_5a/1x1
I1130 02:28:13.942800 24320 net.cpp:406] inception_5a/output <- inception_5a/3x3
I1130 02:28:13.942806 24320 net.cpp:406] inception_5a/output <- inception_5a/5x5
I1130 02:28:13.942811 24320 net.cpp:406] inception_5a/output <- inception_5a/pool_proj
I1130 02:28:13.942816 24320 net.cpp:380] inception_5a/output -> inception_5a/output
I1130 02:28:13.942843 24320 net.cpp:122] Setting up inception_5a/output
I1130 02:28:13.942852 24320 net.cpp:129] Top shape: 32 832 7 7 (1304576)
I1130 02:28:13.942857 24320 net.cpp:137] Memory required for data: 1747100952
I1130 02:28:13.942860 24320 layer_factory.hpp:77] Creating layer inception_5a/output_inception_5a/output_0_split
I1130 02:28:13.942867 24320 net.cpp:84] Creating Layer inception_5a/output_inception_5a/output_0_split
I1130 02:28:13.942872 24320 net.cpp:406] inception_5a/output_inception_5a/output_0_split <- inception_5a/output
I1130 02:28:13.942878 24320 net.cpp:380] inception_5a/output_inception_5a/output_0_split -> inception_5a/output_inception_5a/output_0_split_0
I1130 02:28:13.942885 24320 net.cpp:380] inception_5a/output_inception_5a/output_0_split -> inception_5a/output_inception_5a/output_0_split_1
I1130 02:28:13.942893 24320 net.cpp:380] inception_5a/output_inception_5a/output_0_split -> inception_5a/output_inception_5a/output_0_split_2
I1130 02:28:13.942898 24320 net.cpp:380] inception_5a/output_inception_5a/output_0_split -> inception_5a/output_inception_5a/output_0_split_3
I1130 02:28:13.942951 24320 net.cpp:122] Setting up inception_5a/output_inception_5a/output_0_split
I1130 02:28:13.942958 24320 net.cpp:129] Top shape: 32 832 7 7 (1304576)
I1130 02:28:13.942968 24320 net.cpp:129] Top shape: 32 832 7 7 (1304576)
I1130 02:28:13.942973 24320 net.cpp:129] Top shape: 32 832 7 7 (1304576)
I1130 02:28:13.942984 24320 net.cpp:129] Top shape: 32 832 7 7 (1304576)
I1130 02:28:13.942988 24320 net.cpp:137] Memory required for data: 1767974168
I1130 02:28:13.942992 24320 layer_factory.hpp:77] Creating layer inception_5b/1x1
I1130 02:28:13.943006 24320 net.cpp:84] Creating Layer inception_5b/1x1
I1130 02:28:13.943011 24320 net.cpp:406] inception_5b/1x1 <- inception_5a/output_inception_5a/output_0_split_0
I1130 02:28:13.943018 24320 net.cpp:380] inception_5b/1x1 -> inception_5b/1x1
I1130 02:28:13.945919 24320 net.cpp:122] Setting up inception_5b/1x1
I1130 02:28:13.945936 24320 net.cpp:129] Top shape: 32 384 7 7 (602112)
I1130 02:28:13.945941 24320 net.cpp:137] Memory required for data: 1770382616
I1130 02:28:13.945950 24320 layer_factory.hpp:77] Creating layer inception_5b/relu_1x1
I1130 02:28:13.945960 24320 net.cpp:84] Creating Layer inception_5b/relu_1x1
I1130 02:28:13.945966 24320 net.cpp:406] inception_5b/relu_1x1 <- inception_5b/1x1
I1130 02:28:13.945971 24320 net.cpp:367] inception_5b/relu_1x1 -> inception_5b/1x1 (in-place)
I1130 02:28:13.945979 24320 net.cpp:122] Setting up inception_5b/relu_1x1
I1130 02:28:13.945984 24320 net.cpp:129] Top shape: 32 384 7 7 (602112)
I1130 02:28:13.945989 24320 net.cpp:137] Memory required for data: 1772791064
I1130 02:28:13.945993 24320 layer_factory.hpp:77] Creating layer inception_5b/3x3_reduce
I1130 02:28:13.946005 24320 net.cpp:84] Creating Layer inception_5b/3x3_reduce
I1130 02:28:13.946010 24320 net.cpp:406] inception_5b/3x3_reduce <- inception_5a/output_inception_5a/output_0_split_1
I1130 02:28:13.946017 24320 net.cpp:380] inception_5b/3x3_reduce -> inception_5b/3x3_reduce
I1130 02:28:13.947796 24320 net.cpp:122] Setting up inception_5b/3x3_reduce
I1130 02:28:13.947814 24320 net.cpp:129] Top shape: 32 192 7 7 (301056)
I1130 02:28:13.947820 24320 net.cpp:137] Memory required for data: 1773995288
I1130 02:28:13.947827 24320 layer_factory.hpp:77] Creating layer inception_5b/relu_3x3_reduce
I1130 02:28:13.947834 24320 net.cpp:84] Creating Layer inception_5b/relu_3x3_reduce
I1130 02:28:13.947840 24320 net.cpp:406] inception_5b/relu_3x3_reduce <- inception_5b/3x3_reduce
I1130 02:28:13.947849 24320 net.cpp:367] inception_5b/relu_3x3_reduce -> inception_5b/3x3_reduce (in-place)
I1130 02:28:13.947856 24320 net.cpp:122] Setting up inception_5b/relu_3x3_reduce
I1130 02:28:13.947862 24320 net.cpp:129] Top shape: 32 192 7 7 (301056)
I1130 02:28:13.947866 24320 net.cpp:137] Memory required for data: 1775199512
I1130 02:28:13.947871 24320 layer_factory.hpp:77] Creating layer inception_5b/3x3
I1130 02:28:13.947880 24320 net.cpp:84] Creating Layer inception_5b/3x3
I1130 02:28:13.947885 24320 net.cpp:406] inception_5b/3x3 <- inception_5b/3x3_reduce
I1130 02:28:13.947893 24320 net.cpp:380] inception_5b/3x3 -> inception_5b/3x3
I1130 02:28:13.953505 24320 net.cpp:122] Setting up inception_5b/3x3
I1130 02:28:13.953523 24320 net.cpp:129] Top shape: 32 384 7 7 (602112)
I1130 02:28:13.953528 24320 net.cpp:137] Memory required for data: 1777607960
I1130 02:28:13.953536 24320 layer_factory.hpp:77] Creating layer inception_5b/relu_3x3
I1130 02:28:13.953543 24320 net.cpp:84] Creating Layer inception_5b/relu_3x3
I1130 02:28:13.953549 24320 net.cpp:406] inception_5b/relu_3x3 <- inception_5b/3x3
I1130 02:28:13.953557 24320 net.cpp:367] inception_5b/relu_3x3 -> inception_5b/3x3 (in-place)
I1130 02:28:13.953570 24320 net.cpp:122] Setting up inception_5b/relu_3x3
I1130 02:28:13.953577 24320 net.cpp:129] Top shape: 32 384 7 7 (602112)
I1130 02:28:13.953582 24320 net.cpp:137] Memory required for data: 1780016408
I1130 02:28:13.953585 24320 layer_factory.hpp:77] Creating layer inception_5b/5x5_reduce
I1130 02:28:13.953598 24320 net.cpp:84] Creating Layer inception_5b/5x5_reduce
I1130 02:28:13.953603 24320 net.cpp:406] inception_5b/5x5_reduce <- inception_5a/output_inception_5a/output_0_split_2
I1130 02:28:13.953610 24320 net.cpp:380] inception_5b/5x5_reduce -> inception_5b/5x5_reduce
I1130 02:28:13.954141 24320 net.cpp:122] Setting up inception_5b/5x5_reduce
I1130 02:28:13.954162 24320 net.cpp:129] Top shape: 32 48 7 7 (75264)
I1130 02:28:13.954166 24320 net.cpp:137] Memory required for data: 1780317464
I1130 02:28:13.954174 24320 layer_factory.hpp:77] Creating layer inception_5b/relu_5x5_reduce
I1130 02:28:13.954182 24320 net.cpp:84] Creating Layer inception_5b/relu_5x5_reduce
I1130 02:28:13.954188 24320 net.cpp:406] inception_5b/relu_5x5_reduce <- inception_5b/5x5_reduce
I1130 02:28:13.954195 24320 net.cpp:367] inception_5b/relu_5x5_reduce -> inception_5b/5x5_reduce (in-place)
I1130 02:28:13.954201 24320 net.cpp:122] Setting up inception_5b/relu_5x5_reduce
I1130 02:28:13.954207 24320 net.cpp:129] Top shape: 32 48 7 7 (75264)
I1130 02:28:13.954211 24320 net.cpp:137] Memory required for data: 1780618520
I1130 02:28:13.954216 24320 layer_factory.hpp:77] Creating layer inception_5b/5x5
I1130 02:28:13.954226 24320 net.cpp:84] Creating Layer inception_5b/5x5
I1130 02:28:13.954231 24320 net.cpp:406] inception_5b/5x5 <- inception_5b/5x5_reduce
I1130 02:28:13.954237 24320 net.cpp:380] inception_5b/5x5 -> inception_5b/5x5
I1130 02:28:13.955495 24320 net.cpp:122] Setting up inception_5b/5x5
I1130 02:28:13.955509 24320 net.cpp:129] Top shape: 32 128 7 7 (200704)
I1130 02:28:13.955513 24320 net.cpp:137] Memory required for data: 1781421336
I1130 02:28:13.955520 24320 layer_factory.hpp:77] Creating layer inception_5b/relu_5x5
I1130 02:28:13.955528 24320 net.cpp:84] Creating Layer inception_5b/relu_5x5
I1130 02:28:13.955533 24320 net.cpp:406] inception_5b/relu_5x5 <- inception_5b/5x5
I1130 02:28:13.955538 24320 net.cpp:367] inception_5b/relu_5x5 -> inception_5b/5x5 (in-place)
I1130 02:28:13.955545 24320 net.cpp:122] Setting up inception_5b/relu_5x5
I1130 02:28:13.955550 24320 net.cpp:129] Top shape: 32 128 7 7 (200704)
I1130 02:28:13.955555 24320 net.cpp:137] Memory required for data: 1782224152
I1130 02:28:13.955559 24320 layer_factory.hpp:77] Creating layer inception_5b/pool
I1130 02:28:13.955569 24320 net.cpp:84] Creating Layer inception_5b/pool
I1130 02:28:13.955574 24320 net.cpp:406] inception_5b/pool <- inception_5a/output_inception_5a/output_0_split_3
I1130 02:28:13.955580 24320 net.cpp:380] inception_5b/pool -> inception_5b/pool
I1130 02:28:13.955621 24320 net.cpp:122] Setting up inception_5b/pool
I1130 02:28:13.955628 24320 net.cpp:129] Top shape: 32 832 7 7 (1304576)
I1130 02:28:13.955632 24320 net.cpp:137] Memory required for data: 1787442456
I1130 02:28:13.955636 24320 layer_factory.hpp:77] Creating layer inception_5b/pool_proj
I1130 02:28:13.955648 24320 net.cpp:84] Creating Layer inception_5b/pool_proj
I1130 02:28:13.955654 24320 net.cpp:406] inception_5b/pool_proj <- inception_5b/pool
I1130 02:28:13.955660 24320 net.cpp:380] inception_5b/pool_proj -> inception_5b/pool_proj
I1130 02:28:13.957082 24320 net.cpp:122] Setting up inception_5b/pool_proj
I1130 02:28:13.957098 24320 net.cpp:129] Top shape: 32 128 7 7 (200704)
I1130 02:28:13.957103 24320 net.cpp:137] Memory required for data: 1788245272
I1130 02:28:13.957111 24320 layer_factory.hpp:77] Creating layer inception_5b/relu_pool_proj
I1130 02:28:13.957120 24320 net.cpp:84] Creating Layer inception_5b/relu_pool_proj
I1130 02:28:13.957126 24320 net.cpp:406] inception_5b/relu_pool_proj <- inception_5b/pool_proj
I1130 02:28:13.957132 24320 net.cpp:367] inception_5b/relu_pool_proj -> inception_5b/pool_proj (in-place)
I1130 02:28:13.957140 24320 net.cpp:122] Setting up inception_5b/relu_pool_proj
I1130 02:28:13.957145 24320 net.cpp:129] Top shape: 32 128 7 7 (200704)
I1130 02:28:13.957150 24320 net.cpp:137] Memory required for data: 1789048088
I1130 02:28:13.957154 24320 layer_factory.hpp:77] Creating layer inception_5b/output
I1130 02:28:13.957160 24320 net.cpp:84] Creating Layer inception_5b/output
I1130 02:28:13.957165 24320 net.cpp:406] inception_5b/output <- inception_5b/1x1
I1130 02:28:13.957170 24320 net.cpp:406] inception_5b/output <- inception_5b/3x3
I1130 02:28:13.957175 24320 net.cpp:406] inception_5b/output <- inception_5b/5x5
I1130 02:28:13.957185 24320 net.cpp:406] inception_5b/output <- inception_5b/pool_proj
I1130 02:28:13.957198 24320 net.cpp:380] inception_5b/output -> inception_5b/output
I1130 02:28:13.957226 24320 net.cpp:122] Setting up inception_5b/output
I1130 02:28:13.957234 24320 net.cpp:129] Top shape: 32 1024 7 7 (1605632)
I1130 02:28:13.957238 24320 net.cpp:137] Memory required for data: 1795470616
I1130 02:28:13.957243 24320 layer_factory.hpp:77] Creating layer pool5/7x7_s1
I1130 02:28:13.957252 24320 net.cpp:84] Creating Layer pool5/7x7_s1
I1130 02:28:13.957257 24320 net.cpp:406] pool5/7x7_s1 <- inception_5b/output
I1130 02:28:13.957262 24320 net.cpp:380] pool5/7x7_s1 -> pool5/7x7_s1
I1130 02:28:13.957288 24320 net.cpp:122] Setting up pool5/7x7_s1
I1130 02:28:13.957296 24320 net.cpp:129] Top shape: 32 1024 1 1 (32768)
I1130 02:28:13.957300 24320 net.cpp:137] Memory required for data: 1795601688
I1130 02:28:13.957304 24320 layer_factory.hpp:77] Creating layer pool5/drop_7x7_s1
I1130 02:28:13.957311 24320 net.cpp:84] Creating Layer pool5/drop_7x7_s1
I1130 02:28:13.957316 24320 net.cpp:406] pool5/drop_7x7_s1 <- pool5/7x7_s1
I1130 02:28:13.957324 24320 net.cpp:367] pool5/drop_7x7_s1 -> pool5/7x7_s1 (in-place)
I1130 02:28:13.957346 24320 net.cpp:122] Setting up pool5/drop_7x7_s1
I1130 02:28:13.957355 24320 net.cpp:129] Top shape: 32 1024 1 1 (32768)
I1130 02:28:13.957358 24320 net.cpp:137] Memory required for data: 1795732760
I1130 02:28:13.957362 24320 layer_factory.hpp:77] Creating layer loss3/classifier
I1130 02:28:13.957370 24320 net.cpp:84] Creating Layer loss3/classifier
I1130 02:28:13.957376 24320 net.cpp:406] loss3/classifier <- pool5/7x7_s1
I1130 02:28:13.957384 24320 net.cpp:380] loss3/classifier -> loss3/classifier
I1130 02:28:13.965659 24320 net.cpp:122] Setting up loss3/classifier
I1130 02:28:13.965677 24320 net.cpp:129] Top shape: 32 1000 (32000)
I1130 02:28:13.965682 24320 net.cpp:137] Memory required for data: 1795860760
I1130 02:28:13.965690 24320 layer_factory.hpp:77] Creating layer loss3/classifier_loss3/classifier_0_split
I1130 02:28:13.965698 24320 net.cpp:84] Creating Layer loss3/classifier_loss3/classifier_0_split
I1130 02:28:13.965703 24320 net.cpp:406] loss3/classifier_loss3/classifier_0_split <- loss3/classifier
I1130 02:28:13.965710 24320 net.cpp:380] loss3/classifier_loss3/classifier_0_split -> loss3/classifier_loss3/classifier_0_split_0
I1130 02:28:13.965718 24320 net.cpp:380] loss3/classifier_loss3/classifier_0_split -> loss3/classifier_loss3/classifier_0_split_1
I1130 02:28:13.965725 24320 net.cpp:380] loss3/classifier_loss3/classifier_0_split -> loss3/classifier_loss3/classifier_0_split_2
I1130 02:28:13.965775 24320 net.cpp:122] Setting up loss3/classifier_loss3/classifier_0_split
I1130 02:28:13.965785 24320 net.cpp:129] Top shape: 32 1000 (32000)
I1130 02:28:13.965790 24320 net.cpp:129] Top shape: 32 1000 (32000)
I1130 02:28:13.965795 24320 net.cpp:129] Top shape: 32 1000 (32000)
I1130 02:28:13.965798 24320 net.cpp:137] Memory required for data: 1796244760
I1130 02:28:13.965802 24320 layer_factory.hpp:77] Creating layer loss3/loss3
I1130 02:28:13.965808 24320 net.cpp:84] Creating Layer loss3/loss3
I1130 02:28:13.965813 24320 net.cpp:406] loss3/loss3 <- loss3/classifier_loss3/classifier_0_split_0
I1130 02:28:13.965819 24320 net.cpp:406] loss3/loss3 <- label_data_1_split_6
…
