…
I1203 18:40:44.851014  4786 solver.cpp:87] Creating training net from net file: train_val.prototxt
I1203 18:40:44.851347  4786 net.cpp:294] The NetState phase (0) differed from the phase (1) specified by a rule in layer data
I1203 18:40:44.851436  4786 net.cpp:51] Initializing net from parameters: 
state {
  phase: TRAIN
  level: 0
  stage: ""
}
layer {
  name: "data"
  type: "Data"
  top: "data"
  top: "label"
  include {
    phase: TRAIN
  }
  transform_param {
    scale: 0.0039215689
  }
  data_param {
    source: "/home/vtyurin/Diploma/lmdb/256_gray/train_db"
    batch_size: 16
    backend: LMDB
  }
}
layer {
  name: "conv1"
  type: "Convolution"
  bottom: "data"
  top: "conv1"
  convolution_param {
    num_output: 20
    kernel_size: 2
    weight_filler {
      type: "xavier"
    }
  }
}
layer {
  name: "pool1"
  type: "Pooling"
  bottom: "conv1"
  top: "pool1"
  pooling_param {
    pool: MAX
    kernel_size: 2
    stride: 2
  }
}
layer {
  name: "conv2"
  type: "Convolution"
  bottom: "pool1"
  top: "conv2"
  convolution_param {
    num_output: 40
    kernel_size: 4
    weight_filler {
      type: "xavier"
    }
  }
}
layer {
  name: "relu2"
  type: "ReLU"
  bottom: "conv2"
  top: "conv2"
}
layer {
  name: "pool2"
  type: "Pooling"
  bottom: "conv2"
  top: "pool2"
  pooling_param {
    pool: MAX
    kernel_size: 2
    stride: 2
  }
}
layer {
  name: "fc1"
  type: "InnerProduct"
  bottom: "pool2"
  top: "fc1"
  inner_product_param {
    num_output: 500
    weight_filler {
      type: "xavier"
    }
  }
}
layer {
  name: "relu3"
  type: "ReLU"
  bottom: "fc1"
  top: "fc1"
}
layer {
  name: "score"
  type: "InnerProduct"
  bottom: "fc1"
  top: "score"
  inner_product_param {
    num_output: 2
    weight_filler {
      type: "xavier"
    }
  }
}
layer {
  name: "accuracy"
  type: "Accuracy"
  bottom: "score"
  bottom: "label"
  top: "accuracy"
}
layer {
  name: "loss"
  type: "SoftmaxWithLoss"
  bottom: "score"
  bottom: "label"
  top: "loss"
}
I1203 18:40:44.851538  4786 layer_factory.hpp:77] Creating layer data
I1203 18:40:44.851644  4786 db_lmdb.cpp:35] Opened lmdb /home/vtyurin/Diploma/lmdb/256_gray/train_db
I1203 18:40:44.851691  4786 net.cpp:84] Creating Layer data
I1203 18:40:44.851701  4786 net.cpp:380] data -> data
I1203 18:40:44.851729  4786 net.cpp:380] data -> label
I1203 18:40:44.852999  4786 data_layer.cpp:45] output data size: 16,1,256,256
I1203 18:40:44.866000  4786 net.cpp:122] Setting up data
I1203 18:40:44.866024  4786 net.cpp:129] Top shape: 16 1 256 256 (1048576)
I1203 18:40:44.866031  4786 net.cpp:129] Top shape: 16 (16)
I1203 18:40:44.866036  4786 net.cpp:137] Memory required for data: 4194368
I1203 18:40:44.866046  4786 layer_factory.hpp:77] Creating layer label_data_1_split
I1203 18:40:44.866062  4786 net.cpp:84] Creating Layer label_data_1_split
I1203 18:40:44.866070  4786 net.cpp:406] label_data_1_split <- label
I1203 18:40:44.866083  4786 net.cpp:380] label_data_1_split -> label_data_1_split_0
I1203 18:40:44.866093  4786 net.cpp:380] label_data_1_split -> label_data_1_split_1
I1203 18:40:44.866155  4786 net.cpp:122] Setting up label_data_1_split
I1203 18:40:44.866165  4786 net.cpp:129] Top shape: 16 (16)
I1203 18:40:44.866171  4786 net.cpp:129] Top shape: 16 (16)
I1203 18:40:44.866175  4786 net.cpp:137] Memory required for data: 4194496
I1203 18:40:44.866180  4786 layer_factory.hpp:77] Creating layer conv1
I1203 18:40:44.866197  4786 net.cpp:84] Creating Layer conv1
I1203 18:40:44.866202  4786 net.cpp:406] conv1 <- data
I1203 18:40:44.866209  4786 net.cpp:380] conv1 -> conv1
I1203 18:40:44.866997  4786 net.cpp:122] Setting up conv1
I1203 18:40:44.867015  4786 net.cpp:129] Top shape: 16 20 255 255 (20808000)
I1203 18:40:44.867038  4786 net.cpp:137] Memory required for data: 87426496
I1203 18:40:44.867053  4786 layer_factory.hpp:77] Creating layer pool1
I1203 18:40:44.867065  4786 net.cpp:84] Creating Layer pool1
I1203 18:40:44.867070  4786 net.cpp:406] pool1 <- conv1
I1203 18:40:44.867076  4786 net.cpp:380] pool1 -> pool1
I1203 18:40:44.867136  4786 net.cpp:122] Setting up pool1
I1203 18:40:44.867146  4786 net.cpp:129] Top shape: 16 20 128 128 (5242880)
I1203 18:40:44.867151  4786 net.cpp:137] Memory required for data: 108398016
I1203 18:40:44.867154  4786 layer_factory.hpp:77] Creating layer conv2
I1203 18:40:44.867164  4786 net.cpp:84] Creating Layer conv2
I1203 18:40:44.867168  4786 net.cpp:406] conv2 <- pool1
I1203 18:40:44.867175  4786 net.cpp:380] conv2 -> conv2
I1203 18:40:44.871261  4786 net.cpp:122] Setting up conv2
I1203 18:40:44.871315  4786 net.cpp:129] Top shape: 16 40 125 125 (10000000)
I1203 18:40:44.871320  4786 net.cpp:137] Memory required for data: 148398016
I1203 18:40:44.871338  4786 layer_factory.hpp:77] Creating layer relu2
I1203 18:40:44.871351  4786 net.cpp:84] Creating Layer relu2
I1203 18:40:44.871357  4786 net.cpp:406] relu2 <- conv2
I1203 18:40:44.871366  4786 net.cpp:367] relu2 -> conv2 (in-place)
I1203 18:40:44.871376  4786 net.cpp:122] Setting up relu2
I1203 18:40:44.871382  4786 net.cpp:129] Top shape: 16 40 125 125 (10000000)
I1203 18:40:44.871387  4786 net.cpp:137] Memory required for data: 188398016
I1203 18:40:44.871390  4786 layer_factory.hpp:77] Creating layer pool2
I1203 18:40:44.871399  4786 net.cpp:84] Creating Layer pool2
I1203 18:40:44.871403  4786 net.cpp:406] pool2 <- conv2
I1203 18:40:44.871409  4786 net.cpp:380] pool2 -> pool2
I1203 18:40:44.871450  4786 net.cpp:122] Setting up pool2
I1203 18:40:44.871459  4786 net.cpp:129] Top shape: 16 40 63 63 (2540160)
I1203 18:40:44.871464  4786 net.cpp:137] Memory required for data: 198558656
I1203 18:40:44.871467  4786 layer_factory.hpp:77] Creating layer fc1
I1203 18:40:44.871476  4786 net.cpp:84] Creating Layer fc1
I1203 18:40:44.871481  4786 net.cpp:406] fc1 <- pool2
I1203 18:40:44.871489  4786 net.cpp:380] fc1 -> fc1
I1203 18:40:45.570252  4786 net.cpp:122] Setting up fc1
I1203 18:40:45.570322  4786 net.cpp:129] Top shape: 16 500 (8000)
I1203 18:40:45.570329  4786 net.cpp:137] Memory required for data: 198590656
I1203 18:40:45.570348  4786 layer_factory.hpp:77] Creating layer relu3
I1203 18:40:45.570367  4786 net.cpp:84] Creating Layer relu3
I1203 18:40:45.570374  4786 net.cpp:406] relu3 <- fc1
I1203 18:40:45.570382  4786 net.cpp:367] relu3 -> fc1 (in-place)
I1203 18:40:45.570395  4786 net.cpp:122] Setting up relu3
I1203 18:40:45.570401  4786 net.cpp:129] Top shape: 16 500 (8000)
I1203 18:40:45.570406  4786 net.cpp:137] Memory required for data: 198622656
I1203 18:40:45.570410  4786 layer_factory.hpp:77] Creating layer score
I1203 18:40:45.570421  4786 net.cpp:84] Creating Layer score
I1203 18:40:45.570425  4786 net.cpp:406] score <- fc1
I1203 18:40:45.570432  4786 net.cpp:380] score -> score
I1203 18:40:45.570549  4786 net.cpp:122] Setting up score
I1203 18:40:45.570559  4786 net.cpp:129] Top shape: 16 2 (32)
I1203 18:40:45.570564  4786 net.cpp:137] Memory required for data: 198622784
I1203 18:40:45.570570  4786 layer_factory.hpp:77] Creating layer score_score_0_split
I1203 18:40:45.570581  4786 net.cpp:84] Creating Layer score_score_0_split
I1203 18:40:45.570586  4786 net.cpp:406] score_score_0_split <- score
I1203 18:40:45.570593  4786 net.cpp:380] score_score_0_split -> score_score_0_split_0
I1203 18:40:45.570602  4786 net.cpp:380] score_score_0_split -> score_score_0_split_1
I1203 18:40:45.570636  4786 net.cpp:122] Setting up score_score_0_split
I1203 18:40:45.570644  4786 net.cpp:129] Top shape: 16 2 (32)
I1203 18:40:45.570650  4786 net.cpp:129] Top shape: 16 2 (32)
I1203 18:40:45.570654  4786 net.cpp:137] Memory required for data: 198623040
I1203 18:40:45.570659  4786 layer_factory.hpp:77] Creating layer accuracy
I1203 18:40:45.570690  4786 net.cpp:84] Creating Layer accuracy
I1203 18:40:45.570714  4786 net.cpp:406] accuracy <- score_score_0_split_0
I1203 18:40:45.570720  4786 net.cpp:406] accuracy <- label_data_1_split_0
I1203 18:40:45.570726  4786 net.cpp:380] accuracy -> accuracy
…
I1203 18:40:45.571342  4786 solver.cpp:172] Creating test net (#0) specified by net file: train_val.prototxt
I1203 18:40:45.571375  4786 net.cpp:294] The NetState phase (1) differed from the phase (0) specified by a rule in layer data
I1203 18:40:45.571460  4786 net.cpp:51] Initializing net from parameters: 
state {
  phase: TEST
}
layer {
  name: "data"
  type: "Data"
  top: "data"
  top: "label"
  include {
    phase: TEST
  }
  transform_param {
    scale: 0.0039215689
  }
  data_param {
    source: "/home/vtyurin/Diploma/lmdb/256_gray/val_db"
    batch_size: 32
    backend: LMDB
  }
}
layer {
  name: "conv1"
  type: "Convolution"
  bottom: "data"
  top: "conv1"
  convolution_param {
    num_output: 20
    kernel_size: 2
    weight_filler {
      type: "xavier"
    }
  }
}
layer {
  name: "pool1"
  type: "Pooling"
  bottom: "conv1"
  top: "pool1"
  pooling_param {
    pool: MAX
    kernel_size: 2
    stride: 2
  }
}
layer {
  name: "conv2"
  type: "Convolution"
  bottom: "pool1"
  top: "conv2"
  convolution_param {
    num_output: 40
    kernel_size: 4
    weight_filler {
      type: "xavier"
    }
  }
}
layer {
  name: "relu2"
  type: "ReLU"
  bottom: "conv2"
  top: "conv2"
}
layer {
  name: "pool2"
  type: "Pooling"
  bottom: "conv2"
  top: "pool2"
  pooling_param {
    pool: MAX
    kernel_size: 2
    stride: 2
  }
}
layer {
  name: "fc1"
  type: "InnerProduct"
  bottom: "pool2"
  top: "fc1"
  inner_product_param {
    num_output: 500
    weight_filler {
      type: "xavier"
    }
  }
}
layer {
  name: "relu3"
  type: "ReLU"
  bottom: "fc1"
  top: "fc1"
}
layer {
  name: "score"
  type: "InnerProduct"
  bottom: "fc1"
  top: "score"
  inner_product_param {
    num_output: 2
    weight_filler {
      type: "xavier"
    }
  }
}
layer {
  name: "accuracy"
  type: "Accuracy"
  bottom: "score"
  bottom: "label"
  top: "accuracy"
}
layer {
  name: "loss"
  type: "SoftmaxWithLoss"
  bottom: "score"
  bottom: "label"
  top: "loss"
}
I1203 18:40:45.571539  4786 layer_factory.hpp:77] Creating layer data
I1203 18:40:45.571610  4786 db_lmdb.cpp:35] Opened lmdb /home/vtyurin/Diploma/lmdb/256_gray/val_db
I1203 18:40:45.571651  4786 net.cpp:84] Creating Layer data
I1203 18:40:45.571660  4786 net.cpp:380] data -> data
I1203 18:40:45.571669  4786 net.cpp:380] data -> label
I1203 18:40:45.572661  4786 data_layer.cpp:45] output data size: 32,1,256,256
I1203 18:40:45.601073  4786 net.cpp:122] Setting up data
I1203 18:40:45.601136  4786 net.cpp:129] Top shape: 32 1 256 256 (2097152)
I1203 18:40:45.601145  4786 net.cpp:129] Top shape: 32 (32)
I1203 18:40:45.601150  4786 net.cpp:137] Memory required for data: 8388736
I1203 18:40:45.601160  4786 layer_factory.hpp:77] Creating layer label_data_1_split
I1203 18:40:45.601178  4786 net.cpp:84] Creating Layer label_data_1_split
I1203 18:40:45.601186  4786 net.cpp:406] label_data_1_split <- label
I1203 18:40:45.601196  4786 net.cpp:380] label_data_1_split -> label_data_1_split_0
I1203 18:40:45.601208  4786 net.cpp:380] label_data_1_split -> label_data_1_split_1
I1203 18:40:45.601285  4786 net.cpp:122] Setting up label_data_1_split
I1203 18:40:45.601295  4786 net.cpp:129] Top shape: 32 (32)
I1203 18:40:45.601300  4786 net.cpp:129] Top shape: 32 (32)
I1203 18:40:45.601305  4786 net.cpp:137] Memory required for data: 8388992
I1203 18:40:45.601310  4786 layer_factory.hpp:77] Creating layer conv1
I1203 18:40:45.601326  4786 net.cpp:84] Creating Layer conv1
I1203 18:40:45.601331  4786 net.cpp:406] conv1 <- data
I1203 18:40:45.601339  4786 net.cpp:380] conv1 -> conv1
I1203 18:40:45.601644  4786 net.cpp:122] Setting up conv1
I1203 18:40:45.601655  4786 net.cpp:129] Top shape: 32 20 255 255 (41616000)
I1203 18:40:45.601660  4786 net.cpp:137] Memory required for data: 174852992
I1203 18:40:45.601671  4786 layer_factory.hpp:77] Creating layer pool1
I1203 18:40:45.601682  4786 net.cpp:84] Creating Layer pool1
I1203 18:40:45.601687  4786 net.cpp:406] pool1 <- conv1
I1203 18:40:45.601694  4786 net.cpp:380] pool1 -> pool1
I1203 18:40:45.601735  4786 net.cpp:122] Setting up pool1
I1203 18:40:45.601743  4786 net.cpp:129] Top shape: 32 20 128 128 (10485760)
I1203 18:40:45.601747  4786 net.cpp:137] Memory required for data: 216796032
I1203 18:40:45.601752  4786 layer_factory.hpp:77] Creating layer conv2
I1203 18:40:45.601763  4786 net.cpp:84] Creating Layer conv2
I1203 18:40:45.601768  4786 net.cpp:406] conv2 <- pool1
I1203 18:40:45.601774  4786 net.cpp:380] conv2 -> conv2
I1203 18:40:45.602144  4786 net.cpp:122] Setting up conv2
I1203 18:40:45.602157  4786 net.cpp:129] Top shape: 32 40 125 125 (20000000)
I1203 18:40:45.602162  4786 net.cpp:137] Memory required for data: 296796032
I1203 18:40:45.602172  4786 layer_factory.hpp:77] Creating layer relu2
I1203 18:40:45.602180  4786 net.cpp:84] Creating Layer relu2
I1203 18:40:45.602185  4786 net.cpp:406] relu2 <- conv2
I1203 18:40:45.602191  4786 net.cpp:367] relu2 -> conv2 (in-place)
I1203 18:40:45.602198  4786 net.cpp:122] Setting up relu2
I1203 18:40:45.602205  4786 net.cpp:129] Top shape: 32 40 125 125 (20000000)
I1203 18:40:45.602208  4786 net.cpp:137] Memory required for data: 376796032
I1203 18:40:45.602212  4786 layer_factory.hpp:77] Creating layer pool2
I1203 18:40:45.602219  4786 net.cpp:84] Creating Layer pool2
I1203 18:40:45.602224  4786 net.cpp:406] pool2 <- conv2
I1203 18:40:45.602231  4786 net.cpp:380] pool2 -> pool2
I1203 18:40:45.602267  4786 net.cpp:122] Setting up pool2
I1203 18:40:45.602275  4786 net.cpp:129] Top shape: 32 40 63 63 (5080320)
I1203 18:40:45.602279  4786 net.cpp:137] Memory required for data: 397117312
I1203 18:40:45.602284  4786 layer_factory.hpp:77] Creating layer fc1
I1203 18:40:45.602294  4786 net.cpp:84] Creating Layer fc1
I1203 18:40:45.602298  4786 net.cpp:406] fc1 <- pool2
I1203 18:40:45.602316  4786 net.cpp:380] fc1 -> fc1
I1203 18:40:46.286011  4786 net.cpp:122] Setting up fc1
I1203 18:40:46.286088  4786 net.cpp:129] Top shape: 32 500 (16000)
I1203 18:40:46.286095  4786 net.cpp:137] Memory required for data: 397181312
I1203 18:40:46.286110  4786 layer_factory.hpp:77] Creating layer relu3
I1203 18:40:46.286126  4786 net.cpp:84] Creating Layer relu3
I1203 18:40:46.286134  4786 net.cpp:406] relu3 <- fc1
I1203 18:40:46.286144  4786 net.cpp:367] relu3 -> fc1 (in-place)
I1203 18:40:46.286155  4786 net.cpp:122] Setting up relu3
I1203 18:40:46.286161  4786 net.cpp:129] Top shape: 32 500 (16000)
I1203 18:40:46.286165  4786 net.cpp:137] Memory required for data: 397245312
I1203 18:40:46.286170  4786 layer_factory.hpp:77] Creating layer score
I1203 18:40:46.286180  4786 net.cpp:84] Creating Layer score
I1203 18:40:46.286183  4786 net.cpp:406] score <- fc1
I1203 18:40:46.286191  4786 net.cpp:380] score -> score
I1203 18:40:46.286309  4786 net.cpp:122] Setting up score
I1203 18:40:46.286319  4786 net.cpp:129] Top shape: 32 2 (64)
I1203 18:40:46.286324  4786 net.cpp:137] Memory required for data: 397245568
I1203 18:40:46.286330  4786 layer_factory.hpp:77] Creating layer score_score_0_split
I1203 18:40:46.286339  4786 net.cpp:84] Creating Layer score_score_0_split
I1203 18:40:46.286343  4786 net.cpp:406] score_score_0_split <- score
I1203 18:40:46.286350  4786 net.cpp:380] score_score_0_split -> score_score_0_split_0
I1203 18:40:46.286357  4786 net.cpp:380] score_score_0_split -> score_score_0_split_1
I1203 18:40:46.286394  4786 net.cpp:122] Setting up score_score_0_split
I1203 18:40:46.286402  4786 net.cpp:129] Top shape: 32 2 (64)
I1203 18:40:46.286408  4786 net.cpp:129] Top shape: 32 2 (64)
I1203 18:40:46.286412  4786 net.cpp:137] Memory required for data: 397246080
I1203 18:40:46.286417  4786 layer_factory.hpp:77] Creating layer accuracy
I1203 18:40:46.286425  4786 net.cpp:84] Creating Layer accuracy
I1203 18:40:46.286429  4786 net.cpp:406] accuracy <- score_score_0_split_0
I1203 18:40:46.286437  4786 net.cpp:406] accuracy <- label_data_1_split_0
I1203 18:40:46.286442  4786 net.cpp:380] accuracy -> accuracy
…
