…
I1125 17:49:53.737282  8448 net.cpp:294] The NetState phase (0) differed from the phase (1) specified by a rule in layer data
I1125 17:49:53.737299  8448 net.cpp:294] The NetState phase (0) differed from the phase (1) specified by a rule in layer accuracy
I1125 17:49:53.737367  8448 net.cpp:51] Initializing net from parameters: 
state {
  phase: TRAIN
  level: 0
  stage: ""
}
layer {
  name: "data"
  type: "Data"
  top: "data"
  top: "label"
  include {
    phase: TRAIN
  }
  transform_param {
    scale: 0.0039215689
  }
  data_param {
    source: "/home/styurin/DataSet/lmdb/train"
    batch_size: 32
    backend: LMDB
  }
}
layer {
  name: "conv1"
  type: "Convolution"
  bottom: "data"
  top: "conv1"
  convolution_param {
    num_output: 20
    kernel_size: 2
    weight_filler {
      type: "xavier"
    }
  }
}
layer {
  name: "pool1"
  type: "Pooling"
  bottom: "conv1"
  top: "pool1"
  pooling_param {
    pool: MAX
    kernel_size: 2
    stride: 2
  }
}
layer {
  name: "conv2"
  type: "Convolution"
  bottom: "pool1"
  top: "conv2"
  convolution_param {
    num_output: 40
    kernel_size: 4
    weight_filler {
      type: "xavier"
    }
  }
}
layer {
  name: "relu2"
  type: "ReLU"
  bottom: "conv2"
  top: "conv2"
}
layer {
  name: "pool2"
  type: "Pooling"
  bottom: "conv2"
  top: "pool2"
  pooling_param {
    pool: MAX
    kernel_size: 2
    stride: 2
  }
}
layer {
  name: "fc1"
  type: "InnerProduct"
  bottom: "pool2"
  top: "fc1"
  inner_product_param {
    num_output: 500
    weight_filler {
      type: "xavier"
    }
  }
}
layer {
  name: "relu3"
  type: "ReLU"
  bottom: "fc1"
  top: "fc1"
}
layer {
  name: "score"
  type: "InnerProduct"
  bottom: "fc1"
  top: "score"
  inner_product_param {
    num_output: 3
    weight_filler {
      type: "xavier"
    }
  }
}
layer {
  name: "loss"
  type: "SoftmaxWithLoss"
  bottom: "score"
  bottom: "label"
  top: "loss"
}
I1125 17:49:53.737439  8448 layer_factory.hpp:77] Creating layer data
I1125 17:49:53.737546  8448 db_lmdb.cpp:35] Opened lmdb /home/styurin/DataSet/lmdb/train
I1125 17:49:53.737581  8448 net.cpp:84] Creating Layer data
I1125 17:49:53.737591  8448 net.cpp:380] data -> data
I1125 17:49:53.737615  8448 net.cpp:380] data -> label
I1125 17:49:53.738598  8448 data_layer.cpp:45] output data size: 32,3,64,64
I1125 17:49:53.748929  8448 net.cpp:122] Setting up data
I1125 17:49:53.748956  8448 net.cpp:129] Top shape: 32 3 64 64 (393216)
I1125 17:49:53.748965  8448 net.cpp:129] Top shape: 32 (32)
I1125 17:49:53.748968  8448 net.cpp:137] Memory required for data: 1572992
I1125 17:49:53.748978  8448 layer_factory.hpp:77] Creating layer conv1
I1125 17:49:53.749001  8448 net.cpp:84] Creating Layer conv1
I1125 17:49:53.749008  8448 net.cpp:406] conv1 <- data
I1125 17:49:53.749020  8448 net.cpp:380] conv1 -> conv1
I1125 17:49:53.749792  8448 net.cpp:122] Setting up conv1
I1125 17:49:53.749812  8448 net.cpp:129] Top shape: 32 20 63 63 (2540160)
I1125 17:49:53.749817  8448 net.cpp:137] Memory required for data: 11733632
I1125 17:49:53.749832  8448 layer_factory.hpp:77] Creating layer pool1
I1125 17:49:53.749843  8448 net.cpp:84] Creating Layer pool1
I1125 17:49:53.749848  8448 net.cpp:406] pool1 <- conv1
I1125 17:49:53.749856  8448 net.cpp:380] pool1 -> pool1
I1125 17:49:53.749912  8448 net.cpp:122] Setting up pool1
I1125 17:49:53.749922  8448 net.cpp:129] Top shape: 32 20 32 32 (655360)
I1125 17:49:53.749927  8448 net.cpp:137] Memory required for data: 14355072
I1125 17:49:53.749939  8448 layer_factory.hpp:77] Creating layer conv2
I1125 17:49:53.749950  8448 net.cpp:84] Creating Layer conv2
I1125 17:49:53.749966  8448 net.cpp:406] conv2 <- pool1
I1125 17:49:53.749984  8448 net.cpp:380] conv2 -> conv2
I1125 17:49:53.751400  8448 net.cpp:122] Setting up conv2
I1125 17:49:53.751421  8448 net.cpp:129] Top shape: 32 40 29 29 (1076480)
I1125 17:49:53.751426  8448 net.cpp:137] Memory required for data: 18660992
I1125 17:49:53.751437  8448 layer_factory.hpp:77] Creating layer relu2
I1125 17:49:53.751449  8448 net.cpp:84] Creating Layer relu2
I1125 17:49:53.751454  8448 net.cpp:406] relu2 <- conv2
I1125 17:49:53.751461  8448 net.cpp:367] relu2 -> conv2 (in-place)
I1125 17:49:53.751471  8448 net.cpp:122] Setting up relu2
I1125 17:49:53.751477  8448 net.cpp:129] Top shape: 32 40 29 29 (1076480)
I1125 17:49:53.751482  8448 net.cpp:137] Memory required for data: 22966912
I1125 17:49:53.751487  8448 layer_factory.hpp:77] Creating layer pool2
I1125 17:49:53.751493  8448 net.cpp:84] Creating Layer pool2
I1125 17:49:53.751497  8448 net.cpp:406] pool2 <- conv2
I1125 17:49:53.751504  8448 net.cpp:380] pool2 -> pool2
I1125 17:49:53.751624  8448 net.cpp:122] Setting up pool2
I1125 17:49:53.751637  8448 net.cpp:129] Top shape: 32 40 15 15 (288000)
I1125 17:49:53.751642  8448 net.cpp:137] Memory required for data: 24118912
I1125 17:49:53.751646  8448 layer_factory.hpp:77] Creating layer fc1
I1125 17:49:53.751657  8448 net.cpp:84] Creating Layer fc1
I1125 17:49:53.751662  8448 net.cpp:406] fc1 <- pool2
I1125 17:49:53.751668  8448 net.cpp:380] fc1 -> fc1
I1125 17:49:53.787540  8448 net.cpp:122] Setting up fc1
I1125 17:49:53.787575  8448 net.cpp:129] Top shape: 32 500 (16000)
I1125 17:49:53.787580  8448 net.cpp:137] Memory required for data: 24182912
I1125 17:49:53.787595  8448 layer_factory.hpp:77] Creating layer relu3
I1125 17:49:53.787608  8448 net.cpp:84] Creating Layer relu3
I1125 17:49:53.787614  8448 net.cpp:406] relu3 <- fc1
I1125 17:49:53.787622  8448 net.cpp:367] relu3 -> fc1 (in-place)
I1125 17:49:53.787632  8448 net.cpp:122] Setting up relu3
I1125 17:49:53.787638  8448 net.cpp:129] Top shape: 32 500 (16000)
I1125 17:49:53.787642  8448 net.cpp:137] Memory required for data: 24246912
I1125 17:49:53.787647  8448 layer_factory.hpp:77] Creating layer score
I1125 17:49:53.787658  8448 net.cpp:84] Creating Layer score
I1125 17:49:53.787663  8448 net.cpp:406] score <- fc1
I1125 17:49:53.787669  8448 net.cpp:380] score -> score
I1125 17:49:53.787777  8448 net.cpp:122] Setting up score
I1125 17:49:53.787786  8448 net.cpp:129] Top shape: 32 3 (96)
I1125 17:49:53.787791  8448 net.cpp:137] Memory required for data: 24247296
I1125 17:49:53.787798  8448 layer_factory.hpp:77] Creating layer loss
I1125 17:49:53.787813  8448 net.cpp:84] Creating Layer loss
I1125 17:49:53.787818  8448 net.cpp:406] loss <- score
I1125 17:49:53.787824  8448 net.cpp:406] loss <- label
I1125 17:49:53.787837  8448 net.cpp:380] loss -> loss
I1125 17:49:53.787860  8448 layer_factory.hpp:77] Creating layer loss
…
I1125 17:49:53.788336  8448 solver.cpp:172] Creating test net (#0) specified by net file: train_val.prototxt
I1125 17:49:53.788365  8448 net.cpp:294] The NetState phase (1) differed from the phase (0) specified by a rule in layer data
I1125 17:49:53.788439  8448 net.cpp:51] Initializing net from parameters: 
state {
  phase: TEST
}
layer {
  name: "data"
  type: "Data"
  top: "data"
  top: "label"
  include {
    phase: TEST
  }
  transform_param {
    scale: 0.0039215689
  }
  data_param {
    source: "/home/styurin/DataSet/lmdb/val"
    batch_size: 64
    backend: LMDB
  }
}
layer {
  name: "conv1"
  type: "Convolution"
  bottom: "data"
  top: "conv1"
  convolution_param {
    num_output: 20
    kernel_size: 2
    weight_filler {
      type: "xavier"
    }
  }
}
layer {
  name: "pool1"
  type: "Pooling"
  bottom: "conv1"
  top: "pool1"
  pooling_param {
    pool: MAX
    kernel_size: 2
    stride: 2
  }
}
layer {
  name: "conv2"
  type: "Convolution"
  bottom: "pool1"
  top: "conv2"
  convolution_param {
    num_output: 40
    kernel_size: 4
    weight_filler {
      type: "xavier"
    }
  }
}
layer {
  name: "relu2"
  type: "ReLU"
  bottom: "conv2"
  top: "conv2"
}
layer {
  name: "pool2"
  type: "Pooling"
  bottom: "conv2"
  top: "pool2"
  pooling_param {
    pool: MAX
    kernel_size: 2
    stride: 2
  }
}
layer {
  name: "fc1"
  type: "InnerProduct"
  bottom: "pool2"
  top: "fc1"
  inner_product_param {
    num_output: 500
    weight_filler {
      type: "xavier"
    }
  }
}
layer {
  name: "relu3"
  type: "ReLU"
  bottom: "fc1"
  top: "fc1"
}
layer {
  name: "score"
  type: "InnerProduct"
  bottom: "fc1"
  top: "score"
  inner_product_param {
    num_output: 3
    weight_filler {
      type: "xavier"
    }
  }
}
layer {
  name: "accuracy"
  type: "Accuracy"
  bottom: "score"
  bottom: "label"
  top: "accuracy"
  include {
    phase: TEST
  }
}
layer {
  name: "loss"
  type: "SoftmaxWithLoss"
  bottom: "score"
  bottom: "label"
  top: "loss"
}
I1125 17:49:53.788511  8448 layer_factory.hpp:77] Creating layer data
I1125 17:49:53.788576  8448 db_lmdb.cpp:35] Opened lmdb /home/styurin/DataSet/lmdb/val
I1125 17:49:53.788599  8448 net.cpp:84] Creating Layer data
I1125 17:49:53.788605  8448 net.cpp:380] data -> data
I1125 17:49:53.788615  8448 net.cpp:380] data -> label
I1125 17:49:53.788964  8448 data_layer.cpp:45] output data size: 64,3,64,64
I1125 17:49:53.797159  8448 net.cpp:122] Setting up data
I1125 17:49:53.797180  8448 net.cpp:129] Top shape: 64 3 64 64 (786432)
I1125 17:49:53.797188  8448 net.cpp:129] Top shape: 64 (64)
I1125 17:49:53.797193  8448 net.cpp:137] Memory required for data: 3145984
I1125 17:49:53.797197  8448 layer_factory.hpp:77] Creating layer label_data_1_split
I1125 17:49:53.797206  8448 net.cpp:84] Creating Layer label_data_1_split
I1125 17:49:53.797211  8448 net.cpp:406] label_data_1_split <- label
I1125 17:49:53.797221  8448 net.cpp:380] label_data_1_split -> label_data_1_split_0
I1125 17:49:53.797230  8448 net.cpp:380] label_data_1_split -> label_data_1_split_1
I1125 17:49:53.797323  8448 net.cpp:122] Setting up label_data_1_split
I1125 17:49:53.797338  8448 net.cpp:129] Top shape: 64 (64)
I1125 17:49:53.797343  8448 net.cpp:129] Top shape: 64 (64)
I1125 17:49:53.797348  8448 net.cpp:137] Memory required for data: 3146496
I1125 17:49:53.797351  8448 layer_factory.hpp:77] Creating layer conv1
I1125 17:49:53.797365  8448 net.cpp:84] Creating Layer conv1
I1125 17:49:53.797371  8448 net.cpp:406] conv1 <- data
I1125 17:49:53.797377  8448 net.cpp:380] conv1 -> conv1
I1125 17:49:53.797606  8448 net.cpp:122] Setting up conv1
I1125 17:49:53.797618  8448 net.cpp:129] Top shape: 64 20 63 63 (5080320)
I1125 17:49:53.797623  8448 net.cpp:137] Memory required for data: 23467776
I1125 17:49:53.797633  8448 layer_factory.hpp:77] Creating layer pool1
I1125 17:49:53.797641  8448 net.cpp:84] Creating Layer pool1
I1125 17:49:53.797646  8448 net.cpp:406] pool1 <- conv1
I1125 17:49:53.797653  8448 net.cpp:380] pool1 -> pool1
I1125 17:49:53.797698  8448 net.cpp:122] Setting up pool1
I1125 17:49:53.797708  8448 net.cpp:129] Top shape: 64 20 32 32 (1310720)
I1125 17:49:53.797719  8448 net.cpp:137] Memory required for data: 28710656
I1125 17:49:53.797724  8448 layer_factory.hpp:77] Creating layer conv2
I1125 17:49:53.797734  8448 net.cpp:84] Creating Layer conv2
I1125 17:49:53.797739  8448 net.cpp:406] conv2 <- pool1
I1125 17:49:53.797746  8448 net.cpp:380] conv2 -> conv2
I1125 17:49:53.798077  8448 net.cpp:122] Setting up conv2
I1125 17:49:53.798091  8448 net.cpp:129] Top shape: 64 40 29 29 (2152960)
I1125 17:49:53.798096  8448 net.cpp:137] Memory required for data: 37322496
I1125 17:49:53.798105  8448 layer_factory.hpp:77] Creating layer relu2
I1125 17:49:53.798115  8448 net.cpp:84] Creating Layer relu2
I1125 17:49:53.798120  8448 net.cpp:406] relu2 <- conv2
I1125 17:49:53.798125  8448 net.cpp:367] relu2 -> conv2 (in-place)
I1125 17:49:53.798132  8448 net.cpp:122] Setting up relu2
I1125 17:49:53.798138  8448 net.cpp:129] Top shape: 64 40 29 29 (2152960)
I1125 17:49:53.798142  8448 net.cpp:137] Memory required for data: 45934336
I1125 17:49:53.798146  8448 layer_factory.hpp:77] Creating layer pool2
I1125 17:49:53.798152  8448 net.cpp:84] Creating Layer pool2
I1125 17:49:53.798156  8448 net.cpp:406] pool2 <- conv2
I1125 17:49:53.798161  8448 net.cpp:380] pool2 -> pool2
I1125 17:49:53.798198  8448 net.cpp:122] Setting up pool2
I1125 17:49:53.798207  8448 net.cpp:129] Top shape: 64 40 15 15 (576000)
I1125 17:49:53.798210  8448 net.cpp:137] Memory required for data: 48238336
I1125 17:49:53.798214  8448 layer_factory.hpp:77] Creating layer fc1
I1125 17:49:53.798223  8448 net.cpp:84] Creating Layer fc1
I1125 17:49:53.798228  8448 net.cpp:406] fc1 <- pool2
I1125 17:49:53.798233  8448 net.cpp:380] fc1 -> fc1
I1125 17:49:53.834386  8448 net.cpp:122] Setting up fc1
I1125 17:49:53.834424  8448 net.cpp:129] Top shape: 64 500 (32000)
I1125 17:49:53.834429  8448 net.cpp:137] Memory required for data: 48366336
I1125 17:49:53.834444  8448 layer_factory.hpp:77] Creating layer relu3
I1125 17:49:53.834456  8448 net.cpp:84] Creating Layer relu3
I1125 17:49:53.834463  8448 net.cpp:406] relu3 <- fc1
I1125 17:49:53.834473  8448 net.cpp:367] relu3 -> fc1 (in-place)
I1125 17:49:53.834484  8448 net.cpp:122] Setting up relu3
I1125 17:49:53.834491  8448 net.cpp:129] Top shape: 64 500 (32000)
I1125 17:49:53.834494  8448 net.cpp:137] Memory required for data: 48494336
I1125 17:49:53.834499  8448 layer_factory.hpp:77] Creating layer score
I1125 17:49:53.834507  8448 net.cpp:84] Creating Layer score
I1125 17:49:53.834511  8448 net.cpp:406] score <- fc1
I1125 17:49:53.834520  8448 net.cpp:380] score -> score
I1125 17:49:53.834633  8448 net.cpp:122] Setting up score
I1125 17:49:53.834643  8448 net.cpp:129] Top shape: 64 3 (192)
I1125 17:49:53.834648  8448 net.cpp:137] Memory required for data: 48495104
I1125 17:49:53.834656  8448 layer_factory.hpp:77] Creating layer score_score_0_split
I1125 17:49:53.834664  8448 net.cpp:84] Creating Layer score_score_0_split
I1125 17:49:53.834669  8448 net.cpp:406] score_score_0_split <- score
I1125 17:49:53.834676  8448 net.cpp:380] score_score_0_split -> score_score_0_split_0
I1125 17:49:53.834684  8448 net.cpp:380] score_score_0_split -> score_score_0_split_1
I1125 17:49:53.834719  8448 net.cpp:122] Setting up score_score_0_split
I1125 17:49:53.834728  8448 net.cpp:129] Top shape: 64 3 (192)
I1125 17:49:53.834733  8448 net.cpp:129] Top shape: 64 3 (192)
I1125 17:49:53.834738  8448 net.cpp:137] Memory required for data: 48496640
I1125 17:49:53.834741  8448 layer_factory.hpp:77] Creating layer accuracy
I1125 17:49:53.834758  8448 net.cpp:84] Creating Layer accuracy
I1125 17:49:53.834764  8448 net.cpp:406] accuracy <- score_score_0_split_0
I1125 17:49:53.834769  8448 net.cpp:406] accuracy <- label_data_1_split_0
I1125 17:49:53.834775  8448 net.cpp:380] accuracy -> accuracy
…
