…
I1129 07:06:04.603750   553 net.cpp:294] The NetState phase (0) differed from the phase (1) specified by a rule in layer loss3/top-5
I1129 07:06:04.604534   553 net.cpp:51] Initializing net from parameters: 
name: "GoogleNet"
state {
  phase: TRAIN
  level: 0
  stage: ""
}
layer {
  name: "data"
  type: "Data"
  top: "data"
  top: "label"
  include {
    phase: TRAIN
  }
  transform_param {
    mirror: true
    crop_size: 224
    mean_value: 104
    mean_value: 117
    mean_value: 123
  }
  data_param {
    source: "/home/styurin/DataSet/227/train_db"
    batch_size: 16
    backend: LMDB
  }
}
layer {
  name: "conv1/7x7_s2"
  type: "Convolution"
  bottom: "data"
  top: "conv1/7x7_s2"
  param {
    lr_mult: 1
    decay_mult: 1
  }
  param {
    lr_mult: 2
    decay_mult: 0
  }
  convolution_param {
    num_output: 64
    pad: 3
    kernel_size: 7
    stride: 2
    weight_filler {
      type: "xavier"
    }
    bias_filler {
      type: "constant"
      value: 0.2
    }
  }
}
layer {
  name: "conv1/relu_7x7"
  type: "ReLU"
  bottom: "conv1/7x7_s2"
  top: "conv1/7x7_s2"
}
layer {
  name: "pool1/3x3_s2"
  type: "Pooling"
  bottom: "conv1/7x7_s2"
  top: "pool1/3x3_s2"
  pooling_param {
    pool: MAX
    kernel_size: 3
    stride: 2
  }
}
layer {
  name: "pool1/norm1"
  type: "LRN"
  bottom: "pool1/3x3_s2"
  top: "pool1/norm1"
  lrn_param {
    local_size: 5
    alpha: 0.0001
    beta: 0.75
  }
}
layer {
  name: "conv2/3x3_reduce"
  type: "Convolution"
  bottom: "pool1/norm1"
  top: "conv2/3x3_reduce"
  param {
    lr_mult: 1
    decay_mult: 1
  }
  param {
    lr_mult: 2
    decay_mult: 0
  }
  convolution_param {
    num_output: 64
    kernel_size: 1
    weight_filler {
      type: "xavier"
    }
    bias_filler {
      type: "constant"
      value: 0.2
    }
  }
}
layer {
  name: "conv2/relu_3x3_reduce"
  type: "ReLU"
  bottom: "conv2/3x3_reduce"
  top: "conv2/3x3_reduce"
}
layer {
  name: "conv2/3x3"
  type: "Convolution"
  bottom: "conv2/3x3_reduce"
  top: "conv2/3x3"
  param {
    lr_mult: 1
    decay_mult: 1
  }
  param {
    lr_mult: 2
    decay_mult: 0
  }
  convolution_param {
    num_output: 192
    pad: 1
    kernel_size: 3
    weight_filler {
      type: "xavier"
    }
    bias_filler {
      type: "constant"
      value: 0.2
    }
  }
}
layer {
  name: "conv2/relu_3x3"
  type: "ReLU"
  bottom: "conv2/3x3"
  top: "conv2/3x3"
}
layer {
  name: "conv2/norm2"
  type: "LRN"
  bottom: "conv2/3x3"
  top: "conv2/norm2"
  lrn_param {
    local_size: 5
    alpha: 0.0001
    beta: 0.75
  }
}
layer {
  name: "pool2/3x3_s2"
  type: "Pooling"
  bottom: "conv2/norm2"
  top: "pool2/3x3_s2"
  pooling_param {
    pool: MAX
    kernel_size: 3
    stride: 2
  }
}
layer {
  name: "inception_3a/1x1"
  type: "Convolution"
  bottom: "pool2/3x3_s2"
  top: "inception_3a/1x1"
  param {
    lr_mult: 1
    decay_mult: 1
  }
  param {
    lr_mult: 2
    decay_mult: 0
  }
  convolution_param {
    num_output: 64
    kernel_size: 1
    weight_filler {
      type: "xavier"
    }
    bias_filler {
      type: "constant"
      value: 0.2
    }
  }
}
layer {
  name: "inception_3a/relu_1x1"
  type: "ReLU"
  bottom: "inception_3a/1x1"
  top: "inception_3a/1x1"
}
layer {
  name: "inception_3a/3x3_reduce"
  type: "Convolution"
  bottom: "pool2/3x3_s2"
  top: "inception_3a/3x3_reduce"
  param {
    lr_mult: 1
    decay_mult: 1
  }
  param {
    lr_mult: 2
    decay_mult: 0
  }
  convolution_param {
    num_output: 96
    kernel_size: 1
    weight_filler {
      type: "xavier"
    }
    bias_filler {
      type: "constant"
      value: 0.2
    }
  }
}
layer {
  name: "inception_3a/relu_3x3_reduce"
  type: "ReLU"
  bottom: "inception_3a/3x3_reduce"
  top: "inception_3a/3x3_reduce"
}
layer {
  name: "inception_3a/3x3"
  type: "Convolution"
  bottom: "inception_3a/3x3_reduce"
  top: "inception_3a/3x3"
  param {
    lr_mult: 1
    decay_mult: 1
  }
  param {
    lr_mult: 2
    decay_mult: 0
  }
  convolution_param {
    num_output: 128
    pad: 1
    kernel_size: 3
    weight_filler {
      type: "xavier"
    }
    bias_filler {
      type: "constant"
      value: 0.2
    }
  }
}
layer {
  name: "inception_3a/relu_3x3"
  type: "ReLU"
  bottom: "inception_3a/3x3"
  top: "inception_3a/3x3"
}
layer {
  name: "inception_3a/5x5_reduce"
  type: "Convolution"
  bottom: "pool2/3x3_s2"
  top: "inception_3a/5x5_reduce"
  param {
    lr_mult: 1
    decay_mult: 1
  }
  param {
    lr_mult: 2
    decay_mult: 0
  }
  convolution_param {
    num_output: 16
    kernel_size: 1
    weight_filler {
      type: "xavier"
    }
    bias_filler {
      type: "constant"
      value: 0.2
    }
  }
}
layer {
  name: "inception_3a/relu_5x5_reduce"
  type: "ReLU"
  bottom: "inception_3a/5x5_reduce"
  top: "inception_3a/5x5_reduce"
}
layer {
  name: "inception_3a/5x5"
  type: "Convolution"
  bottom: "inception_3a/5x5_reduce"
  top: "inception_3a/5x5"
  param {
    lr_mult: 1
    decay_mult: 1
  }
  param {
    lr_mult: 2
    decay_mult: 0
  }
  convolution_param {
    num_output: 32
    pad: 2
    kernel_size: 5
    weight_filler {
      type: "xavier"
    }
    bias_filler {
      type: "constant"
      value: 0.2
    }
  }
}
layer {
  name: "inception_3a/relu_5x5"
  type: "ReLU"
  bottom: "inception_3a/5x5"
  top: "inception_3a/5x5"
}
layer {
  name: "inception_3a/pool"
  type: "Pooling"
  bottom: "pool2/3x3_s2"
  top: "inception_3a/pool"
  pooling_param {
    pool: MAX
    kernel_size: 3
    stride: 1
    pad: 1
  }
}
layer {
  name: "inception_3a/pool_proj"
  type: "Convolution"
  bottom: "inception_3a/pool"
  top: "inception_3a/pool_proj"
  param {
    lr_mult: 1
    decay_mult: 1
  }
  param {
    lr_mult: 2
    decay_mult: 0
  }
  convolution_param {
    num_output: 32
    kernel_size: 1
    weight_filler {
      type: "xavier"
    }
    bias_filler {
      type: "constant"
      value: 0.2
    }
  }
}
layer {
  name: "inception_3a/relu_pool_proj"
  type: "ReLU"
  bottom: "inception_3a/pool_proj"
  top: "inception_3a/pool_proj"
}
layer {
  name: "inception_3a/output"
  type: "Concat"
  bottom: "inception_3a/1x1"
  bottom: "inception_3a/3x3"
  bottom: "inception_3a/5x5"
  bottom: "inception_3a/pool_proj"
  top: "inception_3a/output"
}
layer {
  name: "inception_3b/1x1"
  type: "Convolution"
  bottom: "inception_3a/output"
  top: "inception_3b/1x1"
  param {
    lr_mult: 1
    decay_mult: 1
  }
  param {
    lr_mult: 2
    decay_mult: 0
  }
  convolution_param {
    num_output: 128
    kernel_size: 1
    weight_filler {
      type: "xavier"
    }
    bias_filler {
      type: "constant"
      value: 0.2
    }
  }
}
layer {
  name: "inception_3b/relu_1x1"
  type: "ReLU"
  bottom: "inception_3b/1x1"
  top: "inception_3b/1x1"
}
layer {
  name: "inception_3b/3x3_reduce"
  type: "Convolution"
  bottom: "inception_3a/output"
  top: "inception_3b/3x3_reduce"
  param {
    lr_mult: 1
    decay_mult: 1
  }
  param {
    lr_mult: 2
    decay_mult: 0
  }
  convolution_param {
    num_output: 128
    kernel_size: 1
    weight_filler {
      type: "xavier"
    }
    bias_filler {
      type: "constant"
      value: 0.2
    }
  }
}
layer {
  name: "inception_3b/relu_3x3_reduce"
  type: "ReLU"
  bottom: "inception_3b/3x3_reduce"
  top: "inception_3b/3x3_reduce"
}
layer {
  name: "inception_3b/3x3"
  type: "Convolution"
  bottom: "inception_3b/3x3_reduce"
  top: "inception_3b/3x3"
  param {
    lr_mult: 1
    decay_mult: 1
  }
  param {
    lr_mult: 2
    decay_mult: 0
  }
  convolution_param {
    num_output: 192
    pad: 1
    kernel_size: 3
    weight_filler {
      type: "xavier"
    }
    bias_filler {
      type: "constant"
      value: 0.2
    }
  }
}
layer {
  name: "inception_3b/relu_3x3"
  type: "ReLU"
  bottom: "inception_3b/3x3"
  top: "inception_3b/3x3"
}
layer {
  name: "inception_3b/5x5_reduce"
  type: "Convolution"
  bottom: "inception_3a/output"
  top: "inception_3b/5x5_reduce"
  param {
    lr_mult: 1
    decay_mult: 1
  }
  param {
    lr_mult: 2
    decay_mult: 0
  }
  convolution_param {
    num_output: 32
    kernel_size: 1
    weight_filler {
      type: "xavier"
    }
    bias_filler {
      type: "constant"
      value: 0.2
    }
  }
}
layer {
  name: "inception_3b/relu_5x5_reduce"
  type: "ReLU"
  bottom: "inception_3b/5x5_reduce"
  top: "inception_3b/5x5_reduce"
}
layer {
  name: "inception_3b/5x5"
  type: "Convolution"
  bottom: "inception_3b/5x5_reduce"
  top: "inception_3b/5x5"
  param {
    lr_mult: 1
    decay_mult: 1
  }
  param {
    lr_mult: 2
    decay_mult: 0
  }
  convolution_param {
    num_output: 96
    pad: 2
    kernel_size: 5
    weight_filler {
      type: "xavier"
    }
    bias_filler {
      type: "constant"
      value: 0.2
    }
  }
}
layer {
  name: "inception_3b/relu_5x5"
  type: "ReLU"
  bottom: "inception_3b/5x5"
  top: "inception_3b/5x5"
}
layer {
  name: "inception_3b/pool"
  type: "Pooling"
  bottom: "inception_3a/output"
  top: "inception_3b/pool"
  pooling_param {
    pool: MAX
    kernel_size: 3
    stride: 1
    pad: 1
  }
}
layer {
  name: "inception_3b/pool_proj"
  type: "Convolution"
  bottom: "inception_3b/pool"
  top: "inception_3b/pool_proj"
  param {
    lr_mult: 1
    decay_mult: 1
  }
  param {
    lr_mult: 2
    decay_mult: 0
  }
  convolution_param {
    num_output: 64
    kernel_size: 1
    weight_filler {
      type: "xavier"
    }
    bias_filler {
      type: "constant"
      value: 0.2
    }
  }
}
layer {
  name: "inception_3b/relu_pool_proj"
  type: "ReLU"
  bottom: "inception_3b/pool_proj"
  top: "inception_3b/pool_proj"
}
layer {
  name: "inception_3b/output"
  type: "Concat"
  bottom: "inception_3b/1x1"
  bottom: "inception_3b/3x3"
  bottom: "inception_3b/5x5"
  bottom: "inception_3b/pool_proj"
  top: "inception_3b/output"
}
layer {
  name: "pool3/3x3_s2"
  type: "Pooling"
  bottom: "inception_3b/output"
  top: "pool3/3x3_s2"
  pooling_param {
    pool: MAX
    kernel_size: 3
    stride: 2
  }
}
layer {
  name: "inception_4a/1x1"
  type: "Convolution"
  bottom: "pool3/3x3_s2"
  top: "inception_4a/1x1"
  param {
    lr_mult: 1
    decay_mult: 1
  }
  param {
    lr_mult: 2
    decay_mult: 0
  }
  convolution_param {
    num_output: 192
    kernel_size: 1
    weight_filler {
      type: "xavier"
    }
    bias_filler {
      type: "constant"
      value: 0.2
    }
  }
}
layer {
  name: "inception_4a/relu_1x1"
  type: "ReLU"
  bottom: "inception_4a/1x1"
  top: "inception_4a/1x1"
}
layer {
  name: "inception_4a/3x3_reduce"
  type: "Convolution"
  bottom: "pool3/3x3_s2"
  top: "inception_4a/3x3_reduce"
  param {
    lr_mult: 1
    decay_mult: 1
  }
  param {
    lr_mult: 2
    decay_mult: 0
  }
  convolution_param {
    num_output: 96
    kernel_size: 1
    weight_filler {
      type: "xavier"
    }
    bias_filler {
      type: "constant"
      value: 0.2
    }
  }
}
layer {
  name: "inception_4a/relu_3x3_reduce"
  type: "ReLU"
  bottom: "inception_4a/3x3_reduce"
  top: "inception_4a/3x3_reduce"
}
layer {
  name: "inception_4a/3x3"
  type: "Convolution"
  bottom: "inception_4a/3x3_reduce"
  top: "inception_4a/3x3"
  param {
    lr_mult: 1
    decay_mult: 1
  }
  param {
    lr_mult: 2
    decay_mult: 0
  }
  convolution_param {
    num_output: 208
    pad: 1
    kernel_size: 3
    weight_filler {
      type: "xavier"
    }
    bias_filler {
      type: "constant"
      value: 0.2
    }
  }
}
layer {
  name: "inception_4a/relu_3x3"
  type: "ReLU"
  bottom: "inception_4a/3x3"
  top: "inception_4a/3x3"
}
layer {
  name: "inception_4a/5x5_reduce"
  type: "Convolution"
  bottom: "pool3/3x3_s2"
  top: "inception_4a/5x5_reduce"
  param {
    lr_mult: 1
    decay_mult: 1
  }
  param {
    lr_mult: 2
    decay_mult: 0
  }
  convolution_param {
    num_output: 16
    kernel_size: 1
    weight_filler {
      type: "xavier"
    }
    bias_filler {
      type: "constant"
      value: 0.2
    }
  }
}
layer {
  name: "inception_4a/relu_5x5_reduce"
  type: "ReLU"
  bottom: "inception_4a/5x5_reduce"
  top: "inception_4a/5x5_reduce"
}
layer {
  name: "inception_4a/5x5"
  type: "Convolution"
  bottom: "inception_4a/5x5_reduce"
  top: "inception_4a/5x5"
  param {
    lr_mult: 1
    decay_mult: 1
  }
  param {
    lr_mult: 2
    decay_mult: 0
  }
  convolution_param {
    num_output: 48
    pad: 2
    kernel_size: 5
    weight_filler {
      type: "xavier"
    }
    bias_filler {
      type: "constant"
      value: 0.2
    }
  }
}
layer {
  name: "inception_4a/relu_5x5"
  type: "ReLU"
  bottom: "inception_4a/5x5"
  top: "inception_4a/5x5"
}
layer {
  name: "inception_4a/pool"
  type: "Pooling"
  bottom: "pool3/3x3_s2"
  top: "inception_4a/pool"
  pooling_param {
    pool: MAX
    kernel_size: 3
    stride: 1
    pad: 1
  }
}
layer {
  name: "inception_4a/pool_proj"
  type: "Convolution"
  bottom: "inception_4a/pool"
  top: "inception_4a/pool_proj"
  param {
    lr_mult: 1
    decay_mult: 1
  }
  param {
    lr_mult: 2
    decay_mult: 0
  }
  convolution_param {
    num_output: 64
    kernel_size: 1
    weight_filler {
      type: "xavier"
    }
    bias_filler {
      type: "constant"
      value: 0.2
    }
  }
}
layer {
  name: "inception_4a/relu_pool_proj"
  type: "ReLU"
  bottom: "inception_4a/pool_proj"
  top: "inception_4a/pool_proj"
}
layer {
  name: "inception_4a/output"
  type: "Concat"
  bottom: "inception_4a/1x1"
  bottom: "inception_4a/3x3"
  bottom: "inception_4a/5x5"
  bottom: "inception_4a/pool_proj"
  top: "inception_4a/output"
}
layer {
  name: "loss1/ave_pool"
  type: "Pooling"
  bottom: "inception_4a/output"
  top: "loss1/ave_pool"
  pooling_param {
    pool: AVE
    kernel_size: 5
    stride: 3
  }
}
layer {
  name: "loss1/conv"
  type: "Convolution"
  bottom: "loss1/ave_pool"
  top: "loss1/conv"
  param {
    lr_mult: 1
    decay_mult: 1
  }
  param {
    lr_mult: 2
    decay_mult: 0
  }
  convolution_param {
    num_output: 128
    kernel_size: 1
    weight_filler {
      type: "xavier"
    }
    bias_filler {
      type: "constant"
      value: 0.2
    }
  }
}
layer {
  name: "loss1/relu_conv"
  type: "ReLU"
  bottom: "loss1/conv"
  top: "loss1/conv"
}
layer {
  name: "loss1/fc"
  type: "InnerProduct"
  bottom: "loss1/conv"
  top: "loss1/fc"
  param {
    lr_mult: 1
    decay_mult: 1
  }
  param {
    lr_mult: 2
    decay_mult: 0
  }
  inner_product_param {
    num_output: 1024
    weight_filler {
      type: "xavier"
    }
    bias_filler {
      type: "constant"
      value: 0.2
    }
  }
}
layer {
  name: "loss1/relu_fc"
  type: "ReLU"
  bottom: "loss1/fc"
  top: "loss1/fc"
}
layer {
  name: "loss1/drop_fc"
  type: "Dropout"
  bottom: "loss1/fc"
  top: "loss1/fc"
  dropout_param {
    dropout_ratio: 0.7
  }
}
layer {
  name: "loss1/classifier"
  type: "InnerProduct"
  bottom: "loss1/fc"
  top: "loss1/classifier"
  param {
    lr_mult: 1
    decay_mult: 1
  }
  param {
    lr_mult: 2
    decay_mult: 0
  }
  inner_product_param {
    num_output: 1000
    weight_filler {
      type: "xavier"
    }
    bias_filler {
      type: "constant"
      value: 0
    }
  }
}
layer {
  name: "loss1/loss"
  type: "SoftmaxWithLoss"
  bottom: "loss1/classifier"
  bottom: "label"
  top: "loss1/loss1"
  loss_weight: 0.3
}
layer {
  name: "inception_4b/1x1"
  type: "Convolution"
  bottom: "inception_4a/output"
  top: "inception_4b/1x1"
  param {
    lr_mult: 1
    decay_mult: 1
  }
  param {
    lr_mult: 2
    decay_mult: 0
  }
  convolution_param {
    num_output: 160
    kernel_size: 1
    weight_filler {
      type: "xavier"
    }
    bias_filler {
      type: "constant"
      value: 0.2
    }
  }
}
layer {
  name: "inception_4b/relu_1x1"
  type: "ReLU"
  bottom: "inception_4b/1x1"
  top: "inception_4b/1x1"
}
layer {
  name: "inception_4b/3x3_reduce"
  type: "Convolution"
  bottom: "inception_4a/output"
  top: "inception_4b/3x3_reduce"
  param {
    lr_mult: 1
    decay_mult: 1
  }
  param {
    lr_mult: 2
    decay_mult: 0
  }
  convolution_param {
    num_output: 112
    kernel_size: 1
    weight_filler {
      type: "xavier"
    }
    bias_filler {
      type: "constant"
      value: 0.2
    }
  }
}
layer {
  name: "inception_4b/relu_3x3_reduce"
  type: "ReLU"
  bottom: "inception_4b/3x3_reduce"
  top: "inception_4b/3x3_reduce"
}
layer {
  name: "inception_4b/3x3"
  type: "Convolution"
  bottom: "inception_4b/3x3_reduce"
  top: "inception_4b/3x3"
  param {
    lr_mult: 1
    decay_mult: 1
  }
  param {
    lr_mult: 2
    decay_mult: 0
  }
  convolution_param {
    num_output: 224
    pad: 1
    kernel_size: 3
    weight_filler {
      type: "xavier"
    }
    bias_filler {
      type: "constant"
      value: 0.2
    }
  }
}
layer {
  name: "inception_4b/relu_3x3"
  type: "ReLU"
  bottom: "inception_4b/3x3"
  top: "inception_4b/3x3"
}
layer {
  name: "inception_4b/5x5_reduce"
  type: "Convolution"
  bottom: "inception_4a/output"
  top: "inception_4b/5x5_reduce"
  param {
    lr_mult: 1
    decay_mult: 1
  }
  param {
    lr_mult: 2
    decay_mult: 0
  }
  convolution_param {
    num_output: 24
    kernel_size: 1
    weight_filler {
      type: "xavier"
    }
    bias_filler {
      type: "constant"
      value: 0.2
    }
  }
}
layer {
  name: "inception_4b/relu_5x5_reduce"
  type: "ReLU"
  bottom: "inception_4b/5x5_reduce"
  top: "inception_4b/5x5_reduce"
}
layer {
  name: "inception_4b/5x5"
  type: "Convolution"
  bottom: "inception_4b/5x5_reduce"
  top: "inception_4b/5x5"
  param {
    lr_mult: 1
    decay_mult: 1
  }
  param {
    lr_mult: 2
    decay_mult: 0
  }
  convolution_param {
    num_output: 64
    pad: 2
    kernel_size: 5
    weight_filler {
      type: "xavier"
    }
    bias_filler {
      type: "constant"
      value: 0.2
    }
  }
}
layer {
  name: "inception_4b/relu_5x5"
  type: "ReLU"
  bottom: "inception_4b/5x5"
  top: "inception_4b/5x5"
}
layer {
  name: "inception_4b/pool"
  type: "Pooling"
  bottom: "inception_4a/output"
  top: "inception_4b/pool"
  pooling_param {
    pool: MAX
    kernel_size: 3
    stride: 1
    pad: 1
  }
}
layer {
  name: "inception_4b/pool_proj"
  type: "Convolution"
  bottom: "inception_4b/pool"
  top: "inception_4b/pool_proj"
  param {
    lr_mult: 1
    decay_mult: 1
  }
  param {
    lr_mult: 2
    decay_mult: 0
  }
  convolution_param {
    num_output: 64
    kernel_size: 1
    weight_filler {
      type: "xavier"
    }
    bias_filler {
      type: "constant"
      value: 0.2
    }
  }
}
layer {
  name: "inception_4b/relu_pool_proj"
  type: "ReLU"
  bottom: "inception_4b/pool_proj"
  top: "inception_4b/pool_proj"
}
layer {
  name: "inception_4b/output"
  type: "Concat"
  bottom: "inception_4b/1x1"
  bottom: "inception_4b/3x3"
  bottom: "inception_4b/5x5"
  bottom: "inception_4b/pool_proj"
  top: "inception_4b/output"
}
layer {
  name: "inception_4c/1x1"
  type: "Convolution"
  bottom: "inception_4b/output"
  top: "inception_4c/1x1"
  param {
    lr_mult: 1
    decay_mult: 1
  }
  param {
    lr_mult: 2
    decay_mult: 0
  }
  convolution_param {
    num_output: 128
    kernel_size: 1
    weight_filler {
      type: "xavier"
    }
    bias_filler {
      type: "constant"
      value: 0.2
    }
  }
}
layer {
  name: "inception_4c/relu_1x1"
  type: "ReLU"
  bottom: "inception_4c/1x1"
  top: "inception_4c/1x1"
}
layer {
  name: "inception_4c/3x3_reduce"
  type: "Convolution"
  bottom: "inception_4b/output"
  top: "inception_4c/3x3_reduce"
  param {
    lr_mult: 1
    decay_mult: 1
  }
  param {
    lr_mult: 2
    decay_mult: 0
  }
  convolution_param {
    num_output: 128
    kernel_size: 1
    weight_filler {
      type: "xavier"
    }
    bias_filler {
      type: "constant"
      value: 0.2
    }
  }
}
layer {
  name: "inception_4c/relu_3x3_reduce"
  type: "ReLU"
  bottom: "inception_4c/3x3_reduce"
  top: "inception_4c/3x3_reduce"
}
layer {
  name: "inception_4c/3x3"
  type: "Convolution"
  bottom: "inception_4c/3x3_reduce"
  top: "inception_4c/3x3"
  param {
    lr_mult: 1
    decay_mult: 1
  }
  param {
    lr_mult: 2
    decay_mult: 0
  }
  convolution_param {
    num_output: 256
    pad: 1
    kernel_size: 3
    weight_filler {
      type: "xavier"
    }
    bias_filler {
      type: "constant"
      value: 0.2
    }
  }
}
layer {
  name: "inception_4c/relu_3x3"
  type: "ReLU"
  bottom: "inception_4c/3x3"
  top: "inception_4c/3x3"
}
layer {
  name: "inception_4c/5x5_reduce"
  type: "Convolution"
  bottom: "inception_4b/output"
  top: "inception_4c/5x5_reduce"
  param {
    lr_mult: 1
    decay_mult: 1
  }
  param {
    lr_mult: 2
    decay_mult: 0
  }
  convolution_param {
    num_output: 24
    kernel_size: 1
    weight_filler {
      type: "xavier"
    }
    bias_filler {
      type: "constant"
      value: 0.2
    }
  }
}
layer {
  name: "inception_4c/relu_5x5_reduce"
  type: "ReLU"
  bottom: "inception_4c/5x5_reduce"
  top: "inception_4c/5x5_reduce"
}
layer {
  name: "inception_4c/5x5"
  type: "Convolution"
  bottom: "inception_4c/5x5_reduce"
  top: "inception_4c/5x5"
  param {
    lr_mult: 1
    decay_mult: 1
  }
  param {
    lr_mult: 2
    decay_mult: 0
  }
  convolution_param {
    num_output: 64
    pad: 2
    kernel_size: 5
    weight_filler {
      type: "xavier"
    }
    bias_filler {
      type: "constant"
      value: 0.2
    }
  }
}
layer {
  name: "inception_4c/relu_5x5"
  type: "ReLU"
  bottom: "inception_4c/5x5"
  top: "inception_4c/5x5"
}
layer {
  name: "inception_4c/pool"
  type: "Pooling"
  bottom: "inception_4b/output"
  top: "inception_4c/pool"
  pooling_param {
    pool: MAX
    kernel_size: 3
    stride: 1
    pad: 1
  }
}
layer {
  name: "inception_4c/pool_proj"
  type: "Convolution"
  bottom: "inception_4c/pool"
  top: "inception_4c/pool_proj"
  param {
    lr_mult: 1
    decay_mult: 1
  }
  param {
    lr_mult: 2
    decay_mult: 0
  }
  convolution_param {
    num_output: 64
    kernel_size: 1
    weight_filler {
      type: "xavier"
    }
    bias_filler {
      type: "constant"
      value: 0.2
    }
  }
}
layer {
  name: "inception_4c/relu_pool_proj"
  type: "ReLU"
  bottom: "inception_4c/pool_proj"
  top: "inception_4c/pool_proj"
}
layer {
  name: "inception_4c/output"
  type: "Concat"
  bottom: "inception_4c/1x1"
  bottom: "inception_4c/3x3"
  bottom: "inception_4c/5x5"
  bottom: "inception_4c/pool_proj"
  top: "inception_4c/output"
}
layer {
  name: "inception_4d/1x1"
  type: "Convolution"
  bottom: "inception_4c/output"
  top: "inception_4d/1x1"
  param {
    lr_mult: 1
    decay_mult: 1
  }
  param {
    lr_mult: 2
    decay_mult: 0
  }
  convolution_param {
    num_output: 112
    kernel_size: 1
    weight_filler {
      type: "xavier"
    }
    bias_filler {
      type: "constant"
      value: 0.2
    }
  }
}
layer {
  name: "inception_4d/relu_1x1"
  type: "ReLU"
  bottom: "inception_4d/1x1"
  top: "inception_4d/1x1"
}
layer {
  name: "inception_4d/3x3_reduce"
  type: "Convolution"
  bottom: "inception_4c/output"
  top: "inception_4d/3x3_reduce"
  param {
    lr_mult: 1
    decay_mult: 1
  }
  param {
    lr_mult: 2
    decay_mult: 0
  }
  convolution_param {
    num_output: 144
    kernel_size: 1
    weight_filler {
      type: "xavier"
    }
    bias_filler {
      type: "constant"
      value: 0.2
    }
  }
}
layer {
  name: "inception_4d/relu_3x3_reduce"
  type: "ReLU"
  bottom: "inception_4d/3x3_reduce"
  top: "inception_4d/3x3_reduce"
}
layer {
  name: "inception_4d/3x3"
  type: "Convolution"
  bottom: "inception_4d/3x3_reduce"
  top: "inception_4d/3x3"
  param {
    lr_mult: 1
    decay_mult: 1
  }
  param {
    lr_mult: 2
    decay_mult: 0
  }
  convolution_param {
    num_output: 288
    pad: 1
    kernel_size: 3
    weight_filler {
      type: "xavier"
    }
    bias_filler {
      type: "constant"
      value: 0.2
    }
  }
}
layer {
  name: "inception_4d/relu_3x3"
  type: "ReLU"
  bottom: "inception_4d/3x3"
  top: "inception_4d/3x3"
}
layer {
  name: "inception_4d/5x5_reduce"
  type: "Convolution"
  bottom: "inception_4c/output"
  top: "inception_4d/5x5_reduce"
  param {
    lr_mult: 1
    decay_mult: 1
  }
  param {
    lr_mult: 2
    decay_mult: 0
  }
  convolution_param {
    num_output: 32
    kernel_size: 1
    weight_filler {
      type: "xavier"
    }
    bias_filler {
      type: "constant"
      value: 0.2
    }
  }
}
layer {
  name: "inception_4d/relu_5x5_reduce"
  type: "ReLU"
  bottom: "inception_4d/5x5_reduce"
  top: "inception_4d/5x5_reduce"
}
layer {
  name: "inception_4d/5x5"
  type: "Convolution"
  bottom: "inception_4d/5x5_reduce"
  top: "inception_4d/5x5"
  param {
    lr_mult: 1
    decay_mult: 1
  }
  param {
    lr_mult: 2
    decay_mult: 0
  }
  convolution_param {
    num_output: 64
    pad: 2
    kernel_size: 5
    weight_filler {
      type: "xavier"
    }
    bias_filler {
      type: "constant"
      value: 0.2
    }
  }
}
layer {
  name: "inception_4d/relu_5x5"
  type: "ReLU"
  bottom: "inception_4d/5x5"
  top: "inception_4d/5x5"
}
layer {
  name: "inception_4d/pool"
  type: "Pooling"
  bottom: "inception_4c/output"
  top: "inception_4d/pool"
  pooling_param {
    pool: MAX
    kernel_size: 3
    stride: 1
    pad: 1
  }
}
layer {
  name: "inception_4d/pool_proj"
  type: "Convolution"
  bottom: "inception_4d/pool"
  top: "inception_4d/pool_proj"
  param {
    lr_mult: 1
    decay_mult: 1
  }
  param {
    lr_mult: 2
    decay_mult: 0
  }
  convolution_param {
    num_output: 64
    kernel_size: 1
    weight_filler {
      type: "xavier"
    }
    bias_filler {
      type: "constant"
      value: 0.2
    }
  }
}
layer {
  name: "inception_4d/relu_pool_proj"
  type: "ReLU"
  bottom: "inception_4d/pool_proj"
  top: "inception_4d/pool_proj"
}
layer {
  name: "inception_4d/output"
  type: "Concat"
  bottom: "inception_4d/1x1"
  bottom: "inception_4d/3x3"
  bottom: "inception_4d/5x5"
  bottom: "inception_4d/pool_proj"
  top: "inception_4d/output"
}
layer {
  name: "loss2/ave_pool"
  type: "Pooling"
  bottom: "inception_4d/output"
  top: "loss2/ave_pool"
  pooling_param {
    pool: AVE
    kernel_size: 5
    stride: 3
  }
}
layer {
  name: "loss2/conv"
  type: "Convolution"
  bottom: "loss2/ave_pool"
  top: "loss2/conv"
  param {
    lr_mult: 1
    decay_mult: 1
  }
  param {
    lr_mult: 2
    decay_mult: 0
  }
  convolution_param {
    num_output: 128
    kernel_size: 1
    weight_filler {
      type: "xavier"
    }
    bias_filler {
      type: "constant"
      value: 0.2
    }
  }
}
layer {
  name: "loss2/relu_conv"
  type: "ReLU"
  bottom: "loss2/conv"
  top: "loss2/conv"
}
layer {
  name: "loss2/fc"
  type: "InnerProduct"
  bottom: "loss2/conv"
  top: "loss2/fc"
  param {
    lr_mult: 1
    decay_mult: 1
  }
  param {
    lr_mult: 2
    decay_mult: 0
  }
  inner_product_param {
    num_output: 1024
    weight_filler {
      type: "xavier"
    }
    bias_filler {
      type: "constant"
      value: 0.2
    }
  }
}
layer {
  name: "loss2/relu_fc"
  type: "ReLU"
  bottom: "loss2/fc"
  top: "loss2/fc"
}
layer {
  name: "loss2/drop_fc"
  type: "Dropout"
  bottom: "loss2/fc"
  top: "loss2/fc"
  dropout_param {
    dropout_ratio: 0.7
  }
}
layer {
  name: "loss2/classifier"
  type: "InnerProduct"
  bottom: "loss2/fc"
  top: "loss2/classifier"
  param {
    lr_mult: 1
    decay_mult: 1
  }
  param {
    lr_mult: 2
    decay_mult: 0
  }
  inner_product_param {
    num_output: 1000
    weight_filler {
      type: "xavier"
    }
    bias_filler {
      type: "constant"
      value: 0
    }
  }
}
layer {
  name: "loss2/loss"
  type: "SoftmaxWithLoss"
  bottom: "loss2/classifier"
  bottom: "label"
  top: "loss2/loss2"
  loss_weight: 0.3
}
layer {
  name: "inception_4e/1x1"
  type: "Convolution"
  bottom: "inception_4d/output"
  top: "inception_4e/1x1"
  param {
    lr_mult: 1
    decay_mult: 1
  }
  param {
    lr_mult: 2
    decay_mult: 0
  }
  convolution_param {
    num_output: 256
    kernel_size: 1
    weight_filler {
      type: "xavier"
    }
    bias_filler {
      type: "constant"
      value: 0.2
    }
  }
}
layer {
  name: "inception_4e/relu_1x1"
  type: "ReLU"
  bottom: "inception_4e/1x1"
  top: "inception_4e/1x1"
}
layer {
  name: "inception_4e/3x3_reduce"
  type: "Convolution"
  bottom: "inception_4d/output"
  top: "inception_4e/3x3_reduce"
  param {
    lr_mult: 1
    decay_mult: 1
  }
  param {
    lr_mult: 2
    decay_mult: 0
  }
  convolution_param {
    num_output: 160
    kernel_size: 1
    weight_filler {
      type: "xavier"
    }
    bias_filler {
      type: "constant"
      value: 0.2
    }
  }
}
layer {
  name: "inception_4e/relu_3x3_reduce"
  type: "ReLU"
  bottom: "inception_4e/3x3_reduce"
  top: "inception_4e/3x3_reduce"
}
layer {
  name: "inception_4e/3x3"
  type: "Convolution"
  bottom: "inception_4e/3x3_reduce"
  top: "inception_4e/3x3"
  param {
    lr_mult: 1
    decay_mult: 1
  }
  param {
    lr_mult: 2
    decay_mult: 0
  }
  convolution_param {
    num_output: 320
    pad: 1
    kernel_size: 3
    weight_filler {
      type: "xavier"
    }
    bias_filler {
      type: "constant"
      value: 0.2
    }
  }
}
layer {
  name: "inception_4e/relu_3x3"
  type: "ReLU"
  bottom: "inception_4e/3x3"
  top: "inception_4e/3x3"
}
layer {
  name: "inception_4e/5x5_reduce"
  type: "Convolution"
  bottom: "inception_4d/output"
  top: "inception_4e/5x5_reduce"
  param {
    lr_mult: 1
    decay_mult: 1
  }
  param {
    lr_mult: 2
    decay_mult: 0
  }
  convolution_param {
    num_output: 32
    kernel_size: 1
    weight_filler {
      type: "xavier"
    }
    bias_filler {
      type: "constant"
      value: 0.2
    }
  }
}
layer {
  name: "inception_4e/relu_5x5_reduce"
  type: "ReLU"
  bottom: "inception_4e/5x5_reduce"
  top: "inception_4e/5x5_reduce"
}
layer {
  name: "inception_4e/5x5"
  type: "Convolution"
  bottom: "inception_4e/5x5_reduce"
  top: "inception_4e/5x5"
  param {
    lr_mult: 1
    decay_mult: 1
  }
  param {
    lr_mult: 2
    decay_mult: 0
  }
  convolution_param {
    num_output: 128
    pad: 2
    kernel_size: 5
    weight_filler {
      type: "xavier"
    }
    bias_filler {
      type: "constant"
      value: 0.2
    }
  }
}
layer {
  name: "inception_4e/relu_5x5"
  type: "ReLU"
  bottom: "inception_4e/5x5"
  top: "inception_4e/5x5"
}
layer {
  name: "inception_4e/pool"
  type: "Pooling"
  bottom: "inception_4d/output"
  top: "inception_4e/pool"
  pooling_param {
    pool: MAX
    kernel_si
I1129 07:06:04.605257   553 layer_factory.hpp:77] Creating layer data
I1129 07:06:04.605396   553 db_lmdb.cpp:35] Opened lmdb /home/styurin/DataSet/227/train_db
I1129 07:06:04.605428   553 net.cpp:84] Creating Layer data
I1129 07:06:04.605439   553 net.cpp:380] data -> data
I1129 07:06:04.605466   553 net.cpp:380] data -> label
I1129 07:06:04.608320   553 data_layer.cpp:45] output data size: 16,3,224,224
I1129 07:06:04.629386   553 net.cpp:122] Setting up data
I1129 07:06:04.629429   553 net.cpp:129] Top shape: 16 3 224 224 (2408448)
I1129 07:06:04.629437   553 net.cpp:129] Top shape: 16 (16)
I1129 07:06:04.629443   553 net.cpp:137] Memory required for data: 9633856
I1129 07:06:04.629456   553 layer_factory.hpp:77] Creating layer label_data_1_split
I1129 07:06:04.629477   553 net.cpp:84] Creating Layer label_data_1_split
I1129 07:06:04.629484   553 net.cpp:406] label_data_1_split <- label
I1129 07:06:04.629499   553 net.cpp:380] label_data_1_split -> label_data_1_split_0
I1129 07:06:04.629513   553 net.cpp:380] label_data_1_split -> label_data_1_split_1
I1129 07:06:04.629520   553 net.cpp:380] label_data_1_split -> label_data_1_split_2
I1129 07:06:04.629590   553 net.cpp:122] Setting up label_data_1_split
I1129 07:06:04.629601   553 net.cpp:129] Top shape: 16 (16)
I1129 07:06:04.629619   553 net.cpp:129] Top shape: 16 (16)
I1129 07:06:04.629626   553 net.cpp:129] Top shape: 16 (16)
I1129 07:06:04.629629   553 net.cpp:137] Memory required for data: 9634048
I1129 07:06:04.629633   553 layer_factory.hpp:77] Creating layer conv1/7x7_s2
I1129 07:06:04.629655   553 net.cpp:84] Creating Layer conv1/7x7_s2
I1129 07:06:04.629662   553 net.cpp:406] conv1/7x7_s2 <- data
I1129 07:06:04.629669   553 net.cpp:380] conv1/7x7_s2 -> conv1/7x7_s2
I1129 07:06:04.630540   553 net.cpp:122] Setting up conv1/7x7_s2
I1129 07:06:04.630559   553 net.cpp:129] Top shape: 16 64 112 112 (12845056)
I1129 07:06:04.630565   553 net.cpp:137] Memory required for data: 61014272
I1129 07:06:04.630579   553 layer_factory.hpp:77] Creating layer conv1/relu_7x7
I1129 07:06:04.630590   553 net.cpp:84] Creating Layer conv1/relu_7x7
I1129 07:06:04.630594   553 net.cpp:406] conv1/relu_7x7 <- conv1/7x7_s2
I1129 07:06:04.630602   553 net.cpp:367] conv1/relu_7x7 -> conv1/7x7_s2 (in-place)
I1129 07:06:04.630610   553 net.cpp:122] Setting up conv1/relu_7x7
I1129 07:06:04.630616   553 net.cpp:129] Top shape: 16 64 112 112 (12845056)
I1129 07:06:04.630620   553 net.cpp:137] Memory required for data: 112394496
I1129 07:06:04.630625   553 layer_factory.hpp:77] Creating layer pool1/3x3_s2
I1129 07:06:04.630633   553 net.cpp:84] Creating Layer pool1/3x3_s2
I1129 07:06:04.630637   553 net.cpp:406] pool1/3x3_s2 <- conv1/7x7_s2
I1129 07:06:04.630645   553 net.cpp:380] pool1/3x3_s2 -> pool1/3x3_s2
I1129 07:06:04.630697   553 net.cpp:122] Setting up pool1/3x3_s2
I1129 07:06:04.630707   553 net.cpp:129] Top shape: 16 64 56 56 (3211264)
I1129 07:06:04.630712   553 net.cpp:137] Memory required for data: 125239552
I1129 07:06:04.630717   553 layer_factory.hpp:77] Creating layer pool1/norm1
I1129 07:06:04.630726   553 net.cpp:84] Creating Layer pool1/norm1
I1129 07:06:04.630730   553 net.cpp:406] pool1/norm1 <- pool1/3x3_s2
I1129 07:06:04.630738   553 net.cpp:380] pool1/norm1 -> pool1/norm1
I1129 07:06:04.630771   553 net.cpp:122] Setting up pool1/norm1
I1129 07:06:04.630779   553 net.cpp:129] Top shape: 16 64 56 56 (3211264)
I1129 07:06:04.630784   553 net.cpp:137] Memory required for data: 138084608
I1129 07:06:04.630787   553 layer_factory.hpp:77] Creating layer conv2/3x3_reduce
I1129 07:06:04.630798   553 net.cpp:84] Creating Layer conv2/3x3_reduce
I1129 07:06:04.630802   553 net.cpp:406] conv2/3x3_reduce <- pool1/norm1
I1129 07:06:04.630810   553 net.cpp:380] conv2/3x3_reduce -> conv2/3x3_reduce
I1129 07:06:04.631572   553 net.cpp:122] Setting up conv2/3x3_reduce
I1129 07:06:04.631592   553 net.cpp:129] Top shape: 16 64 56 56 (3211264)
I1129 07:06:04.631597   553 net.cpp:137] Memory required for data: 150929664
I1129 07:06:04.631608   553 layer_factory.hpp:77] Creating layer conv2/relu_3x3_reduce
I1129 07:06:04.631616   553 net.cpp:84] Creating Layer conv2/relu_3x3_reduce
I1129 07:06:04.631623   553 net.cpp:406] conv2/relu_3x3_reduce <- conv2/3x3_reduce
I1129 07:06:04.631628   553 net.cpp:367] conv2/relu_3x3_reduce -> conv2/3x3_reduce (in-place)
I1129 07:06:04.631638   553 net.cpp:122] Setting up conv2/relu_3x3_reduce
I1129 07:06:04.631642   553 net.cpp:129] Top shape: 16 64 56 56 (3211264)
I1129 07:06:04.631646   553 net.cpp:137] Memory required for data: 163774720
I1129 07:06:04.631650   553 layer_factory.hpp:77] Creating layer conv2/3x3
I1129 07:06:04.631664   553 net.cpp:84] Creating Layer conv2/3x3
I1129 07:06:04.631667   553 net.cpp:406] conv2/3x3 <- conv2/3x3_reduce
I1129 07:06:04.631675   553 net.cpp:380] conv2/3x3 -> conv2/3x3
I1129 07:06:04.633852   553 net.cpp:122] Setting up conv2/3x3
I1129 07:06:04.633896   553 net.cpp:129] Top shape: 16 192 56 56 (9633792)
I1129 07:06:04.633913   553 net.cpp:137] Memory required for data: 202309888
I1129 07:06:04.633937   553 layer_factory.hpp:77] Creating layer conv2/relu_3x3
I1129 07:06:04.633950   553 net.cpp:84] Creating Layer conv2/relu_3x3
I1129 07:06:04.633962   553 net.cpp:406] conv2/relu_3x3 <- conv2/3x3
I1129 07:06:04.634007   553 net.cpp:367] conv2/relu_3x3 -> conv2/3x3 (in-place)
I1129 07:06:04.634063   553 net.cpp:122] Setting up conv2/relu_3x3
I1129 07:06:04.634089   553 net.cpp:129] Top shape: 16 192 56 56 (9633792)
I1129 07:06:04.634099   553 net.cpp:137] Memory required for data: 240845056
I1129 07:06:04.634105   553 layer_factory.hpp:77] Creating layer conv2/norm2
I1129 07:06:04.634138   553 net.cpp:84] Creating Layer conv2/norm2
I1129 07:06:04.634142   553 net.cpp:406] conv2/norm2 <- conv2/3x3
I1129 07:06:04.634155   553 net.cpp:380] conv2/norm2 -> conv2/norm2
I1129 07:06:04.634246   553 net.cpp:122] Setting up conv2/norm2
I1129 07:06:04.634277   553 net.cpp:129] Top shape: 16 192 56 56 (9633792)
I1129 07:06:04.634282   553 net.cpp:137] Memory required for data: 279380224
I1129 07:06:04.634291   553 layer_factory.hpp:77] Creating layer pool2/3x3_s2
I1129 07:06:04.634315   553 net.cpp:84] Creating Layer pool2/3x3_s2
I1129 07:06:04.634325   553 net.cpp:406] pool2/3x3_s2 <- conv2/norm2
I1129 07:06:04.634337   553 net.cpp:380] pool2/3x3_s2 -> pool2/3x3_s2
I1129 07:06:04.634466   553 net.cpp:122] Setting up pool2/3x3_s2
I1129 07:06:04.634492   553 net.cpp:129] Top shape: 16 192 28 28 (2408448)
I1129 07:06:04.634505   553 net.cpp:137] Memory required for data: 289014016
I1129 07:06:04.634513   553 layer_factory.hpp:77] Creating layer pool2/3x3_s2_pool2/3x3_s2_0_split
I1129 07:06:04.634534   553 net.cpp:84] Creating Layer pool2/3x3_s2_pool2/3x3_s2_0_split
I1129 07:06:04.634543   553 net.cpp:406] pool2/3x3_s2_pool2/3x3_s2_0_split <- pool2/3x3_s2
I1129 07:06:04.634559   553 net.cpp:380] pool2/3x3_s2_pool2/3x3_s2_0_split -> pool2/3x3_s2_pool2/3x3_s2_0_split_0
I1129 07:06:04.634574   553 net.cpp:380] pool2/3x3_s2_pool2/3x3_s2_0_split -> pool2/3x3_s2_pool2/3x3_s2_0_split_1
I1129 07:06:04.634588   553 net.cpp:380] pool2/3x3_s2_pool2/3x3_s2_0_split -> pool2/3x3_s2_pool2/3x3_s2_0_split_2
I1129 07:06:04.634600   553 net.cpp:380] pool2/3x3_s2_pool2/3x3_s2_0_split -> pool2/3x3_s2_pool2/3x3_s2_0_split_3
I1129 07:06:04.634724   553 net.cpp:122] Setting up pool2/3x3_s2_pool2/3x3_s2_0_split
I1129 07:06:04.634763   553 net.cpp:129] Top shape: 16 192 28 28 (2408448)
I1129 07:06:04.634774   553 net.cpp:129] Top shape: 16 192 28 28 (2408448)
I1129 07:06:04.634781   553 net.cpp:129] Top shape: 16 192 28 28 (2408448)
I1129 07:06:04.634788   553 net.cpp:129] Top shape: 16 192 28 28 (2408448)
I1129 07:06:04.634793   553 net.cpp:137] Memory required for data: 327549184
I1129 07:06:04.634801   553 layer_factory.hpp:77] Creating layer inception_3a/1x1
I1129 07:06:04.634837   553 net.cpp:84] Creating Layer inception_3a/1x1
I1129 07:06:04.634850   553 net.cpp:406] inception_3a/1x1 <- pool2/3x3_s2_pool2/3x3_s2_0_split_0
I1129 07:06:04.634869   553 net.cpp:380] inception_3a/1x1 -> inception_3a/1x1
I1129 07:06:04.636308   553 net.cpp:122] Setting up inception_3a/1x1
I1129 07:06:04.636334   553 net.cpp:129] Top shape: 16 64 28 28 (802816)
I1129 07:06:04.636339   553 net.cpp:137] Memory required for data: 330760448
I1129 07:06:04.636348   553 layer_factory.hpp:77] Creating layer inception_3a/relu_1x1
I1129 07:06:04.636358   553 net.cpp:84] Creating Layer inception_3a/relu_1x1
I1129 07:06:04.636363   553 net.cpp:406] inception_3a/relu_1x1 <- inception_3a/1x1
I1129 07:06:04.636374   553 net.cpp:367] inception_3a/relu_1x1 -> inception_3a/1x1 (in-place)
I1129 07:06:04.636384   553 net.cpp:122] Setting up inception_3a/relu_1x1
I1129 07:06:04.636389   553 net.cpp:129] Top shape: 16 64 28 28 (802816)
I1129 07:06:04.636394   553 net.cpp:137] Memory required for data: 333971712
I1129 07:06:04.636399   553 layer_factory.hpp:77] Creating layer inception_3a/3x3_reduce
I1129 07:06:04.636411   553 net.cpp:84] Creating Layer inception_3a/3x3_reduce
I1129 07:06:04.636417   553 net.cpp:406] inception_3a/3x3_reduce <- pool2/3x3_s2_pool2/3x3_s2_0_split_1
I1129 07:06:04.636426   553 net.cpp:380] inception_3a/3x3_reduce -> inception_3a/3x3_reduce
I1129 07:06:04.637850   553 net.cpp:122] Setting up inception_3a/3x3_reduce
I1129 07:06:04.637887   553 net.cpp:129] Top shape: 16 96 28 28 (1204224)
I1129 07:06:04.637892   553 net.cpp:137] Memory required for data: 338788608
I1129 07:06:04.637934   553 layer_factory.hpp:77] Creating layer inception_3a/relu_3x3_reduce
I1129 07:06:04.637948   553 net.cpp:84] Creating Layer inception_3a/relu_3x3_reduce
I1129 07:06:04.637953   553 net.cpp:406] inception_3a/relu_3x3_reduce <- inception_3a/3x3_reduce
I1129 07:06:04.637966   553 net.cpp:367] inception_3a/relu_3x3_reduce -> inception_3a/3x3_reduce (in-place)
I1129 07:06:04.637974   553 net.cpp:122] Setting up inception_3a/relu_3x3_reduce
I1129 07:06:04.637980   553 net.cpp:129] Top shape: 16 96 28 28 (1204224)
I1129 07:06:04.637984   553 net.cpp:137] Memory required for data: 343605504
I1129 07:06:04.637989   553 layer_factory.hpp:77] Creating layer inception_3a/3x3
I1129 07:06:04.638000   553 net.cpp:84] Creating Layer inception_3a/3x3
I1129 07:06:04.638005   553 net.cpp:406] inception_3a/3x3 <- inception_3a/3x3_reduce
I1129 07:06:04.638015   553 net.cpp:380] inception_3a/3x3 -> inception_3a/3x3
I1129 07:06:04.639228   553 net.cpp:122] Setting up inception_3a/3x3
I1129 07:06:04.639245   553 net.cpp:129] Top shape: 16 128 28 28 (1605632)
I1129 07:06:04.639250   553 net.cpp:137] Memory required for data: 350028032
I1129 07:06:04.639257   553 layer_factory.hpp:77] Creating layer inception_3a/relu_3x3
I1129 07:06:04.639266   553 net.cpp:84] Creating Layer inception_3a/relu_3x3
I1129 07:06:04.639271   553 net.cpp:406] inception_3a/relu_3x3 <- inception_3a/3x3
I1129 07:06:04.639278   553 net.cpp:367] inception_3a/relu_3x3 -> inception_3a/3x3 (in-place)
I1129 07:06:04.639286   553 net.cpp:122] Setting up inception_3a/relu_3x3
I1129 07:06:04.639292   553 net.cpp:129] Top shape: 16 128 28 28 (1605632)
I1129 07:06:04.639297   553 net.cpp:137] Memory required for data: 356450560
I1129 07:06:04.639300   553 layer_factory.hpp:77] Creating layer inception_3a/5x5_reduce
I1129 07:06:04.639312   553 net.cpp:84] Creating Layer inception_3a/5x5_reduce
I1129 07:06:04.639317   553 net.cpp:406] inception_3a/5x5_reduce <- pool2/3x3_s2_pool2/3x3_s2_0_split_2
I1129 07:06:04.639324   553 net.cpp:380] inception_3a/5x5_reduce -> inception_3a/5x5_reduce
I1129 07:06:04.639565   553 net.cpp:122] Setting up inception_3a/5x5_reduce
I1129 07:06:04.639577   553 net.cpp:129] Top shape: 16 16 28 28 (200704)
I1129 07:06:04.639582   553 net.cpp:137] Memory required for data: 357253376
I1129 07:06:04.639590   553 layer_factory.hpp:77] Creating layer inception_3a/relu_5x5_reduce
I1129 07:06:04.639596   553 net.cpp:84] Creating Layer inception_3a/relu_5x5_reduce
I1129 07:06:04.639601   553 net.cpp:406] inception_3a/relu_5x5_reduce <- inception_3a/5x5_reduce
I1129 07:06:04.639606   553 net.cpp:367] inception_3a/relu_5x5_reduce -> inception_3a/5x5_reduce (in-place)
I1129 07:06:04.639613   553 net.cpp:122] Setting up inception_3a/relu_5x5_reduce
I1129 07:06:04.639619   553 net.cpp:129] Top shape: 16 16 28 28 (200704)
I1129 07:06:04.639623   553 net.cpp:137] Memory required for data: 358056192
I1129 07:06:04.639627   553 layer_factory.hpp:77] Creating layer inception_3a/5x5
I1129 07:06:04.639638   553 net.cpp:84] Creating Layer inception_3a/5x5
I1129 07:06:04.639643   553 net.cpp:406] inception_3a/5x5 <- inception_3a/5x5_reduce
I1129 07:06:04.639652   553 net.cpp:380] inception_3a/5x5 -> inception_3a/5x5
I1129 07:06:04.639940   553 net.cpp:122] Setting up inception_3a/5x5
I1129 07:06:04.639950   553 net.cpp:129] Top shape: 16 32 28 28 (401408)
I1129 07:06:04.639955   553 net.cpp:137] Memory required for data: 359661824
I1129 07:06:04.639961   553 layer_factory.hpp:77] Creating layer inception_3a/relu_5x5
I1129 07:06:04.639968   553 net.cpp:84] Creating Layer inception_3a/relu_5x5
I1129 07:06:04.639973   553 net.cpp:406] inception_3a/relu_5x5 <- inception_3a/5x5
I1129 07:06:04.639981   553 net.cpp:367] inception_3a/relu_5x5 -> inception_3a/5x5 (in-place)
I1129 07:06:04.639988   553 net.cpp:122] Setting up inception_3a/relu_5x5
I1129 07:06:04.639993   553 net.cpp:129] Top shape: 16 32 28 28 (401408)
I1129 07:06:04.640002   553 net.cpp:137] Memory required for data: 361267456
I1129 07:06:04.640007   553 layer_factory.hpp:77] Creating layer inception_3a/pool
I1129 07:06:04.640022   553 net.cpp:84] Creating Layer inception_3a/pool
I1129 07:06:04.640027   553 net.cpp:406] inception_3a/pool <- pool2/3x3_s2_pool2/3x3_s2_0_split_3
I1129 07:06:04.640033   553 net.cpp:380] inception_3a/pool -> inception_3a/pool
I1129 07:06:04.640077   553 net.cpp:122] Setting up inception_3a/pool
I1129 07:06:04.640086   553 net.cpp:129] Top shape: 16 192 28 28 (2408448)
I1129 07:06:04.640090   553 net.cpp:137] Memory required for data: 370901248
I1129 07:06:04.640094   553 layer_factory.hpp:77] Creating layer inception_3a/pool_proj
I1129 07:06:04.640106   553 net.cpp:84] Creating Layer inception_3a/pool_proj
I1129 07:06:04.640111   553 net.cpp:406] inception_3a/pool_proj <- inception_3a/pool
I1129 07:06:04.640120   553 net.cpp:380] inception_3a/pool_proj -> inception_3a/pool_proj
I1129 07:06:04.640353   553 net.cpp:122] Setting up inception_3a/pool_proj
I1129 07:06:04.640364   553 net.cpp:129] Top shape: 16 32 28 28 (401408)
I1129 07:06:04.640369   553 net.cpp:137] Memory required for data: 372506880
I1129 07:06:04.640381   553 layer_factory.hpp:77] Creating layer inception_3a/relu_pool_proj
I1129 07:06:04.640389   553 net.cpp:84] Creating Layer inception_3a/relu_pool_proj
I1129 07:06:04.640393   553 net.cpp:406] inception_3a/relu_pool_proj <- inception_3a/pool_proj
I1129 07:06:04.640399   553 net.cpp:367] inception_3a/relu_pool_proj -> inception_3a/pool_proj (in-place)
I1129 07:06:04.640406   553 net.cpp:122] Setting up inception_3a/relu_pool_proj
I1129 07:06:04.640411   553 net.cpp:129] Top shape: 16 32 28 28 (401408)
I1129 07:06:04.640415   553 net.cpp:137] Memory required for data: 374112512
I1129 07:06:04.640419   553 layer_factory.hpp:77] Creating layer inception_3a/output
I1129 07:06:04.640426   553 net.cpp:84] Creating Layer inception_3a/output
I1129 07:06:04.640430   553 net.cpp:406] inception_3a/output <- inception_3a/1x1
I1129 07:06:04.640435   553 net.cpp:406] inception_3a/output <- inception_3a/3x3
I1129 07:06:04.640440   553 net.cpp:406] inception_3a/output <- inception_3a/5x5
I1129 07:06:04.640444   553 net.cpp:406] inception_3a/output <- inception_3a/pool_proj
I1129 07:06:04.640452   553 net.cpp:380] inception_3a/output -> inception_3a/output
I1129 07:06:04.640477   553 net.cpp:122] Setting up inception_3a/output
I1129 07:06:04.640488   553 net.cpp:129] Top shape: 16 256 28 28 (3211264)
I1129 07:06:04.640492   553 net.cpp:137] Memory required for data: 386957568
I1129 07:06:04.640496   553 layer_factory.hpp:77] Creating layer inception_3a/output_inception_3a/output_0_split
I1129 07:06:04.640504   553 net.cpp:84] Creating Layer inception_3a/output_inception_3a/output_0_split
I1129 07:06:04.640509   553 net.cpp:406] inception_3a/output_inception_3a/output_0_split <- inception_3a/output
I1129 07:06:04.640516   553 net.cpp:380] inception_3a/output_inception_3a/output_0_split -> inception_3a/output_inception_3a/output_0_split_0
I1129 07:06:04.640522   553 net.cpp:380] inception_3a/output_inception_3a/output_0_split -> inception_3a/output_inception_3a/output_0_split_1
I1129 07:06:04.640528   553 net.cpp:380] inception_3a/output_inception_3a/output_0_split -> inception_3a/output_inception_3a/output_0_split_2
I1129 07:06:04.640537   553 net.cpp:380] inception_3a/output_inception_3a/output_0_split -> inception_3a/output_inception_3a/output_0_split_3
I1129 07:06:04.640588   553 net.cpp:122] Setting up inception_3a/output_inception_3a/output_0_split
I1129 07:06:04.640596   553 net.cpp:129] Top shape: 16 256 28 28 (3211264)
I1129 07:06:04.640601   553 net.cpp:129] Top shape: 16 256 28 28 (3211264)
I1129 07:06:04.640606   553 net.cpp:129] Top shape: 16 256 28 28 (3211264)
I1129 07:06:04.640611   553 net.cpp:129] Top shape: 16 256 28 28 (3211264)
I1129 07:06:04.640615   553 net.cpp:137] Memory required for data: 438337792
I1129 07:06:04.640619   553 layer_factory.hpp:77] Creating layer inception_3b/1x1
I1129 07:06:04.640630   553 net.cpp:84] Creating Layer inception_3b/1x1
I1129 07:06:04.640640   553 net.cpp:406] inception_3b/1x1 <- inception_3a/output_inception_3a/output_0_split_0
I1129 07:06:04.640655   553 net.cpp:380] inception_3b/1x1 -> inception_3b/1x1
I1129 07:06:04.641082   553 net.cpp:122] Setting up inception_3b/1x1
I1129 07:06:04.641095   553 net.cpp:129] Top shape: 16 128 28 28 (1605632)
I1129 07:06:04.641100   553 net.cpp:137] Memory required for data: 444760320
I1129 07:06:04.641108   553 layer_factory.hpp:77] Creating layer inception_3b/relu_1x1
I1129 07:06:04.641114   553 net.cpp:84] Creating Layer inception_3b/relu_1x1
I1129 07:06:04.641119   553 net.cpp:406] inception_3b/relu_1x1 <- inception_3b/1x1
I1129 07:06:04.641124   553 net.cpp:367] inception_3b/relu_1x1 -> inception_3b/1x1 (in-place)
I1129 07:06:04.641131   553 net.cpp:122] Setting up inception_3b/relu_1x1
I1129 07:06:04.641137   553 net.cpp:129] Top shape: 16 128 28 28 (1605632)
I1129 07:06:04.641141   553 net.cpp:137] Memory required for data: 451182848
I1129 07:06:04.641145   553 layer_factory.hpp:77] Creating layer inception_3b/3x3_reduce
I1129 07:06:04.641157   553 net.cpp:84] Creating Layer inception_3b/3x3_reduce
I1129 07:06:04.641162   553 net.cpp:406] inception_3b/3x3_reduce <- inception_3a/output_inception_3a/output_0_split_1
I1129 07:06:04.641170   553 net.cpp:380] inception_3b/3x3_reduce -> inception_3b/3x3_reduce
I1129 07:06:04.641602   553 net.cpp:122] Setting up inception_3b/3x3_reduce
I1129 07:06:04.641614   553 net.cpp:129] Top shape: 16 128 28 28 (1605632)
I1129 07:06:04.641618   553 net.cpp:137] Memory required for data: 457605376
I1129 07:06:04.641625   553 layer_factory.hpp:77] Creating layer inception_3b/relu_3x3_reduce
I1129 07:06:04.641633   553 net.cpp:84] Creating Layer inception_3b/relu_3x3_reduce
I1129 07:06:04.641638   553 net.cpp:406] inception_3b/relu_3x3_reduce <- inception_3b/3x3_reduce
I1129 07:06:04.641644   553 net.cpp:367] inception_3b/relu_3x3_reduce -> inception_3b/3x3_reduce (in-place)
I1129 07:06:04.641651   553 net.cpp:122] Setting up inception_3b/relu_3x3_reduce
I1129 07:06:04.641656   553 net.cpp:129] Top shape: 16 128 28 28 (1605632)
I1129 07:06:04.641660   553 net.cpp:137] Memory required for data: 464027904
I1129 07:06:04.641664   553 layer_factory.hpp:77] Creating layer inception_3b/3x3
I1129 07:06:04.641680   553 net.cpp:84] Creating Layer inception_3b/3x3
I1129 07:06:04.641685   553 net.cpp:406] inception_3b/3x3 <- inception_3b/3x3_reduce
I1129 07:06:04.641692   553 net.cpp:380] inception_3b/3x3 -> inception_3b/3x3
I1129 07:06:04.643960   553 net.cpp:122] Setting up inception_3b/3x3
I1129 07:06:04.643980   553 net.cpp:129] Top shape: 16 192 28 28 (2408448)
I1129 07:06:04.643985   553 net.cpp:137] Memory required for data: 473661696
I1129 07:06:04.643993   553 layer_factory.hpp:77] Creating layer inception_3b/relu_3x3
I1129 07:06:04.644003   553 net.cpp:84] Creating Layer inception_3b/relu_3x3
I1129 07:06:04.644008   553 net.cpp:406] inception_3b/relu_3x3 <- inception_3b/3x3
I1129 07:06:04.644016   553 net.cpp:367] inception_3b/relu_3x3 -> inception_3b/3x3 (in-place)
I1129 07:06:04.644022   553 net.cpp:122] Setting up inception_3b/relu_3x3
I1129 07:06:04.644028   553 net.cpp:129] Top shape: 16 192 28 28 (2408448)
I1129 07:06:04.644033   553 net.cpp:137] Memory required for data: 483295488
I1129 07:06:04.644037   553 layer_factory.hpp:77] Creating layer inception_3b/5x5_reduce
I1129 07:06:04.644048   553 net.cpp:84] Creating Layer inception_3b/5x5_reduce
I1129 07:06:04.644054   553 net.cpp:406] inception_3b/5x5_reduce <- inception_3a/output_inception_3a/output_0_split_2
I1129 07:06:04.644062   553 net.cpp:380] inception_3b/5x5_reduce -> inception_3b/5x5_reduce
I1129 07:06:04.644323   553 net.cpp:122] Setting up inception_3b/5x5_reduce
I1129 07:06:04.644335   553 net.cpp:129] Top shape: 16 32 28 28 (401408)
I1129 07:06:04.644340   553 net.cpp:137] Memory required for data: 484901120
I1129 07:06:04.644352   553 layer_factory.hpp:77] Creating layer inception_3b/relu_5x5_reduce
I1129 07:06:04.644361   553 net.cpp:84] Creating Layer inception_3b/relu_5x5_reduce
I1129 07:06:04.644371   553 net.cpp:406] inception_3b/relu_5x5_reduce <- inception_3b/5x5_reduce
I1129 07:06:04.644384   553 net.cpp:367] inception_3b/relu_5x5_reduce -> inception_3b/5x5_reduce (in-place)
I1129 07:06:04.644392   553 net.cpp:122] Setting up inception_3b/relu_5x5_reduce
I1129 07:06:04.644398   553 net.cpp:129] Top shape: 16 32 28 28 (401408)
I1129 07:06:04.644402   553 net.cpp:137] Memory required for data: 486506752
I1129 07:06:04.644407   553 layer_factory.hpp:77] Creating layer inception_3b/5x5
I1129 07:06:04.644420   553 net.cpp:84] Creating Layer inception_3b/5x5
I1129 07:06:04.644425   553 net.cpp:406] inception_3b/5x5 <- inception_3b/5x5_reduce
I1129 07:06:04.644433   553 net.cpp:380] inception_3b/5x5 -> inception_3b/5x5
I1129 07:06:04.645707   553 net.cpp:122] Setting up inception_3b/5x5
I1129 07:06:04.645726   553 net.cpp:129] Top shape: 16 96 28 28 (1204224)
I1129 07:06:04.645731   553 net.cpp:137] Memory required for data: 491323648
I1129 07:06:04.645740   553 layer_factory.hpp:77] Creating layer inception_3b/relu_5x5
I1129 07:06:04.645746   553 net.cpp:84] Creating Layer inception_3b/relu_5x5
I1129 07:06:04.645751   553 net.cpp:406] inception_3b/relu_5x5 <- inception_3b/5x5
I1129 07:06:04.645761   553 net.cpp:367] inception_3b/relu_5x5 -> inception_3b/5x5 (in-place)
I1129 07:06:04.645769   553 net.cpp:122] Setting up inception_3b/relu_5x5
I1129 07:06:04.645776   553 net.cpp:129] Top shape: 16 96 28 28 (1204224)
I1129 07:06:04.645779   553 net.cpp:137] Memory required for data: 496140544
I1129 07:06:04.645784   553 layer_factory.hpp:77] Creating layer inception_3b/pool
I1129 07:06:04.645792   553 net.cpp:84] Creating Layer inception_3b/pool
I1129 07:06:04.645795   553 net.cpp:406] inception_3b/pool <- inception_3a/output_inception_3a/output_0_split_3
I1129 07:06:04.645802   553 net.cpp:380] inception_3b/pool -> inception_3b/pool
I1129 07:06:04.645841   553 net.cpp:122] Setting up inception_3b/pool
I1129 07:06:04.645851   553 net.cpp:129] Top shape: 16 256 28 28 (3211264)
I1129 07:06:04.645855   553 net.cpp:137] Memory required for data: 508985600
I1129 07:06:04.645859   553 layer_factory.hpp:77] Creating layer inception_3b/pool_proj
I1129 07:06:04.645871   553 net.cpp:84] Creating Layer inception_3b/pool_proj
I1129 07:06:04.645876   553 net.cpp:406] inception_3b/pool_proj <- inception_3b/pool
I1129 07:06:04.645885   553 net.cpp:380] inception_3b/pool_proj -> inception_3b/pool_proj
I1129 07:06:04.646221   553 net.cpp:122] Setting up inception_3b/pool_proj
I1129 07:06:04.646235   553 net.cpp:129] Top shape: 16 64 28 28 (802816)
I1129 07:06:04.646239   553 net.cpp:137] Memory required for data: 512196864
I1129 07:06:04.646246   553 layer_factory.hpp:77] Creating layer inception_3b/relu_pool_proj
I1129 07:06:04.646255   553 net.cpp:84] Creating Layer inception_3b/relu_pool_proj
I1129 07:06:04.646260   553 net.cpp:406] inception_3b/relu_pool_proj <- inception_3b/pool_proj
I1129 07:06:04.646265   553 net.cpp:367] inception_3b/relu_pool_proj -> inception_3b/pool_proj (in-place)
I1129 07:06:04.646275   553 net.cpp:122] Setting up inception_3b/relu_pool_proj
I1129 07:06:04.646281   553 net.cpp:129] Top shape: 16 64 28 28 (802816)
I1129 07:06:04.646284   553 net.cpp:137] Memory required for data: 515408128
I1129 07:06:04.646288   553 layer_factory.hpp:77] Creating layer inception_3b/output
I1129 07:06:04.646296   553 net.cpp:84] Creating Layer inception_3b/output
I1129 07:06:04.646299   553 net.cpp:406] inception_3b/output <- inception_3b/1x1
I1129 07:06:04.646304   553 net.cpp:406] inception_3b/output <- inception_3b/3x3
I1129 07:06:04.646309   553 net.cpp:406] inception_3b/output <- inception_3b/5x5
I1129 07:06:04.646314   553 net.cpp:406] inception_3b/output <- inception_3b/pool_proj
I1129 07:06:04.646320   553 net.cpp:380] inception_3b/output -> inception_3b/output
I1129 07:06:04.646345   553 net.cpp:122] Setting up inception_3b/output
I1129 07:06:04.646354   553 net.cpp:129] Top shape: 16 480 28 28 (6021120)
I1129 07:06:04.646358   553 net.cpp:137] Memory required for data: 539492608
I1129 07:06:04.646370   553 layer_factory.hpp:77] Creating layer pool3/3x3_s2
I1129 07:06:04.646378   553 net.cpp:84] Creating Layer pool3/3x3_s2
I1129 07:06:04.646389   553 net.cpp:406] pool3/3x3_s2 <- inception_3b/output
I1129 07:06:04.646399   553 net.cpp:380] pool3/3x3_s2 -> pool3/3x3_s2
I1129 07:06:04.646436   553 net.cpp:122] Setting up pool3/3x3_s2
I1129 07:06:04.646447   553 net.cpp:129] Top shape: 16 480 14 14 (1505280)
I1129 07:06:04.646452   553 net.cpp:137] Memory required for data: 545513728
I1129 07:06:04.646456   553 layer_factory.hpp:77] Creating layer pool3/3x3_s2_pool3/3x3_s2_0_split
I1129 07:06:04.646464   553 net.cpp:84] Creating Layer pool3/3x3_s2_pool3/3x3_s2_0_split
I1129 07:06:04.646468   553 net.cpp:406] pool3/3x3_s2_pool3/3x3_s2_0_split <- pool3/3x3_s2
I1129 07:06:04.646474   553 net.cpp:380] pool3/3x3_s2_pool3/3x3_s2_0_split -> pool3/3x3_s2_pool3/3x3_s2_0_split_0
I1129 07:06:04.646481   553 net.cpp:380] pool3/3x3_s2_pool3/3x3_s2_0_split -> pool3/3x3_s2_pool3/3x3_s2_0_split_1
I1129 07:06:04.646487   553 net.cpp:380] pool3/3x3_s2_pool3/3x3_s2_0_split -> pool3/3x3_s2_pool3/3x3_s2_0_split_2
I1129 07:06:04.646495   553 net.cpp:380] pool3/3x3_s2_pool3/3x3_s2_0_split -> pool3/3x3_s2_pool3/3x3_s2_0_split_3
I1129 07:06:04.646548   553 net.cpp:122] Setting up pool3/3x3_s2_pool3/3x3_s2_0_split
I1129 07:06:04.646555   553 net.cpp:129] Top shape: 16 480 14 14 (1505280)
I1129 07:06:04.646560   553 net.cpp:129] Top shape: 16 480 14 14 (1505280)
I1129 07:06:04.646566   553 net.cpp:129] Top shape: 16 480 14 14 (1505280)
I1129 07:06:04.646570   553 net.cpp:129] Top shape: 16 480 14 14 (1505280)
I1129 07:06:04.646574   553 net.cpp:137] Memory required for data: 569598208
I1129 07:06:04.646579   553 layer_factory.hpp:77] Creating layer inception_4a/1x1
I1129 07:06:04.646589   553 net.cpp:84] Creating Layer inception_4a/1x1
I1129 07:06:04.646595   553 net.cpp:406] inception_4a/1x1 <- pool3/3x3_s2_pool3/3x3_s2_0_split_0
I1129 07:06:04.646603   553 net.cpp:380] inception_4a/1x1 -> inception_4a/1x1
I1129 07:06:04.647430   553 net.cpp:122] Setting up inception_4a/1x1
I1129 07:06:04.647444   553 net.cpp:129] Top shape: 16 192 14 14 (602112)
I1129 07:06:04.647449   553 net.cpp:137] Memory required for data: 572006656
I1129 07:06:04.647456   553 layer_factory.hpp:77] Creating layer inception_4a/relu_1x1
I1129 07:06:04.647464   553 net.cpp:84] Creating Layer inception_4a/relu_1x1
I1129 07:06:04.647469   553 net.cpp:406] inception_4a/relu_1x1 <- inception_4a/1x1
I1129 07:06:04.647476   553 net.cpp:367] inception_4a/relu_1x1 -> inception_4a/1x1 (in-place)
I1129 07:06:04.647483   553 net.cpp:122] Setting up inception_4a/relu_1x1
I1129 07:06:04.647490   553 net.cpp:129] Top shape: 16 192 14 14 (602112)
I1129 07:06:04.647493   553 net.cpp:137] Memory required for data: 574415104
I1129 07:06:04.647497   553 layer_factory.hpp:77] Creating layer inception_4a/3x3_reduce
I1129 07:06:04.647506   553 net.cpp:84] Creating Layer inception_4a/3x3_reduce
I1129 07:06:04.647511   553 net.cpp:406] inception_4a/3x3_reduce <- pool3/3x3_s2_pool3/3x3_s2_0_split_1
I1129 07:06:04.647519   553 net.cpp:380] inception_4a/3x3_reduce -> inception_4a/3x3_reduce
I1129 07:06:04.648038   553 net.cpp:122] Setting up inception_4a/3x3_reduce
I1129 07:06:04.648049   553 net.cpp:129] Top shape: 16 96 14 14 (301056)
I1129 07:06:04.648054   553 net.cpp:137] Memory required for data: 575619328
I1129 07:06:04.648069   553 layer_factory.hpp:77] Creating layer inception_4a/relu_3x3_reduce
I1129 07:06:04.648077   553 net.cpp:84] Creating Layer inception_4a/relu_3x3_reduce
I1129 07:06:04.648082   553 net.cpp:406] inception_4a/relu_3x3_reduce <- inception_4a/3x3_reduce
I1129 07:06:04.648087   553 net.cpp:367] inception_4a/relu_3x3_reduce -> inception_4a/3x3_reduce (in-place)
I1129 07:06:04.648094   553 net.cpp:122] Setting up inception_4a/relu_3x3_reduce
I1129 07:06:04.648099   553 net.cpp:129] Top shape: 16 96 14 14 (301056)
I1129 07:06:04.648103   553 net.cpp:137] Memory required for data: 576823552
I1129 07:06:04.648108   553 layer_factory.hpp:77] Creating layer inception_4a/3x3
I1129 07:06:04.648123   553 net.cpp:84] Creating Layer inception_4a/3x3
I1129 07:06:04.648138   553 net.cpp:406] inception_4a/3x3 <- inception_4a/3x3_reduce
I1129 07:06:04.648144   553 net.cpp:380] inception_4a/3x3 -> inception_4a/3x3
I1129 07:06:04.650297   553 net.cpp:122] Setting up inception_4a/3x3
I1129 07:06:04.650316   553 net.cpp:129] Top shape: 16 208 14 14 (652288)
I1129 07:06:04.650321   553 net.cpp:137] Memory required for data: 579432704
I1129 07:06:04.650329   553 layer_factory.hpp:77] Creating layer inception_4a/relu_3x3
I1129 07:06:04.650336   553 net.cpp:84] Creating Layer inception_4a/relu_3x3
I1129 07:06:04.650341   553 net.cpp:406] inception_4a/relu_3x3 <- inception_4a/3x3
I1129 07:06:04.650348   553 net.cpp:367] inception_4a/relu_3x3 -> inception_4a/3x3 (in-place)
I1129 07:06:04.650357   553 net.cpp:122] Setting up inception_4a/relu_3x3
I1129 07:06:04.650362   553 net.cpp:129] Top shape: 16 208 14 14 (652288)
I1129 07:06:04.650367   553 net.cpp:137] Memory required for data: 582041856
I1129 07:06:04.650370   553 layer_factory.hpp:77] Creating layer inception_4a/5x5_reduce
I1129 07:06:04.650384   553 net.cpp:84] Creating Layer inception_4a/5x5_reduce
I1129 07:06:04.650390   553 net.cpp:406] inception_4a/5x5_reduce <- pool3/3x3_s2_pool3/3x3_s2_0_split_2
I1129 07:06:04.650399   553 net.cpp:380] inception_4a/5x5_reduce -> inception_4a/5x5_reduce
I1129 07:06:04.650658   553 net.cpp:122] Setting up inception_4a/5x5_reduce
I1129 07:06:04.650669   553 net.cpp:129] Top shape: 16 16 14 14 (50176)
I1129 07:06:04.650673   553 net.cpp:137] Memory required for data: 582242560
I1129 07:06:04.650681   553 layer_factory.hpp:77] Creating layer inception_4a/relu_5x5_reduce
I1129 07:06:04.650687   553 net.cpp:84] Creating Layer inception_4a/relu_5x5_reduce
I1129 07:06:04.650692   553 net.cpp:406] inception_4a/relu_5x5_reduce <- inception_4a/5x5_reduce
I1129 07:06:04.650701   553 net.cpp:367] inception_4a/relu_5x5_reduce -> inception_4a/5x5_reduce (in-place)
I1129 07:06:04.650708   553 net.cpp:122] Setting up inception_4a/relu_5x5_reduce
I1129 07:06:04.650714   553 net.cpp:129] Top shape: 16 16 14 14 (50176)
I1129 07:06:04.650718   553 net.cpp:137] Memory required for data: 582443264
I1129 07:06:04.650722   553 layer_factory.hpp:77] Creating layer inception_4a/5x5
I1129 07:06:04.650732   553 net.cpp:84] Creating Layer inception_4a/5x5
I1129 07:06:04.650737   553 net.cpp:406] inception_4a/5x5 <- inception_4a/5x5_reduce
I1129 07:06:04.650744   553 net.cpp:380] inception_4a/5x5 -> inception_4a/5x5
I1129 07:06:04.651077   553 net.cpp:122] Setting up inception_4a/5x5
I1129 07:06:04.651089   553 net.cpp:129] Top shape: 16 48 14 14 (150528)
I1129 07:06:04.651093   553 net.cpp:137] Memory required for data: 583045376
I1129 07:06:04.651100   553 layer_factory.hpp:77] Creating layer inception_4a/relu_5x5
I1129 07:06:04.651108   553 net.cpp:84] Creating Layer inception_4a/relu_5x5
I1129 07:06:04.651113   553 net.cpp:406] inception_4a/relu_5x5 <- inception_4a/5x5
I1129 07:06:04.651119   553 net.cpp:367] inception_4a/relu_5x5 -> inception_4a/5x5 (in-place)
I1129 07:06:04.651126   553 net.cpp:122] Setting up inception_4a/relu_5x5
I1129 07:06:04.651131   553 net.cpp:129] Top shape: 16 48 14 14 (150528)
I1129 07:06:04.651135   553 net.cpp:137] Memory required for data: 583647488
I1129 07:06:04.651140   553 layer_factory.hpp:77] Creating layer inception_4a/pool
I1129 07:06:04.651147   553 net.cpp:84] Creating Layer inception_4a/pool
I1129 07:06:04.651154   553 net.cpp:406] inception_4a/pool <- pool3/3x3_s2_pool3/3x3_s2_0_split_3
I1129 07:06:04.651160   553 net.cpp:380] inception_4a/pool -> inception_4a/pool
I1129 07:06:04.651208   553 net.cpp:122] Setting up inception_4a/pool
I1129 07:06:04.651222   553 net.cpp:129] Top shape: 16 480 14 14 (1505280)
I1129 07:06:04.651227   553 net.cpp:137] Memory required for data: 589668608
I1129 07:06:04.651232   553 layer_factory.hpp:77] Creating layer inception_4a/pool_proj
I1129 07:06:04.651242   553 net.cpp:84] Creating Layer inception_4a/pool_proj
I1129 07:06:04.651247   553 net.cpp:406] inception_4a/pool_proj <- inception_4a/pool
I1129 07:06:04.651262   553 net.cpp:380] inception_4a/pool_proj -> inception_4a/pool_proj
I1129 07:06:04.651687   553 net.cpp:122] Setting up inception_4a/pool_proj
I1129 07:06:04.651700   553 net.cpp:129] Top shape: 16 64 14 14 (200704)
I1129 07:06:04.651705   553 net.cpp:137] Memory required for data: 590471424
I1129 07:06:04.651712   553 layer_factory.hpp:77] Creating layer inception_4a/relu_pool_proj
I1129 07:06:04.651720   553 net.cpp:84] Creating Layer inception_4a/relu_pool_proj
I1129 07:06:04.651724   553 net.cpp:406] inception_4a/relu_pool_proj <- inception_4a/pool_proj
I1129 07:06:04.651731   553 net.cpp:367] inception_4a/relu_pool_proj -> inception_4a/pool_proj (in-place)
I1129 07:06:04.651738   553 net.cpp:122] Setting up inception_4a/relu_pool_proj
I1129 07:06:04.651746   553 net.cpp:129] Top shape: 16 64 14 14 (200704)
I1129 07:06:04.651749   553 net.cpp:137] Memory required for data: 591274240
I1129 07:06:04.651753   553 layer_factory.hpp:77] Creating layer inception_4a/output
I1129 07:06:04.651760   553 net.cpp:84] Creating Layer inception_4a/output
I1129 07:06:04.651765   553 net.cpp:406] inception_4a/output <- inception_4a/1x1
I1129 07:06:04.651770   553 net.cpp:406] inception_4a/output <- inception_4a/3x3
I1129 07:06:04.651775   553 net.cpp:406] inception_4a/output <- inception_4a/5x5
I1129 07:06:04.651780   553 net.cpp:406] inception_4a/output <- inception_4a/pool_proj
I1129 07:06:04.651787   553 net.cpp:380] inception_4a/output -> inception_4a/output
I1129 07:06:04.651811   553 net.cpp:122] Setting up inception_4a/output
I1129 07:06:04.651820   553 net.cpp:129] Top shape: 16 512 14 14 (1605632)
I1129 07:06:04.651824   553 net.cpp:137] Memory required for data: 597696768
I1129 07:06:04.651829   553 layer_factory.hpp:77] Creating layer inception_4a/output_inception_4a/output_0_split
I1129 07:06:04.651837   553 net.cpp:84] Creating Layer inception_4a/output_inception_4a/output_0_split
I1129 07:06:04.651842   553 net.cpp:406] inception_4a/output_inception_4a/output_0_split <- inception_4a/output
I1129 07:06:04.651849   553 net.cpp:380] inception_4a/output_inception_4a/output_0_split -> inception_4a/output_inception_4a/output_0_split_0
I1129 07:06:04.651856   553 net.cpp:380] inception_4a/output_inception_4a/output_0_split -> inception_4a/output_inception_4a/output_0_split_1
I1129 07:06:04.651863   553 net.cpp:380] inception_4a/output_inception_4a/output_0_split -> inception_4a/output_inception_4a/output_0_split_2
I1129 07:06:04.651872   553 net.cpp:380] inception_4a/output_inception_4a/output_0_split -> inception_4a/output_inception_4a/output_0_split_3
I1129 07:06:04.651878   553 net.cpp:380] inception_4a/output_inception_4a/output_0_split -> inception_4a/output_inception_4a/output_0_split_4
I1129 07:06:04.651942   553 net.cpp:122] Setting up inception_4a/output_inception_4a/output_0_split
I1129 07:06:04.651950   553 net.cpp:129] Top shape: 16 512 14 14 (1605632)
I1129 07:06:04.651955   553 net.cpp:129] Top shape: 16 512 14 14 (1605632)
I1129 07:06:04.651960   553 net.cpp:129] Top shape: 16 512 14 14 (1605632)
I1129 07:06:04.651964   553 net.cpp:129] Top shape: 16 512 14 14 (1605632)
I1129 07:06:04.651969   553 net.cpp:129] Top shape: 16 512 14 14 (1605632)
I1129 07:06:04.651973   553 net.cpp:137] Memory required for data: 629809408
I1129 07:06:04.651978   553 layer_factory.hpp:77] Creating layer loss1/ave_pool
I1129 07:06:04.651983   553 net.cpp:84] Creating Layer loss1/ave_pool
I1129 07:06:04.651988   553 net.cpp:406] loss1/ave_pool <- inception_4a/output_inception_4a/output_0_split_0
I1129 07:06:04.651996   553 net.cpp:380] loss1/ave_pool -> loss1/ave_pool
I1129 07:06:04.652021   553 net.cpp:122] Setting up loss1/ave_pool
I1129 07:06:04.652029   553 net.cpp:129] Top shape: 16 512 4 4 (131072)
I1129 07:06:04.652034   553 net.cpp:137] Memory required for data: 630333696
I1129 07:06:04.652038   553 layer_factory.hpp:77] Creating layer loss1/conv
I1129 07:06:04.652050   553 net.cpp:84] Creating Layer loss1/conv
I1129 07:06:04.652055   553 net.cpp:406] loss1/conv <- loss1/ave_pool
I1129 07:06:04.652067   553 net.cpp:380] loss1/conv -> loss1/conv
I1129 07:06:04.652712   553 net.cpp:122] Setting up loss1/conv
I1129 07:06:04.652724   553 net.cpp:129] Top shape: 16 128 4 4 (32768)
I1129 07:06:04.652729   553 net.cpp:137] Memory required for data: 630464768
I1129 07:06:04.652736   553 layer_factory.hpp:77] Creating layer loss1/relu_conv
I1129 07:06:04.652745   553 net.cpp:84] Creating Layer loss1/relu_conv
I1129 07:06:04.652750   553 net.cpp:406] loss1/relu_conv <- loss1/conv
I1129 07:06:04.652755   553 net.cpp:367] loss1/relu_conv -> loss1/conv (in-place)
I1129 07:06:04.652762   553 net.cpp:122] Setting up loss1/relu_conv
I1129 07:06:04.652768   553 net.cpp:129] Top shape: 16 128 4 4 (32768)
I1129 07:06:04.652772   553 net.cpp:137] Memory required for data: 630595840
I1129 07:06:04.652776   553 layer_factory.hpp:77] Creating layer loss1/fc
I1129 07:06:04.652787   553 net.cpp:84] Creating Layer loss1/fc
I1129 07:06:04.652792   553 net.cpp:406] loss1/fc <- loss1/conv
I1129 07:06:04.652798   553 net.cpp:380] loss1/fc -> loss1/fc
I1129 07:06:04.669981   553 net.cpp:122] Setting up loss1/fc
I1129 07:06:04.670001   553 net.cpp:129] Top shape: 16 1024 (16384)
I1129 07:06:04.670006   553 net.cpp:137] Memory required for data: 630661376
I1129 07:06:04.670013   553 layer_factory.hpp:77] Creating layer loss1/relu_fc
I1129 07:06:04.670022   553 net.cpp:84] Creating Layer loss1/relu_fc
I1129 07:06:04.670027   553 net.cpp:406] loss1/relu_fc <- loss1/fc
I1129 07:06:04.670035   553 net.cpp:367] loss1/relu_fc -> loss1/fc (in-place)
I1129 07:06:04.670043   553 net.cpp:122] Setting up loss1/relu_fc
I1129 07:06:04.670049   553 net.cpp:129] Top shape: 16 1024 (16384)
I1129 07:06:04.670053   553 net.cpp:137] Memory required for data: 630726912
I1129 07:06:04.670058   553 layer_factory.hpp:77] Creating layer loss1/drop_fc
I1129 07:06:04.670078   553 net.cpp:84] Creating Layer loss1/drop_fc
I1129 07:06:04.670083   553 net.cpp:406] loss1/drop_fc <- loss1/fc
I1129 07:06:04.670089   553 net.cpp:367] loss1/drop_fc -> loss1/fc (in-place)
I1129 07:06:04.670121   553 net.cpp:122] Setting up loss1/drop_fc
I1129 07:06:04.670130   553 net.cpp:129] Top shape: 16 1024 (16384)
I1129 07:06:04.670135   553 net.cpp:137] Memory required for data: 630792448
I1129 07:06:04.670140   553 layer_factory.hpp:77] Creating layer loss1/classifier
I1129 07:06:04.670148   553 net.cpp:84] Creating Layer loss1/classifier
I1129 07:06:04.670152   553 net.cpp:406] loss1/classifier <- loss1/fc
I1129 07:06:04.670161   553 net.cpp:380] loss1/classifier -> loss1/classifier
I1129 07:06:04.679148   553 net.cpp:122] Setting up loss1/classifier
I1129 07:06:04.679167   553 net.cpp:129] Top shape: 16 1000 (16000)
I1129 07:06:04.679173   553 net.cpp:137] Memory required for data: 630856448
I1129 07:06:04.679181   553 layer_factory.hpp:77] Creating layer loss1/loss
I1129 07:06:04.679201   553 net.cpp:84] Creating Layer loss1/loss
I1129 07:06:04.679209   553 net.cpp:406] loss1/loss <- loss1/classifier
I1129 07:06:04.679215   553 net.cpp:406] loss1/loss <- label_data_1_split_0
I1129 07:06:04.679222   553 net.cpp:380] loss1/loss -> loss1/loss1
I1129 07:06:04.679234   553 layer_factory.hpp:77] Creating layer loss1/loss
I1129 07:06:04.679347   553 net.cpp:122] Setting up loss1/loss
I1129 07:06:04.679356   553 net.cpp:129] Top shape: (1)
I1129 07:06:04.679361   553 net.cpp:132]     with loss weight 0.3
I1129 07:06:04.679391   553 net.cpp:137] Memory required for data: 630856452
I1129 07:06:04.679396   553 layer_factory.hpp:77] Creating layer inception_4b/1x1
I1129 07:06:04.679407   553 net.cpp:84] Creating Layer inception_4b/1x1
I1129 07:06:04.679412   553 net.cpp:406] inception_4b/1x1 <- inception_4a/output_inception_4a/output_0_split_1
I1129 07:06:04.679421   553 net.cpp:380] inception_4b/1x1 -> inception_4b/1x1
I1129 07:06:04.680187   553 net.cpp:122] Setting up inception_4b/1x1
I1129 07:06:04.680199   553 net.cpp:129] Top shape: 16 160 14 14 (501760)
I1129 07:06:04.680204   553 net.cpp:137] Memory required for data: 632863492
I1129 07:06:04.680217   553 layer_factory.hpp:77] Creating layer inception_4b/relu_1x1
I1129 07:06:04.680225   553 net.cpp:84] Creating Layer inception_4b/relu_1x1
I1129 07:06:04.680239   553 net.cpp:406] inception_4b/relu_1x1 <- inception_4b/1x1
I1129 07:06:04.680248   553 net.cpp:367] inception_4b/relu_1x1 -> inception_4b/1x1 (in-place)
I1129 07:06:04.680256   553 net.cpp:122] Setting up inception_4b/relu_1x1
I1129 07:06:04.680263   553 net.cpp:129] Top shape: 16 160 14 14 (501760)
I1129 07:06:04.680266   553 net.cpp:137] Memory required for data: 634870532
I1129 07:06:04.680270   553 layer_factory.hpp:77] Creating layer inception_4b/3x3_reduce
I1129 07:06:04.680281   553 net.cpp:84] Creating Layer inception_4b/3x3_reduce
I1129 07:06:04.680286   553 net.cpp:406] inception_4b/3x3_reduce <- inception_4a/output_inception_4a/output_0_split_2
I1129 07:06:04.680294   553 net.cpp:380] inception_4b/3x3_reduce -> inception_4b/3x3_reduce
I1129 07:06:04.681480   553 net.cpp:122] Setting up inception_4b/3x3_reduce
I1129 07:06:04.681499   553 net.cpp:129] Top shape: 16 112 14 14 (351232)
I1129 07:06:04.681504   553 net.cpp:137] Memory required for data: 636275460
I1129 07:06:04.681512   553 layer_factory.hpp:77] Creating layer inception_4b/relu_3x3_reduce
I1129 07:06:04.681520   553 net.cpp:84] Creating Layer inception_4b/relu_3x3_reduce
I1129 07:06:04.681526   553 net.cpp:406] inception_4b/relu_3x3_reduce <- inception_4b/3x3_reduce
I1129 07:06:04.681535   553 net.cpp:367] inception_4b/relu_3x3_reduce -> inception_4b/3x3_reduce (in-place)
I1129 07:06:04.681542   553 net.cpp:122] Setting up inception_4b/relu_3x3_reduce
I1129 07:06:04.681548   553 net.cpp:129] Top shape: 16 112 14 14 (351232)
I1129 07:06:04.681552   553 net.cpp:137] Memory required for data: 637680388
I1129 07:06:04.681557   553 layer_factory.hpp:77] Creating layer inception_4b/3x3
I1129 07:06:04.681566   553 net.cpp:84] Creating Layer inception_4b/3x3
I1129 07:06:04.681571   553 net.cpp:406] inception_4b/3x3 <- inception_4b/3x3_reduce
I1129 07:06:04.681579   553 net.cpp:380] inception_4b/3x3 -> inception_4b/3x3
I1129 07:06:04.683845   553 net.cpp:122] Setting up inception_4b/3x3
I1129 07:06:04.683864   553 net.cpp:129] Top shape: 16 224 14 14 (702464)
I1129 07:06:04.683871   553 net.cpp:137] Memory required for data: 640490244
I1129 07:06:04.683878   553 layer_factory.hpp:77] Creating layer inception_4b/relu_3x3
I1129 07:06:04.683888   553 net.cpp:84] Creating Layer inception_4b/relu_3x3
I1129 07:06:04.683894   553 net.cpp:406] inception_4b/relu_3x3 <- inception_4b/3x3
I1129 07:06:04.683900   553 net.cpp:367] inception_4b/relu_3x3 -> inception_4b/3x3 (in-place)
I1129 07:06:04.683908   553 net.cpp:122] Setting up inception_4b/relu_3x3
I1129 07:06:04.683914   553 net.cpp:129] Top shape: 16 224 14 14 (702464)
I1129 07:06:04.683918   553 net.cpp:137] Memory required for data: 643300100
I1129 07:06:04.683923   553 layer_factory.hpp:77] Creating layer inception_4b/5x5_reduce
I1129 07:06:04.683935   553 net.cpp:84] Creating Layer inception_4b/5x5_reduce
I1129 07:06:04.683940   553 net.cpp:406] inception_4b/5x5_reduce <- inception_4a/output_inception_4a/output_0_split_3
I1129 07:06:04.683948   553 net.cpp:380] inception_4b/5x5_reduce -> inception_4b/5x5_reduce
I1129 07:06:04.684247   553 net.cpp:122] Setting up inception_4b/5x5_reduce
I1129 07:06:04.684258   553 net.cpp:129] Top shape: 16 24 14 14 (75264)
I1129 07:06:04.684262   553 net.cpp:137] Memory required for data: 643601156
I1129 07:06:04.684269   553 layer_factory.hpp:77] Creating layer inception_4b/relu_5x5_reduce
I1129 07:06:04.684278   553 net.cpp:84] Creating Layer inception_4b/relu_5x5_reduce
I1129 07:06:04.684283   553 net.cpp:406] inception_4b/relu_5x5_reduce <- inception_4b/5x5_reduce
I1129 07:06:04.684289   553 net.cpp:367] inception_4b/relu_5x5_reduce -> inception_4b/5x5_reduce (in-place)
I1129 07:06:04.684296   553 net.cpp:122] Setting up inception_4b/relu_5x5_reduce
I1129 07:06:04.684301   553 net.cpp:129] Top shape: 16 24 14 14 (75264)
I1129 07:06:04.684305   553 net.cpp:137] Memory required for data: 643902212
I1129 07:06:04.684314   553 layer_factory.hpp:77] Creating layer inception_4b/5x5
I1129 07:06:04.684327   553 net.cpp:84] Creating Layer inception_4b/5x5
I1129 07:06:04.684340   553 net.cpp:406] inception_4b/5x5 <- inception_4b/5x5_reduce
I1129 07:06:04.684348   553 net.cpp:380] inception_4b/5x5 -> inception_4b/5x5
I1129 07:06:04.684813   553 net.cpp:122] Setting up inception_4b/5x5
I1129 07:06:04.684824   553 net.cpp:129] Top shape: 16 64 14 14 (200704)
I1129 07:06:04.684828   553 net.cpp:137] Memory required for data: 644705028
I1129 07:06:04.684835   553 layer_factory.hpp:77] Creating layer inception_4b/relu_5x5
I1129 07:06:04.684842   553 net.cpp:84] Creating Layer inception_4b/relu_5x5
I1129 07:06:04.684847   553 net.cpp:406] inception_4b/relu_5x5 <- inception_4b/5x5
I1129 07:06:04.684854   553 net.cpp:367] inception_4b/relu_5x5 -> inception_4b/5x5 (in-place)
I1129 07:06:04.684861   553 net.cpp:122] Setting up inception_4b/relu_5x5
I1129 07:06:04.684867   553 net.cpp:129] Top shape: 16 64 14 14 (200704)
I1129 07:06:04.684871   553 net.cpp:137] Memory required for data: 645507844
I1129 07:06:04.684875   553 layer_factory.hpp:77] Creating layer inception_4b/pool
I1129 07:06:04.684882   553 net.cpp:84] Creating Layer inception_4b/pool
I1129 07:06:04.684887   553 net.cpp:406] inception_4b/pool <- inception_4a/output_inception_4a/output_0_split_4
I1129 07:06:04.684895   553 net.cpp:380] inception_4b/pool -> inception_4b/pool
I1129 07:06:04.684942   553 net.cpp:122] Setting up inception_4b/pool
I1129 07:06:04.684950   553 net.cpp:129] Top shape: 16 512 14 14 (1605632)
I1129 07:06:04.684955   553 net.cpp:137] Memory required for data: 651930372
I1129 07:06:04.684959   553 layer_factory.hpp:77] Creating layer inception_4b/pool_proj
I1129 07:06:04.684973   553 net.cpp:84] Creating Layer inception_4b/pool_proj
I1129 07:06:04.684978   553 net.cpp:406] inception_4b/pool_proj <- inception_4b/pool
I1129 07:06:04.684986   553 net.cpp:380] inception_4b/pool_proj -> inception_4b/pool_proj
I1129 07:06:04.685413   553 net.cpp:122] Setting up inception_4b/pool_proj
I1129 07:06:04.685425   553 net.cpp:129] Top shape: 16 64 14 14 (200704)
I1129 07:06:04.685431   553 net.cpp:137] Memory required for data: 652733188
I1129 07:06:04.685437   553 layer_factory.hpp:77] Creating layer inception_4b/relu_pool_proj
I1129 07:06:04.685443   553 net.cpp:84] Creating Layer inception_4b/relu_pool_proj
I1129 07:06:04.685448   553 net.cpp:406] inception_4b/relu_pool_proj <- inception_4b/pool_proj
I1129 07:06:04.685456   553 net.cpp:367] inception_4b/relu_pool_proj -> inception_4b/pool_proj (in-place)
I1129 07:06:04.685464   553 net.cpp:122] Setting up inception_4b/relu_pool_proj
I1129 07:06:04.685470   553 net.cpp:129] Top shape: 16 64 14 14 (200704)
I1129 07:06:04.685474   553 net.cpp:137] Memory required for data: 653536004
I1129 07:06:04.685478   553 layer_factory.hpp:77] Creating layer inception_4b/output
I1129 07:06:04.685485   553 net.cpp:84] Creating Layer inception_4b/output
I1129 07:06:04.685489   553 net.cpp:406] inception_4b/output <- inception_4b/1x1
I1129 07:06:04.685495   553 net.cpp:406] inception_4b/output <- inception_4b/3x3
I1129 07:06:04.685499   553 net.cpp:406] inception_4b/output <- inception_4b/5x5
I1129 07:06:04.685504   553 net.cpp:406] inception_4b/output <- inception_4b/pool_proj
I1129 07:06:04.685510   553 net.cpp:380] inception_4b/output -> inception_4b/output
I1129 07:06:04.685536   553 net.cpp:122] Setting up inception_4b/output
I1129 07:06:04.685544   553 net.cpp:129] Top shape: 16 512 14 14 (1605632)
I1129 07:06:04.685549   553 net.cpp:137] Memory required for data: 659958532
I1129 07:06:04.685554   553 layer_factory.hpp:77] Creating layer inception_4b/output_inception_4b/output_0_split
I1129 07:06:04.685560   553 net.cpp:84] Creating Layer inception_4b/output_inception_4b/output_0_split
I1129 07:06:04.685564   553 net.cpp:406] inception_4b/output_inception_4b/output_0_split <- inception_4b/output
I1129 07:06:04.685572   553 net.cpp:380] inception_4b/output_inception_4b/output_0_split -> inception_4b/output_inception_4b/output_0_split_0
I1129 07:06:04.685585   553 net.cpp:380] inception_4b/output_inception_4b/output_0_split -> inception_4b/output_inception_4b/output_0_split_1
I1129 07:06:04.685597   553 net.cpp:380] inception_4b/output_inception_4b/output_0_split -> inception_4b/output_inception_4b/output_0_split_2
I1129 07:06:04.685606   553 net.cpp:380] inception_4b/output_inception_4b/output_0_split -> inception_4b/output_inception_4b/output_0_split_3
I1129 07:06:04.685660   553 net.cpp:122] Setting up inception_4b/output_inception_4b/output_0_split
I1129 07:06:04.685672   553 net.cpp:129] Top shape: 16 512 14 14 (1605632)
I1129 07:06:04.685678   553 net.cpp:129] Top shape: 16 512 14 14 (1605632)
I1129 07:06:04.685681   553 net.cpp:129] Top shape: 16 512 14 14 (1605632)
I1129 07:06:04.685686   553 net.cpp:129] Top shape: 16 512 14 14 (1605632)
I1129 07:06:04.685690   553 net.cpp:137] Memory required for data: 685648644
I1129 07:06:04.685694   553 layer_factory.hpp:77] Creating layer inception_4c/1x1
I1129 07:06:04.685706   553 net.cpp:84] Creating Layer inception_4c/1x1
I1129 07:06:04.685711   553 net.cpp:406] inception_4c/1x1 <- inception_4b/output_inception_4b/output_0_split_0
I1129 07:06:04.685719   553 net.cpp:380] inception_4c/1x1 -> inception_4c/1x1
I1129 07:06:04.686363   553 net.cpp:122] Setting up inception_4c/1x1
I1129 07:06:04.686375   553 net.cpp:129] Top shape: 16 128 14 14 (401408)
I1129 07:06:04.686379   553 net.cpp:137] Memory required for data: 687254276
I1129 07:06:04.686386   553 layer_factory.hpp:77] Creating layer inception_4c/relu_1x1
I1129 07:06:04.686393   553 net.cpp:84] Creating Layer inception_4c/relu_1x1
I1129 07:06:04.686398   553 net.cpp:406] inception_4c/relu_1x1 <- inception_4c/1x1
I1129 07:06:04.686406   553 net.cpp:367] inception_4c/relu_1x1 -> inception_4c/1x1 (in-place)
I1129 07:06:04.686414   553 net.cpp:122] Setting up inception_4c/relu_1x1
I1129 07:06:04.686420   553 net.cpp:129] Top shape: 16 128 14 14 (401408)
I1129 07:06:04.686424   553 net.cpp:137] Memory required for data: 688859908
I1129 07:06:04.686429   553 layer_factory.hpp:77] Creating layer inception_4c/3x3_reduce
I1129 07:06:04.686439   553 net.cpp:84] Creating Layer inception_4c/3x3_reduce
I1129 07:06:04.686444   553 net.cpp:406] inception_4c/3x3_reduce <- inception_4b/output_inception_4b/output_0_split_1
I1129 07:06:04.686450   553 net.cpp:380] inception_4c/3x3_reduce -> inception_4c/3x3_reduce
I1129 07:06:04.687110   553 net.cpp:122] Setting up inception_4c/3x3_reduce
I1129 07:06:04.687124   553 net.cpp:129] Top shape: 16 128 14 14 (401408)
I1129 07:06:04.687129   553 net.cpp:137] Memory required for data: 690465540
I1129 07:06:04.687135   553 layer_factory.hpp:77] Creating layer inception_4c/relu_3x3_reduce
I1129 07:06:04.687144   553 net.cpp:84] Creating Layer inception_4c/relu_3x3_reduce
I1129 07:06:04.687150   553 net.cpp:406] inception_4c/relu_3x3_reduce <- inception_4c/3x3_reduce
I1129 07:06:04.687155   553 net.cpp:367] inception_4c/relu_3x3_reduce -> inception_4c/3x3_reduce (in-place)
I1129 07:06:04.687162   553 net.cpp:122] Setting up inception_4c/relu_3x3_reduce
I1129 07:06:04.687168   553 net.cpp:129] Top shape: 16 128 14 14 (401408)
I1129 07:06:04.687172   553 net.cpp:137] Memory required for data: 692071172
I1129 07:06:04.687176   553 layer_factory.hpp:77] Creating layer inception_4c/3x3
I1129 07:06:04.687199   553 net.cpp:84] Creating Layer inception_4c/3x3
I1129 07:06:04.687206   553 net.cpp:406] inception_4c/3x3 <- inception_4c/3x3_reduce
I1129 07:06:04.687213   553 net.cpp:380] inception_4c/3x3 -> inception_4c/3x3
I1129 07:06:04.689973   553 net.cpp:122] Setting up inception_4c/3x3
I1129 07:06:04.689991   553 net.cpp:129] Top shape: 16 256 14 14 (802816)
I1129 07:06:04.689997   553 net.cpp:137] Memory required for data: 695282436
I1129 07:06:04.690017   553 layer_factory.hpp:77] Creating layer inception_4c/relu_3x3
I1129 07:06:04.690028   553 net.cpp:84] Creating Layer inception_4c/relu_3x3
I1129 07:06:04.690034   553 net.cpp:406] inception_4c/relu_3x3 <- inception_4c/3x3
I1129 07:06:04.690040   553 net.cpp:367] inception_4c/relu_3x3 -> inception_4c/3x3 (in-place)
I1129 07:06:04.690054   553 net.cpp:122] Setting up inception_4c/relu_3x3
I1129 07:06:04.690068   553 net.cpp:129] Top shape: 16 256 14 14 (802816)
I1129 07:06:04.690073   553 net.cpp:137] Memory required for data: 698493700
I1129 07:06:04.690078   553 layer_factory.hpp:77] Creating layer inception_4c/5x5_reduce
I1129 07:06:04.690088   553 net.cpp:84] Creating Layer inception_4c/5x5_reduce
I1129 07:06:04.690093   553 net.cpp:406] inception_4c/5x5_reduce <- inception_4b/output_inception_4b/output_0_split_2
I1129 07:06:04.690101   553 net.cpp:380] inception_4c/5x5_reduce -> inception_4c/5x5_reduce
I1129 07:06:04.690403   553 net.cpp:122] Setting up inception_4c/5x5_reduce
I1129 07:06:04.690414   553 net.cpp:129] Top shape: 16 24 14 14 (75264)
I1129 07:06:04.690419   553 net.cpp:137] Memory required for data: 698794756
I1129 07:06:04.690426   553 layer_factory.hpp:77] Creating layer inception_4c/relu_5x5_reduce
I1129 07:06:04.690435   553 net.cpp:84] Creating Layer inception_4c/relu_5x5_reduce
I1129 07:06:04.690440   553 net.cpp:406] inception_4c/relu_5x5_reduce <- inception_4c/5x5_reduce
I1129 07:06:04.690446   553 net.cpp:367] inception_4c/relu_5x5_reduce -> inception_4c/5x5_reduce (in-place)
I1129 07:06:04.690454   553 net.cpp:122] Setting up inception_4c/relu_5x5_reduce
I1129 07:06:04.690459   553 net.cpp:129] Top shape: 16 24 14 14 (75264)
I1129 07:06:04.690464   553 net.cpp:137] Memory required for data: 699095812
I1129 07:06:04.690467   553 layer_factory.hpp:77] Creating layer inception_4c/5x5
I1129 07:06:04.690479   553 net.cpp:84] Creating Layer inception_4c/5x5
I1129 07:06:04.690484   553 net.cpp:406] inception_4c/5x5 <- inception_4c/5x5_reduce
I1129 07:06:04.690490   553 net.cpp:380] inception_4c/5x5 -> inception_4c/5x5
I1129 07:06:04.691613   553 net.cpp:122] Setting up inception_4c/5x5
I1129 07:06:04.691633   553 net.cpp:129] Top shape: 16 64 14 14 (200704)
I1129 07:06:04.691638   553 net.cpp:137] Memory required for data: 699898628
I1129 07:06:04.691646   553 layer_factory.hpp:77] Creating layer inception_4c/relu_5x5
I1129 07:06:04.691656   553 net.cpp:84] Creating Layer inception_4c/relu_5x5
I1129 07:06:04.691663   553 net.cpp:406] inception_4c/relu_5x5 <- inception_4c/5x5
I1129 07:06:04.691668   553 net.cpp:367] inception_4c/relu_5x5 -> inception_4c/5x5 (in-place)
I1129 07:06:04.691676   553 net.cpp:122] Setting up inception_4c/relu_5x5
I1129 07:06:04.691682   553 net.cpp:129] Top shape: 16 64 14 14 (200704)
I1129 07:06:04.691686   553 net.cpp:137] Memory required for data: 700701444
I1129 07:06:04.691691   553 layer_factory.hpp:77] Creating layer inception_4c/pool
I1129 07:06:04.691699   553 net.cpp:84] Creating Layer inception_4c/pool
I1129 07:06:04.691705   553 net.cpp:406] inception_4c/pool <- inception_4b/output_inception_4b/output_0_split_3
I1129 07:06:04.691711   553 net.cpp:380] inception_4c/pool -> inception_4c/pool
I1129 07:06:04.691752   553 net.cpp:122] Setting up inception_4c/pool
I1129 07:06:04.691762   553 net.cpp:129] Top shape: 16 512 14 14 (1605632)
I1129 07:06:04.691766   553 net.cpp:137] Memory required for data: 707123972
I1129 07:06:04.691771   553 layer_factory.hpp:77] Creating layer inception_4c/pool_proj
I1129 07:06:04.691783   553 net.cpp:84] Creating Layer inception_4c/pool_proj
I1129 07:06:04.691788   553 net.cpp:406] inception_4c/pool_proj <- inception_4c/pool
I1129 07:06:04.691795   553 net.cpp:380] inception_4c/pool_proj -> inception_4c/pool_proj
I1129 07:06:04.692224   553 net.cpp:122] Setting up inception_4c/pool_proj
I1129 07:06:04.692235   553 net.cpp:129] Top shape: 16 64 14 14 (200704)
I1129 07:06:04.692240   553 net.cpp:137] Memory required for data: 707926788
I1129 07:06:04.692246   553 layer_factory.hpp:77] Creating layer inception_4c/relu_pool_proj
I1129 07:06:04.692255   553 net.cpp:84] Creating Layer inception_4c/relu_pool_proj
I1129 07:06:04.692260   553 net.cpp:406] inception_4c/relu_pool_proj <- inception_4c/pool_proj
I1129 07:06:04.692266   553 net.cpp:367] inception_4c/relu_pool_proj -> inception_4c/pool_proj (in-place)
I1129 07:06:04.692279   553 net.cpp:122] Setting up inception_4c/relu_pool_proj
I1129 07:06:04.692286   553 net.cpp:129] Top shape: 16 64 14 14 (200704)
I1129 07:06:04.692298   553 net.cpp:137] Memory required for data: 708729604
I1129 07:06:04.692303   553 layer_factory.hpp:77] Creating layer inception_4c/output
I1129 07:06:04.692312   553 net.cpp:84] Creating Layer inception_4c/output
I1129 07:06:04.692317   553 net.cpp:406] inception_4c/output <- inception_4c/1x1
I1129 07:06:04.692322   553 net.cpp:406] inception_4c/output <- inception_4c/3x3
I1129 07:06:04.692327   553 net.cpp:406] inception_4c/output <- inception_4c/5x5
I1129 07:06:04.692332   553 net.cpp:406] inception_4c/output <- inception_4c/pool_proj
I1129 07:06:04.692337   553 net.cpp:380] inception_4c/output -> inception_4c/output
I1129 07:06:04.692361   553 net.cpp:122] Setting up inception_4c/output
I1129 07:06:04.692370   553 net.cpp:129] Top shape: 16 512 14 14 (1605632)
I1129 07:06:04.692374   553 net.cpp:137] Memory required for data: 715152132
I1129 07:06:04.692378   553 layer_factory.hpp:77] Creating layer inception_4c/output_inception_4c/output_0_split
I1129 07:06:04.692389   553 net.cpp:84] Creating Layer inception_4c/output_inception_4c/output_0_split
I1129 07:06:04.692394   553 net.cpp:406] inception_4c/output_inception_4c/output_0_split <- inception_4c/output
I1129 07:06:04.692399   553 net.cpp:380] inception_4c/output_inception_4c/output_0_split -> inception_4c/output_inception_4c/output_0_split_0
I1129 07:06:04.692409   553 net.cpp:380] inception_4c/output_inception_4c/output_0_split -> inception_4c/output_inception_4c/output_0_split_1
I1129 07:06:04.692415   553 net.cpp:380] inception_4c/output_inception_4c/output_0_split -> inception_4c/output_inception_4c/output_0_split_2
I1129 07:06:04.692422   553 net.cpp:380] inception_4c/output_inception_4c/output_0_split -> inception_4c/output_inception_4c/output_0_split_3
I1129 07:06:04.692474   553 net.cpp:122] Setting up inception_4c/output_inception_4c/output_0_split
I1129 07:06:04.692483   553 net.cpp:129] Top shape: 16 512 14 14 (1605632)
I1129 07:06:04.692488   553 net.cpp:129] Top shape: 16 512 14 14 (1605632)
I1129 07:06:04.692493   553 net.cpp:129] Top shape: 16 512 14 14 (1605632)
I1129 07:06:04.692498   553 net.cpp:129] Top shape: 16 512 14 14 (1605632)
I1129 07:06:04.692502   553 net.cpp:137] Memory required for data: 740842244
I1129 07:06:04.692507   553 layer_factory.hpp:77] Creating layer inception_4d/1x1
I1129 07:06:04.692517   553 net.cpp:84] Creating Layer inception_4d/1x1
I1129 07:06:04.692523   553 net.cpp:406] inception_4d/1x1 <- inception_4c/output_inception_4c/output_0_split_0
I1129 07:06:04.692530   553 net.cpp:380] inception_4d/1x1 -> inception_4d/1x1
I1129 07:06:04.693125   553 net.cpp:122] Setting up inception_4d/1x1
I1129 07:06:04.693136   553 net.cpp:129] Top shape: 16 112 14 14 (351232)
I1129 07:06:04.693140   553 net.cpp:137] Memory required for data: 742247172
I1129 07:06:04.693147   553 layer_factory.hpp:77] Creating layer inception_4d/relu_1x1
I1129 07:06:04.693155   553 net.cpp:84] Creating Layer inception_4d/relu_1x1
I1129 07:06:04.693159   553 net.cpp:406] inception_4d/relu_1x1 <- inception_4d/1x1
I1129 07:06:04.693167   553 net.cpp:367] inception_4d/relu_1x1 -> inception_4d/1x1 (in-place)
I1129 07:06:04.693174   553 net.cpp:122] Setting up inception_4d/relu_1x1
I1129 07:06:04.693181   553 net.cpp:129] Top shape: 16 112 14 14 (351232)
I1129 07:06:04.693184   553 net.cpp:137] Memory required for data: 743652100
I1129 07:06:04.693188   553 layer_factory.hpp:77] Creating layer inception_4d/3x3_reduce
I1129 07:06:04.693199   553 net.cpp:84] Creating Layer inception_4d/3x3_reduce
I1129 07:06:04.693204   553 net.cpp:406] inception_4d/3x3_reduce <- inception_4c/output_inception_4c/output_0_split_1
I1129 07:06:04.693210   553 net.cpp:380] inception_4d/3x3_reduce -> inception_4d/3x3_reduce
I1129 07:06:04.693958   553 net.cpp:122] Setting up inception_4d/3x3_reduce
I1129 07:06:04.693974   553 net.cpp:129] Top shape: 16 144 14 14 (451584)
I1129 07:06:04.693979   553 net.cpp:137] Memory required for data: 745458436
I1129 07:06:04.693990   553 layer_factory.hpp:77] Creating layer inception_4d/relu_3x3_reduce
I1129 07:06:04.694005   553 net.cpp:84] Creating Layer inception_4d/relu_3x3_reduce
I1129 07:06:04.694010   553 net.cpp:406] inception_4d/relu_3x3_reduce <- inception_4d/3x3_reduce
I1129 07:06:04.694016   553 net.cpp:367] inception_4d/relu_3x3_reduce -> inception_4d/3x3_reduce (in-place)
I1129 07:06:04.694023   553 net.cpp:122] Setting up inception_4d/relu_3x3_reduce
I1129 07:06:04.694030   553 net.cpp:129] Top shape: 16 144 14 14 (451584)
I1129 07:06:04.694033   553 net.cpp:137] Memory required for data: 747264772
I1129 07:06:04.694037   553 layer_factory.hpp:77] Creating layer inception_4d/3x3
I1129 07:06:04.694049   553 net.cpp:84] Creating Layer inception_4d/3x3
I1129 07:06:04.694054   553 net.cpp:406] inception_4d/3x3 <- inception_4d/3x3_reduce
I1129 07:06:04.694062   553 net.cpp:380] inception_4d/3x3 -> inception_4d/3x3
I1129 07:06:04.697485   553 net.cpp:122] Setting up inception_4d/3x3
I1129 07:06:04.697504   553 net.cpp:129] Top shape: 16 288 14 14 (903168)
I1129 07:06:04.697510   553 net.cpp:137] Memory required for data: 750877444
I1129 07:06:04.697518   553 layer_factory.hpp:77] Creating layer inception_4d/relu_3x3
I1129 07:06:04.697525   553 net.cpp:84] Creating Layer inception_4d/relu_3x3
I1129 07:06:04.697531   553 net.cpp:406] inception_4d/relu_3x3 <- inception_4d/3x3
I1129 07:06:04.697537   553 net.cpp:367] inception_4d/relu_3x3 -> inception_4d/3x3 (in-place)
I1129 07:06:04.697546   553 net.cpp:122] Setting up inception_4d/relu_3x3
I1129 07:06:04.697551   553 net.cpp:129] Top shape: 16 288 14 14 (903168)
I1129 07:06:04.697556   553 net.cpp:137] Memory required for data: 754490116
I1129 07:06:04.697561   553 layer_factory.hpp:77] Creating layer inception_4d/5x5_reduce
I1129 07:06:04.697571   553 net.cpp:84] Creating Layer inception_4d/5x5_reduce
I1129 07:06:04.697576   553 net.cpp:406] inception_4d/5x5_reduce <- inception_4c/output_inception_4c/output_0_split_2
I1129 07:06:04.697587   553 net.cpp:380] inception_4d/5x5_reduce -> inception_4d/5x5_reduce
I1129 07:06:04.697921   553 net.cpp:122] Setting up inception_4d/5x5_reduce
I1129 07:06:04.697932   553 net.cpp:129] Top shape: 16 32 14 14 (100352)
I1129 07:06:04.697937   553 net.cpp:137] Memory required for data: 754891524
I1129 07:06:04.697943   553 layer_factory.hpp:77] Creating layer inception_4d/relu_5x5_reduce
I1129 07:06:04.697952   553 net.cpp:84] Creating Layer inception_4d/relu_5x5_reduce
I1129 07:06:04.697957   553 net.cpp:406] inception_4d/relu_5x5_reduce <- inception_4d/5x5_reduce
I1129 07:06:04.697962   553 net.cpp:367] inception_4d/relu_5x5_reduce -> inception_4d/5x5_reduce (in-place)
I1129 07:06:04.697969   553 net.cpp:122] Setting up inception_4d/relu_5x5_reduce
I1129 07:06:04.697974   553 net.cpp:129] Top shape: 16 32 14 14 (100352)
I1129 07:06:04.697978   553 net.cpp:137] Memory required for data: 755292932
I1129 07:06:04.697983   553 layer_factory.hpp:77] Creating layer inception_4d/5x5
I1129 07:06:04.697993   553 net.cpp:84] Creating Layer inception_4d/5x5
I1129 07:06:04.697999   553 net.cpp:406] inception_4d/5x5 <- inception_4d/5x5_reduce
I1129 07:06:04.698005   553 net.cpp:380] inception_4d/5x5 -> inception_4d/5x5
I1129 07:06:04.698578   553 net.cpp:122] Setting up inception_4d/5x5
I1129 07:06:04.698592   553 net.cpp:129] Top shape: 16 64 14 14 (200704)
I1129 07:06:04.698597   553 net.cpp:137] Memory required for data: 756095748
I1129 07:06:04.698604   553 layer_factory.hpp:77] Creating layer inception_4d/relu_5x5
I1129 07:06:04.698612   553 net.cpp:84] Creating Layer inception_4d/relu_5x5
I1129 07:06:04.698618   553 net.cpp:406] inception_4d/relu_5x5 <- inception_4d/5x5
I1129 07:06:04.698623   553 net.cpp:367] inception_4d/relu_5x5 -> inception_4d/5x5 (in-place)
I1129 07:06:04.698631   553 net.cpp:122] Setting up inception_4d/relu_5x5
I1129 07:06:04.698637   553 net.cpp:129] Top shape: 16 64 14 14 (200704)
I1129 07:06:04.698640   553 net.cpp:137] Memory required for data: 756898564
I1129 07:06:04.698644   553 layer_factory.hpp:77] Creating layer inception_4d/pool
I1129 07:06:04.698657   553 net.cpp:84] Creating Layer inception_4d/pool
I1129 07:06:04.698670   553 net.cpp:406] inception_4d/pool <- inception_4c/output_inception_4c/output_0_split_3
I1129 07:06:04.698678   553 net.cpp:380] inception_4d/pool -> inception_4d/pool
I1129 07:06:04.698719   553 net.cpp:122] Setting up inception_4d/pool
I1129 07:06:04.698727   553 net.cpp:129] Top shape: 16 512 14 14 (1605632)
I1129 07:06:04.698731   553 net.cpp:137] Memory required for data: 763321092
I1129 07:06:04.698736   553 layer_factory.hpp:77] Creating layer inception_4d/pool_proj
I1129 07:06:04.698747   553 net.cpp:84] Creating Layer inception_4d/pool_proj
I1129 07:06:04.698752   553 net.cpp:406] inception_4d/pool_proj <- inception_4d/pool
I1129 07:06:04.698760   553 net.cpp:380] inception_4d/pool_proj -> inception_4d/pool_proj
I1129 07:06:04.699198   553 net.cpp:122] Setting up inception_4d/pool_proj
I1129 07:06:04.699213   553 net.cpp:129] Top shape: 16 64 14 14 (200704)
I1129 07:06:04.699218   553 net.cpp:137] Memory required for data: 764123908
I1129 07:06:04.699225   553 layer_factory.hpp:77] Creating layer inception_4d/relu_pool_proj
I1129 07:06:04.699234   553 net.cpp:84] Creating Layer inception_4d/relu_pool_proj
I1129 07:06:04.699239   553 net.cpp:406] inception_4d/relu_pool_proj <- inception_4d/pool_proj
I1129 07:06:04.699245   553 net.cpp:367] inception_4d/relu_pool_proj -> inception_4d/pool_proj (in-place)
I1129 07:06:04.699252   553 net.cpp:122] Setting up inception_4d/relu_pool_proj
I1129 07:06:04.699259   553 net.cpp:129] Top shape: 16 64 14 14 (200704)
I1129 07:06:04.699262   553 net.cpp:137] Memory required for data: 764926724
I1129 07:06:04.699266   553 layer_factory.hpp:77] Creating layer inception_4d/output
I1129 07:06:04.699275   553 net.cpp:84] Creating Layer inception_4d/output
I1129 07:06:04.699280   553 net.cpp:406] inception_4d/output <- inception_4d/1x1
I1129 07:06:04.699286   553 net.cpp:406] inception_4d/output <- inception_4d/3x3
I1129 07:06:04.699290   553 net.cpp:406] inception_4d/output <- inception_4d/5x5
I1129 07:06:04.699295   553 net.cpp:406] inception_4d/output <- inception_4d/pool_proj
I1129 07:06:04.699301   553 net.cpp:380] inception_4d/output -> inception_4d/output
I1129 07:06:04.699326   553 net.cpp:122] Setting up inception_4d/output
I1129 07:06:04.699335   553 net.cpp:129] Top shape: 16 528 14 14 (1655808)
I1129 07:06:04.699339   553 net.cpp:137] Memory required for data: 771549956
I1129 07:06:04.699343   553 layer_factory.hpp:77] Creating layer inception_4d/output_inception_4d/output_0_split
I1129 07:06:04.699353   553 net.cpp:84] Creating Layer inception_4d/output_inception_4d/output_0_split
I1129 07:06:04.699358   553 net.cpp:406] inception_4d/output_inception_4d/output_0_split <- inception_4d/output
I1129 07:06:04.699364   553 net.cpp:380] inception_4d/output_inception_4d/output_0_split -> inception_4d/output_inception_4d/output_0_split_0
I1129 07:06:04.699375   553 net.cpp:380] inception_4d/output_inception_4d/output_0_split -> inception_4d/output_inception_4d/output_0_split_1
I1129 07:06:04.699383   553 net.cpp:380] inception_4d/output_inception_4d/output_0_split -> inception_4d/output_inception_4d/output_0_split_2
I1129 07:06:04.699389   553 net.cpp:380] inception_4d/output_inception_4d/output_0_split -> inception_4d/output_inception_4d/output_0_split_3
I1129 07:06:04.699395   553 net.cpp:380] inception_4d/output_inception_4d/output_0_split -> inception_4d/output_inception_4d/output_0_split_4
I1129 07:06:04.699461   553 net.cpp:122] Setting up inception_4d/output_inception_4d/output_0_split
I1129 07:06:04.699470   553 net.cpp:129] Top shape: 16 528 14 14 (1655808)
I1129 07:06:04.699476   553 net.cpp:129] Top shape: 16 528 14 14 (1655808)
I1129 07:06:04.699481   553 net.cpp:129] Top shape: 16 528 14 14 (1655808)
I1129 07:06:04.699486   553 net.cpp:129] Top shape: 16 528 14 14 (1655808)
I1129 07:06:04.699489   553 net.cpp:129] Top shape: 16 528 14 14 (1655808)
I1129 07:06:04.699493   553 net.cpp:137] Memory required for data: 804666116
I1129 07:06:04.699503   553 layer_factory.hpp:77] Creating layer loss2/ave_pool
I1129 07:06:04.699520   553 net.cpp:84] Creating Layer loss2/ave_pool
I1129 07:06:04.699525   553 net.cpp:406] loss2/ave_pool <- inception_4d/output_inception_4d/output_0_split_0
I1129 07:06:04.699532   553 net.cpp:380] loss2/ave_pool -> loss2/ave_pool
I1129 07:06:04.699559   553 net.cpp:122] Setting up loss2/ave_pool
I1129 07:06:04.699568   553 net.cpp:129] Top shape: 16 528 4 4 (135168)
I1129 07:06:04.699573   553 net.cpp:137] Memory required for data: 805206788
I1129 07:06:04.699576   553 layer_factory.hpp:77] Creating layer loss2/conv
I1129 07:06:04.699587   553 net.cpp:84] Creating Layer loss2/conv
I1129 07:06:04.699594   553 net.cpp:406] loss2/conv <- loss2/ave_pool
I1129 07:06:04.699601   553 net.cpp:380] loss2/conv -> loss2/conv
I1129 07:06:04.700789   553 net.cpp:122] Setting up loss2/conv
I1129 07:06:04.700809   553 net.cpp:129] Top shape: 16 128 4 4 (32768)
I1129 07:06:04.700814   553 net.cpp:137] Memory required for data: 805337860
I1129 07:06:04.700821   553 layer_factory.hpp:77] Creating layer loss2/relu_conv
I1129 07:06:04.700829   553 net.cpp:84] Creating Layer loss2/relu_conv
I1129 07:06:04.700835   553 net.cpp:406] loss2/relu_conv <- loss2/conv
I1129 07:06:04.700840   553 net.cpp:367] loss2/relu_conv -> loss2/conv (in-place)
I1129 07:06:04.700848   553 net.cpp:122] Setting up loss2/relu_conv
I1129 07:06:04.700855   553 net.cpp:129] Top shape: 16 128 4 4 (32768)
I1129 07:06:04.700860   553 net.cpp:137] Memory required for data: 805468932
I1129 07:06:04.700863   553 layer_factory.hpp:77] Creating layer loss2/fc
I1129 07:06:04.700875   553 net.cpp:84] Creating Layer loss2/fc
I1129 07:06:04.700880   553 net.cpp:406] loss2/fc <- loss2/conv
I1129 07:06:04.700887   553 net.cpp:380] loss2/fc -> loss2/fc
I1129 07:06:04.718005   553 net.cpp:122] Setting up loss2/fc
I1129 07:06:04.718025   553 net.cpp:129] Top shape: 16 1024 (16384)
I1129 07:06:04.718030   553 net.cpp:137] Memory required for data: 805534468
I1129 07:06:04.718039   553 layer_factory.hpp:77] Creating layer loss2/relu_fc
I1129 07:06:04.718047   553 net.cpp:84] Creating Layer loss2/relu_fc
I1129 07:06:04.718052   553 net.cpp:406] loss2/relu_fc <- loss2/fc
I1129 07:06:04.718060   553 net.cpp:367] loss2/relu_fc -> loss2/fc (in-place)
I1129 07:06:04.718068   553 net.cpp:122] Setting up loss2/relu_fc
I1129 07:06:04.718075   553 net.cpp:129] Top shape: 16 1024 (16384)
I1129 07:06:04.718081   553 net.cpp:137] Memory required for data: 805600004
I1129 07:06:04.718091   553 layer_factory.hpp:77] Creating layer loss2/drop_fc
I1129 07:06:04.718101   553 net.cpp:84] Creating Layer loss2/drop_fc
I1129 07:06:04.718107   553 net.cpp:406] loss2/drop_fc <- loss2/fc
I1129 07:06:04.718116   553 net.cpp:367] loss2/drop_fc -> loss2/fc (in-place)
I1129 07:06:04.718163   553 net.cpp:122] Setting up loss2/drop_fc
I1129 07:06:04.718175   553 net.cpp:129] Top shape: 16 1024 (16384)
I1129 07:06:04.718179   553 net.cpp:137] Memory required for data: 805665540
I1129 07:06:04.718183   553 layer_factory.hpp:77] Creating layer loss2/classifier
I1129 07:06:04.718197   553 net.cpp:84] Creating Layer loss2/classifier
I1129 07:06:04.718202   553 net.cpp:406] loss2/classifier <- loss2/fc
I1129 07:06:04.718210   553 net.cpp:380] loss2/classifier -> loss2/classifier
I1129 07:06:04.726727   553 net.cpp:122] Setting up loss2/classifier
I1129 07:06:04.726745   553 net.cpp:129] Top shape: 16 1000 (16000)
I1129 07:06:04.726750   553 net.cpp:137] Memory required for data: 805729540
I1129 07:06:04.726758   553 layer_factory.hpp:77] Creating layer loss2/loss
I1129 07:06:04.726766   553 net.cpp:84] Creating Layer loss2/loss
I1129 07:06:04.726773   553 net.cpp:406] loss2/loss <- loss2/classifier
I1129 07:06:04.726778   553 net.cpp:406] loss2/loss <- label_data_1_split_1
I1129 07:06:04.726784   553 net.cpp:380] loss2/loss -> loss2/loss2
I1129 07:06:04.726794   553 layer_factory.hpp:77] Creating layer loss2/loss
I1129 07:06:04.726904   553 net.cpp:122] Setting up loss2/loss
I1129 07:06:04.726914   553 net.cpp:129] Top shape: (1)
I1129 07:06:04.726924   553 net.cpp:132]     with loss weight 0.3
I1129 07:06:04.726948   553 net.cpp:137] Memory required for data: 805729544
I1129 07:06:04.726953   553 layer_factory.hpp:77] Creating layer inception_4e/1x1
I1129 07:06:04.726965   553 net.cpp:84] Creating Layer inception_4e/1x1
I1129 07:06:04.726971   553 net.cpp:406] inception_4e/1x1 <- inception_4d/output_inception_4d/output_0_split_1
I1129 07:06:04.726979   553 net.cpp:380] inception_4e/1x1 -> inception_4e/1x1
I1129 07:06:04.728138   553 net.cpp:122] Setting up inception_4e/1x1
I1129 07:06:04.728154   553 net.cpp:129] Top shape: 16 256 14 14 (802816)
I1129 07:06:04.728159   553 net.cpp:137] Memory required for data: 808940808
I1129 07:06:04.728168   553 layer_factory.hpp:77] Creating layer inception_4e/relu_1x1
I1129 07:06:04.728175   553 net.cpp:84] Creating Layer inception_4e/relu_1x1
I1129 07:06:04.728180   553 net.cpp:406] inception_4e/relu_1x1 <- inception_4e/1x1
I1129 07:06:04.728186   553 net.cpp:367] inception_4e/relu_1x1 -> inception_4e/1x1 (in-place)
I1129 07:06:04.728193   553 net.cpp:122] Setting up inception_4e/relu_1x1
I1129 07:06:04.728199   553 net.cpp:129] Top shape: 16 256 14 14 (802816)
I1129 07:06:04.728204   553 net.cpp:137] Memory required for data: 812152072
I1129 07:06:04.728207   553 layer_factory.hpp:77] Creating layer inception_4e/3x3_reduce
I1129 07:06:04.728219   553 net.cpp:84] Creating Layer inception_4e/3x3_reduce
I1129 07:06:04.728224   553 net.cpp:406] inception_4e/3x3_reduce <- inception_4d/output_inception_4d/output_0_split_2
I1129 07:06:04.728231   553 net.cpp:380] inception_4e/3x3_reduce -> inception_4e/3x3_reduce
I1129 07:06:04.729547   553 net.cpp:122] Setting up inception_4e/3x3_reduce
I1129 07:06:04.729564   553 net.cpp:129] Top shape: 16 160 14 14 (501760)
I1129 07:06:04.729569   553 net.cpp:137] Memory required for data: 814159112
I1129 07:06:04.729578   553 layer_factory.hpp:77] Creating layer inception_4e/relu_3x3_reduce
I1129 07:06:04.729588   553 net.cpp:84] Creating Layer inception_4e/relu_3x3_reduce
I1129 07:06:04.729593   553 net.cpp:406] inception_4e/relu_3x3_reduce <- inception_4e/3x3_reduce
I1129 07:06:04.729599   553 net.cpp:367] inception_4e/relu_3x3_reduce -> inception_4e/3x3_reduce (in-place)
I1129 07:06:04.729607   553 net.cpp:122] Setting up inception_4e/relu_3x3_reduce
I1129 07:06:04.729614   553 net.cpp:129] Top shape: 16 160 14 14 (501760)
I1129 07:06:04.729617   553 net.cpp:137] Memory required for data: 816166152
I1129 07:06:04.729621   553 layer_factory.hpp:77] Creating layer inception_4e/3x3
I1129 07:06:04.729634   553 net.cpp:84] Creating Layer inception_4e/3x3
I1129 07:06:04.729638   553 net.cpp:406] inception_4e/3x3 <- inception_4e/3x3_reduce
I1129 07:06:04.729645   553 net.cpp:380] inception_4e/3x3 -> inception_4e/3x3
I1129 07:06:04.733786   553 net.cpp:122] Setting up inception_4e/3x3
I1129 07:06:04.733805   553 net.cpp:129] Top shape: 16 320 14 14 (1003520)
I1129 07:06:04.733811   553 net.cpp:137] Memory required for data: 820180232
I1129 07:06:04.733819   553 layer_factory.hpp:77] Creating layer inception_4e/relu_3x3
I1129 07:06:04.733827   553 net.cpp:84] Creating Layer inception_4e/relu_3x3
I1129 07:06:04.733832   553 net.cpp:406] inception_4e/relu_3x3 <- inception_4e/3x3
I1129 07:06:04.733839   553 net.cpp:367] inception_4e/relu_3x3 -> inception_4e/3x3 (in-place)
I1129 07:06:04.733846   553 net.cpp:122] Setting up inception_4e/relu_3x3
I1129 07:06:04.733852   553 net.cpp:129] Top shape: 16 320 14 14 (1003520)
I1129 07:06:04.733856   553 net.cpp:137] Memory required for data: 824194312
I1129 07:06:04.733860   553 layer_factory.hpp:77] Creating layer inception_4e/5x5_reduce
I1129 07:06:04.733872   553 net.cpp:84] Creating Layer inception_4e/5x5_reduce
I1129 07:06:04.733877   553 net.cpp:406] inception_4e/5x5_reduce <- inception_4d/output_inception_4d/output_0_split_3
I1129 07:06:04.733886   553 net.cpp:380] inception_4e/5x5_reduce -> inception_4e/5x5_reduce
I1129 07:06:04.734223   553 net.cpp:122] Setting up inception_4e/5x5_reduce
I1129 07:06:04.734235   553 net.cpp:129] Top shape: 16 32 14 14 (100352)
I1129 07:06:04.734244   553 net.cpp:137] Memory required for data: 824595720
I1129 07:06:04.734262   553 layer_factory.hpp:77] Creating layer inception_4e/relu_5x5_reduce
I1129 07:06:04.734271   553 net.cpp:84] Creating Layer inception_4e/relu_5x5_reduce
I1129 07:06:04.734275   553 net.cpp:406] inception_4e/relu_5x5_reduce <- inception_4e/5x5_reduce
I1129 07:06:04.734283   553 net.cpp:367] inception_4e/relu_5x5_reduce -> inception_4e/5x5_reduce (in-place)
I1129 07:06:04.734290   553 net.cpp:122] Setting up inception_4e/relu_5x5_reduce
I1129 07:06:04.734297   553 net.cpp:129] Top shape: 16 32 14 14 (100352)
I1129 07:06:04.734300   553 net.cpp:137] Memory required for data: 824997128
I1129 07:06:04.734305   553 layer_factory.hpp:77] Creating layer inception_4e/5x5
I1129 07:06:04.734334   553 net.cpp:84] Creating Layer inception_4e/5x5
I1129 07:06:04.734339   553 net.cpp:406] inception_4e/5x5 <- inception_4e/5x5_reduce
I1129 07:06:04.734354   553 net.cpp:380] inception_4e/5x5 -> inception_4e/5x5
I1129 07:06:04.735285   553 net.cpp:122] Setting up inception_4e/5x5
I1129 07:06:04.735298   553 net.cpp:129] Top shape: 16 128 14 14 (401408)
I1129 07:06:04.735303   553 net.cpp:137] Memory required for data: 826602760
I1129 07:06:04.735311   553 layer_factory.hpp:77] Creating layer inception_4e/relu_5x5
I1129 07:06:04.735319   553 net.cpp:84] Creating Layer inception_4e/relu_5x5
I1129 07:06:04.735324   553 net.cpp:406] inception_4e/relu_5x5 <- inception_4e/5x5
I1129 07:06:04.735329   553 net.cpp:367] inception_4e/relu_5x5 -> inception_4e/5x5 (in-place)
I1129 07:06:04.735337   553 net.cpp:122] Setting up inception_4e/relu_5x5
I1129 07:06:04.735342   553 net.cpp:129] Top shape: 16 128 14 14 (401408)
I1129 07:06:04.735347   553 net.cpp:137] Memory required for data: 828208392
I1129 07:06:04.735350   553 layer_factory.hpp:77] Creating layer inception_4e/pool
I1129 07:06:04.735357   553 net.cpp:84] Creating Layer inception_4e/pool
I1129 07:06:04.735363   553 net.cpp:406] inception_4e/pool <- inception_4d/output_inception_4d/output_0_split_4
I1129 07:06:04.735371   553 net.cpp:380] inception_4e/pool -> inception_4e/pool
I1129 07:06:04.735412   553 net.cpp:122] Setting up inception_4e/pool
I1129 07:06:04.735421   553 net.cpp:129] Top shape: 16 528 14 14 (1655808)
I1129 07:06:04.735425   553 net.cpp:137] Memory required for data: 834831624
I1129 07:06:04.735430   553 layer_factory.hpp:77] Creating layer inception_4e/pool_proj
I1129 07:06:04.735443   553 net.cpp:84] Creating Layer inception_4e/pool_proj
I1129 07:06:04.735450   553 net.cpp:406] inception_4e/pool_proj <- inception_4e/pool
I1129 07:06:04.735456   553 net.cpp:380] inception_4e/pool_proj -> inception_4e/pool_proj
I1129 07:06:04.736137   553 net.cpp:122] Setting up inception_4e/pool_proj
I1129 07:06:04.736151   553 net.cpp:129] Top shape: 16 128 14 14 (401408)
I1129 07:06:04.736155   553 net.cpp:137] Memory required for data: 836437256
I1129 07:06:04.736162   553 layer_factory.hpp:77] Creating layer inception_4e/relu_pool_proj
I1129 07:06:04.736172   553 net.cpp:84] Creating Layer inception_4e/relu_pool_proj
I1129 07:06:04.736177   553 net.cpp:406] inception_4e/relu_pool_proj <- inception_4e/pool_proj
I1129 07:06:04.736183   553 net.cpp:367] inception_4e/relu_pool_proj -> inception_4e/pool_proj (in-place)
I1129 07:06:04.736191   553 net.cpp:122] Setting up inception_4e/relu_pool_proj
I1129 07:06:04.736196   553 net.cpp:129] Top shape: 16 128 14 14 (401408)
I1129 07:06:04.736201   553 net.cpp:137] Memory required for data: 838042888
I1129 07:06:04.736204   553 layer_factory.hpp:77] Creating layer inception_4e/output
I1129 07:06:04.736210   553 net.cpp:84] Creating Layer inception_4e/output
I1129 07:06:04.736215   553 net.cpp:406] inception_4e/output <- inception_4e/1x1
I1129 07:06:04.736220   553 net.cpp:406] inception_4e/output <- inception_4e/3x3
I1129 07:06:04.736225   553 net.cpp:406] inception_4e/output <- inception_4e/5x5
I1129 07:06:04.736230   553 net.cpp:406] inception_4e/output <- inception_4e/pool_proj
I1129 07:06:04.736240   553 net.cpp:380] inception_4e/output -> inception_4e/output
I1129 07:06:04.736268   553 net.cpp:122] Setting up inception_4e/output
I1129 07:06:04.736284   553 net.cpp:129] Top shape: 16 832 14 14 (2609152)
I1129 07:06:04.736289   553 net.cpp:137] Memory required for data: 848479496
I1129 07:06:04.736294   553 layer_factory.hpp:77] Creating layer pool4/3x3_s2
I1129 07:06:04.736302   553 net.cpp:84] Creating Layer pool4/3x3_s2
I1129 07:06:04.736307   553 net.cpp:406] pool4/3x3_s2 <- inception_4e/output
I1129 07:06:04.736315   553 net.cpp:380] pool4/3x3_s2 -> pool4/3x3_s2
I1129 07:06:04.736353   553 net.cpp:122] Setting up pool4/3x3_s2
I1129 07:06:04.736362   553 net.cpp:129] Top shape: 16 832 7 7 (652288)
I1129 07:06:04.736366   553 net.cpp:137] Memory required for data: 851088648
I1129 07:06:04.736371   553 layer_factory.hpp:77] Creating layer pool4/3x3_s2_pool4/3x3_s2_0_split
I1129 07:06:04.736378   553 net.cpp:84] Creating Layer pool4/3x3_s2_pool4/3x3_s2_0_split
I1129 07:06:04.736382   553 net.cpp:406] pool4/3x3_s2_pool4/3x3_s2_0_split <- pool4/3x3_s2
I1129 07:06:04.736390   553 net.cpp:380] pool4/3x3_s2_pool4/3x3_s2_0_split -> pool4/3x3_s2_pool4/3x3_s2_0_split_0
I1129 07:06:04.736397   553 net.cpp:380] pool4/3x3_s2_pool4/3x3_s2_0_split -> pool4/3x3_s2_pool4/3x3_s2_0_split_1
I1129 07:06:04.736404   553 net.cpp:380] pool4/3x3_s2_pool4/3x3_s2_0_split -> pool4/3x3_s2_pool4/3x3_s2_0_split_2
I1129 07:06:04.736410   553 net.cpp:380] pool4/3x3_s2_pool4/3x3_s2_0_split -> pool4/3x3_s2_pool4/3x3_s2_0_split_3
I1129 07:06:04.736467   553 net.cpp:122] Setting up pool4/3x3_s2_pool4/3x3_s2_0_split
I1129 07:06:04.736475   553 net.cpp:129] Top shape: 16 832 7 7 (652288)
I1129 07:06:04.736481   553 net.cpp:129] Top shape: 16 832 7 7 (652288)
I1129 07:06:04.736486   553 net.cpp:129] Top shape: 16 832 7 7 (652288)
I1129 07:06:04.736490   553 net.cpp:129] Top shape: 16 832 7 7 (652288)
I1129 07:06:04.736495   553 net.cpp:137] Memory required for data: 861525256
I1129 07:06:04.736500   553 layer_factory.hpp:77] Creating layer inception_5a/1x1
I1129 07:06:04.736511   553 net.cpp:84] Creating Layer inception_5a/1x1
I1129 07:06:04.736516   553 net.cpp:406] inception_5a/1x1 <- pool4/3x3_s2_pool4/3x3_s2_0_split_0
I1129 07:06:04.736523   553 net.cpp:380] inception_5a/1x1 -> inception_5a/1x1
I1129 07:06:04.738703   553 net.cpp:122] Setting up inception_5a/1x1
I1129 07:06:04.738721   553 net.cpp:129] Top shape: 16 256 7 7 (200704)
I1129 07:06:04.738726   553 net.cpp:137] Memory required for data: 862328072
I1129 07:06:04.738734   553 layer_factory.hpp:77] Creating layer inception_5a/relu_1x1
I1129 07:06:04.738742   553 net.cpp:84] Creating Layer inception_5a/relu_1x1
I1129 07:06:04.738749   553 net.cpp:406] inception_5a/relu_1x1 <- inception_5a/1x1
I1129 07:06:04.738756   553 net.cpp:367] inception_5a/relu_1x1 -> inception_5a/1x1 (in-place)
I1129 07:06:04.738765   553 net.cpp:122] Setting up inception_5a/relu_1x1
I1129 07:06:04.738770   553 net.cpp:129] Top shape: 16 256 7 7 (200704)
I1129 07:06:04.738775   553 net.cpp:137] Memory required for data: 863130888
I1129 07:06:04.738778   553 layer_factory.hpp:77] Creating layer inception_5a/3x3_reduce
I1129 07:06:04.738790   553 net.cpp:84] Creating Layer inception_5a/3x3_reduce
I1129 07:06:04.738795   553 net.cpp:406] inception_5a/3x3_reduce <- pool4/3x3_s2_pool4/3x3_s2_0_split_1
I1129 07:06:04.738802   553 net.cpp:380] inception_5a/3x3_reduce -> inception_5a/3x3_reduce
I1129 07:06:04.740473   553 net.cpp:122] Setting up inception_5a/3x3_reduce
I1129 07:06:04.740492   553 net.cpp:129] Top shape: 16 160 7 7 (125440)
I1129 07:06:04.740497   553 net.cpp:137] Memory required for data: 863632648
I1129 07:06:04.740505   553 layer_factory.hpp:77] Creating layer inception_5a/relu_3x3_reduce
I1129 07:06:04.740514   553 net.cpp:84] Creating Layer inception_5a/relu_3x3_reduce
I1129 07:06:04.740519   553 net.cpp:406] inception_5a/relu_3x3_reduce <- inception_5a/3x3_reduce
I1129 07:06:04.740527   553 net.cpp:367] inception_5a/relu_3x3_reduce -> inception_5a/3x3_reduce (in-place)
I1129 07:06:04.740535   553 net.cpp:122] Setting up inception_5a/relu_3x3_reduce
I1129 07:06:04.740547   553 net.cpp:129] Top shape: 16 160 7 7 (125440)
I1129 07:06:04.740558   553 net.cpp:137] Memory required for data: 864134408
I1129 07:06:04.740563   553 layer_factory.hpp:77] Creating layer inception_5a/3x3
I1129 07:06:04.740574   553 net.cpp:84] Creating Layer inception_5a/3x3
I1129 07:06:04.740579   553 net.cpp:406] inception_5a/3x3 <- inception_5a/3x3_reduce
I1129 07:06:04.740588   553 net.cpp:380] inception_5a/3x3 -> inception_5a/3x3
I1129 07:06:04.744704   553 net.cpp:122] Setting up inception_5a/3x3
I1129 07:06:04.744722   553 net.cpp:129] Top shape: 16 320 7 7 (250880)
I1129 07:06:04.744727   553 net.cpp:137] Memory required for data: 865137928
I1129 07:06:04.744735   553 layer_factory.hpp:77] Creating layer inception_5a/relu_3x3
I1129 07:06:04.744743   553 net.cpp:84] Creating Layer inception_5a/relu_3x3
I1129 07:06:04.744751   553 net.cpp:406] inception_5a/relu_3x3 <- inception_5a/3x3
I1129 07:06:04.744757   553 net.cpp:367] inception_5a/relu_3x3 -> inception_5a/3x3 (in-place)
I1129 07:06:04.744765   553 net.cpp:122] Setting up inception_5a/relu_3x3
I1129 07:06:04.744771   553 net.cpp:129] Top shape: 16 320 7 7 (250880)
I1129 07:06:04.744776   553 net.cpp:137] Memory required for data: 866141448
I1129 07:06:04.744781   553 layer_factory.hpp:77] Creating layer inception_5a/5x5_reduce
I1129 07:06:04.744792   553 net.cpp:84] Creating Layer inception_5a/5x5_reduce
I1129 07:06:04.744798   553 net.cpp:406] inception_5a/5x5_reduce <- pool4/3x3_s2_pool4/3x3_s2_0_split_2
I1129 07:06:04.744805   553 net.cpp:380] inception_5a/5x5_reduce -> inception_5a/5x5_reduce
I1129 07:06:04.745235   553 net.cpp:122] Setting up inception_5a/5x5_reduce
I1129 07:06:04.745249   553 net.cpp:129] Top shape: 16 32 7 7 (25088)
I1129 07:06:04.745254   553 net.cpp:137] Memory required for data: 866241800
I1129 07:06:04.745261   553 layer_factory.hpp:77] Creating layer inception_5a/relu_5x5_reduce
I1129 07:06:04.745270   553 net.cpp:84] Creating Layer inception_5a/relu_5x5_reduce
I1129 07:06:04.745276   553 net.cpp:406] inception_5a/relu_5x5_reduce <- inception_5a/5x5_reduce
I1129 07:06:04.745282   553 net.cpp:367] inception_5a/relu_5x5_reduce -> inception_5a/5x5_reduce (in-place)
I1129 07:06:04.745290   553 net.cpp:122] Setting up inception_5a/relu_5x5_reduce
I1129 07:06:04.745296   553 net.cpp:129] Top shape: 16 32 7 7 (25088)
I1129 07:06:04.745299   553 net.cpp:137] Memory required for data: 866342152
I1129 07:06:04.745304   553 layer_factory.hpp:77] Creating layer inception_5a/5x5
I1129 07:06:04.745316   553 net.cpp:84] Creating Layer inception_5a/5x5
I1129 07:06:04.745321   553 net.cpp:406] inception_5a/5x5 <- inception_5a/5x5_reduce
I1129 07:06:04.745329   553 net.cpp:380] inception_5a/5x5 -> inception_5a/5x5
I1129 07:06:04.746244   553 net.cpp:122] Setting up inception_5a/5x5
I1129 07:06:04.746256   553 net.cpp:129] Top shape: 16 128 7 7 (100352)
I1129 07:06:04.746261   553 net.cpp:137] Memory required for data: 866743560
I1129 07:06:04.746268   553 layer_factory.hpp:77] Creating layer inception_5a/relu_5x5
I1129 07:06:04.746274   553 net.cpp:84] Creating Layer inception_5a/relu_5x5
I1129 07:06:04.746279   553 net.cpp:406] inception_5a/relu_5x5 <- inception_5a/5x5
I1129 07:06:04.746285   553 net.cpp:367] inception_5a/relu_5x5 -> inception_5a/5x5 (in-place)
I1129 07:06:04.746292   553 net.cpp:122] Setting up inception_5a/relu_5x5
I1129 07:06:04.746299   553 net.cpp:129] Top shape: 16 128 7 7 (100352)
I1129 07:06:04.746302   553 net.cpp:137] Memory required for data: 867144968
I1129 07:06:04.746306   553 layer_factory.hpp:77] Creating layer inception_5a/pool
I1129 07:06:04.746315   553 net.cpp:84] Creating Layer inception_5a/pool
I1129 07:06:04.746320   553 net.cpp:406] inception_5a/pool <- pool4/3x3_s2_pool4/3x3_s2_0_split_3
I1129 07:06:04.746326   553 net.cpp:380] inception_5a/pool -> inception_5a/pool
I1129 07:06:04.746368   553 net.cpp:122] Setting up inception_5a/pool
I1129 07:06:04.746377   553 net.cpp:129] Top shape: 16 832 7 7 (652288)
I1129 07:06:04.746382   553 net.cpp:137] Memory required for data: 869754120
I1129 07:06:04.746392   553 layer_factory.hpp:77] Creating layer inception_5a/pool_proj
I1129 07:06:04.746412   553 net.cpp:84] Creating Layer inception_5a/pool_proj
I1129 07:06:04.746418   553 net.cpp:406] inception_5a/pool_proj <- inception_5a/pool
I1129 07:06:04.746425   553 net.cpp:380] inception_5a/pool_proj -> inception_5a/pool_proj
I1129 07:06:04.747900   553 net.cpp:122] Setting up inception_5a/pool_proj
I1129 07:06:04.747920   553 net.cpp:129] Top shape: 16 128 7 7 (100352)
I1129 07:06:04.747925   553 net.cpp:137] Memory required for data: 870155528
I1129 07:06:04.747932   553 layer_factory.hpp:77] Creating layer inception_5a/relu_pool_proj
I1129 07:06:04.747942   553 net.cpp:84] Creating Layer inception_5a/relu_pool_proj
I1129 07:06:04.747949   553 net.cpp:406] inception_5a/relu_pool_proj <- inception_5a/pool_proj
I1129 07:06:04.747956   553 net.cpp:367] inception_5a/relu_pool_proj -> inception_5a/pool_proj (in-place)
I1129 07:06:04.747963   553 net.cpp:122] Setting up inception_5a/relu_pool_proj
I1129 07:06:04.747969   553 net.cpp:129] Top shape: 16 128 7 7 (100352)
I1129 07:06:04.747973   553 net.cpp:137] Memory required for data: 870556936
I1129 07:06:04.747978   553 layer_factory.hpp:77] Creating layer inception_5a/output
I1129 07:06:04.747987   553 net.cpp:84] Creating Layer inception_5a/output
I1129 07:06:04.747992   553 net.cpp:406] inception_5a/output <- inception_5a/1x1
I1129 07:06:04.747997   553 net.cpp:406] inception_5a/output <- inception_5a/3x3
I1129 07:06:04.748003   553 net.cpp:406] inception_5a/output <- inception_5a/5x5
I1129 07:06:04.748008   553 net.cpp:406] inception_5a/output <- inception_5a/pool_proj
I1129 07:06:04.748013   553 net.cpp:380] inception_5a/output -> inception_5a/output
I1129 07:06:04.748040   553 net.cpp:122] Setting up inception_5a/output
I1129 07:06:04.748049   553 net.cpp:129] Top shape: 16 832 7 7 (652288)
I1129 07:06:04.748054   553 net.cpp:137] Memory required for data: 873166088
I1129 07:06:04.748057   553 layer_factory.hpp:77] Creating layer inception_5a/output_inception_5a/output_0_split
I1129 07:06:04.748067   553 net.cpp:84] Creating Layer inception_5a/output_inception_5a/output_0_split
I1129 07:06:04.748072   553 net.cpp:406] inception_5a/output_inception_5a/output_0_split <- inception_5a/output
I1129 07:06:04.748078   553 net.cpp:380] inception_5a/output_inception_5a/output_0_split -> inception_5a/output_inception_5a/output_0_split_0
I1129 07:06:04.748087   553 net.cpp:380] inception_5a/output_inception_5a/output_0_split -> inception_5a/output_inception_5a/output_0_split_1
I1129 07:06:04.748095   553 net.cpp:380] inception_5a/output_inception_5a/output_0_split -> inception_5a/output_inception_5a/output_0_split_2
I1129 07:06:04.748101   553 net.cpp:380] inception_5a/output_inception_5a/output_0_split -> inception_5a/output_inception_5a/output_0_split_3
I1129 07:06:04.748157   553 net.cpp:122] Setting up inception_5a/output_inception_5a/output_0_split
I1129 07:06:04.748167   553 net.cpp:129] Top shape: 16 832 7 7 (652288)
I1129 07:06:04.748172   553 net.cpp:129] Top shape: 16 832 7 7 (652288)
I1129 07:06:04.748178   553 net.cpp:129] Top shape: 16 832 7 7 (652288)
I1129 07:06:04.748181   553 net.cpp:129] Top shape: 16 832 7 7 (652288)
I1129 07:06:04.748185   553 net.cpp:137] Memory required for data: 883602696
I1129 07:06:04.748189   553 layer_factory.hpp:77] Creating layer inception_5b/1x1
I1129 07:06:04.748201   553 net.cpp:84] Creating Layer inception_5b/1x1
I1129 07:06:04.748206   553 net.cpp:406] inception_5b/1x1 <- inception_5a/output_inception_5a/output_0_split_0
I1129 07:06:04.748215   553 net.cpp:380] inception_5b/1x1 -> inception_5b/1x1
I1129 07:06:04.751211   553 net.cpp:122] Setting up inception_5b/1x1
I1129 07:06:04.751231   553 net.cpp:129] Top shape: 16 384 7 7 (301056)
I1129 07:06:04.751236   553 net.cpp:137] Memory required for data: 884806920
I1129 07:06:04.751245   553 layer_factory.hpp:77] Creating layer inception_5b/relu_1x1
I1129 07:06:04.751252   553 net.cpp:84] Creating Layer inception_5b/relu_1x1
I1129 07:06:04.751263   553 net.cpp:406] inception_5b/relu_1x1 <- inception_5b/1x1
I1129 07:06:04.751279   553 net.cpp:367] inception_5b/relu_1x1 -> inception_5b/1x1 (in-place)
I1129 07:06:04.751288   553 net.cpp:122] Setting up inception_5b/relu_1x1
I1129 07:06:04.751296   553 net.cpp:129] Top shape: 16 384 7 7 (301056)
I1129 07:06:04.751299   553 net.cpp:137] Memory required for data: 886011144
I1129 07:06:04.751303   553 layer_factory.hpp:77] Creating layer inception_5b/3x3_reduce
I1129 07:06:04.751315   553 net.cpp:84] Creating Layer inception_5b/3x3_reduce
I1129 07:06:04.751322   553 net.cpp:406] inception_5b/3x3_reduce <- inception_5a/output_inception_5a/output_0_split_1
I1129 07:06:04.751328   553 net.cpp:380] inception_5b/3x3_reduce -> inception_5b/3x3_reduce
I1129 07:06:04.753165   553 net.cpp:122] Setting up inception_5b/3x3_reduce
I1129 07:06:04.753185   553 net.cpp:129] Top shape: 16 192 7 7 (150528)
I1129 07:06:04.753190   553 net.cpp:137] Memory required for data: 886613256
I1129 07:06:04.753197   553 layer_factory.hpp:77] Creating layer inception_5b/relu_3x3_reduce
I1129 07:06:04.753206   553 net.cpp:84] Creating Layer inception_5b/relu_3x3_reduce
I1129 07:06:04.753211   553 net.cpp:406] inception_5b/relu_3x3_reduce <- inception_5b/3x3_reduce
I1129 07:06:04.753216   553 net.cpp:367] inception_5b/relu_3x3_reduce -> inception_5b/3x3_reduce (in-place)
I1129 07:06:04.753226   553 net.cpp:122] Setting up inception_5b/relu_3x3_reduce
I1129 07:06:04.753231   553 net.cpp:129] Top shape: 16 192 7 7 (150528)
I1129 07:06:04.753235   553 net.cpp:137] Memory required for data: 887215368
I1129 07:06:04.753239   553 layer_factory.hpp:77] Creating layer inception_5b/3x3
I1129 07:06:04.753252   553 net.cpp:84] Creating Layer inception_5b/3x3
I1129 07:06:04.753257   553 net.cpp:406] inception_5b/3x3 <- inception_5b/3x3_reduce
I1129 07:06:04.753264   553 net.cpp:380] inception_5b/3x3 -> inception_5b/3x3
I1129 07:06:04.759003   553 net.cpp:122] Setting up inception_5b/3x3
I1129 07:06:04.759024   553 net.cpp:129] Top shape: 16 384 7 7 (301056)
I1129 07:06:04.759030   553 net.cpp:137] Memory required for data: 888419592
I1129 07:06:04.759038   553 layer_factory.hpp:77] Creating layer inception_5b/relu_3x3
I1129 07:06:04.759047   553 net.cpp:84] Creating Layer inception_5b/relu_3x3
I1129 07:06:04.759052   553 net.cpp:406] inception_5b/relu_3x3 <- inception_5b/3x3
I1129 07:06:04.759058   553 net.cpp:367] inception_5b/relu_3x3 -> inception_5b/3x3 (in-place)
I1129 07:06:04.759066   553 net.cpp:122] Setting up inception_5b/relu_3x3
I1129 07:06:04.759073   553 net.cpp:129] Top shape: 16 384 7 7 (301056)
I1129 07:06:04.759076   553 net.cpp:137] Memory required for data: 889623816
I1129 07:06:04.759080   553 layer_factory.hpp:77] Creating layer inception_5b/5x5_reduce
I1129 07:06:04.759097   553 net.cpp:84] Creating Layer inception_5b/5x5_reduce
I1129 07:06:04.759104   553 net.cpp:406] inception_5b/5x5_reduce <- inception_5a/output_inception_5a/output_0_split_2
I1129 07:06:04.759112   553 net.cpp:380] inception_5b/5x5_reduce -> inception_5b/5x5_reduce
I1129 07:06:04.760154   553 net.cpp:122] Setting up inception_5b/5x5_reduce
I1129 07:06:04.760174   553 net.cpp:129] Top shape: 16 48 7 7 (37632)
I1129 07:06:04.760179   553 net.cpp:137] Memory required for data: 889774344
I1129 07:06:04.760187   553 layer_factory.hpp:77] Creating layer inception_5b/relu_5x5_reduce
I1129 07:06:04.760195   553 net.cpp:84] Creating Layer inception_5b/relu_5x5_reduce
I1129 07:06:04.760200   553 net.cpp:406] inception_5b/relu_5x5_reduce <- inception_5b/5x5_reduce
I1129 07:06:04.760210   553 net.cpp:367] inception_5b/relu_5x5_reduce -> inception_5b/5x5_reduce (in-place)
I1129 07:06:04.760217   553 net.cpp:122] Setting up inception_5b/relu_5x5_reduce
I1129 07:06:04.760223   553 net.cpp:129] Top shape: 16 48 7 7 (37632)
I1129 07:06:04.760227   553 net.cpp:137] Memory required for data: 889924872
I1129 07:06:04.760232   553 layer_factory.hpp:77] Creating layer inception_5b/5x5
I1129 07:06:04.760243   553 net.cpp:84] Creating Layer inception_5b/5x5
I1129 07:06:04.760253   553 net.cpp:406] inception_5b/5x5 <- inception_5b/5x5_reduce
I1129 07:06:04.760262   553 net.cpp:380] inception_5b/5x5 -> inception_5b/5x5
I1129 07:06:04.761538   553 net.cpp:122] Setting up inception_5b/5x5
I1129 07:06:04.761551   553 net.cpp:129] Top shape: 16 128 7 7 (100352)
I1129 07:06:04.761555   553 net.cpp:137] Memory required for data: 890326280
I1129 07:06:04.761562   553 layer_factory.hpp:77] Creating layer inception_5b/relu_5x5
I1129 07:06:04.761571   553 net.cpp:84] Creating Layer inception_5b/relu_5x5
I1129 07:06:04.761577   553 net.cpp:406] inception_5b/relu_5x5 <- inception_5b/5x5
I1129 07:06:04.761584   553 net.cpp:367] inception_5b/relu_5x5 -> inception_5b/5x5 (in-place)
I1129 07:06:04.761590   553 net.cpp:122] Setting up inception_5b/relu_5x5
I1129 07:06:04.761596   553 net.cpp:129] Top shape: 16 128 7 7 (100352)
I1129 07:06:04.761600   553 net.cpp:137] Memory required for data: 890727688
I1129 07:06:04.761605   553 layer_factory.hpp:77] Creating layer inception_5b/pool
I1129 07:06:04.761612   553 net.cpp:84] Creating Layer inception_5b/pool
I1129 07:06:04.761616   553 net.cpp:406] inception_5b/pool <- inception_5a/output_inception_5a/output_0_split_3
I1129 07:06:04.761624   553 net.cpp:380] inception_5b/pool -> inception_5b/pool
I1129 07:06:04.761667   553 net.cpp:122] Setting up inception_5b/pool
I1129 07:06:04.761677   553 net.cpp:129] Top shape: 16 832 7 7 (652288)
I1129 07:06:04.761682   553 net.cpp:137] Memory required for data: 893336840
I1129 07:06:04.761685   553 layer_factory.hpp:77] Creating layer inception_5b/pool_proj
I1129 07:06:04.761698   553 net.cpp:84] Creating Layer inception_5b/pool_proj
I1129 07:06:04.761703   553 net.cpp:406] inception_5b/pool_proj <- inception_5b/pool
I1129 07:06:04.761713   553 net.cpp:380] inception_5b/pool_proj -> inception_5b/pool_proj
I1129 07:06:04.763169   553 net.cpp:122] Setting up inception_5b/pool_proj
I1129 07:06:04.763197   553 net.cpp:129] Top shape: 16 128 7 7 (100352)
I1129 07:06:04.763204   553 net.cpp:137] Memory required for data: 893738248
I1129 07:06:04.763212   553 layer_factory.hpp:77] Creating layer inception_5b/relu_pool_proj
I1129 07:06:04.763221   553 net.cpp:84] Creating Layer inception_5b/relu_pool_proj
I1129 07:06:04.763226   553 net.cpp:406] inception_5b/relu_pool_proj <- inception_5b/pool_proj
I1129 07:06:04.763234   553 net.cpp:367] inception_5b/relu_pool_proj -> inception_5b/pool_proj (in-place)
I1129 07:06:04.763243   553 net.cpp:122] Setting up inception_5b/relu_pool_proj
I1129 07:06:04.763249   553 net.cpp:129] Top shape: 16 128 7 7 (100352)
I1129 07:06:04.763253   553 net.cpp:137] Memory required for data: 894139656
I1129 07:06:04.763257   553 layer_factory.hpp:77] Creating layer inception_5b/output
I1129 07:06:04.763264   553 net.cpp:84] Creating Layer inception_5b/output
I1129 07:06:04.763268   553 net.cpp:406] inception_5b/output <- inception_5b/1x1
I1129 07:06:04.763273   553 net.cpp:406] inception_5b/output <- inception_5b/3x3
I1129 07:06:04.763278   553 net.cpp:406] inception_5b/output <- inception_5b/5x5
I1129 07:06:04.763283   553 net.cpp:406] inception_5b/output <- inception_5b/pool_proj
I1129 07:06:04.763288   553 net.cpp:380] inception_5b/output -> inception_5b/output
I1129 07:06:04.763319   553 net.cpp:122] Setting up inception_5b/output
I1129 07:06:04.763329   553 net.cpp:129] Top shape: 16 1024 7 7 (802816)
I1129 07:06:04.763332   553 net.cpp:137] Memory required for data: 897350920
I1129 07:06:04.763337   553 layer_factory.hpp:77] Creating layer pool5/7x7_s1
I1129 07:06:04.763345   553 net.cpp:84] Creating Layer pool5/7x7_s1
I1129 07:06:04.763350   553 net.cpp:406] pool5/7x7_s1 <- inception_5b/output
I1129 07:06:04.763356   553 net.cpp:380] pool5/7x7_s1 -> pool5/7x7_s1
I1129 07:06:04.763386   553 net.cpp:122] Setting up pool5/7x7_s1
I1129 07:06:04.763394   553 net.cpp:129] Top shape: 16 1024 1 1 (16384)
I1129 07:06:04.763398   553 net.cpp:137] Memory required for data: 897416456
I1129 07:06:04.763402   553 layer_factory.hpp:77] Creating layer pool5/drop_7x7_s1
I1129 07:06:04.763409   553 net.cpp:84] Creating Layer pool5/drop_7x7_s1
I1129 07:06:04.763419   553 net.cpp:406] pool5/drop_7x7_s1 <- pool5/7x7_s1
I1129 07:06:04.763432   553 net.cpp:367] pool5/drop_7x7_s1 -> pool5/7x7_s1 (in-place)
I1129 07:06:04.763460   553 net.cpp:122] Setting up pool5/drop_7x7_s1
I1129 07:06:04.763469   553 net.cpp:129] Top shape: 16 1024 1 1 (16384)
I1129 07:06:04.763474   553 net.cpp:137] Memory required for data: 897481992
I1129 07:06:04.763478   553 layer_factory.hpp:77] Creating layer loss3/classifier
I1129 07:06:04.763489   553 net.cpp:84] Creating Layer loss3/classifier
I1129 07:06:04.763494   553 net.cpp:406] loss3/classifier <- pool5/7x7_s1
I1129 07:06:04.763499   553 net.cpp:380] loss3/classifier -> loss3/classifier
I1129 07:06:04.772058   553 net.cpp:122] Setting up loss3/classifier
I1129 07:06:04.772076   553 net.cpp:129] Top shape: 16 1000 (16000)
I1129 07:06:04.772081   553 net.cpp:137] Memory required for data: 897545992
I1129 07:06:04.772089   553 layer_factory.hpp:77] Creating layer loss3/loss3
I1129 07:06:04.772099   553 net.cpp:84] Creating Layer loss3/loss3
I1129 07:06:04.772104   553 net.cpp:406] loss3/loss3 <- loss3/classifier
I1129 07:06:04.772109   553 net.cpp:406] loss3/loss3 <- label_data_1_split_2
I1129 07:06:04.772115   553 net.cpp:380] loss3/loss3 -> loss3/loss3
…
I1129 07:06:04.776770   553 net.cpp:294] The NetState phase (1) differed from the phase (0) specified by a rule in layer data
I1129 07:06:04.777644   553 net.cpp:51] Initializing net from parameters: 
name: "GoogleNet"
state {
  phase: TEST
}
layer {
  name: "data"
  type: "Data"
  top: "data"
  top: "label"
  include {
    phase: TEST
  }
  transform_param {
    mirror: false
    crop_size: 224
    mean_value: 104
    mean_value: 117
    mean_value: 123
  }
  data_param {
    source: "/home/styurin/DataSet/227/val_db"
    batch_size: 32
    backend: LMDB
  }
}
layer {
  name: "conv1/7x7_s2"
  type: "Convolution"
  bottom: "data"
  top: "conv1/7x7_s2"
  param {
    lr_mult: 1
    decay_mult: 1
  }
  param {
    lr_mult: 2
    decay_mult: 0
  }
  convolution_param {
    num_output: 64
    pad: 3
    kernel_size: 7
    stride: 2
    weight_filler {
      type: "xavier"
    }
    bias_filler {
      type: "constant"
      value: 0.2
    }
  }
}
layer {
  name: "conv1/relu_7x7"
  type: "ReLU"
  bottom: "conv1/7x7_s2"
  top: "conv1/7x7_s2"
}
layer {
  name: "pool1/3x3_s2"
  type: "Pooling"
  bottom: "conv1/7x7_s2"
  top: "pool1/3x3_s2"
  pooling_param {
    pool: MAX
    kernel_size: 3
    stride: 2
  }
}
layer {
  name: "pool1/norm1"
  type: "LRN"
  bottom: "pool1/3x3_s2"
  top: "pool1/norm1"
  lrn_param {
    local_size: 5
    alpha: 0.0001
    beta: 0.75
  }
}
layer {
  name: "conv2/3x3_reduce"
  type: "Convolution"
  bottom: "pool1/norm1"
  top: "conv2/3x3_reduce"
  param {
    lr_mult: 1
    decay_mult: 1
  }
  param {
    lr_mult: 2
    decay_mult: 0
  }
  convolution_param {
    num_output: 64
    kernel_size: 1
    weight_filler {
      type: "xavier"
    }
    bias_filler {
      type: "constant"
      value: 0.2
    }
  }
}
layer {
  name: "conv2/relu_3x3_reduce"
  type: "ReLU"
  bottom: "conv2/3x3_reduce"
  top: "conv2/3x3_reduce"
}
layer {
  name: "conv2/3x3"
  type: "Convolution"
  bottom: "conv2/3x3_reduce"
  top: "conv2/3x3"
  param {
    lr_mult: 1
    decay_mult: 1
  }
  param {
    lr_mult: 2
    decay_mult: 0
  }
  convolution_param {
    num_output: 192
    pad: 1
    kernel_size: 3
    weight_filler {
      type: "xavier"
    }
    bias_filler {
      type: "constant"
      value: 0.2
    }
  }
}
layer {
  name: "conv2/relu_3x3"
  type: "ReLU"
  bottom: "conv2/3x3"
  top: "conv2/3x3"
}
layer {
  name: "conv2/norm2"
  type: "LRN"
  bottom: "conv2/3x3"
  top: "conv2/norm2"
  lrn_param {
    local_size: 5
    alpha: 0.0001
    beta: 0.75
  }
}
layer {
  name: "pool2/3x3_s2"
  type: "Pooling"
  bottom: "conv2/norm2"
  top: "pool2/3x3_s2"
  pooling_param {
    pool: MAX
    kernel_size: 3
    stride: 2
  }
}
layer {
  name: "inception_3a/1x1"
  type: "Convolution"
  bottom: "pool2/3x3_s2"
  top: "inception_3a/1x1"
  param {
    lr_mult: 1
    decay_mult: 1
  }
  param {
    lr_mult: 2
    decay_mult: 0
  }
  convolution_param {
    num_output: 64
    kernel_size: 1
    weight_filler {
      type: "xavier"
    }
    bias_filler {
      type: "constant"
      value: 0.2
    }
  }
}
layer {
  name: "inception_3a/relu_1x1"
  type: "ReLU"
  bottom: "inception_3a/1x1"
  top: "inception_3a/1x1"
}
layer {
  name: "inception_3a/3x3_reduce"
  type: "Convolution"
  bottom: "pool2/3x3_s2"
  top: "inception_3a/3x3_reduce"
  param {
    lr_mult: 1
    decay_mult: 1
  }
  param {
    lr_mult: 2
    decay_mult: 0
  }
  convolution_param {
    num_output: 96
    kernel_size: 1
    weight_filler {
      type: "xavier"
    }
    bias_filler {
      type: "constant"
      value: 0.2
    }
  }
}
layer {
  name: "inception_3a/relu_3x3_reduce"
  type: "ReLU"
  bottom: "inception_3a/3x3_reduce"
  top: "inception_3a/3x3_reduce"
}
layer {
  name: "inception_3a/3x3"
  type: "Convolution"
  bottom: "inception_3a/3x3_reduce"
  top: "inception_3a/3x3"
  param {
    lr_mult: 1
    decay_mult: 1
  }
  param {
    lr_mult: 2
    decay_mult: 0
  }
  convolution_param {
    num_output: 128
    pad: 1
    kernel_size: 3
    weight_filler {
      type: "xavier"
    }
    bias_filler {
      type: "constant"
      value: 0.2
    }
  }
}
layer {
  name: "inception_3a/relu_3x3"
  type: "ReLU"
  bottom: "inception_3a/3x3"
  top: "inception_3a/3x3"
}
layer {
  name: "inception_3a/5x5_reduce"
  type: "Convolution"
  bottom: "pool2/3x3_s2"
  top: "inception_3a/5x5_reduce"
  param {
    lr_mult: 1
    decay_mult: 1
  }
  param {
    lr_mult: 2
    decay_mult: 0
  }
  convolution_param {
    num_output: 16
    kernel_size: 1
    weight_filler {
      type: "xavier"
    }
    bias_filler {
      type: "constant"
      value: 0.2
    }
  }
}
layer {
  name: "inception_3a/relu_5x5_reduce"
  type: "ReLU"
  bottom: "inception_3a/5x5_reduce"
  top: "inception_3a/5x5_reduce"
}
layer {
  name: "inception_3a/5x5"
  type: "Convolution"
  bottom: "inception_3a/5x5_reduce"
  top: "inception_3a/5x5"
  param {
    lr_mult: 1
    decay_mult: 1
  }
  param {
    lr_mult: 2
    decay_mult: 0
  }
  convolution_param {
    num_output: 32
    pad: 2
    kernel_size: 5
    weight_filler {
      type: "xavier"
    }
    bias_filler {
      type: "constant"
      value: 0.2
    }
  }
}
layer {
  name: "inception_3a/relu_5x5"
  type: "ReLU"
  bottom: "inception_3a/5x5"
  top: "inception_3a/5x5"
}
layer {
  name: "inception_3a/pool"
  type: "Pooling"
  bottom: "pool2/3x3_s2"
  top: "inception_3a/pool"
  pooling_param {
    pool: MAX
    kernel_size: 3
    stride: 1
    pad: 1
  }
}
layer {
  name: "inception_3a/pool_proj"
  type: "Convolution"
  bottom: "inception_3a/pool"
  top: "inception_3a/pool_proj"
  param {
    lr_mult: 1
    decay_mult: 1
  }
  param {
    lr_mult: 2
    decay_mult: 0
  }
  convolution_param {
    num_output: 32
    kernel_size: 1
    weight_filler {
      type: "xavier"
    }
    bias_filler {
      type: "constant"
      value: 0.2
    }
  }
}
layer {
  name: "inception_3a/relu_pool_proj"
  type: "ReLU"
  bottom: "inception_3a/pool_proj"
  top: "inception_3a/pool_proj"
}
layer {
  name: "inception_3a/output"
  type: "Concat"
  bottom: "inception_3a/1x1"
  bottom: "inception_3a/3x3"
  bottom: "inception_3a/5x5"
  bottom: "inception_3a/pool_proj"
  top: "inception_3a/output"
}
layer {
  name: "inception_3b/1x1"
  type: "Convolution"
  bottom: "inception_3a/output"
  top: "inception_3b/1x1"
  param {
    lr_mult: 1
    decay_mult: 1
  }
  param {
    lr_mult: 2
    decay_mult: 0
  }
  convolution_param {
    num_output: 128
    kernel_size: 1
    weight_filler {
      type: "xavier"
    }
    bias_filler {
      type: "constant"
      value: 0.2
    }
  }
}
layer {
  name: "inception_3b/relu_1x1"
  type: "ReLU"
  bottom: "inception_3b/1x1"
  top: "inception_3b/1x1"
}
layer {
  name: "inception_3b/3x3_reduce"
  type: "Convolution"
  bottom: "inception_3a/output"
  top: "inception_3b/3x3_reduce"
  param {
    lr_mult: 1
    decay_mult: 1
  }
  param {
    lr_mult: 2
    decay_mult: 0
  }
  convolution_param {
    num_output: 128
    kernel_size: 1
    weight_filler {
      type: "xavier"
    }
    bias_filler {
      type: "constant"
      value: 0.2
    }
  }
}
layer {
  name: "inception_3b/relu_3x3_reduce"
  type: "ReLU"
  bottom: "inception_3b/3x3_reduce"
  top: "inception_3b/3x3_reduce"
}
layer {
  name: "inception_3b/3x3"
  type: "Convolution"
  bottom: "inception_3b/3x3_reduce"
  top: "inception_3b/3x3"
  param {
    lr_mult: 1
    decay_mult: 1
  }
  param {
    lr_mult: 2
    decay_mult: 0
  }
  convolution_param {
    num_output: 192
    pad: 1
    kernel_size: 3
    weight_filler {
      type: "xavier"
    }
    bias_filler {
      type: "constant"
      value: 0.2
    }
  }
}
layer {
  name: "inception_3b/relu_3x3"
  type: "ReLU"
  bottom: "inception_3b/3x3"
  top: "inception_3b/3x3"
}
layer {
  name: "inception_3b/5x5_reduce"
  type: "Convolution"
  bottom: "inception_3a/output"
  top: "inception_3b/5x5_reduce"
  param {
    lr_mult: 1
    decay_mult: 1
  }
  param {
    lr_mult: 2
    decay_mult: 0
  }
  convolution_param {
    num_output: 32
    kernel_size: 1
    weight_filler {
      type: "xavier"
    }
    bias_filler {
      type: "constant"
      value: 0.2
    }
  }
}
layer {
  name: "inception_3b/relu_5x5_reduce"
  type: "ReLU"
  bottom: "inception_3b/5x5_reduce"
  top: "inception_3b/5x5_reduce"
}
layer {
  name: "inception_3b/5x5"
  type: "Convolution"
  bottom: "inception_3b/5x5_reduce"
  top: "inception_3b/5x5"
  param {
    lr_mult: 1
    decay_mult: 1
  }
  param {
    lr_mult: 2
    decay_mult: 0
  }
  convolution_param {
    num_output: 96
    pad: 2
    kernel_size: 5
    weight_filler {
      type: "xavier"
    }
    bias_filler {
      type: "constant"
      value: 0.2
    }
  }
}
layer {
  name: "inception_3b/relu_5x5"
  type: "ReLU"
  bottom: "inception_3b/5x5"
  top: "inception_3b/5x5"
}
layer {
  name: "inception_3b/pool"
  type: "Pooling"
  bottom: "inception_3a/output"
  top: "inception_3b/pool"
  pooling_param {
    pool: MAX
    kernel_size: 3
    stride: 1
    pad: 1
  }
}
layer {
  name: "inception_3b/pool_proj"
  type: "Convolution"
  bottom: "inception_3b/pool"
  top: "inception_3b/pool_proj"
  param {
    lr_mult: 1
    decay_mult: 1
  }
  param {
    lr_mult: 2
    decay_mult: 0
  }
  convolution_param {
    num_output: 64
    kernel_size: 1
    weight_filler {
      type: "xavier"
    }
    bias_filler {
      type: "constant"
      value: 0.2
    }
  }
}
layer {
  name: "inception_3b/relu_pool_proj"
  type: "ReLU"
  bottom: "inception_3b/pool_proj"
  top: "inception_3b/pool_proj"
}
layer {
  name: "inception_3b/output"
  type: "Concat"
  bottom: "inception_3b/1x1"
  bottom: "inception_3b/3x3"
  bottom: "inception_3b/5x5"
  bottom: "inception_3b/pool_proj"
  top: "inception_3b/output"
}
layer {
  name: "pool3/3x3_s2"
  type: "Pooling"
  bottom: "inception_3b/output"
  top: "pool3/3x3_s2"
  pooling_param {
    pool: MAX
    kernel_size: 3
    stride: 2
  }
}
layer {
  name: "inception_4a/1x1"
  type: "Convolution"
  bottom: "pool3/3x3_s2"
  top: "inception_4a/1x1"
  param {
    lr_mult: 1
    decay_mult: 1
  }
  param {
    lr_mult: 2
    decay_mult: 0
  }
  convolution_param {
    num_output: 192
    kernel_size: 1
    weight_filler {
      type: "xavier"
    }
    bias_filler {
      type: "constant"
      value: 0.2
    }
  }
}
layer {
  name: "inception_4a/relu_1x1"
  type: "ReLU"
  bottom: "inception_4a/1x1"
  top: "inception_4a/1x1"
}
layer {
  name: "inception_4a/3x3_reduce"
  type: "Convolution"
  bottom: "pool3/3x3_s2"
  top: "inception_4a/3x3_reduce"
  param {
    lr_mult: 1
    decay_mult: 1
  }
  param {
    lr_mult: 2
    decay_mult: 0
  }
  convolution_param {
    num_output: 96
    kernel_size: 1
    weight_filler {
      type: "xavier"
    }
    bias_filler {
      type: "constant"
      value: 0.2
    }
  }
}
layer {
  name: "inception_4a/relu_3x3_reduce"
  type: "ReLU"
  bottom: "inception_4a/3x3_reduce"
  top: "inception_4a/3x3_reduce"
}
layer {
  name: "inception_4a/3x3"
  type: "Convolution"
  bottom: "inception_4a/3x3_reduce"
  top: "inception_4a/3x3"
  param {
    lr_mult: 1
    decay_mult: 1
  }
  param {
    lr_mult: 2
    decay_mult: 0
  }
  convolution_param {
    num_output: 208
    pad: 1
    kernel_size: 3
    weight_filler {
      type: "xavier"
    }
    bias_filler {
      type: "constant"
      value: 0.2
    }
  }
}
layer {
  name: "inception_4a/relu_3x3"
  type: "ReLU"
  bottom: "inception_4a/3x3"
  top: "inception_4a/3x3"
}
layer {
  name: "inception_4a/5x5_reduce"
  type: "Convolution"
  bottom: "pool3/3x3_s2"
  top: "inception_4a/5x5_reduce"
  param {
    lr_mult: 1
    decay_mult: 1
  }
  param {
    lr_mult: 2
    decay_mult: 0
  }
  convolution_param {
    num_output: 16
    kernel_size: 1
    weight_filler {
      type: "xavier"
    }
    bias_filler {
      type: "constant"
      value: 0.2
    }
  }
}
layer {
  name: "inception_4a/relu_5x5_reduce"
  type: "ReLU"
  bottom: "inception_4a/5x5_reduce"
  top: "inception_4a/5x5_reduce"
}
layer {
  name: "inception_4a/5x5"
  type: "Convolution"
  bottom: "inception_4a/5x5_reduce"
  top: "inception_4a/5x5"
  param {
    lr_mult: 1
    decay_mult: 1
  }
  param {
    lr_mult: 2
    decay_mult: 0
  }
  convolution_param {
    num_output: 48
    pad: 2
    kernel_size: 5
    weight_filler {
      type: "xavier"
    }
    bias_filler {
      type: "constant"
      value: 0.2
    }
  }
}
layer {
  name: "inception_4a/relu_5x5"
  type: "ReLU"
  bottom: "inception_4a/5x5"
  top: "inception_4a/5x5"
}
layer {
  name: "inception_4a/pool"
  type: "Pooling"
  bottom: "pool3/3x3_s2"
  top: "inception_4a/pool"
  pooling_param {
    pool: MAX
    kernel_size: 3
    stride: 1
    pad: 1
  }
}
layer {
  name: "inception_4a/pool_proj"
  type: "Convolution"
  bottom: "inception_4a/pool"
  top: "inception_4a/pool_proj"
  param {
    lr_mult: 1
    decay_mult: 1
  }
  param {
    lr_mult: 2
    decay_mult: 0
  }
  convolution_param {
    num_output: 64
    kernel_size: 1
    weight_filler {
      type: "xavier"
    }
    bias_filler {
      type: "constant"
      value: 0.2
    }
  }
}
layer {
  name: "inception_4a/relu_pool_proj"
  type: "ReLU"
  bottom: "inception_4a/pool_proj"
  top: "inception_4a/pool_proj"
}
layer {
  name: "inception_4a/output"
  type: "Concat"
  bottom: "inception_4a/1x1"
  bottom: "inception_4a/3x3"
  bottom: "inception_4a/5x5"
  bottom: "inception_4a/pool_proj"
  top: "inception_4a/output"
}
layer {
  name: "loss1/ave_pool"
  type: "Pooling"
  bottom: "inception_4a/output"
  top: "loss1/ave_pool"
  pooling_param {
    pool: AVE
    kernel_size: 5
    stride: 3
  }
}
layer {
  name: "loss1/conv"
  type: "Convolution"
  bottom: "loss1/ave_pool"
  top: "loss1/conv"
  param {
    lr_mult: 1
    decay_mult: 1
  }
  param {
    lr_mult: 2
    decay_mult: 0
  }
  convolution_param {
    num_output: 128
    kernel_size: 1
    weight_filler {
      type: "xavier"
    }
    bias_filler {
      type: "constant"
      value: 0.2
    }
  }
}
layer {
  name: "loss1/relu_conv"
  type: "ReLU"
  bottom: "loss1/conv"
  top: "loss1/conv"
}
layer {
  name: "loss1/fc"
  type: "InnerProduct"
  bottom: "loss1/conv"
  top: "loss1/fc"
  param {
    lr_mult: 1
    decay_mult: 1
  }
  param {
    lr_mult: 2
    decay_mult: 0
  }
  inner_product_param {
    num_output: 1024
    weight_filler {
      type: "xavier"
    }
    bias_filler {
      type: "constant"
      value: 0.2
    }
  }
}
layer {
  name: "loss1/relu_fc"
  type: "ReLU"
  bottom: "loss1/fc"
  top: "loss1/fc"
}
layer {
  name: "loss1/drop_fc"
  type: "Dropout"
  bottom: "loss1/fc"
  top: "loss1/fc"
  dropout_param {
    dropout_ratio: 0.7
  }
}
layer {
  name: "loss1/classifier"
  type: "InnerProduct"
  bottom: "loss1/fc"
  top: "loss1/classifier"
  param {
    lr_mult: 1
    decay_mult: 1
  }
  param {
    lr_mult: 2
    decay_mult: 0
  }
  inner_product_param {
    num_output: 1000
    weight_filler {
      type: "xavier"
    }
    bias_filler {
      type: "constant"
      value: 0
    }
  }
}
layer {
  name: "loss1/loss"
  type: "SoftmaxWithLoss"
…
I1129 07:06:04.892619   553 net.cpp:129] Top shape: 32 64 14 14 (401408)
I1129 07:06:04.892623   553 net.cpp:137] Memory required for data: 1401787660
I1129 07:06:04.892627   553 layer_factory.hpp:77] Creating layer inception_4c/pool
I1129 07:06:04.892637   553 net.cpp:84] Creating Layer inception_4c/pool
I1129 07:06:04.892642   553 net.cpp:406] inception_4c/pool <- inception_4b/output_inception_4b/output_0_split_3
I1129 07:06:04.892647   553 net.cpp:380] inception_4c/pool -> inception_4c/pool
I1129 07:06:04.892693   553 net.cpp:122] Setting up inception_4c/pool
I1129 07:06:04.892702   553 net.cpp:129] Top shape: 32 512 14 14 (3211264)
I1129 07:06:04.892706   553 net.cpp:137] Memory required for data: 1414632716
I1129 07:06:04.892710   553 layer_factory.hpp:77] Creating layer inception_4c/pool_proj
I1129 07:06:04.892721   553 net.cpp:84] Creating Layer inception_4c/pool_proj
I1129 07:06:04.892727   553 net.cpp:406] inception_4c/pool_proj <- inception_4c/pool
I1129 07:06:04.892734   553 net.cpp:380] inception_4c/pool_proj -> inception_4c/pool_proj
I1129 07:06:04.893215   553 net.cpp:122] Setting up inception_4c/pool_proj
I1129 07:06:04.893227   553 net.cpp:129] Top shape: 32 64 14 14 (401408)
I1129 07:06:04.893232   553 net.cpp:137] Memory required for data: 1416238348
I1129 07:06:04.893239   553 layer_factory.hpp:77] Creating layer inception_4c/relu_pool_proj
I1129 07:06:04.893245   553 net.cpp:84] Creating Layer inception_4c/relu_pool_proj
I1129 07:06:04.893251   553 net.cpp:406] inception_4c/relu_pool_proj <- inception_4c/pool_proj
I1129 07:06:04.893256   553 net.cpp:367] inception_4c/relu_pool_proj -> inception_4c/pool_proj (in-place)
I1129 07:06:04.893263   553 net.cpp:122] Setting up inception_4c/relu_pool_proj
I1129 07:06:04.893270   553 net.cpp:129] Top shape: 32 64 14 14 (401408)
I1129 07:06:04.893273   553 net.cpp:137] Memory required for data: 1417843980
I1129 07:06:04.893277   553 layer_factory.hpp:77] Creating layer inception_4c/output
I1129 07:06:04.893285   553 net.cpp:84] Creating Layer inception_4c/output
I1129 07:06:04.893290   553 net.cpp:406] inception_4c/output <- inception_4c/1x1
I1129 07:06:04.893296   553 net.cpp:406] inception_4c/output <- inception_4c/3x3
I1129 07:06:04.893301   553 net.cpp:406] inception_4c/output <- inception_4c/5x5
I1129 07:06:04.893306   553 net.cpp:406] inception_4c/output <- inception_4c/pool_proj
I1129 07:06:04.893311   553 net.cpp:380] inception_4c/output -> inception_4c/output
I1129 07:06:04.893343   553 net.cpp:122] Setting up inception_4c/output
I1129 07:06:04.893352   553 net.cpp:129] Top shape: 32 512 14 14 (3211264)
I1129 07:06:04.893357   553 net.cpp:137] Memory required for data: 1430689036
I1129 07:06:04.893360   553 layer_factory.hpp:77] Creating layer inception_4c/output_inception_4c/output_0_split
I1129 07:06:04.893368   553 net.cpp:84] Creating Layer inception_4c/output_inception_4c/output_0_split
I1129 07:06:04.893371   553 net.cpp:406] inception_4c/output_inception_4c/output_0_split <- inception_4c/output
I1129 07:06:04.893383   553 net.cpp:380] inception_4c/output_inception_4c/output_0_split -> inception_4c/output_inception_4c/output_0_split_0
I1129 07:06:04.893399   553 net.cpp:380] inception_4c/output_inception_4c/output_0_split -> inception_4c/output_inception_4c/output_0_split_1
I1129 07:06:04.893406   553 net.cpp:380] inception_4c/output_inception_4c/output_0_split -> inception_4c/output_inception_4c/output_0_split_2
I1129 07:06:04.893414   553 net.cpp:380] inception_4c/output_inception_4c/output_0_split -> inception_4c/output_inception_4c/output_0_split_3
I1129 07:06:04.893481   553 net.cpp:122] Setting up inception_4c/output_inception_4c/output_0_split
I1129 07:06:04.893488   553 net.cpp:129] Top shape: 32 512 14 14 (3211264)
I1129 07:06:04.893494   553 net.cpp:129] Top shape: 32 512 14 14 (3211264)
I1129 07:06:04.893499   553 net.cpp:129] Top shape: 32 512 14 14 (3211264)
I1129 07:06:04.893503   553 net.cpp:129] Top shape: 32 512 14 14 (3211264)
I1129 07:06:04.893507   553 net.cpp:137] Memory required for data: 1482069260
I1129 07:06:04.893512   553 layer_factory.hpp:77] Creating layer inception_4d/1x1
I1129 07:06:04.893524   553 net.cpp:84] Creating Layer inception_4d/1x1
I1129 07:06:04.893529   553 net.cpp:406] inception_4d/1x1 <- inception_4c/output_inception_4c/output_0_split_0
I1129 07:06:04.893537   553 net.cpp:380] inception_4d/1x1 -> inception_4d/1x1
I1129 07:06:04.894170   553 net.cpp:122] Setting up inception_4d/1x1
I1129 07:06:04.894181   553 net.cpp:129] Top shape: 32 112 14 14 (702464)
I1129 07:06:04.894184   553 net.cpp:137] Memory required for data: 1484879116
I1129 07:06:04.894191   553 layer_factory.hpp:77] Creating layer inception_4d/relu_1x1
I1129 07:06:04.894201   553 net.cpp:84] Creating Layer inception_4d/relu_1x1
I1129 07:06:04.894206   553 net.cpp:406] inception_4d/relu_1x1 <- inception_4d/1x1
I1129 07:06:04.894212   553 net.cpp:367] inception_4d/relu_1x1 -> inception_4d/1x1 (in-place)
I1129 07:06:04.894218   553 net.cpp:122] Setting up inception_4d/relu_1x1
I1129 07:06:04.894223   553 net.cpp:129] Top shape: 32 112 14 14 (702464)
I1129 07:06:04.894227   553 net.cpp:137] Memory required for data: 1487688972
I1129 07:06:04.894232   553 layer_factory.hpp:77] Creating layer inception_4d/3x3_reduce
I1129 07:06:04.894243   553 net.cpp:84] Creating Layer inception_4d/3x3_reduce
I1129 07:06:04.894248   553 net.cpp:406] inception_4d/3x3_reduce <- inception_4c/output_inception_4c/output_0_split_1
I1129 07:06:04.894254   553 net.cpp:380] inception_4d/3x3_reduce -> inception_4d/3x3_reduce
I1129 07:06:04.895043   553 net.cpp:122] Setting up inception_4d/3x3_reduce
I1129 07:06:04.895056   553 net.cpp:129] Top shape: 32 144 14 14 (903168)
I1129 07:06:04.895059   553 net.cpp:137] Memory required for data: 1491301644
I1129 07:06:04.895066   553 layer_factory.hpp:77] Creating layer inception_4d/relu_3x3_reduce
I1129 07:06:04.895074   553 net.cpp:84] Creating Layer inception_4d/relu_3x3_reduce
I1129 07:06:04.895079   553 net.cpp:406] inception_4d/relu_3x3_reduce <- inception_4d/3x3_reduce
I1129 07:06:04.895086   553 net.cpp:367] inception_4d/relu_3x3_reduce -> inception_4d/3x3_reduce (in-place)
I1129 07:06:04.895092   553 net.cpp:122] Setting up inception_4d/relu_3x3_reduce
I1129 07:06:04.895098   553 net.cpp:129] Top shape: 32 144 14 14 (903168)
I1129 07:06:04.895102   553 net.cpp:137] Memory required for data: 1494914316
I1129 07:06:04.895107   553 layer_factory.hpp:77] Creating layer inception_4d/3x3
I1129 07:06:04.895117   553 net.cpp:84] Creating Layer inception_4d/3x3
I1129 07:06:04.895123   553 net.cpp:406] inception_4d/3x3 <- inception_4d/3x3_reduce
I1129 07:06:04.895129   553 net.cpp:380] inception_4d/3x3 -> inception_4d/3x3
I1129 07:06:04.898567   553 net.cpp:122] Setting up inception_4d/3x3
I1129 07:06:04.898586   553 net.cpp:129] Top shape: 32 288 14 14 (1806336)
I1129 07:06:04.898591   553 net.cpp:137] Memory required for data: 1502139660
I1129 07:06:04.898598   553 layer_factory.hpp:77] Creating layer inception_4d/relu_3x3
I1129 07:06:04.898607   553 net.cpp:84] Creating Layer inception_4d/relu_3x3
I1129 07:06:04.898617   553 net.cpp:406] inception_4d/relu_3x3 <- inception_4d/3x3
I1129 07:06:04.898630   553 net.cpp:367] inception_4d/relu_3x3 -> inception_4d/3x3 (in-place)
I1129 07:06:04.898641   553 net.cpp:122] Setting up inception_4d/relu_3x3
I1129 07:06:04.898648   553 net.cpp:129] Top shape: 32 288 14 14 (1806336)
I1129 07:06:04.898653   553 net.cpp:137] Memory required for data: 1509365004
I1129 07:06:04.898656   553 layer_factory.hpp:77] Creating layer inception_4d/5x5_reduce
I1129 07:06:04.898666   553 net.cpp:84] Creating Layer inception_4d/5x5_reduce
I1129 07:06:04.898671   553 net.cpp:406] inception_4d/5x5_reduce <- inception_4c/output_inception_4c/output_0_split_2
I1129 07:06:04.898680   553 net.cpp:380] inception_4d/5x5_reduce -> inception_4d/5x5_reduce
I1129 07:06:04.899041   553 net.cpp:122] Setting up inception_4d/5x5_reduce
I1129 07:06:04.899052   553 net.cpp:129] Top shape: 32 32 14 14 (200704)
I1129 07:06:04.899057   553 net.cpp:137] Memory required for data: 1510167820
I1129 07:06:04.899063   553 layer_factory.hpp:77] Creating layer inception_4d/relu_5x5_reduce
I1129 07:06:04.899070   553 net.cpp:84] Creating Layer inception_4d/relu_5x5_reduce
I1129 07:06:04.899075   553 net.cpp:406] inception_4d/relu_5x5_reduce <- inception_4d/5x5_reduce
I1129 07:06:04.899085   553 net.cpp:367] inception_4d/relu_5x5_reduce -> inception_4d/5x5_reduce (in-place)
I1129 07:06:04.899091   553 net.cpp:122] Setting up inception_4d/relu_5x5_reduce
I1129 07:06:04.899096   553 net.cpp:129] Top shape: 32 32 14 14 (200704)
I1129 07:06:04.899101   553 net.cpp:137] Memory required for data: 1510970636
I1129 07:06:04.899106   553 layer_factory.hpp:77] Creating layer inception_4d/5x5
I1129 07:06:04.899116   553 net.cpp:84] Creating Layer inception_4d/5x5
I1129 07:06:04.899121   553 net.cpp:406] inception_4d/5x5 <- inception_4d/5x5_reduce
I1129 07:06:04.899127   553 net.cpp:380] inception_4d/5x5 -> inception_4d/5x5
I1129 07:06:04.900255   553 net.cpp:122] Setting up inception_4d/5x5
I1129 07:06:04.900274   553 net.cpp:129] Top shape: 32 64 14 14 (401408)
I1129 07:06:04.900279   553 net.cpp:137] Memory required for data: 1512576268
I1129 07:06:04.900286   553 layer_factory.hpp:77] Creating layer inception_4d/relu_5x5
I1129 07:06:04.900296   553 net.cpp:84] Creating Layer inception_4d/relu_5x5
I1129 07:06:04.900302   553 net.cpp:406] inception_4d/relu_5x5 <- inception_4d/5x5
I1129 07:06:04.900308   553 net.cpp:367] inception_4d/relu_5x5 -> inception_4d/5x5 (in-place)
I1129 07:06:04.900316   553 net.cpp:122] Setting up inception_4d/relu_5x5
I1129 07:06:04.900322   553 net.cpp:129] Top shape: 32 64 14 14 (401408)
I1129 07:06:04.900326   553 net.cpp:137] Memory required for data: 1514181900
I1129 07:06:04.900331   553 layer_factory.hpp:77] Creating layer inception_4d/pool
I1129 07:06:04.900339   553 net.cpp:84] Creating Layer inception_4d/pool
I1129 07:06:04.900344   553 net.cpp:406] inception_4d/pool <- inception_4c/output_inception_4c/output_0_split_3
I1129 07:06:04.900352   553 net.cpp:380] inception_4d/pool -> inception_4d/pool
I1129 07:06:04.900398   553 net.cpp:122] Setting up inception_4d/pool
I1129 07:06:04.900408   553 net.cpp:129] Top shape: 32 512 14 14 (3211264)
I1129 07:06:04.900411   553 net.cpp:137] Memory required for data: 1527026956
I1129 07:06:04.900416   553 layer_factory.hpp:77] Creating layer inception_4d/pool_proj
I1129 07:06:04.900427   553 net.cpp:84] Creating Layer inception_4d/pool_proj
I1129 07:06:04.900432   553 net.cpp:406] inception_4d/pool_proj <- inception_4d/pool
I1129 07:06:04.900441   553 net.cpp:380] inception_4d/pool_proj -> inception_4d/pool_proj
I1129 07:06:04.900923   553 net.cpp:122] Setting up inception_4d/pool_proj
I1129 07:06:04.900936   553 net.cpp:129] Top shape: 32 64 14 14 (401408)
I1129 07:06:04.900941   553 net.cpp:137] Memory required for data: 1528632588
I1129 07:06:04.900949   553 layer_factory.hpp:77] Creating layer inception_4d/relu_pool_proj
I1129 07:06:04.900955   553 net.cpp:84] Creating Layer inception_4d/relu_pool_proj
I1129 07:06:04.900961   553 net.cpp:406] inception_4d/relu_pool_proj <- inception_4d/pool_proj
I1129 07:06:04.900972   553 net.cpp:367] inception_4d/relu_pool_proj -> inception_4d/pool_proj (in-place)
I1129 07:06:04.900990   553 net.cpp:122] Setting up inception_4d/relu_pool_proj
I1129 07:06:04.900995   553 net.cpp:129] Top shape: 32 64 14 14 (401408)
I1129 07:06:04.901000   553 net.cpp:137] Memory required for data: 1530238220
I1129 07:06:04.901005   553 layer_factory.hpp:77] Creating layer inception_4d/output
I1129 07:06:04.901013   553 net.cpp:84] Creating Layer inception_4d/output
I1129 07:06:04.901018   553 net.cpp:406] inception_4d/output <- inception_4d/1x1
I1129 07:06:04.901023   553 net.cpp:406] inception_4d/output <- inception_4d/3x3
I1129 07:06:04.901029   553 net.cpp:406] inception_4d/output <- inception_4d/5x5
I1129 07:06:04.901033   553 net.cpp:406] inception_4d/output <- inception_4d/pool_proj
I1129 07:06:04.901039   553 net.cpp:380] inception_4d/output -> inception_4d/output
I1129 07:06:04.901069   553 net.cpp:122] Setting up inception_4d/output
I1129 07:06:04.901077   553 net.cpp:129] Top shape: 32 528 14 14 (3311616)
I1129 07:06:04.901082   553 net.cpp:137] Memory required for data: 1543484684
I1129 07:06:04.901087   553 layer_factory.hpp:77] Creating layer inception_4d/output_inception_4d/output_0_split
I1129 07:06:04.901095   553 net.cpp:84] Creating Layer inception_4d/output_inception_4d/output_0_split
I1129 07:06:04.901100   553 net.cpp:406] inception_4d/output_inception_4d/output_0_split <- inception_4d/output
I1129 07:06:04.901108   553 net.cpp:380] inception_4d/output_inception_4d/output_0_split -> inception_4d/output_inception_4d/output_0_split_0
I1129 07:06:04.901116   553 net.cpp:380] inception_4d/output_inception_4d/output_0_split -> inception_4d/output_inception_4d/output_0_split_1
I1129 07:06:04.901124   553 net.cpp:380] inception_4d/output_inception_4d/output_0_split -> inception_4d/output_inception_4d/output_0_split_2
I1129 07:06:04.901129   553 net.cpp:380] inception_4d/output_inception_4d/output_0_split -> inception_4d/output_inception_4d/output_0_split_3
I1129 07:06:04.901135   553 net.cpp:380] inception_4d/output_inception_4d/output_0_split -> inception_4d/output_inception_4d/output_0_split_4
I1129 07:06:04.901211   553 net.cpp:122] Setting up inception_4d/output_inception_4d/output_0_split
I1129 07:06:04.901221   553 net.cpp:129] Top shape: 32 528 14 14 (3311616)
I1129 07:06:04.901226   553 net.cpp:129] Top shape: 32 528 14 14 (3311616)
I1129 07:06:04.901231   553 net.cpp:129] Top shape: 32 528 14 14 (3311616)
I1129 07:06:04.901235   553 net.cpp:129] Top shape: 32 528 14 14 (3311616)
I1129 07:06:04.901240   553 net.cpp:129] Top shape: 32 528 14 14 (3311616)
I1129 07:06:04.901243   553 net.cpp:137] Memory required for data: 1609717004
I1129 07:06:04.901248   553 layer_factory.hpp:77] Creating layer loss2/ave_pool
I1129 07:06:04.901257   553 net.cpp:84] Creating Layer loss2/ave_pool
I1129 07:06:04.901262   553 net.cpp:406] loss2/ave_pool <- inception_4d/output_inception_4d/output_0_split_0
I1129 07:06:04.901268   553 net.cpp:380] loss2/ave_pool -> loss2/ave_pool
I1129 07:06:04.901295   553 net.cpp:122] Setting up loss2/ave_pool
I1129 07:06:04.901304   553 net.cpp:129] Top shape: 32 528 4 4 (270336)
I1129 07:06:04.901309   553 net.cpp:137] Memory required for data: 1610798348
I1129 07:06:04.901314   553 layer_factory.hpp:77] Creating layer loss2/conv
I1129 07:06:04.901325   553 net.cpp:84] Creating Layer loss2/conv
I1129 07:06:04.901330   553 net.cpp:406] loss2/conv <- loss2/ave_pool
I1129 07:06:04.901338   553 net.cpp:380] loss2/conv -> loss2/conv
I1129 07:06:04.902544   553 net.cpp:122] Setting up loss2/conv
I1129 07:06:04.902562   553 net.cpp:129] Top shape: 32 128 4 4 (65536)
I1129 07:06:04.902567   553 net.cpp:137] Memory required for data: 1611060492
I1129 07:06:04.902575   553 layer_factory.hpp:77] Creating layer loss2/relu_conv
I1129 07:06:04.902582   553 net.cpp:84] Creating Layer loss2/relu_conv
I1129 07:06:04.902588   553 net.cpp:406] loss2/relu_conv <- loss2/conv
I1129 07:06:04.902595   553 net.cpp:367] loss2/relu_conv -> loss2/conv (in-place)
I1129 07:06:04.902606   553 net.cpp:122] Setting up loss2/relu_conv
I1129 07:06:04.902619   553 net.cpp:129] Top shape: 32 128 4 4 (65536)
I1129 07:06:04.902623   553 net.cpp:137] Memory required for data: 1611322636
I1129 07:06:04.902628   553 layer_factory.hpp:77] Creating layer loss2/fc
I1129 07:06:04.902639   553 net.cpp:84] Creating Layer loss2/fc
I1129 07:06:04.902644   553 net.cpp:406] loss2/fc <- loss2/conv
I1129 07:06:04.902652   553 net.cpp:380] loss2/fc -> loss2/fc
I1129 07:06:04.919724   553 net.cpp:122] Setting up loss2/fc
I1129 07:06:04.919744   553 net.cpp:129] Top shape: 32 1024 (32768)
I1129 07:06:04.919749   553 net.cpp:137] Memory required for data: 1611453708
I1129 07:06:04.919756   553 layer_factory.hpp:77] Creating layer loss2/relu_fc
I1129 07:06:04.919764   553 net.cpp:84] Creating Layer loss2/relu_fc
I1129 07:06:04.919770   553 net.cpp:406] loss2/relu_fc <- loss2/fc
I1129 07:06:04.919777   553 net.cpp:367] loss2/relu_fc -> loss2/fc (in-place)
I1129 07:06:04.919785   553 net.cpp:122] Setting up loss2/relu_fc
I1129 07:06:04.919791   553 net.cpp:129] Top shape: 32 1024 (32768)
I1129 07:06:04.919795   553 net.cpp:137] Memory required for data: 1611584780
I1129 07:06:04.919800   553 layer_factory.hpp:77] Creating layer loss2/drop_fc
I1129 07:06:04.919807   553 net.cpp:84] Creating Layer loss2/drop_fc
I1129 07:06:04.919811   553 net.cpp:406] loss2/drop_fc <- loss2/fc
I1129 07:06:04.919819   553 net.cpp:367] loss2/drop_fc -> loss2/fc (in-place)
I1129 07:06:04.919850   553 net.cpp:122] Setting up loss2/drop_fc
I1129 07:06:04.919858   553 net.cpp:129] Top shape: 32 1024 (32768)
I1129 07:06:04.919862   553 net.cpp:137] Memory required for data: 1611715852
I1129 07:06:04.919867   553 layer_factory.hpp:77] Creating layer loss2/classifier
I1129 07:06:04.919878   553 net.cpp:84] Creating Layer loss2/classifier
I1129 07:06:04.919883   553 net.cpp:406] loss2/classifier <- loss2/fc
I1129 07:06:04.919890   553 net.cpp:380] loss2/classifier -> loss2/classifier
I1129 07:06:04.928395   553 net.cpp:122] Setting up loss2/classifier
I1129 07:06:04.928412   553 net.cpp:129] Top shape: 32 1000 (32000)
I1129 07:06:04.928417   553 net.cpp:137] Memory required for data: 1611843852
I1129 07:06:04.928426   553 layer_factory.hpp:77] Creating layer loss2/classifier_loss2/classifier_0_split
I1129 07:06:04.928433   553 net.cpp:84] Creating Layer loss2/classifier_loss2/classifier_0_split
I1129 07:06:04.928439   553 net.cpp:406] loss2/classifier_loss2/classifier_0_split <- loss2/classifier
I1129 07:06:04.928445   553 net.cpp:380] loss2/classifier_loss2/classifier_0_split -> loss2/classifier_loss2/classifier_0_split_0
I1129 07:06:04.928457   553 net.cpp:380] loss2/classifier_loss2/classifier_0_split -> loss2/classifier_loss2/classifier_0_split_1
I1129 07:06:04.928464   553 net.cpp:380] loss2/classifier_loss2/classifier_0_split -> loss2/classifier_loss2/classifier_0_split_2
I1129 07:06:04.928524   553 net.cpp:122] Setting up loss2/classifier_loss2/classifier_0_split
I1129 07:06:04.928532   553 net.cpp:129] Top shape: 32 1000 (32000)
I1129 07:06:04.928539   553 net.cpp:129] Top shape: 32 1000 (32000)
I1129 07:06:04.928544   553 net.cpp:129] Top shape: 32 1000 (32000)
I1129 07:06:04.928546   553 net.cpp:137] Memory required for data: 1612227852
I1129 07:06:04.928551   553 layer_factory.hpp:77] Creating layer loss2/loss
I1129 07:06:04.928558   553 net.cpp:84] Creating Layer loss2/loss
I1129 07:06:04.928563   553 net.cpp:406] loss2/loss <- loss2/classifier_loss2/classifier_0_split_0
I1129 07:06:04.928568   553 net.cpp:406] loss2/loss <- label_data_1_split_3
…
I1129 07:06:04.928838   553 net.cpp:122] Setting up loss2/top-5
I1129 07:06:04.928844   553 net.cpp:129] Top shape: (1)
I1129 07:06:04.928848   553 net.cpp:137] Memory required for data: 1612227864
I1129 07:06:04.928853   553 layer_factory.hpp:77] Creating layer inception_4e/1x1
I1129 07:06:04.928864   553 net.cpp:84] Creating Layer inception_4e/1x1
I1129 07:06:04.928869   553 net.cpp:406] inception_4e/1x1 <- inception_4d/output_inception_4d/output_0_split_1
I1129 07:06:04.928876   553 net.cpp:380] inception_4e/1x1 -> inception_4e/1x1
I1129 07:06:04.930053   553 net.cpp:122] Setting up inception_4e/1x1
I1129 07:06:04.930068   553 net.cpp:129] Top shape: 32 256 14 14 (1605632)
I1129 07:06:04.930073   553 net.cpp:137] Memory required for data: 1618650392
I1129 07:06:04.930079   553 layer_factory.hpp:77] Creating layer inception_4e/relu_1x1
I1129 07:06:04.930086   553 net.cpp:84] Creating Layer inception_4e/relu_1x1
I1129 07:06:04.930091   553 net.cpp:406] inception_4e/relu_1x1 <- inception_4e/1x1
I1129 07:06:04.930100   553 net.cpp:367] inception_4e/relu_1x1 -> inception_4e/1x1 (in-place)
I1129 07:06:04.930109   553 net.cpp:122] Setting up inception_4e/relu_1x1
I1129 07:06:04.930114   553 net.cpp:129] Top shape: 32 256 14 14 (1605632)
I1129 07:06:04.930119   553 net.cpp:137] Memory required for data: 1625072920
I1129 07:06:04.930122   553 layer_factory.hpp:77] Creating layer inception_4e/3x3_reduce
I1129 07:06:04.930151   553 net.cpp:84] Creating Layer inception_4e/3x3_reduce
I1129 07:06:04.930157   553 net.cpp:406] inception_4e/3x3_reduce <- inception_4d/output_inception_4d/output_0_split_2
I1129 07:06:04.930164   553 net.cpp:380] inception_4e/3x3_reduce -> inception_4e/3x3_reduce
I1129 07:06:04.931533   553 net.cpp:122] Setting up inception_4e/3x3_reduce
I1129 07:06:04.931552   553 net.cpp:129] Top shape: 32 160 14 14 (1003520)
I1129 07:06:04.931557   553 net.cpp:137] Memory required for data: 1629087000
I1129 07:06:04.931566   553 layer_factory.hpp:77] Creating layer inception_4e/relu_3x3_reduce
I1129 07:06:04.931573   553 net.cpp:84] Creating Layer inception_4e/relu_3x3_reduce
I1129 07:06:04.931579   553 net.cpp:406] inception_4e/relu_3x3_reduce <- inception_4e/3x3_reduce
I1129 07:06:04.931587   553 net.cpp:367] inception_4e/relu_3x3_reduce -> inception_4e/3x3_reduce (in-place)
I1129 07:06:04.931596   553 net.cpp:122] Setting up inception_4e/relu_3x3_reduce
I1129 07:06:04.931602   553 net.cpp:129] Top shape: 32 160 14 14 (1003520)
I1129 07:06:04.931605   553 net.cpp:137] Memory required for data: 1633101080
I1129 07:06:04.931610   553 layer_factory.hpp:77] Creating layer inception_4e/3x3
I1129 07:06:04.931622   553 net.cpp:84] Creating Layer inception_4e/3x3
I1129 07:06:04.931627   553 net.cpp:406] inception_4e/3x3 <- inception_4e/3x3_reduce
I1129 07:06:04.931632   553 net.cpp:380] inception_4e/3x3 -> inception_4e/3x3
I1129 07:06:04.936260   553 net.cpp:122] Setting up inception_4e/3x3
I1129 07:06:04.936280   553 net.cpp:129] Top shape: 32 320 14 14 (2007040)
I1129 07:06:04.936286   553 net.cpp:137] Memory required for data: 1641129240
I1129 07:06:04.936295   553 layer_factory.hpp:77] Creating layer inception_4e/relu_3x3
I1129 07:06:04.936308   553 net.cpp:84] Creating Layer inception_4e/relu_3x3
I1129 07:06:04.936321   553 net.cpp:406] inception_4e/relu_3x3 <- inception_4e/3x3
I1129 07:06:04.936328   553 net.cpp:367] inception_4e/relu_3x3 -> inception_4e/3x3 (in-place)
I1129 07:06:04.936336   553 net.cpp:122] Setting up inception_4e/relu_3x3
I1129 07:06:04.936342   553 net.cpp:129] Top shape: 32 320 14 14 (2007040)
I1129 07:06:04.936347   553 net.cpp:137] Memory required for data: 1649157400
I1129 07:06:04.936350   553 layer_factory.hpp:77] Creating layer inception_4e/5x5_reduce
I1129 07:06:04.936363   553 net.cpp:84] Creating Layer inception_4e/5x5_reduce
I1129 07:06:04.936368   553 net.cpp:406] inception_4e/5x5_reduce <- inception_4d/output_inception_4d/output_0_split_3
I1129 07:06:04.936378   553 net.cpp:380] inception_4e/5x5_reduce -> inception_4e/5x5_reduce
I1129 07:06:04.936712   553 net.cpp:122] Setting up inception_4e/5x5_reduce
I1129 07:06:04.936723   553 net.cpp:129] Top shape: 32 32 14 14 (200704)
I1129 07:06:04.936728   553 net.cpp:137] Memory required for data: 1649960216
I1129 07:06:04.936734   553 layer_factory.hpp:77] Creating layer inception_4e/relu_5x5_reduce
I1129 07:06:04.936741   553 net.cpp:84] Creating Layer inception_4e/relu_5x5_reduce
I1129 07:06:04.936746   553 net.cpp:406] inception_4e/relu_5x5_reduce <- inception_4e/5x5_reduce
I1129 07:06:04.936753   553 net.cpp:367] inception_4e/relu_5x5_reduce -> inception_4e/5x5_reduce (in-place)
I1129 07:06:04.936761   553 net.cpp:122] Setting up inception_4e/relu_5x5_reduce
I1129 07:06:04.936767   553 net.cpp:129] Top shape: 32 32 14 14 (200704)
I1129 07:06:04.936771   553 net.cpp:137] Memory required for data: 1650763032
I1129 07:06:04.936775   553 layer_factory.hpp:77] Creating layer inception_4e/5x5
I1129 07:06:04.936784   553 net.cpp:84] Creating Layer inception_4e/5x5
I1129 07:06:04.936789   553 net.cpp:406] inception_4e/5x5 <- inception_4e/5x5_reduce
I1129 07:06:04.936797   553 net.cpp:380] inception_4e/5x5 -> inception_4e/5x5
I1129 07:06:04.937698   553 net.cpp:122] Setting up inception_4e/5x5
I1129 07:06:04.937711   553 net.cpp:129] Top shape: 32 128 14 14 (802816)
I1129 07:06:04.937716   553 net.cpp:137] Memory required for data: 1653974296
I1129 07:06:04.937722   553 layer_factory.hpp:77] Creating layer inception_4e/relu_5x5
I1129 07:06:04.937729   553 net.cpp:84] Creating Layer inception_4e/relu_5x5
I1129 07:06:04.937734   553 net.cpp:406] inception_4e/relu_5x5 <- inception_4e/5x5
I1129 07:06:04.937739   553 net.cpp:367] inception_4e/relu_5x5 -> inception_4e/5x5 (in-place)
I1129 07:06:04.937747   553 net.cpp:122] Setting up inception_4e/relu_5x5
I1129 07:06:04.937752   553 net.cpp:129] Top shape: 32 128 14 14 (802816)
I1129 07:06:04.937757   553 net.cpp:137] Memory required for data: 1657185560
I1129 07:06:04.937760   553 layer_factory.hpp:77] Creating layer inception_4e/pool
I1129 07:06:04.937769   553 net.cpp:84] Creating Layer inception_4e/pool
I1129 07:06:04.937774   553 net.cpp:406] inception_4e/pool <- inception_4d/output_inception_4d/output_0_split_4
I1129 07:06:04.937780   553 net.cpp:380] inception_4e/pool -> inception_4e/pool
I1129 07:06:04.937821   553 net.cpp:122] Setting up inception_4e/pool
I1129 07:06:04.937830   553 net.cpp:129] Top shape: 32 528 14 14 (3311616)
I1129 07:06:04.937834   553 net.cpp:137] Memory required for data: 1670432024
I1129 07:06:04.937839   553 layer_factory.hpp:77] Creating layer inception_4e/pool_proj
I1129 07:06:04.937850   553 net.cpp:84] Creating Layer inception_4e/pool_proj
I1129 07:06:04.937855   553 net.cpp:406] inception_4e/pool_proj <- inception_4e/pool
I1129 07:06:04.937863   553 net.cpp:380] inception_4e/pool_proj -> inception_4e/pool_proj
I1129 07:06:04.938536   553 net.cpp:122] Setting up inception_4e/pool_proj
I1129 07:06:04.938549   553 net.cpp:129] Top shape: 32 128 14 14 (802816)
I1129 07:06:04.938554   553 net.cpp:137] Memory required for data: 1673643288
I1129 07:06:04.938560   553 layer_factory.hpp:77] Creating layer inception_4e/relu_pool_proj
I1129 07:06:04.938567   553 net.cpp:84] Creating Layer inception_4e/relu_pool_proj
I1129 07:06:04.938577   553 net.cpp:406] inception_4e/relu_pool_proj <- inception_4e/pool_proj
I1129 07:06:04.938588   553 net.cpp:367] inception_4e/relu_pool_proj -> inception_4e/pool_proj (in-place)
I1129 07:06:04.938596   553 net.cpp:122] Setting up inception_4e/relu_pool_proj
I1129 07:06:04.938602   553 net.cpp:129] Top shape: 32 128 14 14 (802816)
I1129 07:06:04.938606   553 net.cpp:137] Memory required for data: 1676854552
I1129 07:06:04.938611   553 layer_factory.hpp:77] Creating layer inception_4e/output
I1129 07:06:04.938617   553 net.cpp:84] Creating Layer inception_4e/output
I1129 07:06:04.938622   553 net.cpp:406] inception_4e/output <- inception_4e/1x1
I1129 07:06:04.938627   553 net.cpp:406] inception_4e/output <- inception_4e/3x3
I1129 07:06:04.938632   553 net.cpp:406] inception_4e/output <- inception_4e/5x5
I1129 07:06:04.938637   553 net.cpp:406] inception_4e/output <- inception_4e/pool_proj
I1129 07:06:04.938644   553 net.cpp:380] inception_4e/output -> inception_4e/output
I1129 07:06:04.938670   553 net.cpp:122] Setting up inception_4e/output
I1129 07:06:04.938680   553 net.cpp:129] Top shape: 32 832 14 14 (5218304)
I1129 07:06:04.938684   553 net.cpp:137] Memory required for data: 1697727768
I1129 07:06:04.938689   553 layer_factory.hpp:77] Creating layer pool4/3x3_s2
I1129 07:06:04.938695   553 net.cpp:84] Creating Layer pool4/3x3_s2
I1129 07:06:04.938700   553 net.cpp:406] pool4/3x3_s2 <- inception_4e/output
I1129 07:06:04.938706   553 net.cpp:380] pool4/3x3_s2 -> pool4/3x3_s2
I1129 07:06:04.938743   553 net.cpp:122] Setting up pool4/3x3_s2
I1129 07:06:04.938751   553 net.cpp:129] Top shape: 32 832 7 7 (1304576)
I1129 07:06:04.938755   553 net.cpp:137] Memory required for data: 1702946072
I1129 07:06:04.938760   553 layer_factory.hpp:77] Creating layer pool4/3x3_s2_pool4/3x3_s2_0_split
I1129 07:06:04.938767   553 net.cpp:84] Creating Layer pool4/3x3_s2_pool4/3x3_s2_0_split
I1129 07:06:04.938771   553 net.cpp:406] pool4/3x3_s2_pool4/3x3_s2_0_split <- pool4/3x3_s2
I1129 07:06:04.938781   553 net.cpp:380] pool4/3x3_s2_pool4/3x3_s2_0_split -> pool4/3x3_s2_pool4/3x3_s2_0_split_0
I1129 07:06:04.938787   553 net.cpp:380] pool4/3x3_s2_pool4/3x3_s2_0_split -> pool4/3x3_s2_pool4/3x3_s2_0_split_1
I1129 07:06:04.938794   553 net.cpp:380] pool4/3x3_s2_pool4/3x3_s2_0_split -> pool4/3x3_s2_pool4/3x3_s2_0_split_2
I1129 07:06:04.938818   553 net.cpp:380] pool4/3x3_s2_pool4/3x3_s2_0_split -> pool4/3x3_s2_pool4/3x3_s2_0_split_3
I1129 07:06:04.938874   553 net.cpp:122] Setting up pool4/3x3_s2_pool4/3x3_s2_0_split
I1129 07:06:04.938884   553 net.cpp:129] Top shape: 32 832 7 7 (1304576)
I1129 07:06:04.938889   553 net.cpp:129] Top shape: 32 832 7 7 (1304576)
I1129 07:06:04.938895   553 net.cpp:129] Top shape: 32 832 7 7 (1304576)
I1129 07:06:04.938901   553 net.cpp:129] Top shape: 32 832 7 7 (1304576)
I1129 07:06:04.938905   553 net.cpp:137] Memory required for data: 1723819288
I1129 07:06:04.938910   553 layer_factory.hpp:77] Creating layer inception_5a/1x1
I1129 07:06:04.938921   553 net.cpp:84] Creating Layer inception_5a/1x1
I1129 07:06:04.938926   553 net.cpp:406] inception_5a/1x1 <- pool4/3x3_s2_pool4/3x3_s2_0_split_0
I1129 07:06:04.938933   553 net.cpp:380] inception_5a/1x1 -> inception_5a/1x1
I1129 07:06:04.941109   553 net.cpp:122] Setting up inception_5a/1x1
I1129 07:06:04.941128   553 net.cpp:129] Top shape: 32 256 7 7 (401408)
I1129 07:06:04.941133   553 net.cpp:137] Memory required for data: 1725424920
I1129 07:06:04.941140   553 layer_factory.hpp:77] Creating layer inception_5a/relu_1x1
I1129 07:06:04.941148   553 net.cpp:84] Creating Layer inception_5a/relu_1x1
I1129 07:06:04.941154   553 net.cpp:406] inception_5a/relu_1x1 <- inception_5a/1x1
I1129 07:06:04.941162   553 net.cpp:367] inception_5a/relu_1x1 -> inception_5a/1x1 (in-place)
I1129 07:06:04.941170   553 net.cpp:122] Setting up inception_5a/relu_1x1
I1129 07:06:04.941176   553 net.cpp:129] Top shape: 32 256 7 7 (401408)
I1129 07:06:04.941180   553 net.cpp:137] Memory required for data: 1727030552
I1129 07:06:04.941189   553 layer_factory.hpp:77] Creating layer inception_5a/3x3_reduce
I1129 07:06:04.941208   553 net.cpp:84] Creating Layer inception_5a/3x3_reduce
I1129 07:06:04.941215   553 net.cpp:406] inception_5a/3x3_reduce <- pool4/3x3_s2_pool4/3x3_s2_0_split_1
I1129 07:06:04.941221   553 net.cpp:380] inception_5a/3x3_reduce -> inception_5a/3x3_reduce
I1129 07:06:04.942852   553 net.cpp:122] Setting up inception_5a/3x3_reduce
I1129 07:06:04.942869   553 net.cpp:129] Top shape: 32 160 7 7 (250880)
I1129 07:06:04.942874   553 net.cpp:137] Memory required for data: 1728034072
I1129 07:06:04.942881   553 layer_factory.hpp:77] Creating layer inception_5a/relu_3x3_reduce
I1129 07:06:04.942889   553 net.cpp:84] Creating Layer inception_5a/relu_3x3_reduce
I1129 07:06:04.942895   553 net.cpp:406] inception_5a/relu_3x3_reduce <- inception_5a/3x3_reduce
I1129 07:06:04.942901   553 net.cpp:367] inception_5a/relu_3x3_reduce -> inception_5a/3x3_reduce (in-place)
I1129 07:06:04.942911   553 net.cpp:122] Setting up inception_5a/relu_3x3_reduce
I1129 07:06:04.942917   553 net.cpp:129] Top shape: 32 160 7 7 (250880)
I1129 07:06:04.942921   553 net.cpp:137] Memory required for data: 1729037592
I1129 07:06:04.942926   553 layer_factory.hpp:77] Creating layer inception_5a/3x3
I1129 07:06:04.942936   553 net.cpp:84] Creating Layer inception_5a/3x3
I1129 07:06:04.942941   553 net.cpp:406] inception_5a/3x3 <- inception_5a/3x3_reduce
I1129 07:06:04.942950   553 net.cpp:380] inception_5a/3x3 -> inception_5a/3x3
I1129 07:06:04.947046   553 net.cpp:122] Setting up inception_5a/3x3
I1129 07:06:04.947065   553 net.cpp:129] Top shape: 32 320 7 7 (501760)
I1129 07:06:04.947070   553 net.cpp:137] Memory required for data: 1731044632
I1129 07:06:04.947078   553 layer_factory.hpp:77] Creating layer inception_5a/relu_3x3
I1129 07:06:04.947087   553 net.cpp:84] Creating Layer inception_5a/relu_3x3
I1129 07:06:04.947093   553 net.cpp:406] inception_5a/relu_3x3 <- inception_5a/3x3
I1129 07:06:04.947100   553 net.cpp:367] inception_5a/relu_3x3 -> inception_5a/3x3 (in-place)
I1129 07:06:04.947109   553 net.cpp:122] Setting up inception_5a/relu_3x3
I1129 07:06:04.947114   553 net.cpp:129] Top shape: 32 320 7 7 (501760)
I1129 07:06:04.947119   553 net.cpp:137] Memory required for data: 1733051672
I1129 07:06:04.947124   553 layer_factory.hpp:77] Creating layer inception_5a/5x5_reduce
I1129 07:06:04.947134   553 net.cpp:84] Creating Layer inception_5a/5x5_reduce
I1129 07:06:04.947140   553 net.cpp:406] inception_5a/5x5_reduce <- pool4/3x3_s2_pool4/3x3_s2_0_split_2
I1129 07:06:04.947146   553 net.cpp:380] inception_5a/5x5_reduce -> inception_5a/5x5_reduce
I1129 07:06:04.947571   553 net.cpp:122] Setting up inception_5a/5x5_reduce
I1129 07:06:04.947584   553 net.cpp:129] Top shape: 32 32 7 7 (50176)
I1129 07:06:04.947588   553 net.cpp:137] Memory required for data: 1733252376
I1129 07:06:04.947597   553 layer_factory.hpp:77] Creating layer inception_5a/relu_5x5_reduce
I1129 07:06:04.947605   553 net.cpp:84] Creating Layer inception_5a/relu_5x5_reduce
I1129 07:06:04.947610   553 net.cpp:406] inception_5a/relu_5x5_reduce <- inception_5a/5x5_reduce
I1129 07:06:04.947616   553 net.cpp:367] inception_5a/relu_5x5_reduce -> inception_5a/5x5_reduce (in-place)
I1129 07:06:04.947623   553 net.cpp:122] Setting up inception_5a/relu_5x5_reduce
I1129 07:06:04.947629   553 net.cpp:129] Top shape: 32 32 7 7 (50176)
I1129 07:06:04.947633   553 net.cpp:137] Memory required for data: 1733453080
I1129 07:06:04.947638   553 layer_factory.hpp:77] Creating layer inception_5a/5x5
I1129 07:06:04.947649   553 net.cpp:84] Creating Layer inception_5a/5x5
I1129 07:06:04.947654   553 net.cpp:406] inception_5a/5x5 <- inception_5a/5x5_reduce
I1129 07:06:04.947662   553 net.cpp:380] inception_5a/5x5 -> inception_5a/5x5
I1129 07:06:04.948572   553 net.cpp:122] Setting up inception_5a/5x5
I1129 07:06:04.948586   553 net.cpp:129] Top shape: 32 128 7 7 (200704)
I1129 07:06:04.948590   553 net.cpp:137] Memory required for data: 1734255896
I1129 07:06:04.948597   553 layer_factory.hpp:77] Creating layer inception_5a/relu_5x5
I1129 07:06:04.948609   553 net.cpp:84] Creating Layer inception_5a/relu_5x5
I1129 07:06:04.948622   553 net.cpp:406] inception_5a/relu_5x5 <- inception_5a/5x5
I1129 07:06:04.948628   553 net.cpp:367] inception_5a/relu_5x5 -> inception_5a/5x5 (in-place)
I1129 07:06:04.948635   553 net.cpp:122] Setting up inception_5a/relu_5x5
I1129 07:06:04.948642   553 net.cpp:129] Top shape: 32 128 7 7 (200704)
I1129 07:06:04.948645   553 net.cpp:137] Memory required for data: 1735058712
I1129 07:06:04.948649   553 layer_factory.hpp:77] Creating layer inception_5a/pool
I1129 07:06:04.948658   553 net.cpp:84] Creating Layer inception_5a/pool
I1129 07:06:04.948664   553 net.cpp:406] inception_5a/pool <- pool4/3x3_s2_pool4/3x3_s2_0_split_3
I1129 07:06:04.948670   553 net.cpp:380] inception_5a/pool -> inception_5a/pool
I1129 07:06:04.948709   553 net.cpp:122] Setting up inception_5a/pool
I1129 07:06:04.948719   553 net.cpp:129] Top shape: 32 832 7 7 (1304576)
I1129 07:06:04.948722   553 net.cpp:137] Memory required for data: 1740277016
I1129 07:06:04.948726   553 layer_factory.hpp:77] Creating layer inception_5a/pool_proj
I1129 07:06:04.948742   553 net.cpp:84] Creating Layer inception_5a/pool_proj
I1129 07:06:04.948747   553 net.cpp:406] inception_5a/pool_proj <- inception_5a/pool
I1129 07:06:04.948755   553 net.cpp:380] inception_5a/pool_proj -> inception_5a/pool_proj
I1129 07:06:04.950188   553 net.cpp:122] Setting up inception_5a/pool_proj
I1129 07:06:04.950206   553 net.cpp:129] Top shape: 32 128 7 7 (200704)
I1129 07:06:04.950211   553 net.cpp:137] Memory required for data: 1741079832
I1129 07:06:04.950218   553 layer_factory.hpp:77] Creating layer inception_5a/relu_pool_proj
I1129 07:06:04.950227   553 net.cpp:84] Creating Layer inception_5a/relu_pool_proj
I1129 07:06:04.950233   553 net.cpp:406] inception_5a/relu_pool_proj <- inception_5a/pool_proj
I1129 07:06:04.950239   553 net.cpp:367] inception_5a/relu_pool_proj -> inception_5a/pool_proj (in-place)
I1129 07:06:04.950248   553 net.cpp:122] Setting up inception_5a/relu_pool_proj
I1129 07:06:04.950254   553 net.cpp:129] Top shape: 32 128 7 7 (200704)
I1129 07:06:04.950258   553 net.cpp:137] Memory required for data: 1741882648
I1129 07:06:04.950263   553 layer_factory.hpp:77] Creating layer inception_5a/output
I1129 07:06:04.950271   553 net.cpp:84] Creating Layer inception_5a/output
I1129 07:06:04.950276   553 net.cpp:406] inception_5a/output <- inception_5a/1x1
I1129 07:06:04.950281   553 net.cpp:406] inception_5a/output <- inception_5a/3x3
I1129 07:06:04.950286   553 net.cpp:406] inception_5a/output <- inception_5a/5x5
I1129 07:06:04.950291   553 net.cpp:406] inception_5a/output <- inception_5a/pool_proj
I1129 07:06:04.950297   553 net.cpp:380] inception_5a/output -> inception_5a/output
I1129 07:06:04.950322   553 net.cpp:122] Setting up inception_5a/output
I1129 07:06:04.950331   553 net.cpp:129] Top shape: 32 832 7 7 (1304576)
I1129 07:06:04.950335   553 net.cpp:137] Memory required for data: 1747100952
I1129 07:06:04.950340   553 layer_factory.hpp:77] Creating layer inception_5a/output_inception_5a/output_0_split
I1129 07:06:04.950350   553 net.cpp:84] Creating Layer inception_5a/output_inception_5a/output_0_split
I1129 07:06:04.950354   553 net.cpp:406] inception_5a/output_inception_5a/output_0_split <- inception_5a/output
I1129 07:06:04.950359   553 net.cpp:380] inception_5a/output_inception_5a/output_0_split -> inception_5a/output_inception_5a/output_0_split_0
I1129 07:06:04.950369   553 net.cpp:380] inception_5a/output_inception_5a/output_0_split -> inception_5a/output_inception_5a/output_0_split_1
I1129 07:06:04.950376   553 net.cpp:380] inception_5a/output_inception_5a/output_0_split -> inception_5a/output_inception_5a/output_0_split_2
I1129 07:06:04.950383   553 net.cpp:380] inception_5a/output_inception_5a/output_0_split -> inception_5a/output_inception_5a/output_0_split_3
I1129 07:06:04.950438   553 net.cpp:122] Setting up inception_5a/output_inception_5a/output_0_split
I1129 07:06:04.950445   553 net.cpp:129] Top shape: 32 832 7 7 (1304576)
I1129 07:06:04.950455   553 net.cpp:129] Top shape: 32 832 7 7 (1304576)
I1129 07:06:04.950461   553 net.cpp:129] Top shape: 32 832 7 7 (1304576)
I1129 07:06:04.950471   553 net.cpp:129] Top shape: 32 832 7 7 (1304576)
I1129 07:06:04.950476   553 net.cpp:137] Memory required for data: 1767974168
I1129 07:06:04.950480   553 layer_factory.hpp:77] Creating layer inception_5b/1x1
I1129 07:06:04.950493   553 net.cpp:84] Creating Layer inception_5b/1x1
I1129 07:06:04.950498   553 net.cpp:406] inception_5b/1x1 <- inception_5a/output_inception_5a/output_0_split_0
I1129 07:06:04.950507   553 net.cpp:380] inception_5b/1x1 -> inception_5b/1x1
I1129 07:06:04.953480   553 net.cpp:122] Setting up inception_5b/1x1
I1129 07:06:04.953498   553 net.cpp:129] Top shape: 32 384 7 7 (602112)
I1129 07:06:04.953503   553 net.cpp:137] Memory required for data: 1770382616
I1129 07:06:04.953511   553 layer_factory.hpp:77] Creating layer inception_5b/relu_1x1
I1129 07:06:04.953519   553 net.cpp:84] Creating Layer inception_5b/relu_1x1
I1129 07:06:04.953526   553 net.cpp:406] inception_5b/relu_1x1 <- inception_5b/1x1
I1129 07:06:04.953533   553 net.cpp:367] inception_5b/relu_1x1 -> inception_5b/1x1 (in-place)
I1129 07:06:04.953541   553 net.cpp:122] Setting up inception_5b/relu_1x1
I1129 07:06:04.953547   553 net.cpp:129] Top shape: 32 384 7 7 (602112)
I1129 07:06:04.953552   553 net.cpp:137] Memory required for data: 1772791064
I1129 07:06:04.953557   553 layer_factory.hpp:77] Creating layer inception_5b/3x3_reduce
I1129 07:06:04.953568   553 net.cpp:84] Creating Layer inception_5b/3x3_reduce
I1129 07:06:04.953573   553 net.cpp:406] inception_5b/3x3_reduce <- inception_5a/output_inception_5a/output_0_split_1
I1129 07:06:04.953580   553 net.cpp:380] inception_5b/3x3_reduce -> inception_5b/3x3_reduce
I1129 07:06:04.955394   553 net.cpp:122] Setting up inception_5b/3x3_reduce
I1129 07:06:04.955412   553 net.cpp:129] Top shape: 32 192 7 7 (301056)
I1129 07:06:04.955417   553 net.cpp:137] Memory required for data: 1773995288
I1129 07:06:04.955425   553 layer_factory.hpp:77] Creating layer inception_5b/relu_3x3_reduce
I1129 07:06:04.955433   553 net.cpp:84] Creating Layer inception_5b/relu_3x3_reduce
I1129 07:06:04.955440   553 net.cpp:406] inception_5b/relu_3x3_reduce <- inception_5b/3x3_reduce
I1129 07:06:04.955446   553 net.cpp:367] inception_5b/relu_3x3_reduce -> inception_5b/3x3_reduce (in-place)
I1129 07:06:04.955453   553 net.cpp:122] Setting up inception_5b/relu_3x3_reduce
I1129 07:06:04.955458   553 net.cpp:129] Top shape: 32 192 7 7 (301056)
I1129 07:06:04.955462   553 net.cpp:137] Memory required for data: 1775199512
I1129 07:06:04.955467   553 layer_factory.hpp:77] Creating layer inception_5b/3x3
I1129 07:06:04.955479   553 net.cpp:84] Creating Layer inception_5b/3x3
I1129 07:06:04.955484   553 net.cpp:406] inception_5b/3x3 <- inception_5b/3x3_reduce
I1129 07:06:04.955492   553 net.cpp:380] inception_5b/3x3 -> inception_5b/3x3
I1129 07:06:04.961189   553 net.cpp:122] Setting up inception_5b/3x3
I1129 07:06:04.961206   553 net.cpp:129] Top shape: 32 384 7 7 (602112)
I1129 07:06:04.961211   553 net.cpp:137] Memory required for data: 1777607960
I1129 07:06:04.961218   553 layer_factory.hpp:77] Creating layer inception_5b/relu_3x3
I1129 07:06:04.961227   553 net.cpp:84] Creating Layer inception_5b/relu_3x3
I1129 07:06:04.961233   553 net.cpp:406] inception_5b/relu_3x3 <- inception_5b/3x3
I1129 07:06:04.961239   553 net.cpp:367] inception_5b/relu_3x3 -> inception_5b/3x3 (in-place)
I1129 07:06:04.961247   553 net.cpp:122] Setting up inception_5b/relu_3x3
I1129 07:06:04.961252   553 net.cpp:129] Top shape: 32 384 7 7 (602112)
I1129 07:06:04.961256   553 net.cpp:137] Memory required for data: 1780016408
I1129 07:06:04.961261   553 layer_factory.hpp:77] Creating layer inception_5b/5x5_reduce
I1129 07:06:04.961273   553 net.cpp:84] Creating Layer inception_5b/5x5_reduce
I1129 07:06:04.961279   553 net.cpp:406] inception_5b/5x5_reduce <- inception_5a/output_inception_5a/output_0_split_2
I1129 07:06:04.961288   553 net.cpp:380] inception_5b/5x5_reduce -> inception_5b/5x5_reduce
I1129 07:06:04.961814   553 net.cpp:122] Setting up inception_5b/5x5_reduce
I1129 07:06:04.961834   553 net.cpp:129] Top shape: 32 48 7 7 (75264)
I1129 07:06:04.961839   553 net.cpp:137] Memory required for data: 1780317464
I1129 07:06:04.961846   553 layer_factory.hpp:77] Creating layer inception_5b/relu_5x5_reduce
I1129 07:06:04.961854   553 net.cpp:84] Creating Layer inception_5b/relu_5x5_reduce
I1129 07:06:04.961861   553 net.cpp:406] inception_5b/relu_5x5_reduce <- inception_5b/5x5_reduce
I1129 07:06:04.961868   553 net.cpp:367] inception_5b/relu_5x5_reduce -> inception_5b/5x5_reduce (in-place)
I1129 07:06:04.961874   553 net.cpp:122] Setting up inception_5b/relu_5x5_reduce
I1129 07:06:04.961880   553 net.cpp:129] Top shape: 32 48 7 7 (75264)
I1129 07:06:04.961884   553 net.cpp:137] Memory required for data: 1780618520
I1129 07:06:04.961889   553 layer_factory.hpp:77] Creating layer inception_5b/5x5
I1129 07:06:04.961900   553 net.cpp:84] Creating Layer inception_5b/5x5
I1129 07:06:04.961906   553 net.cpp:406] inception_5b/5x5 <- inception_5b/5x5_reduce
I1129 07:06:04.961912   553 net.cpp:380] inception_5b/5x5 -> inception_5b/5x5
I1129 07:06:04.963166   553 net.cpp:122] Setting up inception_5b/5x5
I1129 07:06:04.963196   553 net.cpp:129] Top shape: 32 128 7 7 (200704)
I1129 07:06:04.963202   553 net.cpp:137] Memory required for data: 1781421336
I1129 07:06:04.963210   553 layer_factory.hpp:77] Creating layer inception_5b/relu_5x5
I1129 07:06:04.963217   553 net.cpp:84] Creating Layer inception_5b/relu_5x5
I1129 07:06:04.963223   553 net.cpp:406] inception_5b/relu_5x5 <- inception_5b/5x5
I1129 07:06:04.963232   553 net.cpp:367] inception_5b/relu_5x5 -> inception_5b/5x5 (in-place)
I1129 07:06:04.963239   553 net.cpp:122] Setting up inception_5b/relu_5x5
I1129 07:06:04.963245   553 net.cpp:129] Top shape: 32 128 7 7 (200704)
I1129 07:06:04.963249   553 net.cpp:137] Memory required for data: 1782224152
I1129 07:06:04.963253   553 layer_factory.hpp:77] Creating layer inception_5b/pool
I1129 07:06:04.963261   553 net.cpp:84] Creating Layer inception_5b/pool
I1129 07:06:04.963266   553 net.cpp:406] inception_5b/pool <- inception_5a/output_inception_5a/output_0_split_3
I1129 07:06:04.963274   553 net.cpp:380] inception_5b/pool -> inception_5b/pool
I1129 07:06:04.963317   553 net.cpp:122] Setting up inception_5b/pool
I1129 07:06:04.963326   553 net.cpp:129] Top shape: 32 832 7 7 (1304576)
I1129 07:06:04.963330   553 net.cpp:137] Memory required for data: 1787442456
I1129 07:06:04.963335   553 layer_factory.hpp:77] Creating layer inception_5b/pool_proj
I1129 07:06:04.963346   553 net.cpp:84] Creating Layer inception_5b/pool_proj
I1129 07:06:04.963351   553 net.cpp:406] inception_5b/pool_proj <- inception_5b/pool
I1129 07:06:04.963361   553 net.cpp:380] inception_5b/pool_proj -> inception_5b/pool_proj
I1129 07:06:04.964828   553 net.cpp:122] Setting up inception_5b/pool_proj
I1129 07:06:04.964845   553 net.cpp:129] Top shape: 32 128 7 7 (200704)
I1129 07:06:04.964850   553 net.cpp:137] Memory required for data: 1788245272
I1129 07:06:04.964859   553 layer_factory.hpp:77] Creating layer inception_5b/relu_pool_proj
I1129 07:06:04.964866   553 net.cpp:84] Creating Layer inception_5b/relu_pool_proj
I1129 07:06:04.964871   553 net.cpp:406] inception_5b/relu_pool_proj <- inception_5b/pool_proj
I1129 07:06:04.964880   553 net.cpp:367] inception_5b/relu_pool_proj -> inception_5b/pool_proj (in-place)
I1129 07:06:04.964889   553 net.cpp:122] Setting up inception_5b/relu_pool_proj
I1129 07:06:04.964895   553 net.cpp:129] Top shape: 32 128 7 7 (200704)
I1129 07:06:04.964898   553 net.cpp:137] Memory required for data: 1789048088
I1129 07:06:04.964902   553 layer_factory.hpp:77] Creating layer inception_5b/output
I1129 07:06:04.964910   553 net.cpp:84] Creating Layer inception_5b/output
I1129 07:06:04.964915   553 net.cpp:406] inception_5b/output <- inception_5b/1x1
I1129 07:06:04.964920   553 net.cpp:406] inception_5b/output <- inception_5b/3x3
I1129 07:06:04.964926   553 net.cpp:406] inception_5b/output <- inception_5b/5x5
I1129 07:06:04.964934   553 net.cpp:406] inception_5b/output <- inception_5b/pool_proj
I1129 07:06:04.964947   553 net.cpp:380] inception_5b/output -> inception_5b/output
I1129 07:06:04.964977   553 net.cpp:122] Setting up inception_5b/output
I1129 07:06:04.964987   553 net.cpp:129] Top shape: 32 1024 7 7 (1605632)
I1129 07:06:04.964990   553 net.cpp:137] Memory required for data: 1795470616
I1129 07:06:04.964994   553 layer_factory.hpp:77] Creating layer pool5/7x7_s1
I1129 07:06:04.965003   553 net.cpp:84] Creating Layer pool5/7x7_s1
I1129 07:06:04.965009   553 net.cpp:406] pool5/7x7_s1 <- inception_5b/output
I1129 07:06:04.965015   553 net.cpp:380] pool5/7x7_s1 -> pool5/7x7_s1
I1129 07:06:04.965041   553 net.cpp:122] Setting up pool5/7x7_s1
I1129 07:06:04.965049   553 net.cpp:129] Top shape: 32 1024 1 1 (32768)
I1129 07:06:04.965054   553 net.cpp:137] Memory required for data: 1795601688
I1129 07:06:04.965059   553 layer_factory.hpp:77] Creating layer pool5/drop_7x7_s1
I1129 07:06:04.965065   553 net.cpp:84] Creating Layer pool5/drop_7x7_s1
I1129 07:06:04.965070   553 net.cpp:406] pool5/drop_7x7_s1 <- pool5/7x7_s1
I1129 07:06:04.965077   553 net.cpp:367] pool5/drop_7x7_s1 -> pool5/7x7_s1 (in-place)
I1129 07:06:04.965101   553 net.cpp:122] Setting up pool5/drop_7x7_s1
I1129 07:06:04.965108   553 net.cpp:129] Top shape: 32 1024 1 1 (32768)
I1129 07:06:04.965112   553 net.cpp:137] Memory required for data: 1795732760
I1129 07:06:04.965116   553 layer_factory.hpp:77] Creating layer loss3/classifier
I1129 07:06:04.965127   553 net.cpp:84] Creating Layer loss3/classifier
I1129 07:06:04.965132   553 net.cpp:406] loss3/classifier <- pool5/7x7_s1
I1129 07:06:04.965140   553 net.cpp:380] loss3/classifier -> loss3/classifier
I1129 07:06:04.974364   553 net.cpp:122] Setting up loss3/classifier
I1129 07:06:04.974454   553 net.cpp:129] Top shape: 32 1000 (32000)
I1129 07:06:04.974462   553 net.cpp:137] Memory required for data: 1795860760
I1129 07:06:04.974479   553 layer_factory.hpp:77] Creating layer loss3/classifier_loss3/classifier_0_split
I1129 07:06:04.974505   553 net.cpp:84] Creating Layer loss3/classifier_loss3/classifier_0_split
I1129 07:06:04.974522   553 net.cpp:406] loss3/classifier_loss3/classifier_0_split <- loss3/classifier
I1129 07:06:04.974563   553 net.cpp:380] loss3/classifier_loss3/classifier_0_split -> loss3/classifier_loss3/classifier_0_split_0
I1129 07:06:04.974586   553 net.cpp:380] loss3/classifier_loss3/classifier_0_split -> loss3/classifier_loss3/classifier_0_split_1
I1129 07:06:04.974594   553 net.cpp:380] loss3/classifier_loss3/classifier_0_split -> loss3/classifier_loss3/classifier_0_split_2
I1129 07:06:04.974722   553 net.cpp:122] Setting up loss3/classifier_loss3/classifier_0_split
I1129 07:06:04.974747   553 net.cpp:129] Top shape: 32 1000 (32000)
I1129 07:06:04.974759   553 net.cpp:129] Top shape: 32 1000 (32000)
I1129 07:06:04.974766   553 net.cpp:129] Top shape: 32 1000 (32000)
I1129 07:06:04.974771   553 net.cpp:137] Memory required for data: 1796244760
I1129 07:06:04.974781   553 layer_factory.hpp:77] Creating layer loss3/loss3
I1129 07:06:04.974809   553 net.cpp:84] Creating Layer loss3/loss3
I1129 07:06:04.974815   553 net.cpp:406] loss3/loss3 <- loss3/classifier_loss3/classifier_0_split_0
I1129 07:06:04.974822   553 net.cpp:406] loss3/loss3 <- label_data_1_split_6
…
