…
I1105 19:46:19.152678 21553 net.cpp:294] The NetState phase (0) differed from the phase (1) specified by a rule in layer loss3/top-5
I1105 19:46:19.153458 21553 net.cpp:51] Initializing net from parameters: 
name: "GoogleNet"
state {
  phase: TRAIN
  level: 0
  stage: ""
}
layer {
  name: "data"
  type: "Data"
  top: "data"
  top: "label"
  include {
    phase: TRAIN
  }
  transform_param {
    mirror: true
    crop_size: 224
    mean_value: 104
    mean_value: 117
    mean_value: 123
  }
  data_param {
    source: "/home/vtyurin/Diploma/lmdb/224/train_db"
    batch_size: 16
    backend: LMDB
  }
}
layer {
  name: "conv1/7x7_s2"
  type: "Convolution"
  bottom: "data"
  top: "conv1/7x7_s2"
  param {
    lr_mult: 1
    decay_mult: 1
  }
  param {
    lr_mult: 2
    decay_mult: 0
  }
  convolution_param {
    num_output: 64
    pad: 3
    kernel_size: 7
    stride: 2
    weight_filler {
      type: "xavier"
    }
    bias_filler {
      type: "constant"
      value: 0.2
    }
  }
}
layer {
  name: "conv1/relu_7x7"
  type: "ReLU"
  bottom: "conv1/7x7_s2"
  top: "conv1/7x7_s2"
}
layer {
  name: "pool1/3x3_s2"
  type: "Pooling"
  bottom: "conv1/7x7_s2"
  top: "pool1/3x3_s2"
  pooling_param {
    pool: MAX
    kernel_size: 3
    stride: 2
  }
}
layer {
  name: "pool1/norm1"
  type: "LRN"
  bottom: "pool1/3x3_s2"
  top: "pool1/norm1"
  lrn_param {
    local_size: 5
    alpha: 0.0001
    beta: 0.75
  }
}
layer {
  name: "conv2/3x3_reduce"
  type: "Convolution"
  bottom: "pool1/norm1"
  top: "conv2/3x3_reduce"
  param {
    lr_mult: 1
    decay_mult: 1
  }
  param {
    lr_mult: 2
    decay_mult: 0
  }
  convolution_param {
    num_output: 64
    kernel_size: 1
    weight_filler {
      type: "xavier"
    }
    bias_filler {
      type: "constant"
      value: 0.2
    }
  }
}
layer {
  name: "conv2/relu_3x3_reduce"
  type: "ReLU"
  bottom: "conv2/3x3_reduce"
  top: "conv2/3x3_reduce"
}
layer {
  name: "conv2/3x3"
  type: "Convolution"
  bottom: "conv2/3x3_reduce"
  top: "conv2/3x3"
  param {
    lr_mult: 1
    decay_mult: 1
  }
  param {
    lr_mult: 2
    decay_mult: 0
  }
  convolution_param {
    num_output: 192
    pad: 1
    kernel_size: 3
    weight_filler {
      type: "xavier"
    }
    bias_filler {
      type: "constant"
      value: 0.2
    }
  }
}
layer {
  name: "conv2/relu_3x3"
  type: "ReLU"
  bottom: "conv2/3x3"
  top: "conv2/3x3"
}
layer {
  name: "conv2/norm2"
  type: "LRN"
  bottom: "conv2/3x3"
  top: "conv2/norm2"
  lrn_param {
    local_size: 5
    alpha: 0.0001
    beta: 0.75
  }
}
layer {
  name: "pool2/3x3_s2"
  type: "Pooling"
  bottom: "conv2/norm2"
  top: "pool2/3x3_s2"
  pooling_param {
    pool: MAX
    kernel_size: 3
    stride: 2
  }
}
layer {
  name: "inception_3a/1x1"
  type: "Convolution"
  bottom: "pool2/3x3_s2"
  top: "inception_3a/1x1"
  param {
    lr_mult: 1
    decay_mult: 1
  }
  param {
    lr_mult: 2
    decay_mult: 0
  }
  convolution_param {
    num_output: 64
    kernel_size: 1
    weight_filler {
      type: "xavier"
    }
    bias_filler {
      type: "constant"
      value: 0.2
    }
  }
}
layer {
  name: "inception_3a/relu_1x1"
  type: "ReLU"
  bottom: "inception_3a/1x1"
  top: "inception_3a/1x1"
}
layer {
  name: "inception_3a/3x3_reduce"
  type: "Convolution"
  bottom: "pool2/3x3_s2"
  top: "inception_3a/3x3_reduce"
  param {
    lr_mult: 1
    decay_mult: 1
  }
  param {
    lr_mult: 2
    decay_mult: 0
  }
  convolution_param {
    num_output: 96
    kernel_size: 1
    weight_filler {
      type: "xavier"
    }
    bias_filler {
      type: "constant"
      value: 0.2
    }
  }
}
layer {
  name: "inception_3a/relu_3x3_reduce"
  type: "ReLU"
  bottom: "inception_3a/3x3_reduce"
  top: "inception_3a/3x3_reduce"
}
layer {
  name: "inception_3a/3x3"
  type: "Convolution"
  bottom: "inception_3a/3x3_reduce"
  top: "inception_3a/3x3"
  param {
    lr_mult: 1
    decay_mult: 1
  }
  param {
    lr_mult: 2
    decay_mult: 0
  }
  convolution_param {
    num_output: 128
    pad: 1
    kernel_size: 3
    weight_filler {
      type: "xavier"
    }
    bias_filler {
      type: "constant"
      value: 0.2
    }
  }
}
layer {
  name: "inception_3a/relu_3x3"
  type: "ReLU"
  bottom: "inception_3a/3x3"
  top: "inception_3a/3x3"
}
layer {
  name: "inception_3a/5x5_reduce"
  type: "Convolution"
  bottom: "pool2/3x3_s2"
  top: "inception_3a/5x5_reduce"
  param {
    lr_mult: 1
    decay_mult: 1
  }
  param {
    lr_mult: 2
    decay_mult: 0
  }
  convolution_param {
    num_output: 16
    kernel_size: 1
    weight_filler {
      type: "xavier"
    }
    bias_filler {
      type: "constant"
      value: 0.2
    }
  }
}
layer {
  name: "inception_3a/relu_5x5_reduce"
  type: "ReLU"
  bottom: "inception_3a/5x5_reduce"
  top: "inception_3a/5x5_reduce"
}
layer {
  name: "inception_3a/5x5"
  type: "Convolution"
  bottom: "inception_3a/5x5_reduce"
  top: "inception_3a/5x5"
  param {
    lr_mult: 1
    decay_mult: 1
  }
  param {
    lr_mult: 2
    decay_mult: 0
  }
  convolution_param {
    num_output: 32
    pad: 2
    kernel_size: 5
    weight_filler {
      type: "xavier"
    }
    bias_filler {
      type: "constant"
      value: 0.2
    }
  }
}
layer {
  name: "inception_3a/relu_5x5"
  type: "ReLU"
  bottom: "inception_3a/5x5"
  top: "inception_3a/5x5"
}
layer {
  name: "inception_3a/pool"
  type: "Pooling"
  bottom: "pool2/3x3_s2"
  top: "inception_3a/pool"
  pooling_param {
    pool: MAX
    kernel_size: 3
    stride: 1
    pad: 1
  }
}
layer {
  name: "inception_3a/pool_proj"
  type: "Convolution"
  bottom: "inception_3a/pool"
  top: "inception_3a/pool_proj"
  param {
    lr_mult: 1
    decay_mult: 1
  }
  param {
    lr_mult: 2
    decay_mult: 0
  }
  convolution_param {
    num_output: 32
    kernel_size: 1
    weight_filler {
      type: "xavier"
    }
    bias_filler {
      type: "constant"
      value: 0.2
    }
  }
}
layer {
  name: "inception_3a/relu_pool_proj"
  type: "ReLU"
  bottom: "inception_3a/pool_proj"
  top: "inception_3a/pool_proj"
}
layer {
  name: "inception_3a/output"
  type: "Concat"
  bottom: "inception_3a/1x1"
  bottom: "inception_3a/3x3"
  bottom: "inception_3a/5x5"
  bottom: "inception_3a/pool_proj"
  top: "inception_3a/output"
}
layer {
  name: "inception_3b/1x1"
  type: "Convolution"
  bottom: "inception_3a/output"
  top: "inception_3b/1x1"
  param {
    lr_mult: 1
    decay_mult: 1
  }
  param {
    lr_mult: 2
    decay_mult: 0
  }
  convolution_param {
    num_output: 128
    kernel_size: 1
    weight_filler {
      type: "xavier"
    }
    bias_filler {
      type: "constant"
      value: 0.2
    }
  }
}
layer {
  name: "inception_3b/relu_1x1"
  type: "ReLU"
  bottom: "inception_3b/1x1"
  top: "inception_3b/1x1"
}
layer {
  name: "inception_3b/3x3_reduce"
  type: "Convolution"
  bottom: "inception_3a/output"
  top: "inception_3b/3x3_reduce"
  param {
    lr_mult: 1
    decay_mult: 1
  }
  param {
    lr_mult: 2
    decay_mult: 0
  }
  convolution_param {
    num_output: 128
    kernel_size: 1
    weight_filler {
      type: "xavier"
    }
    bias_filler {
      type: "constant"
      value: 0.2
    }
  }
}
layer {
  name: "inception_3b/relu_3x3_reduce"
  type: "ReLU"
  bottom: "inception_3b/3x3_reduce"
  top: "inception_3b/3x3_reduce"
}
layer {
  name: "inception_3b/3x3"
  type: "Convolution"
  bottom: "inception_3b/3x3_reduce"
  top: "inception_3b/3x3"
  param {
    lr_mult: 1
    decay_mult: 1
  }
  param {
    lr_mult: 2
    decay_mult: 0
  }
  convolution_param {
    num_output: 192
    pad: 1
    kernel_size: 3
    weight_filler {
      type: "xavier"
    }
    bias_filler {
      type: "constant"
      value: 0.2
    }
  }
}
layer {
  name: "inception_3b/relu_3x3"
  type: "ReLU"
  bottom: "inception_3b/3x3"
  top: "inception_3b/3x3"
}
layer {
  name: "inception_3b/5x5_reduce"
  type: "Convolution"
  bottom: "inception_3a/output"
  top: "inception_3b/5x5_reduce"
  param {
    lr_mult: 1
    decay_mult: 1
  }
  param {
    lr_mult: 2
    decay_mult: 0
  }
  convolution_param {
    num_output: 32
    kernel_size: 1
    weight_filler {
      type: "xavier"
    }
    bias_filler {
      type: "constant"
      value: 0.2
    }
  }
}
layer {
  name: "inception_3b/relu_5x5_reduce"
  type: "ReLU"
  bottom: "inception_3b/5x5_reduce"
  top: "inception_3b/5x5_reduce"
}
layer {
  name: "inception_3b/5x5"
  type: "Convolution"
  bottom: "inception_3b/5x5_reduce"
  top: "inception_3b/5x5"
  param {
    lr_mult: 1
    decay_mult: 1
  }
  param {
    lr_mult: 2
    decay_mult: 0
  }
  convolution_param {
    num_output: 96
    pad: 2
    kernel_size: 5
    weight_filler {
      type: "xavier"
    }
    bias_filler {
      type: "constant"
      value: 0.2
    }
  }
}
layer {
  name: "inception_3b/relu_5x5"
  type: "ReLU"
  bottom: "inception_3b/5x5"
  top: "inception_3b/5x5"
}
layer {
  name: "inception_3b/pool"
  type: "Pooling"
  bottom: "inception_3a/output"
  top: "inception_3b/pool"
  pooling_param {
    pool: MAX
    kernel_size: 3
    stride: 1
    pad: 1
  }
}
layer {
  name: "inception_3b/pool_proj"
  type: "Convolution"
  bottom: "inception_3b/pool"
  top: "inception_3b/pool_proj"
  param {
    lr_mult: 1
    decay_mult: 1
  }
  param {
    lr_mult: 2
    decay_mult: 0
  }
  convolution_param {
    num_output: 64
    kernel_size: 1
    weight_filler {
      type: "xavier"
    }
    bias_filler {
      type: "constant"
      value: 0.2
    }
  }
}
layer {
  name: "inception_3b/relu_pool_proj"
  type: "ReLU"
  bottom: "inception_3b/pool_proj"
  top: "inception_3b/pool_proj"
}
layer {
  name: "inception_3b/output"
  type: "Concat"
  bottom: "inception_3b/1x1"
  bottom: "inception_3b/3x3"
  bottom: "inception_3b/5x5"
  bottom: "inception_3b/pool_proj"
  top: "inception_3b/output"
}
layer {
  name: "pool3/3x3_s2"
  type: "Pooling"
  bottom: "inception_3b/output"
  top: "pool3/3x3_s2"
  pooling_param {
    pool: MAX
    kernel_size: 3
    stride: 2
  }
}
layer {
  name: "inception_4a/1x1"
  type: "Convolution"
  bottom: "pool3/3x3_s2"
  top: "inception_4a/1x1"
  param {
    lr_mult: 1
    decay_mult: 1
  }
  param {
    lr_mult: 2
    decay_mult: 0
  }
  convolution_param {
    num_output: 192
    kernel_size: 1
    weight_filler {
      type: "xavier"
    }
    bias_filler {
      type: "constant"
      value: 0.2
    }
  }
}
layer {
  name: "inception_4a/relu_1x1"
  type: "ReLU"
  bottom: "inception_4a/1x1"
  top: "inception_4a/1x1"
}
layer {
  name: "inception_4a/3x3_reduce"
  type: "Convolution"
  bottom: "pool3/3x3_s2"
  top: "inception_4a/3x3_reduce"
  param {
    lr_mult: 1
    decay_mult: 1
  }
  param {
    lr_mult: 2
    decay_mult: 0
  }
  convolution_param {
    num_output: 96
    kernel_size: 1
    weight_filler {
      type: "xavier"
    }
    bias_filler {
      type: "constant"
      value: 0.2
    }
  }
}
layer {
  name: "inception_4a/relu_3x3_reduce"
  type: "ReLU"
  bottom: "inception_4a/3x3_reduce"
  top: "inception_4a/3x3_reduce"
}
layer {
  name: "inception_4a/3x3"
  type: "Convolution"
  bottom: "inception_4a/3x3_reduce"
  top: "inception_4a/3x3"
  param {
    lr_mult: 1
    decay_mult: 1
  }
  param {
    lr_mult: 2
    decay_mult: 0
  }
  convolution_param {
    num_output: 208
    pad: 1
    kernel_size: 3
    weight_filler {
      type: "xavier"
    }
    bias_filler {
      type: "constant"
      value: 0.2
    }
  }
}
layer {
  name: "inception_4a/relu_3x3"
  type: "ReLU"
  bottom: "inception_4a/3x3"
  top: "inception_4a/3x3"
}
layer {
  name: "inception_4a/5x5_reduce"
  type: "Convolution"
  bottom: "pool3/3x3_s2"
  top: "inception_4a/5x5_reduce"
  param {
    lr_mult: 1
    decay_mult: 1
  }
  param {
    lr_mult: 2
    decay_mult: 0
  }
  convolution_param {
    num_output: 16
    kernel_size: 1
    weight_filler {
      type: "xavier"
    }
    bias_filler {
      type: "constant"
      value: 0.2
    }
  }
}
layer {
  name: "inception_4a/relu_5x5_reduce"
  type: "ReLU"
  bottom: "inception_4a/5x5_reduce"
  top: "inception_4a/5x5_reduce"
}
layer {
  name: "inception_4a/5x5"
  type: "Convolution"
  bottom: "inception_4a/5x5_reduce"
  top: "inception_4a/5x5"
  param {
    lr_mult: 1
    decay_mult: 1
  }
  param {
    lr_mult: 2
    decay_mult: 0
  }
  convolution_param {
    num_output: 48
    pad: 2
    kernel_size: 5
    weight_filler {
      type: "xavier"
    }
    bias_filler {
      type: "constant"
      value: 0.2
    }
  }
}
layer {
  name: "inception_4a/relu_5x5"
  type: "ReLU"
  bottom: "inception_4a/5x5"
  top: "inception_4a/5x5"
}
layer {
  name: "inception_4a/pool"
  type: "Pooling"
  bottom: "pool3/3x3_s2"
  top: "inception_4a/pool"
  pooling_param {
    pool: MAX
    kernel_size: 3
    stride: 1
    pad: 1
  }
}
layer {
  name: "inception_4a/pool_proj"
  type: "Convolution"
  bottom: "inception_4a/pool"
  top: "inception_4a/pool_proj"
  param {
    lr_mult: 1
    decay_mult: 1
  }
  param {
    lr_mult: 2
    decay_mult: 0
  }
  convolution_param {
    num_output: 64
    kernel_size: 1
    weight_filler {
      type: "xavier"
    }
    bias_filler {
      type: "constant"
      value: 0.2
    }
  }
}
layer {
  name: "inception_4a/relu_pool_proj"
  type: "ReLU"
  bottom: "inception_4a/pool_proj"
  top: "inception_4a/pool_proj"
}
layer {
  name: "inception_4a/output"
  type: "Concat"
  bottom: "inception_4a/1x1"
  bottom: "inception_4a/3x3"
  bottom: "inception_4a/5x5"
  bottom: "inception_4a/pool_proj"
  top: "inception_4a/output"
}
layer {
  name: "loss1/ave_pool"
  type: "Pooling"
  bottom: "inception_4a/output"
  top: "loss1/ave_pool"
  pooling_param {
    pool: AVE
    kernel_size: 5
    stride: 3
  }
}
layer {
  name: "loss1/conv"
  type: "Convolution"
  bottom: "loss1/ave_pool"
  top: "loss1/conv"
  param {
    lr_mult: 1
    decay_mult: 1
  }
  param {
    lr_mult: 2
    decay_mult: 0
  }
  convolution_param {
    num_output: 128
    kernel_size: 1
    weight_filler {
      type: "xavier"
    }
    bias_filler {
      type: "constant"
      value: 0.2
    }
  }
}
layer {
  name: "loss1/relu_conv"
  type: "ReLU"
  bottom: "loss1/conv"
  top: "loss1/conv"
}
layer {
  name: "loss1/fc"
  type: "InnerProduct"
  bottom: "loss1/conv"
  top: "loss1/fc"
  param {
    lr_mult: 1
    decay_mult: 1
  }
  param {
    lr_mult: 2
    decay_mult: 0
  }
  inner_product_param {
    num_output: 1024
    weight_filler {
      type: "xavier"
    }
    bias_filler {
      type: "constant"
      value: 0.2
    }
  }
}
layer {
  name: "loss1/relu_fc"
  type: "ReLU"
  bottom: "loss1/fc"
  top: "loss1/fc"
}
layer {
  name: "loss1/drop_fc"
  type: "Dropout"
  bottom: "loss1/fc"
  top: "loss1/fc"
  dropout_param {
    dropout_ratio: 0.7
  }
}
layer {
  name: "loss1/classifier"
  type: "InnerProduct"
  bottom: "loss1/fc"
  top: "loss1/classifier"
  param {
    lr_mult: 1
    decay_mult: 1
  }
  param {
    lr_mult: 2
    decay_mult: 0
  }
  inner_product_param {
    num_output: 1000
    weight_filler {
      type: "xavier"
    }
    bias_filler {
      type: "constant"
      value: 0
    }
  }
}
layer {
  name: "loss1/loss"
  type: "SoftmaxWithLoss"
  bottom: "loss1/classifier"
  bottom: "label"
  top: "loss1/loss1"
  loss_weight: 0.3
}
layer {
  name: "inception_4b/1x1"
  type: "Convolution"
  bottom: "inception_4a/output"
  top: "inception_4b/1x1"
  param {
    lr_mult: 1
    decay_mult: 1
  }
  param {
    lr_mult: 2
    decay_mult: 0
  }
  convolution_param {
    num_output: 160
    kernel_size: 1
    weight_filler {
      type: "xavier"
    }
    bias_filler {
      type: "constant"
      value: 0.2
    }
  }
}
layer {
  name: "inception_4b/relu_1x1"
  type: "ReLU"
  bottom: "inception_4b/1x1"
  top: "inception_4b/1x1"
}
layer {
  name: "inception_4b/3x3_reduce"
  type: "Convolution"
  bottom: "inception_4a/output"
  top: "inception_4b/3x3_reduce"
  param {
    lr_mult: 1
    decay_mult: 1
  }
  param {
    lr_mult: 2
    decay_mult: 0
  }
  convolution_param {
    num_output: 112
    kernel_size: 1
    weight_filler {
      type: "xavier"
    }
    bias_filler {
      type: "constant"
      value: 0.2
    }
  }
}
layer {
  name: "inception_4b/relu_3x3_reduce"
  type: "ReLU"
  bottom: "inception_4b/3x3_reduce"
  top: "inception_4b/3x3_reduce"
}
layer {
  name: "inception_4b/3x3"
  type: "Convolution"
  bottom: "inception_4b/3x3_reduce"
  top: "inception_4b/3x3"
  param {
    lr_mult: 1
    decay_mult: 1
  }
  param {
    lr_mult: 2
    decay_mult: 0
  }
  convolution_param {
    num_output: 224
    pad: 1
    kernel_size: 3
    weight_filler {
      type: "xavier"
    }
    bias_filler {
      type: "constant"
      value: 0.2
    }
  }
}
layer {
  name: "inception_4b/relu_3x3"
  type: "ReLU"
  bottom: "inception_4b/3x3"
  top: "inception_4b/3x3"
}
layer {
  name: "inception_4b/5x5_reduce"
  type: "Convolution"
  bottom: "inception_4a/output"
  top: "inception_4b/5x5_reduce"
  param {
    lr_mult: 1
    decay_mult: 1
  }
  param {
    lr_mult: 2
    decay_mult: 0
  }
  convolution_param {
    num_output: 24
    kernel_size: 1
    weight_filler {
      type: "xavier"
    }
    bias_filler {
      type: "constant"
      value: 0.2
    }
  }
}
layer {
  name: "inception_4b/relu_5x5_reduce"
  type: "ReLU"
  bottom: "inception_4b/5x5_reduce"
  top: "inception_4b/5x5_reduce"
}
layer {
  name: "inception_4b/5x5"
  type: "Convolution"
  bottom: "inception_4b/5x5_reduce"
  top: "inception_4b/5x5"
  param {
    lr_mult: 1
    decay_mult: 1
  }
  param {
    lr_mult: 2
    decay_mult: 0
  }
  convolution_param {
    num_output: 64
    pad: 2
    kernel_size: 5
    weight_filler {
      type: "xavier"
    }
    bias_filler {
      type: "constant"
      value: 0.2
    }
  }
}
layer {
  name: "inception_4b/relu_5x5"
  type: "ReLU"
  bottom: "inception_4b/5x5"
  top: "inception_4b/5x5"
}
layer {
  name: "inception_4b/pool"
  type: "Pooling"
  bottom: "inception_4a/output"
  top: "inception_4b/pool"
  pooling_param {
    pool: MAX
    kernel_size: 3
    stride: 1
    pad: 1
  }
}
layer {
  name: "inception_4b/pool_proj"
  type: "Convolution"
  bottom: "inception_4b/pool"
  top: "inception_4b/pool_proj"
  param {
    lr_mult: 1
    decay_mult: 1
  }
  param {
    lr_mult: 2
    decay_mult: 0
  }
  convolution_param {
    num_output: 64
    kernel_size: 1
    weight_filler {
      type: "xavier"
    }
    bias_filler {
      type: "constant"
      value: 0.2
    }
  }
}
layer {
  name: "inception_4b/relu_pool_proj"
  type: "ReLU"
  bottom: "inception_4b/pool_proj"
  top: "inception_4b/pool_proj"
}
layer {
  name: "inception_4b/output"
  type: "Concat"
  bottom: "inception_4b/1x1"
  bottom: "inception_4b/3x3"
  bottom: "inception_4b/5x5"
  bottom: "inception_4b/pool_proj"
  top: "inception_4b/output"
}
layer {
  name: "inception_4c/1x1"
  type: "Convolution"
  bottom: "inception_4b/output"
  top: "inception_4c/1x1"
  param {
    lr_mult: 1
    decay_mult: 1
  }
  param {
    lr_mult: 2
    decay_mult: 0
  }
  convolution_param {
    num_output: 128
    kernel_size: 1
    weight_filler {
      type: "xavier"
    }
    bias_filler {
      type: "constant"
      value: 0.2
    }
  }
}
layer {
  name: "inception_4c/relu_1x1"
  type: "ReLU"
  bottom: "inception_4c/1x1"
  top: "inception_4c/1x1"
}
layer {
  name: "inception_4c/3x3_reduce"
  type: "Convolution"
  bottom: "inception_4b/output"
  top: "inception_4c/3x3_reduce"
  param {
    lr_mult: 1
    decay_mult: 1
  }
  param {
    lr_mult: 2
    decay_mult: 0
  }
  convolution_param {
    num_output: 128
    kernel_size: 1
    weight_filler {
      type: "xavier"
    }
    bias_filler {
      type: "constant"
      value: 0.2
    }
  }
}
layer {
  name: "inception_4c/relu_3x3_reduce"
  type: "ReLU"
  bottom: "inception_4c/3x3_reduce"
  top: "inception_4c/3x3_reduce"
}
layer {
  name: "inception_4c/3x3"
  type: "Convolution"
  bottom: "inception_4c/3x3_reduce"
  top: "inception_4c/3x3"
  param {
    lr_mult: 1
    decay_mult: 1
  }
  param {
    lr_mult: 2
    decay_mult: 0
  }
  convolution_param {
    num_output: 256
    pad: 1
    kernel_size: 3
    weight_filler {
      type: "xavier"
    }
    bias_filler {
      type: "constant"
      value: 0.2
    }
  }
}
layer {
  name: "inception_4c/relu_3x3"
  type: "ReLU"
  bottom: "inception_4c/3x3"
  top: "inception_4c/3x3"
}
layer {
  name: "inception_4c/5x5_reduce"
  type: "Convolution"
  bottom: "inception_4b/output"
  top: "inception_4c/5x5_reduce"
  param {
    lr_mult: 1
    decay_mult: 1
  }
  param {
    lr_mult: 2
    decay_mult: 0
  }
  convolution_param {
    num_output: 24
    kernel_size: 1
    weight_filler {
      type: "xavier"
    }
    bias_filler {
      type: "constant"
      value: 0.2
    }
  }
}
layer {
  name: "inception_4c/relu_5x5_reduce"
  type: "ReLU"
  bottom: "inception_4c/5x5_reduce"
  top: "inception_4c/5x5_reduce"
}
layer {
  name: "inception_4c/5x5"
  type: "Convolution"
  bottom: "inception_4c/5x5_reduce"
  top: "inception_4c/5x5"
  param {
    lr_mult: 1
    decay_mult: 1
  }
  param {
    lr_mult: 2
    decay_mult: 0
  }
  convolution_param {
    num_output: 64
    pad: 2
    kernel_size: 5
    weight_filler {
      type: "xavier"
    }
    bias_filler {
      type: "constant"
      value: 0.2
    }
  }
}
layer {
  name: "inception_4c/relu_5x5"
  type: "ReLU"
  bottom: "inception_4c/5x5"
  top: "inception_4c/5x5"
}
layer {
  name: "inception_4c/pool"
  type: "Pooling"
  bottom: "inception_4b/output"
  top: "inception_4c/pool"
  pooling_param {
    pool: MAX
    kernel_size: 3
    stride: 1
    pad: 1
  }
}
layer {
  name: "inception_4c/pool_proj"
  type: "Convolution"
  bottom: "inception_4c/pool"
  top: "inception_4c/pool_proj"
  param {
    lr_mult: 1
    decay_mult: 1
  }
  param {
    lr_mult: 2
    decay_mult: 0
  }
  convolution_param {
    num_output: 64
    kernel_size: 1
    weight_filler {
      type: "xavier"
    }
    bias_filler {
      type: "constant"
      value: 0.2
    }
  }
}
layer {
  name: "inception_4c/relu_pool_proj"
  type: "ReLU"
  bottom: "inception_4c/pool_proj"
  top: "inception_4c/pool_proj"
}
layer {
  name: "inception_4c/output"
  type: "Concat"
  bottom: "inception_4c/1x1"
  bottom: "inception_4c/3x3"
  bottom: "inception_4c/5x5"
  bottom: "inception_4c/pool_proj"
  top: "inception_4c/output"
}
layer {
  name: "inception_4d/1x1"
  type: "Convolution"
  bottom: "inception_4c/output"
  top: "inception_4d/1x1"
  param {
    lr_mult: 1
    decay_mult: 1
  }
  param {
    lr_mult: 2
    decay_mult: 0
  }
  convolution_param {
    num_output: 112
    kernel_size: 1
    weight_filler {
      type: "xavier"
    }
    bias_filler {
      type: "constant"
      value: 0.2
    }
  }
}
layer {
  name: "inception_4d/relu_1x1"
  type: "ReLU"
  bottom: "inception_4d/1x1"
  top: "inception_4d/1x1"
}
layer {
  name: "inception_4d/3x3_reduce"
  type: "Convolution"
  bottom: "inception_4c/output"
  top: "inception_4d/3x3_reduce"
  param {
    lr_mult: 1
    decay_mult: 1
  }
  param {
    lr_mult: 2
    decay_mult: 0
  }
  convolution_param {
    num_output: 144
    kernel_size: 1
    weight_filler {
      type: "xavier"
    }
    bias_filler {
      type: "constant"
      value: 0.2
    }
  }
}
layer {
  name: "inception_4d/relu_3x3_reduce"
  type: "ReLU"
  bottom: "inception_4d/3x3_reduce"
  top: "inception_4d/3x3_reduce"
}
layer {
  name: "inception_4d/3x3"
  type: "Convolution"
  bottom: "inception_4d/3x3_reduce"
  top: "inception_4d/3x3"
  param {
    lr_mult: 1
    decay_mult: 1
  }
  param {
    lr_mult: 2
    decay_mult: 0
  }
  convolution_param {
    num_output: 288
    pad: 1
    kernel_size: 3
    weight_filler {
      type: "xavier"
    }
    bias_filler {
      type: "constant"
      value: 0.2
    }
  }
}
layer {
  name: "inception_4d/relu_3x3"
  type: "ReLU"
  bottom: "inception_4d/3x3"
  top: "inception_4d/3x3"
}
layer {
  name: "inception_4d/5x5_reduce"
  type: "Convolution"
  bottom: "inception_4c/output"
  top: "inception_4d/5x5_reduce"
  param {
    lr_mult: 1
    decay_mult: 1
  }
  param {
    lr_mult: 2
    decay_mult: 0
  }
  convolution_param {
    num_output: 32
    kernel_size: 1
    weight_filler {
      type: "xavier"
    }
    bias_filler {
      type: "constant"
      value: 0.2
    }
  }
}
layer {
  name: "inception_4d/relu_5x5_reduce"
  type: "ReLU"
  bottom: "inception_4d/5x5_reduce"
  top: "inception_4d/5x5_reduce"
}
layer {
  name: "inception_4d/5x5"
  type: "Convolution"
  bottom: "inception_4d/5x5_reduce"
  top: "inception_4d/5x5"
  param {
    lr_mult: 1
    decay_mult: 1
  }
  param {
    lr_mult: 2
    decay_mult: 0
  }
  convolution_param {
    num_output: 64
    pad: 2
    kernel_size: 5
    weight_filler {
      type: "xavier"
    }
    bias_filler {
      type: "constant"
      value: 0.2
    }
  }
}
layer {
  name: "inception_4d/relu_5x5"
  type: "ReLU"
  bottom: "inception_4d/5x5"
  top: "inception_4d/5x5"
}
layer {
  name: "inception_4d/pool"
  type: "Pooling"
  bottom: "inception_4c/output"
  top: "inception_4d/pool"
  pooling_param {
    pool: MAX
    kernel_size: 3
    stride: 1
    pad: 1
  }
}
layer {
  name: "inception_4d/pool_proj"
  type: "Convolution"
  bottom: "inception_4d/pool"
  top: "inception_4d/pool_proj"
  param {
    lr_mult: 1
    decay_mult: 1
  }
  param {
    lr_mult: 2
    decay_mult: 0
  }
  convolution_param {
    num_output: 64
    kernel_size: 1
    weight_filler {
      type: "xavier"
    }
    bias_filler {
      type: "constant"
      value: 0.2
    }
  }
}
layer {
  name: "inception_4d/relu_pool_proj"
  type: "ReLU"
  bottom: "inception_4d/pool_proj"
  top: "inception_4d/pool_proj"
}
layer {
  name: "inception_4d/output"
  type: "Concat"
  bottom: "inception_4d/1x1"
  bottom: "inception_4d/3x3"
  bottom: "inception_4d/5x5"
  bottom: "inception_4d/pool_proj"
  top: "inception_4d/output"
}
layer {
  name: "loss2/ave_pool"
  type: "Pooling"
  bottom: "inception_4d/output"
  top: "loss2/ave_pool"
  pooling_param {
    pool: AVE
    kernel_size: 5
    stride: 3
  }
}
layer {
  name: "loss2/conv"
  type: "Convolution"
  bottom: "loss2/ave_pool"
  top: "loss2/conv"
  param {
    lr_mult: 1
    decay_mult: 1
  }
  param {
    lr_mult: 2
    decay_mult: 0
  }
  convolution_param {
    num_output: 128
    kernel_size: 1
    weight_filler {
      type: "xavier"
    }
    bias_filler {
      type: "constant"
      value: 0.2
    }
  }
}
layer {
  name: "loss2/relu_conv"
  type: "ReLU"
  bottom: "loss2/conv"
  top: "loss2/conv"
}
layer {
  name: "loss2/fc"
  type: "InnerProduct"
  bottom: "loss2/conv"
  top: "loss2/fc"
  param {
    lr_mult: 1
    decay_mult: 1
  }
  param {
    lr_mult: 2
    decay_mult: 0
  }
  inner_product_param {
    num_output: 1024
    weight_filler {
      type: "xavier"
    }
    bias_filler {
      type: "constant"
      value: 0.2
    }
  }
}
layer {
  name: "loss2/relu_fc"
  type: "ReLU"
  bottom: "loss2/fc"
  top: "loss2/fc"
}
layer {
  name: "loss2/drop_fc"
  type: "Dropout"
  bottom: "loss2/fc"
  top: "loss2/fc"
  dropout_param {
    dropout_ratio: 0.7
  }
}
layer {
  name: "loss2/classifier"
  type: "InnerProduct"
  bottom: "loss2/fc"
  top: "loss2/classifier"
  param {
    lr_mult: 1
    decay_mult: 1
  }
  param {
    lr_mult: 2
    decay_mult: 0
  }
  inner_product_param {
    num_output: 1000
    weight_filler {
      type: "xavier"
    }
    bias_filler {
      type: "constant"
      value: 0
    }
  }
}
layer {
  name: "loss2/loss"
  type: "SoftmaxWithLoss"
  bottom: "loss2/classifier"
  bottom: "label"
  top: "loss2/loss2"
  loss_weight: 0.3
}
layer {
  name: "inception_4e/1x1"
  type: "Convolution"
  bottom: "inception_4d/output"
  top: "inception_4e/1x1"
  param {
    lr_mult: 1
    decay_mult: 1
  }
  param {
    lr_mult: 2
    decay_mult: 0
  }
  convolution_param {
    num_output: 256
    kernel_size: 1
    weight_filler {
      type: "xavier"
    }
    bias_filler {
      type: "constant"
      value: 0.2
    }
  }
}
layer {
  name: "inception_4e/relu_1x1"
  type: "ReLU"
  bottom: "inception_4e/1x1"
  top: "inception_4e/1x1"
}
layer {
  name: "inception_4e/3x3_reduce"
  type: "Convolution"
  bottom: "inception_4d/output"
  top: "inception_4e/3x3_reduce"
  param {
    lr_mult: 1
    decay_mult: 1
  }
  param {
    lr_mult: 2
    decay_mult: 0
  }
  convolution_param {
    num_output: 160
    kernel_size: 1
    weight_filler {
      type: "xavier"
    }
    bias_filler {
      type: "constant"
      value: 0.2
    }
  }
}
layer {
  name: "inception_4e/relu_3x3_reduce"
  type: "ReLU"
  bottom: "inception_4e/3x3_reduce"
  top: "inception_4e/3x3_reduce"
}
layer {
  name: "inception_4e/3x3"
  type: "Convolution"
  bottom: "inception_4e/3x3_reduce"
  top: "inception_4e/3x3"
  param {
    lr_mult: 1
    decay_mult: 1
  }
  param {
    lr_mult: 2
    decay_mult: 0
  }
  convolution_param {
    num_output: 320
    pad: 1
    kernel_size: 3
    weight_filler {
      type: "xavier"
    }
    bias_filler {
      type: "constant"
      value: 0.2
    }
  }
}
layer {
  name: "inception_4e/relu_3x3"
  type: "ReLU"
  bottom: "inception_4e/3x3"
  top: "inception_4e/3x3"
}
layer {
  name: "inception_4e/5x5_reduce"
  type: "Convolution"
  bottom: "inception_4d/output"
  top: "inception_4e/5x5_reduce"
  param {
    lr_mult: 1
    decay_mult: 1
  }
  param {
    lr_mult: 2
    decay_mult: 0
  }
  convolution_param {
    num_output: 32
    kernel_size: 1
    weight_filler {
      type: "xavier"
    }
    bias_filler {
      type: "constant"
      value: 0.2
    }
  }
}
layer {
  name: "inception_4e/relu_5x5_reduce"
  type: "ReLU"
  bottom: "inception_4e/5x5_reduce"
  top: "inception_4e/5x5_reduce"
}
layer {
  name: "inception_4e/5x5"
  type: "Convolution"
  bottom: "inception_4e/5x5_reduce"
  top: "inception_4e/5x5"
  param {
    lr_mult: 1
    decay_mult: 1
  }
  param {
    lr_mult: 2
    decay_mult: 0
  }
  convolution_param {
    num_output: 128
    pad: 2
    kernel_size: 5
    weight_filler {
      type: "xavier"
    }
    bias_filler {
      type: "constant"
      value: 0.2
    }
  }
}
layer {
  name: "inception_4e/relu_5x5"
  type: "ReLU"
  bottom: "inception_4e/5x5"
  top: "inception_4e/5x5"
}
layer {
  name: "inception_4e/pool"
  type: "Pooling"
  bottom: "inception_4d/output"
  top: "inception_4e/pool"
  pooling_param {
    pool: MAX
    kern
I1105 19:46:19.154158 21553 layer_factory.hpp:77] Creating layer data
I1105 19:46:19.154275 21553 db_lmdb.cpp:35] Opened lmdb /home/vtyurin/Diploma/lmdb/224/train_db
I1105 19:46:19.154307 21553 net.cpp:84] Creating Layer data
I1105 19:46:19.154320 21553 net.cpp:380] data -> data
I1105 19:46:19.154343 21553 net.cpp:380] data -> label
I1105 19:46:19.156426 21553 data_layer.cpp:45] output data size: 16,3,224,224
I1105 19:46:19.176694 21553 net.cpp:122] Setting up data
I1105 19:46:19.176730 21553 net.cpp:129] Top shape: 16 3 224 224 (2408448)
I1105 19:46:19.176738 21553 net.cpp:129] Top shape: 16 (16)
I1105 19:46:19.176744 21553 net.cpp:137] Memory required for data: 9633856
I1105 19:46:19.176756 21553 layer_factory.hpp:77] Creating layer label_data_1_split
I1105 19:46:19.176785 21553 net.cpp:84] Creating Layer label_data_1_split
I1105 19:46:19.176796 21553 net.cpp:406] label_data_1_split <- label
I1105 19:46:19.176811 21553 net.cpp:380] label_data_1_split -> label_data_1_split_0
I1105 19:46:19.176826 21553 net.cpp:380] label_data_1_split -> label_data_1_split_1
I1105 19:46:19.176843 21553 net.cpp:380] label_data_1_split -> label_data_1_split_2
I1105 19:46:19.176920 21553 net.cpp:122] Setting up label_data_1_split
I1105 19:46:19.176934 21553 net.cpp:129] Top shape: 16 (16)
I1105 19:46:19.176940 21553 net.cpp:129] Top shape: 16 (16)
I1105 19:46:19.176946 21553 net.cpp:129] Top shape: 16 (16)
I1105 19:46:19.176952 21553 net.cpp:137] Memory required for data: 9634048
I1105 19:46:19.176957 21553 layer_factory.hpp:77] Creating layer conv1/7x7_s2
I1105 19:46:19.176977 21553 net.cpp:84] Creating Layer conv1/7x7_s2
I1105 19:46:19.176985 21553 net.cpp:406] conv1/7x7_s2 <- data
I1105 19:46:19.176993 21553 net.cpp:380] conv1/7x7_s2 -> conv1/7x7_s2
I1105 19:46:19.177808 21553 net.cpp:122] Setting up conv1/7x7_s2
I1105 19:46:19.177827 21553 net.cpp:129] Top shape: 16 64 112 112 (12845056)
I1105 19:46:19.177834 21553 net.cpp:137] Memory required for data: 61014272
I1105 19:46:19.177850 21553 layer_factory.hpp:77] Creating layer conv1/relu_7x7
I1105 19:46:19.177861 21553 net.cpp:84] Creating Layer conv1/relu_7x7
I1105 19:46:19.177867 21553 net.cpp:406] conv1/relu_7x7 <- conv1/7x7_s2
I1105 19:46:19.177875 21553 net.cpp:367] conv1/relu_7x7 -> conv1/7x7_s2 (in-place)
I1105 19:46:19.177886 21553 net.cpp:122] Setting up conv1/relu_7x7
I1105 19:46:19.177892 21553 net.cpp:129] Top shape: 16 64 112 112 (12845056)
I1105 19:46:19.177897 21553 net.cpp:137] Memory required for data: 112394496
I1105 19:46:19.177902 21553 layer_factory.hpp:77] Creating layer pool1/3x3_s2
I1105 19:46:19.177912 21553 net.cpp:84] Creating Layer pool1/3x3_s2
I1105 19:46:19.177917 21553 net.cpp:406] pool1/3x3_s2 <- conv1/7x7_s2
I1105 19:46:19.177925 21553 net.cpp:380] pool1/3x3_s2 -> pool1/3x3_s2
I1105 19:46:19.177976 21553 net.cpp:122] Setting up pool1/3x3_s2
I1105 19:46:19.177987 21553 net.cpp:129] Top shape: 16 64 56 56 (3211264)
I1105 19:46:19.177992 21553 net.cpp:137] Memory required for data: 125239552
I1105 19:46:19.177999 21553 layer_factory.hpp:77] Creating layer pool1/norm1
I1105 19:46:19.178007 21553 net.cpp:84] Creating Layer pool1/norm1
I1105 19:46:19.178014 21553 net.cpp:406] pool1/norm1 <- pool1/3x3_s2
I1105 19:46:19.178020 21553 net.cpp:380] pool1/norm1 -> pool1/norm1
I1105 19:46:19.178053 21553 net.cpp:122] Setting up pool1/norm1
I1105 19:46:19.178062 21553 net.cpp:129] Top shape: 16 64 56 56 (3211264)
I1105 19:46:19.178067 21553 net.cpp:137] Memory required for data: 138084608
I1105 19:46:19.178073 21553 layer_factory.hpp:77] Creating layer conv2/3x3_reduce
I1105 19:46:19.178084 21553 net.cpp:84] Creating Layer conv2/3x3_reduce
I1105 19:46:19.178091 21553 net.cpp:406] conv2/3x3_reduce <- pool1/norm1
I1105 19:46:19.178098 21553 net.cpp:380] conv2/3x3_reduce -> conv2/3x3_reduce
I1105 19:46:19.178795 21553 net.cpp:122] Setting up conv2/3x3_reduce
I1105 19:46:19.178814 21553 net.cpp:129] Top shape: 16 64 56 56 (3211264)
I1105 19:46:19.178820 21553 net.cpp:137] Memory required for data: 150929664
I1105 19:46:19.178831 21553 layer_factory.hpp:77] Creating layer conv2/relu_3x3_reduce
I1105 19:46:19.178841 21553 net.cpp:84] Creating Layer conv2/relu_3x3_reduce
I1105 19:46:19.178848 21553 net.cpp:406] conv2/relu_3x3_reduce <- conv2/3x3_reduce
I1105 19:46:19.178856 21553 net.cpp:367] conv2/relu_3x3_reduce -> conv2/3x3_reduce (in-place)
I1105 19:46:19.178865 21553 net.cpp:122] Setting up conv2/relu_3x3_reduce
I1105 19:46:19.178872 21553 net.cpp:129] Top shape: 16 64 56 56 (3211264)
I1105 19:46:19.178877 21553 net.cpp:137] Memory required for data: 163774720
I1105 19:46:19.178882 21553 layer_factory.hpp:77] Creating layer conv2/3x3
I1105 19:46:19.178895 21553 net.cpp:84] Creating Layer conv2/3x3
I1105 19:46:19.178900 21553 net.cpp:406] conv2/3x3 <- conv2/3x3_reduce
I1105 19:46:19.178916 21553 net.cpp:380] conv2/3x3 -> conv2/3x3
I1105 19:46:19.180855 21553 net.cpp:122] Setting up conv2/3x3
I1105 19:46:19.180874 21553 net.cpp:129] Top shape: 16 192 56 56 (9633792)
I1105 19:46:19.180881 21553 net.cpp:137] Memory required for data: 202309888
I1105 19:46:19.180892 21553 layer_factory.hpp:77] Creating layer conv2/relu_3x3
I1105 19:46:19.180912 21553 net.cpp:84] Creating Layer conv2/relu_3x3
I1105 19:46:19.180928 21553 net.cpp:406] conv2/relu_3x3 <- conv2/3x3
I1105 19:46:19.180936 21553 net.cpp:367] conv2/relu_3x3 -> conv2/3x3 (in-place)
I1105 19:46:19.180946 21553 net.cpp:122] Setting up conv2/relu_3x3
I1105 19:46:19.180953 21553 net.cpp:129] Top shape: 16 192 56 56 (9633792)
I1105 19:46:19.180959 21553 net.cpp:137] Memory required for data: 240845056
I1105 19:46:19.180964 21553 layer_factory.hpp:77] Creating layer conv2/norm2
I1105 19:46:19.180972 21553 net.cpp:84] Creating Layer conv2/norm2
I1105 19:46:19.180979 21553 net.cpp:406] conv2/norm2 <- conv2/3x3
I1105 19:46:19.180986 21553 net.cpp:380] conv2/norm2 -> conv2/norm2
I1105 19:46:19.181023 21553 net.cpp:122] Setting up conv2/norm2
I1105 19:46:19.181033 21553 net.cpp:129] Top shape: 16 192 56 56 (9633792)
I1105 19:46:19.181038 21553 net.cpp:137] Memory required for data: 279380224
I1105 19:46:19.181044 21553 layer_factory.hpp:77] Creating layer pool2/3x3_s2
I1105 19:46:19.181052 21553 net.cpp:84] Creating Layer pool2/3x3_s2
I1105 19:46:19.181058 21553 net.cpp:406] pool2/3x3_s2 <- conv2/norm2
I1105 19:46:19.181066 21553 net.cpp:380] pool2/3x3_s2 -> pool2/3x3_s2
I1105 19:46:19.181098 21553 net.cpp:122] Setting up pool2/3x3_s2
I1105 19:46:19.181107 21553 net.cpp:129] Top shape: 16 192 28 28 (2408448)
I1105 19:46:19.181113 21553 net.cpp:137] Memory required for data: 289014016
I1105 19:46:19.181118 21553 layer_factory.hpp:77] Creating layer pool2/3x3_s2_pool2/3x3_s2_0_split
I1105 19:46:19.181126 21553 net.cpp:84] Creating Layer pool2/3x3_s2_pool2/3x3_s2_0_split
I1105 19:46:19.181131 21553 net.cpp:406] pool2/3x3_s2_pool2/3x3_s2_0_split <- pool2/3x3_s2
I1105 19:46:19.181139 21553 net.cpp:380] pool2/3x3_s2_pool2/3x3_s2_0_split -> pool2/3x3_s2_pool2/3x3_s2_0_split_0
I1105 19:46:19.181147 21553 net.cpp:380] pool2/3x3_s2_pool2/3x3_s2_0_split -> pool2/3x3_s2_pool2/3x3_s2_0_split_1
I1105 19:46:19.181159 21553 net.cpp:380] pool2/3x3_s2_pool2/3x3_s2_0_split -> pool2/3x3_s2_pool2/3x3_s2_0_split_2
I1105 19:46:19.181169 21553 net.cpp:380] pool2/3x3_s2_pool2/3x3_s2_0_split -> pool2/3x3_s2_pool2/3x3_s2_0_split_3
I1105 19:46:19.181217 21553 net.cpp:122] Setting up pool2/3x3_s2_pool2/3x3_s2_0_split
I1105 19:46:19.181227 21553 net.cpp:129] Top shape: 16 192 28 28 (2408448)
I1105 19:46:19.181233 21553 net.cpp:129] Top shape: 16 192 28 28 (2408448)
I1105 19:46:19.181239 21553 net.cpp:129] Top shape: 16 192 28 28 (2408448)
I1105 19:46:19.181246 21553 net.cpp:129] Top shape: 16 192 28 28 (2408448)
I1105 19:46:19.181252 21553 net.cpp:137] Memory required for data: 327549184
I1105 19:46:19.181257 21553 layer_factory.hpp:77] Creating layer inception_3a/1x1
I1105 19:46:19.181269 21553 net.cpp:84] Creating Layer inception_3a/1x1
I1105 19:46:19.181277 21553 net.cpp:406] inception_3a/1x1 <- pool2/3x3_s2_pool2/3x3_s2_0_split_0
I1105 19:46:19.181285 21553 net.cpp:380] inception_3a/1x1 -> inception_3a/1x1
I1105 19:46:19.182078 21553 net.cpp:122] Setting up inception_3a/1x1
I1105 19:46:19.182098 21553 net.cpp:129] Top shape: 16 64 28 28 (802816)
I1105 19:46:19.182104 21553 net.cpp:137] Memory required for data: 330760448
I1105 19:46:19.182114 21553 layer_factory.hpp:77] Creating layer inception_3a/relu_1x1
I1105 19:46:19.182123 21553 net.cpp:84] Creating Layer inception_3a/relu_1x1
I1105 19:46:19.182130 21553 net.cpp:406] inception_3a/relu_1x1 <- inception_3a/1x1
I1105 19:46:19.182139 21553 net.cpp:367] inception_3a/relu_1x1 -> inception_3a/1x1 (in-place)
I1105 19:46:19.182149 21553 net.cpp:122] Setting up inception_3a/relu_1x1
I1105 19:46:19.182157 21553 net.cpp:129] Top shape: 16 64 28 28 (802816)
I1105 19:46:19.182163 21553 net.cpp:137] Memory required for data: 333971712
I1105 19:46:19.182168 21553 layer_factory.hpp:77] Creating layer inception_3a/3x3_reduce
I1105 19:46:19.182180 21553 net.cpp:84] Creating Layer inception_3a/3x3_reduce
I1105 19:46:19.182186 21553 net.cpp:406] inception_3a/3x3_reduce <- pool2/3x3_s2_pool2/3x3_s2_0_split_1
I1105 19:46:19.182194 21553 net.cpp:380] inception_3a/3x3_reduce -> inception_3a/3x3_reduce
I1105 19:46:19.183025 21553 net.cpp:122] Setting up inception_3a/3x3_reduce
I1105 19:46:19.183053 21553 net.cpp:129] Top shape: 16 96 28 28 (1204224)
I1105 19:46:19.183058 21553 net.cpp:137] Memory required for data: 338788608
I1105 19:46:19.183073 21553 layer_factory.hpp:77] Creating layer inception_3a/relu_3x3_reduce
I1105 19:46:19.183085 21553 net.cpp:84] Creating Layer inception_3a/relu_3x3_reduce
I1105 19:46:19.183092 21553 net.cpp:406] inception_3a/relu_3x3_reduce <- inception_3a/3x3_reduce
I1105 19:46:19.183100 21553 net.cpp:367] inception_3a/relu_3x3_reduce -> inception_3a/3x3_reduce (in-place)
I1105 19:46:19.183109 21553 net.cpp:122] Setting up inception_3a/relu_3x3_reduce
I1105 19:46:19.183116 21553 net.cpp:129] Top shape: 16 96 28 28 (1204224)
I1105 19:46:19.183121 21553 net.cpp:137] Memory required for data: 343605504
I1105 19:46:19.183127 21553 layer_factory.hpp:77] Creating layer inception_3a/3x3
I1105 19:46:19.183137 21553 net.cpp:84] Creating Layer inception_3a/3x3
I1105 19:46:19.183143 21553 net.cpp:406] inception_3a/3x3 <- inception_3a/3x3_reduce
I1105 19:46:19.183152 21553 net.cpp:380] inception_3a/3x3 -> inception_3a/3x3
I1105 19:46:19.184098 21553 net.cpp:122] Setting up inception_3a/3x3
I1105 19:46:19.184111 21553 net.cpp:129] Top shape: 16 128 28 28 (1605632)
I1105 19:46:19.184116 21553 net.cpp:137] Memory required for data: 350028032
I1105 19:46:19.184125 21553 layer_factory.hpp:77] Creating layer inception_3a/relu_3x3
I1105 19:46:19.184134 21553 net.cpp:84] Creating Layer inception_3a/relu_3x3
I1105 19:46:19.184139 21553 net.cpp:406] inception_3a/relu_3x3 <- inception_3a/3x3
I1105 19:46:19.184149 21553 net.cpp:367] inception_3a/relu_3x3 -> inception_3a/3x3 (in-place)
I1105 19:46:19.184156 21553 net.cpp:122] Setting up inception_3a/relu_3x3
I1105 19:46:19.184164 21553 net.cpp:129] Top shape: 16 128 28 28 (1605632)
I1105 19:46:19.184168 21553 net.cpp:137] Memory required for data: 356450560
I1105 19:46:19.184175 21553 layer_factory.hpp:77] Creating layer inception_3a/5x5_reduce
I1105 19:46:19.184186 21553 net.cpp:84] Creating Layer inception_3a/5x5_reduce
I1105 19:46:19.184193 21553 net.cpp:406] inception_3a/5x5_reduce <- pool2/3x3_s2_pool2/3x3_s2_0_split_2
I1105 19:46:19.184201 21553 net.cpp:380] inception_3a/5x5_reduce -> inception_3a/5x5_reduce
I1105 19:46:19.184427 21553 net.cpp:122] Setting up inception_3a/5x5_reduce
I1105 19:46:19.184438 21553 net.cpp:129] Top shape: 16 16 28 28 (200704)
I1105 19:46:19.184444 21553 net.cpp:137] Memory required for data: 357253376
I1105 19:46:19.184453 21553 layer_factory.hpp:77] Creating layer inception_3a/relu_5x5_reduce
I1105 19:46:19.184460 21553 net.cpp:84] Creating Layer inception_3a/relu_5x5_reduce
I1105 19:46:19.184466 21553 net.cpp:406] inception_3a/relu_5x5_reduce <- inception_3a/5x5_reduce
I1105 19:46:19.184473 21553 net.cpp:367] inception_3a/relu_5x5_reduce -> inception_3a/5x5_reduce (in-place)
I1105 19:46:19.184481 21553 net.cpp:122] Setting up inception_3a/relu_5x5_reduce
I1105 19:46:19.184487 21553 net.cpp:129] Top shape: 16 16 28 28 (200704)
I1105 19:46:19.184494 21553 net.cpp:137] Memory required for data: 358056192
I1105 19:46:19.184499 21553 layer_factory.hpp:77] Creating layer inception_3a/5x5
I1105 19:46:19.184510 21553 net.cpp:84] Creating Layer inception_3a/5x5
I1105 19:46:19.184516 21553 net.cpp:406] inception_3a/5x5 <- inception_3a/5x5_reduce
I1105 19:46:19.184525 21553 net.cpp:380] inception_3a/5x5 -> inception_3a/5x5
I1105 19:46:19.184834 21553 net.cpp:122] Setting up inception_3a/5x5
I1105 19:46:19.184850 21553 net.cpp:129] Top shape: 16 32 28 28 (401408)
I1105 19:46:19.184856 21553 net.cpp:137] Memory required for data: 359661824
I1105 19:46:19.184864 21553 layer_factory.hpp:77] Creating layer inception_3a/relu_5x5
I1105 19:46:19.184873 21553 net.cpp:84] Creating Layer inception_3a/relu_5x5
I1105 19:46:19.184880 21553 net.cpp:406] inception_3a/relu_5x5 <- inception_3a/5x5
I1105 19:46:19.184888 21553 net.cpp:367] inception_3a/relu_5x5 -> inception_3a/5x5 (in-place)
I1105 19:46:19.184896 21553 net.cpp:122] Setting up inception_3a/relu_5x5
I1105 19:46:19.184913 21553 net.cpp:129] Top shape: 16 32 28 28 (401408)
I1105 19:46:19.184927 21553 net.cpp:137] Memory required for data: 361267456
I1105 19:46:19.184934 21553 layer_factory.hpp:77] Creating layer inception_3a/pool
I1105 19:46:19.184942 21553 net.cpp:84] Creating Layer inception_3a/pool
I1105 19:46:19.184949 21553 net.cpp:406] inception_3a/pool <- pool2/3x3_s2_pool2/3x3_s2_0_split_3
I1105 19:46:19.184957 21553 net.cpp:380] inception_3a/pool -> inception_3a/pool
I1105 19:46:19.184996 21553 net.cpp:122] Setting up inception_3a/pool
I1105 19:46:19.185008 21553 net.cpp:129] Top shape: 16 192 28 28 (2408448)
I1105 19:46:19.185012 21553 net.cpp:137] Memory required for data: 370901248
I1105 19:46:19.185017 21553 layer_factory.hpp:77] Creating layer inception_3a/pool_proj
I1105 19:46:19.185029 21553 net.cpp:84] Creating Layer inception_3a/pool_proj
I1105 19:46:19.185036 21553 net.cpp:406] inception_3a/pool_proj <- inception_3a/pool
I1105 19:46:19.185045 21553 net.cpp:380] inception_3a/pool_proj -> inception_3a/pool_proj
I1105 19:46:19.185277 21553 net.cpp:122] Setting up inception_3a/pool_proj
I1105 19:46:19.185289 21553 net.cpp:129] Top shape: 16 32 28 28 (401408)
I1105 19:46:19.185294 21553 net.cpp:137] Memory required for data: 372506880
I1105 19:46:19.185307 21553 layer_factory.hpp:77] Creating layer inception_3a/relu_pool_proj
I1105 19:46:19.185315 21553 net.cpp:84] Creating Layer inception_3a/relu_pool_proj
I1105 19:46:19.185322 21553 net.cpp:406] inception_3a/relu_pool_proj <- inception_3a/pool_proj
I1105 19:46:19.185328 21553 net.cpp:367] inception_3a/relu_pool_proj -> inception_3a/pool_proj (in-place)
I1105 19:46:19.185336 21553 net.cpp:122] Setting up inception_3a/relu_pool_proj
I1105 19:46:19.185343 21553 net.cpp:129] Top shape: 16 32 28 28 (401408)
I1105 19:46:19.185348 21553 net.cpp:137] Memory required for data: 374112512
I1105 19:46:19.185353 21553 layer_factory.hpp:77] Creating layer inception_3a/output
I1105 19:46:19.185360 21553 net.cpp:84] Creating Layer inception_3a/output
I1105 19:46:19.185366 21553 net.cpp:406] inception_3a/output <- inception_3a/1x1
I1105 19:46:19.185372 21553 net.cpp:406] inception_3a/output <- inception_3a/3x3
I1105 19:46:19.185379 21553 net.cpp:406] inception_3a/output <- inception_3a/5x5
I1105 19:46:19.185384 21553 net.cpp:406] inception_3a/output <- inception_3a/pool_proj
I1105 19:46:19.185394 21553 net.cpp:380] inception_3a/output -> inception_3a/output
I1105 19:46:19.185423 21553 net.cpp:122] Setting up inception_3a/output
I1105 19:46:19.185434 21553 net.cpp:129] Top shape: 16 256 28 28 (3211264)
I1105 19:46:19.185441 21553 net.cpp:137] Memory required for data: 386957568
I1105 19:46:19.185446 21553 layer_factory.hpp:77] Creating layer inception_3a/output_inception_3a/output_0_split
I1105 19:46:19.185453 21553 net.cpp:84] Creating Layer inception_3a/output_inception_3a/output_0_split
I1105 19:46:19.185459 21553 net.cpp:406] inception_3a/output_inception_3a/output_0_split <- inception_3a/output
I1105 19:46:19.185465 21553 net.cpp:380] inception_3a/output_inception_3a/output_0_split -> inception_3a/output_inception_3a/output_0_split_0
I1105 19:46:19.185474 21553 net.cpp:380] inception_3a/output_inception_3a/output_0_split -> inception_3a/output_inception_3a/output_0_split_1
I1105 19:46:19.185482 21553 net.cpp:380] inception_3a/output_inception_3a/output_0_split -> inception_3a/output_inception_3a/output_0_split_2
I1105 19:46:19.185492 21553 net.cpp:380] inception_3a/output_inception_3a/output_0_split -> inception_3a/output_inception_3a/output_0_split_3
I1105 19:46:19.185544 21553 net.cpp:122] Setting up inception_3a/output_inception_3a/output_0_split
I1105 19:46:19.185554 21553 net.cpp:129] Top shape: 16 256 28 28 (3211264)
I1105 19:46:19.185561 21553 net.cpp:129] Top shape: 16 256 28 28 (3211264)
I1105 19:46:19.185567 21553 net.cpp:129] Top shape: 16 256 28 28 (3211264)
I1105 19:46:19.185573 21553 net.cpp:129] Top shape: 16 256 28 28 (3211264)
I1105 19:46:19.185580 21553 net.cpp:137] Memory required for data: 438337792
I1105 19:46:19.185588 21553 layer_factory.hpp:77] Creating layer inception_3b/1x1
I1105 19:46:19.185603 21553 net.cpp:84] Creating Layer inception_3b/1x1
I1105 19:46:19.185616 21553 net.cpp:406] inception_3b/1x1 <- inception_3a/output_inception_3a/output_0_split_0
I1105 19:46:19.185627 21553 net.cpp:380] inception_3b/1x1 -> inception_3b/1x1
I1105 19:46:19.186038 21553 net.cpp:122] Setting up inception_3b/1x1
I1105 19:46:19.186050 21553 net.cpp:129] Top shape: 16 128 28 28 (1605632)
I1105 19:46:19.186055 21553 net.cpp:137] Memory required for data: 444760320
I1105 19:46:19.186064 21553 layer_factory.hpp:77] Creating layer inception_3b/relu_1x1
I1105 19:46:19.186072 21553 net.cpp:84] Creating Layer inception_3b/relu_1x1
I1105 19:46:19.186077 21553 net.cpp:406] inception_3b/relu_1x1 <- inception_3b/1x1
I1105 19:46:19.186084 21553 net.cpp:367] inception_3b/relu_1x1 -> inception_3b/1x1 (in-place)
I1105 19:46:19.186095 21553 net.cpp:122] Setting up inception_3b/relu_1x1
I1105 19:46:19.186102 21553 net.cpp:129] Top shape: 16 128 28 28 (1605632)
I1105 19:46:19.186107 21553 net.cpp:137] Memory required for data: 451182848
I1105 19:46:19.186112 21553 layer_factory.hpp:77] Creating layer inception_3b/3x3_reduce
I1105 19:46:19.186122 21553 net.cpp:84] Creating Layer inception_3b/3x3_reduce
I1105 19:46:19.186128 21553 net.cpp:406] inception_3b/3x3_reduce <- inception_3a/output_inception_3a/output_0_split_1
I1105 19:46:19.186138 21553 net.cpp:380] inception_3b/3x3_reduce -> inception_3b/3x3_reduce
I1105 19:46:19.186549 21553 net.cpp:122] Setting up inception_3b/3x3_reduce
I1105 19:46:19.186560 21553 net.cpp:129] Top shape: 16 128 28 28 (1605632)
I1105 19:46:19.186566 21553 net.cpp:137] Memory required for data: 457605376
I1105 19:46:19.186574 21553 layer_factory.hpp:77] Creating layer inception_3b/relu_3x3_reduce
I1105 19:46:19.186583 21553 net.cpp:84] Creating Layer inception_3b/relu_3x3_reduce
I1105 19:46:19.186589 21553 net.cpp:406] inception_3b/relu_3x3_reduce <- inception_3b/3x3_reduce
I1105 19:46:19.186595 21553 net.cpp:367] inception_3b/relu_3x3_reduce -> inception_3b/3x3_reduce (in-place)
I1105 19:46:19.186611 21553 net.cpp:122] Setting up inception_3b/relu_3x3_reduce
I1105 19:46:19.186630 21553 net.cpp:129] Top shape: 16 128 28 28 (1605632)
I1105 19:46:19.186635 21553 net.cpp:137] Memory required for data: 464027904
I1105 19:46:19.186640 21553 layer_factory.hpp:77] Creating layer inception_3b/3x3
I1105 19:46:19.186658 21553 net.cpp:84] Creating Layer inception_3b/3x3
I1105 19:46:19.186664 21553 net.cpp:406] inception_3b/3x3 <- inception_3b/3x3_reduce
I1105 19:46:19.186673 21553 net.cpp:380] inception_3b/3x3 -> inception_3b/3x3
I1105 19:46:19.188926 21553 net.cpp:122] Setting up inception_3b/3x3
I1105 19:46:19.188946 21553 net.cpp:129] Top shape: 16 192 28 28 (2408448)
I1105 19:46:19.188952 21553 net.cpp:137] Memory required for data: 473661696
I1105 19:46:19.188961 21553 layer_factory.hpp:77] Creating layer inception_3b/relu_3x3
I1105 19:46:19.188972 21553 net.cpp:84] Creating Layer inception_3b/relu_3x3
I1105 19:46:19.188979 21553 net.cpp:406] inception_3b/relu_3x3 <- inception_3b/3x3
I1105 19:46:19.188987 21553 net.cpp:367] inception_3b/relu_3x3 -> inception_3b/3x3 (in-place)
I1105 19:46:19.188997 21553 net.cpp:122] Setting up inception_3b/relu_3x3
I1105 19:46:19.189003 21553 net.cpp:129] Top shape: 16 192 28 28 (2408448)
I1105 19:46:19.189008 21553 net.cpp:137] Memory required for data: 483295488
I1105 19:46:19.189014 21553 layer_factory.hpp:77] Creating layer inception_3b/5x5_reduce
I1105 19:46:19.189026 21553 net.cpp:84] Creating Layer inception_3b/5x5_reduce
I1105 19:46:19.189033 21553 net.cpp:406] inception_3b/5x5_reduce <- inception_3a/output_inception_3a/output_0_split_2
I1105 19:46:19.189043 21553 net.cpp:380] inception_3b/5x5_reduce -> inception_3b/5x5_reduce
I1105 19:46:19.189299 21553 net.cpp:122] Setting up inception_3b/5x5_reduce
I1105 19:46:19.189311 21553 net.cpp:129] Top shape: 16 32 28 28 (401408)
I1105 19:46:19.189316 21553 net.cpp:137] Memory required for data: 484901120
I1105 19:46:19.189324 21553 layer_factory.hpp:77] Creating layer inception_3b/relu_5x5_reduce
I1105 19:46:19.189337 21553 net.cpp:84] Creating Layer inception_3b/relu_5x5_reduce
I1105 19:46:19.189352 21553 net.cpp:406] inception_3b/relu_5x5_reduce <- inception_3b/5x5_reduce
I1105 19:46:19.189360 21553 net.cpp:367] inception_3b/relu_5x5_reduce -> inception_3b/5x5_reduce (in-place)
I1105 19:46:19.189369 21553 net.cpp:122] Setting up inception_3b/relu_5x5_reduce
I1105 19:46:19.189376 21553 net.cpp:129] Top shape: 16 32 28 28 (401408)
I1105 19:46:19.189383 21553 net.cpp:137] Memory required for data: 486506752
I1105 19:46:19.189388 21553 layer_factory.hpp:77] Creating layer inception_3b/5x5
I1105 19:46:19.189399 21553 net.cpp:84] Creating Layer inception_3b/5x5
I1105 19:46:19.189405 21553 net.cpp:406] inception_3b/5x5 <- inception_3b/5x5_reduce
I1105 19:46:19.189414 21553 net.cpp:380] inception_3b/5x5 -> inception_3b/5x5
I1105 19:46:19.190624 21553 net.cpp:122] Setting up inception_3b/5x5
I1105 19:46:19.190644 21553 net.cpp:129] Top shape: 16 96 28 28 (1204224)
I1105 19:46:19.190649 21553 net.cpp:137] Memory required for data: 491323648
I1105 19:46:19.190659 21553 layer_factory.hpp:77] Creating layer inception_3b/relu_5x5
I1105 19:46:19.190667 21553 net.cpp:84] Creating Layer inception_3b/relu_5x5
I1105 19:46:19.190673 21553 net.cpp:406] inception_3b/relu_5x5 <- inception_3b/5x5
I1105 19:46:19.190683 21553 net.cpp:367] inception_3b/relu_5x5 -> inception_3b/5x5 (in-place)
I1105 19:46:19.190692 21553 net.cpp:122] Setting up inception_3b/relu_5x5
I1105 19:46:19.190699 21553 net.cpp:129] Top shape: 16 96 28 28 (1204224)
I1105 19:46:19.190706 21553 net.cpp:137] Memory required for data: 496140544
I1105 19:46:19.190711 21553 layer_factory.hpp:77] Creating layer inception_3b/pool
I1105 19:46:19.190718 21553 net.cpp:84] Creating Layer inception_3b/pool
I1105 19:46:19.190724 21553 net.cpp:406] inception_3b/pool <- inception_3a/output_inception_3a/output_0_split_3
I1105 19:46:19.190732 21553 net.cpp:380] inception_3b/pool -> inception_3b/pool
I1105 19:46:19.190775 21553 net.cpp:122] Setting up inception_3b/pool
I1105 19:46:19.190785 21553 net.cpp:129] Top shape: 16 256 28 28 (3211264)
I1105 19:46:19.190791 21553 net.cpp:137] Memory required for data: 508985600
I1105 19:46:19.190796 21553 layer_factory.hpp:77] Creating layer inception_3b/pool_proj
I1105 19:46:19.190809 21553 net.cpp:84] Creating Layer inception_3b/pool_proj
I1105 19:46:19.190815 21553 net.cpp:406] inception_3b/pool_proj <- inception_3b/pool
I1105 19:46:19.190825 21553 net.cpp:380] inception_3b/pool_proj -> inception_3b/pool_proj
I1105 19:46:19.191141 21553 net.cpp:122] Setting up inception_3b/pool_proj
I1105 19:46:19.191154 21553 net.cpp:129] Top shape: 16 64 28 28 (802816)
I1105 19:46:19.191159 21553 net.cpp:137] Memory required for data: 512196864
I1105 19:46:19.191167 21553 layer_factory.hpp:77] Creating layer inception_3b/relu_pool_proj
I1105 19:46:19.191175 21553 net.cpp:84] Creating Layer inception_3b/relu_pool_proj
I1105 19:46:19.191181 21553 net.cpp:406] inception_3b/relu_pool_proj <- inception_3b/pool_proj
I1105 19:46:19.191190 21553 net.cpp:367] inception_3b/relu_pool_proj -> inception_3b/pool_proj (in-place)
I1105 19:46:19.191198 21553 net.cpp:122] Setting up inception_3b/relu_pool_proj
I1105 19:46:19.191206 21553 net.cpp:129] Top shape: 16 64 28 28 (802816)
I1105 19:46:19.191211 21553 net.cpp:137] Memory required for data: 515408128
I1105 19:46:19.191216 21553 layer_factory.hpp:77] Creating layer inception_3b/output
I1105 19:46:19.191224 21553 net.cpp:84] Creating Layer inception_3b/output
I1105 19:46:19.191231 21553 net.cpp:406] inception_3b/output <- inception_3b/1x1
I1105 19:46:19.191236 21553 net.cpp:406] inception_3b/output <- inception_3b/3x3
I1105 19:46:19.191243 21553 net.cpp:406] inception_3b/output <- inception_3b/5x5
I1105 19:46:19.191249 21553 net.cpp:406] inception_3b/output <- inception_3b/pool_proj
I1105 19:46:19.191256 21553 net.cpp:380] inception_3b/output -> inception_3b/output
I1105 19:46:19.191283 21553 net.cpp:122] Setting up inception_3b/output
I1105 19:46:19.191293 21553 net.cpp:129] Top shape: 16 480 28 28 (6021120)
I1105 19:46:19.191303 21553 net.cpp:137] Memory required for data: 539492608
I1105 19:46:19.191315 21553 layer_factory.hpp:77] Creating layer pool3/3x3_s2
I1105 19:46:19.191324 21553 net.cpp:84] Creating Layer pool3/3x3_s2
I1105 19:46:19.191330 21553 net.cpp:406] pool3/3x3_s2 <- inception_3b/output
I1105 19:46:19.191340 21553 net.cpp:380] pool3/3x3_s2 -> pool3/3x3_s2
I1105 19:46:19.191376 21553 net.cpp:122] Setting up pool3/3x3_s2
I1105 19:46:19.191388 21553 net.cpp:129] Top shape: 16 480 14 14 (1505280)
I1105 19:46:19.191393 21553 net.cpp:137] Memory required for data: 545513728
I1105 19:46:19.191399 21553 layer_factory.hpp:77] Creating layer pool3/3x3_s2_pool3/3x3_s2_0_split
I1105 19:46:19.191407 21553 net.cpp:84] Creating Layer pool3/3x3_s2_pool3/3x3_s2_0_split
I1105 19:46:19.191413 21553 net.cpp:406] pool3/3x3_s2_pool3/3x3_s2_0_split <- pool3/3x3_s2
I1105 19:46:19.191421 21553 net.cpp:380] pool3/3x3_s2_pool3/3x3_s2_0_split -> pool3/3x3_s2_pool3/3x3_s2_0_split_0
I1105 19:46:19.191428 21553 net.cpp:380] pool3/3x3_s2_pool3/3x3_s2_0_split -> pool3/3x3_s2_pool3/3x3_s2_0_split_1
I1105 19:46:19.191437 21553 net.cpp:380] pool3/3x3_s2_pool3/3x3_s2_0_split -> pool3/3x3_s2_pool3/3x3_s2_0_split_2
I1105 19:46:19.191445 21553 net.cpp:380] pool3/3x3_s2_pool3/3x3_s2_0_split -> pool3/3x3_s2_pool3/3x3_s2_0_split_3
I1105 19:46:19.191498 21553 net.cpp:122] Setting up pool3/3x3_s2_pool3/3x3_s2_0_split
I1105 19:46:19.191507 21553 net.cpp:129] Top shape: 16 480 14 14 (1505280)
I1105 19:46:19.191514 21553 net.cpp:129] Top shape: 16 480 14 14 (1505280)
I1105 19:46:19.191520 21553 net.cpp:129] Top shape: 16 480 14 14 (1505280)
I1105 19:46:19.191526 21553 net.cpp:129] Top shape: 16 480 14 14 (1505280)
I1105 19:46:19.191531 21553 net.cpp:137] Memory required for data: 569598208
I1105 19:46:19.191536 21553 layer_factory.hpp:77] Creating layer inception_4a/1x1
I1105 19:46:19.191550 21553 net.cpp:84] Creating Layer inception_4a/1x1
I1105 19:46:19.191556 21553 net.cpp:406] inception_4a/1x1 <- pool3/3x3_s2_pool3/3x3_s2_0_split_0
I1105 19:46:19.191565 21553 net.cpp:380] inception_4a/1x1 -> inception_4a/1x1
I1105 19:46:19.192390 21553 net.cpp:122] Setting up inception_4a/1x1
I1105 19:46:19.192404 21553 net.cpp:129] Top shape: 16 192 14 14 (602112)
I1105 19:46:19.192410 21553 net.cpp:137] Memory required for data: 572006656
I1105 19:46:19.192418 21553 layer_factory.hpp:77] Creating layer inception_4a/relu_1x1
I1105 19:46:19.192426 21553 net.cpp:84] Creating Layer inception_4a/relu_1x1
I1105 19:46:19.192432 21553 net.cpp:406] inception_4a/relu_1x1 <- inception_4a/1x1
I1105 19:46:19.192450 21553 net.cpp:367] inception_4a/relu_1x1 -> inception_4a/1x1 (in-place)
I1105 19:46:19.192459 21553 net.cpp:122] Setting up inception_4a/relu_1x1
I1105 19:46:19.192466 21553 net.cpp:129] Top shape: 16 192 14 14 (602112)
I1105 19:46:19.192472 21553 net.cpp:137] Memory required for data: 574415104
I1105 19:46:19.192477 21553 layer_factory.hpp:77] Creating layer inception_4a/3x3_reduce
I1105 19:46:19.192488 21553 net.cpp:84] Creating Layer inception_4a/3x3_reduce
I1105 19:46:19.192494 21553 net.cpp:406] inception_4a/3x3_reduce <- pool3/3x3_s2_pool3/3x3_s2_0_split_1
I1105 19:46:19.192507 21553 net.cpp:380] inception_4a/3x3_reduce -> inception_4a/3x3_reduce
I1105 19:46:19.193051 21553 net.cpp:122] Setting up inception_4a/3x3_reduce
I1105 19:46:19.193066 21553 net.cpp:129] Top shape: 16 96 14 14 (301056)
I1105 19:46:19.193071 21553 net.cpp:137] Memory required for data: 575619328
I1105 19:46:19.193091 21553 layer_factory.hpp:77] Creating layer inception_4a/relu_3x3_reduce
I1105 19:46:19.193100 21553 net.cpp:84] Creating Layer inception_4a/relu_3x3_reduce
I1105 19:46:19.193106 21553 net.cpp:406] inception_4a/relu_3x3_reduce <- inception_4a/3x3_reduce
I1105 19:46:19.193114 21553 net.cpp:367] inception_4a/relu_3x3_reduce -> inception_4a/3x3_reduce (in-place)
I1105 19:46:19.193122 21553 net.cpp:122] Setting up inception_4a/relu_3x3_reduce
I1105 19:46:19.193130 21553 net.cpp:129] Top shape: 16 96 14 14 (301056)
I1105 19:46:19.193140 21553 net.cpp:137] Memory required for data: 576823552
I1105 19:46:19.193145 21553 layer_factory.hpp:77] Creating layer inception_4a/3x3
I1105 19:46:19.193163 21553 net.cpp:84] Creating Layer inception_4a/3x3
I1105 19:46:19.193171 21553 net.cpp:406] inception_4a/3x3 <- inception_4a/3x3_reduce
I1105 19:46:19.193178 21553 net.cpp:380] inception_4a/3x3 -> inception_4a/3x3
I1105 19:46:19.195088 21553 net.cpp:122] Setting up inception_4a/3x3
I1105 19:46:19.195107 21553 net.cpp:129] Top shape: 16 208 14 14 (652288)
I1105 19:46:19.195113 21553 net.cpp:137] Memory required for data: 579432704
I1105 19:46:19.195122 21553 layer_factory.hpp:77] Creating layer inception_4a/relu_3x3
I1105 19:46:19.195132 21553 net.cpp:84] Creating Layer inception_4a/relu_3x3
I1105 19:46:19.195138 21553 net.cpp:406] inception_4a/relu_3x3 <- inception_4a/3x3
I1105 19:46:19.195145 21553 net.cpp:367] inception_4a/relu_3x3 -> inception_4a/3x3 (in-place)
I1105 19:46:19.195154 21553 net.cpp:122] Setting up inception_4a/relu_3x3
I1105 19:46:19.195161 21553 net.cpp:129] Top shape: 16 208 14 14 (652288)
I1105 19:46:19.195168 21553 net.cpp:137] Memory required for data: 582041856
I1105 19:46:19.195173 21553 layer_factory.hpp:77] Creating layer inception_4a/5x5_reduce
I1105 19:46:19.195185 21553 net.cpp:84] Creating Layer inception_4a/5x5_reduce
I1105 19:46:19.195192 21553 net.cpp:406] inception_4a/5x5_reduce <- pool3/3x3_s2_pool3/3x3_s2_0_split_2
I1105 19:46:19.195202 21553 net.cpp:380] inception_4a/5x5_reduce -> inception_4a/5x5_reduce
I1105 19:46:19.195459 21553 net.cpp:122] Setting up inception_4a/5x5_reduce
I1105 19:46:19.195472 21553 net.cpp:129] Top shape: 16 16 14 14 (50176)
I1105 19:46:19.195477 21553 net.cpp:137] Memory required for data: 582242560
I1105 19:46:19.195485 21553 layer_factory.hpp:77] Creating layer inception_4a/relu_5x5_reduce
I1105 19:46:19.195493 21553 net.cpp:84] Creating Layer inception_4a/relu_5x5_reduce
I1105 19:46:19.195499 21553 net.cpp:406] inception_4a/relu_5x5_reduce <- inception_4a/5x5_reduce
I1105 19:46:19.195509 21553 net.cpp:367] inception_4a/relu_5x5_reduce -> inception_4a/5x5_reduce (in-place)
I1105 19:46:19.195518 21553 net.cpp:122] Setting up inception_4a/relu_5x5_reduce
I1105 19:46:19.195525 21553 net.cpp:129] Top shape: 16 16 14 14 (50176)
I1105 19:46:19.195530 21553 net.cpp:137] Memory required for data: 582443264
I1105 19:46:19.195535 21553 layer_factory.hpp:77] Creating layer inception_4a/5x5
I1105 19:46:19.195546 21553 net.cpp:84] Creating Layer inception_4a/5x5
I1105 19:46:19.195552 21553 net.cpp:406] inception_4a/5x5 <- inception_4a/5x5_reduce
I1105 19:46:19.195561 21553 net.cpp:380] inception_4a/5x5 -> inception_4a/5x5
I1105 19:46:19.195920 21553 net.cpp:122] Setting up inception_4a/5x5
I1105 19:46:19.195935 21553 net.cpp:129] Top shape: 16 48 14 14 (150528)
I1105 19:46:19.195941 21553 net.cpp:137] Memory required for data: 583045376
I1105 19:46:19.195950 21553 layer_factory.hpp:77] Creating layer inception_4a/relu_5x5
I1105 19:46:19.195960 21553 net.cpp:84] Creating Layer inception_4a/relu_5x5
I1105 19:46:19.195966 21553 net.cpp:406] inception_4a/relu_5x5 <- inception_4a/5x5
I1105 19:46:19.195973 21553 net.cpp:367] inception_4a/relu_5x5 -> inception_4a/5x5 (in-place)
I1105 19:46:19.195981 21553 net.cpp:122] Setting up inception_4a/relu_5x5
I1105 19:46:19.195988 21553 net.cpp:129] Top shape: 16 48 14 14 (150528)
I1105 19:46:19.195993 21553 net.cpp:137] Memory required for data: 583647488
I1105 19:46:19.195999 21553 layer_factory.hpp:77] Creating layer inception_4a/pool
I1105 19:46:19.196007 21553 net.cpp:84] Creating Layer inception_4a/pool
I1105 19:46:19.196014 21553 net.cpp:406] inception_4a/pool <- pool3/3x3_s2_pool3/3x3_s2_0_split_3
I1105 19:46:19.196022 21553 net.cpp:380] inception_4a/pool -> inception_4a/pool
I1105 19:46:19.196061 21553 net.cpp:122] Setting up inception_4a/pool
I1105 19:46:19.196074 21553 net.cpp:129] Top shape: 16 480 14 14 (1505280)
I1105 19:46:19.196079 21553 net.cpp:137] Memory required for data: 589668608
I1105 19:46:19.196084 21553 layer_factory.hpp:77] Creating layer inception_4a/pool_proj
I1105 19:46:19.196099 21553 net.cpp:84] Creating Layer inception_4a/pool_proj
I1105 19:46:19.196113 21553 net.cpp:406] inception_4a/pool_proj <- inception_4a/pool
I1105 19:46:19.196123 21553 net.cpp:380] inception_4a/pool_proj -> inception_4a/pool_proj
I1105 19:46:19.196530 21553 net.cpp:122] Setting up inception_4a/pool_proj
I1105 19:46:19.196542 21553 net.cpp:129] Top shape: 16 64 14 14 (200704)
I1105 19:46:19.196548 21553 net.cpp:137] Memory required for data: 590471424
I1105 19:46:19.196557 21553 layer_factory.hpp:77] Creating layer inception_4a/relu_pool_proj
I1105 19:46:19.196566 21553 net.cpp:84] Creating Layer inception_4a/relu_pool_proj
I1105 19:46:19.196573 21553 net.cpp:406] inception_4a/relu_pool_proj <- inception_4a/pool_proj
I1105 19:46:19.196580 21553 net.cpp:367] inception_4a/relu_pool_proj -> inception_4a/pool_proj (in-place)
I1105 19:46:19.196588 21553 net.cpp:122] Setting up inception_4a/relu_pool_proj
I1105 19:46:19.196595 21553 net.cpp:129] Top shape: 16 64 14 14 (200704)
I1105 19:46:19.196600 21553 net.cpp:137] Memory required for data: 591274240
I1105 19:46:19.196606 21553 layer_factory.hpp:77] Creating layer inception_4a/output
I1105 19:46:19.196614 21553 net.cpp:84] Creating Layer inception_4a/output
I1105 19:46:19.196620 21553 net.cpp:406] inception_4a/output <- inception_4a/1x1
I1105 19:46:19.196626 21553 net.cpp:406] inception_4a/output <- inception_4a/3x3
I1105 19:46:19.196633 21553 net.cpp:406] inception_4a/output <- inception_4a/5x5
I1105 19:46:19.196640 21553 net.cpp:406] inception_4a/output <- inception_4a/pool_proj
I1105 19:46:19.196647 21553 net.cpp:380] inception_4a/output -> inception_4a/output
I1105 19:46:19.196673 21553 net.cpp:122] Setting up inception_4a/output
I1105 19:46:19.196683 21553 net.cpp:129] Top shape: 16 512 14 14 (1605632)
I1105 19:46:19.196688 21553 net.cpp:137] Memory required for data: 597696768
I1105 19:46:19.196694 21553 layer_factory.hpp:77] Creating layer inception_4a/output_inception_4a/output_0_split
I1105 19:46:19.196703 21553 net.cpp:84] Creating Layer inception_4a/output_inception_4a/output_0_split
I1105 19:46:19.196710 21553 net.cpp:406] inception_4a/output_inception_4a/output_0_split <- inception_4a/output
I1105 19:46:19.196718 21553 net.cpp:380] inception_4a/output_inception_4a/output_0_split -> inception_4a/output_inception_4a/output_0_split_0
I1105 19:46:19.196727 21553 net.cpp:380] inception_4a/output_inception_4a/output_0_split -> inception_4a/output_inception_4a/output_0_split_1
I1105 19:46:19.196736 21553 net.cpp:380] inception_4a/output_inception_4a/output_0_split -> inception_4a/output_inception_4a/output_0_split_2
I1105 19:46:19.196745 21553 net.cpp:380] inception_4a/output_inception_4a/output_0_split -> inception_4a/output_inception_4a/output_0_split_3
I1105 19:46:19.196753 21553 net.cpp:380] inception_4a/output_inception_4a/output_0_split -> inception_4a/output_inception_4a/output_0_split_4
I1105 19:46:19.196828 21553 net.cpp:122] Setting up inception_4a/output_inception_4a/output_0_split
I1105 19:46:19.196841 21553 net.cpp:129] Top shape: 16 512 14 14 (1605632)
I1105 19:46:19.196847 21553 net.cpp:129] Top shape: 16 512 14 14 (1605632)
I1105 19:46:19.196854 21553 net.cpp:129] Top shape: 16 512 14 14 (1605632)
I1105 19:46:19.196861 21553 net.cpp:129] Top shape: 16 512 14 14 (1605632)
I1105 19:46:19.196866 21553 net.cpp:129] Top shape: 16 512 14 14 (1605632)
I1105 19:46:19.196871 21553 net.cpp:137] Memory required for data: 629809408
I1105 19:46:19.196877 21553 layer_factory.hpp:77] Creating layer loss1/ave_pool
I1105 19:46:19.196885 21553 net.cpp:84] Creating Layer loss1/ave_pool
I1105 19:46:19.196892 21553 net.cpp:406] loss1/ave_pool <- inception_4a/output_inception_4a/output_0_split_0
I1105 19:46:19.196902 21553 net.cpp:380] loss1/ave_pool -> loss1/ave_pool
I1105 19:46:19.196928 21553 net.cpp:122] Setting up loss1/ave_pool
I1105 19:46:19.196938 21553 net.cpp:129] Top shape: 16 512 4 4 (131072)
I1105 19:46:19.196943 21553 net.cpp:137] Memory required for data: 630333696
I1105 19:46:19.196949 21553 layer_factory.hpp:77] Creating layer loss1/conv
I1105 19:46:19.196965 21553 net.cpp:84] Creating Layer loss1/conv
I1105 19:46:19.196972 21553 net.cpp:406] loss1/conv <- loss1/ave_pool
I1105 19:46:19.196991 21553 net.cpp:380] loss1/conv -> loss1/conv
I1105 19:46:19.197650 21553 net.cpp:122] Setting up loss1/conv
I1105 19:46:19.197665 21553 net.cpp:129] Top shape: 16 128 4 4 (32768)
I1105 19:46:19.197671 21553 net.cpp:137] Memory required for data: 630464768
I1105 19:46:19.197680 21553 layer_factory.hpp:77] Creating layer loss1/relu_conv
I1105 19:46:19.197693 21553 net.cpp:84] Creating Layer loss1/relu_conv
I1105 19:46:19.197700 21553 net.cpp:406] loss1/relu_conv <- loss1/conv
I1105 19:46:19.197708 21553 net.cpp:367] loss1/relu_conv -> loss1/conv (in-place)
I1105 19:46:19.197716 21553 net.cpp:122] Setting up loss1/relu_conv
I1105 19:46:19.197724 21553 net.cpp:129] Top shape: 16 128 4 4 (32768)
I1105 19:46:19.197729 21553 net.cpp:137] Memory required for data: 630595840
I1105 19:46:19.197736 21553 layer_factory.hpp:77] Creating layer loss1/fc
I1105 19:46:19.197749 21553 net.cpp:84] Creating Layer loss1/fc
I1105 19:46:19.197757 21553 net.cpp:406] loss1/fc <- loss1/conv
I1105 19:46:19.197764 21553 net.cpp:380] loss1/fc -> loss1/fc
I1105 19:46:19.214601 21553 net.cpp:122] Setting up loss1/fc
I1105 19:46:19.214622 21553 net.cpp:129] Top shape: 16 1024 (16384)
I1105 19:46:19.214628 21553 net.cpp:137] Memory required for data: 630661376
I1105 19:46:19.214637 21553 layer_factory.hpp:77] Creating layer loss1/relu_fc
I1105 19:46:19.214646 21553 net.cpp:84] Creating Layer loss1/relu_fc
I1105 19:46:19.214653 21553 net.cpp:406] loss1/relu_fc <- loss1/fc
I1105 19:46:19.214663 21553 net.cpp:367] loss1/relu_fc -> loss1/fc (in-place)
I1105 19:46:19.214673 21553 net.cpp:122] Setting up loss1/relu_fc
I1105 19:46:19.214679 21553 net.cpp:129] Top shape: 16 1024 (16384)
I1105 19:46:19.214685 21553 net.cpp:137] Memory required for data: 630726912
I1105 19:46:19.214690 21553 layer_factory.hpp:77] Creating layer loss1/drop_fc
I1105 19:46:19.214704 21553 net.cpp:84] Creating Layer loss1/drop_fc
I1105 19:46:19.214711 21553 net.cpp:406] loss1/drop_fc <- loss1/fc
I1105 19:46:19.214718 21553 net.cpp:367] loss1/drop_fc -> loss1/fc (in-place)
I1105 19:46:19.214751 21553 net.cpp:122] Setting up loss1/drop_fc
I1105 19:46:19.214761 21553 net.cpp:129] Top shape: 16 1024 (16384)
I1105 19:46:19.214766 21553 net.cpp:137] Memory required for data: 630792448
I1105 19:46:19.214771 21553 layer_factory.hpp:77] Creating layer loss1/classifier
I1105 19:46:19.214781 21553 net.cpp:84] Creating Layer loss1/classifier
I1105 19:46:19.214787 21553 net.cpp:406] loss1/classifier <- loss1/fc
I1105 19:46:19.214795 21553 net.cpp:380] loss1/classifier -> loss1/classifier
I1105 19:46:19.223188 21553 net.cpp:122] Setting up loss1/classifier
I1105 19:46:19.223208 21553 net.cpp:129] Top shape: 16 1000 (16000)
I1105 19:46:19.223214 21553 net.cpp:137] Memory required for data: 630856448
I1105 19:46:19.223223 21553 layer_factory.hpp:77] Creating layer loss1/loss
I1105 19:46:19.223235 21553 net.cpp:84] Creating Layer loss1/loss
I1105 19:46:19.223242 21553 net.cpp:406] loss1/loss <- loss1/classifier
I1105 19:46:19.223250 21553 net.cpp:406] loss1/loss <- label_data_1_split_0
I1105 19:46:19.223258 21553 net.cpp:380] loss1/loss -> loss1/loss1
I1105 19:46:19.223275 21553 layer_factory.hpp:77] Creating layer loss1/loss
I1105 19:46:19.223379 21553 net.cpp:122] Setting up loss1/loss
I1105 19:46:19.223390 21553 net.cpp:129] Top shape: (1)
I1105 19:46:19.223397 21553 net.cpp:132]     with loss weight 0.3
I1105 19:46:19.223418 21553 net.cpp:137] Memory required for data: 630856452
I1105 19:46:19.223424 21553 layer_factory.hpp:77] Creating layer inception_4b/1x1
I1105 19:46:19.223435 21553 net.cpp:84] Creating Layer inception_4b/1x1
I1105 19:46:19.223443 21553 net.cpp:406] inception_4b/1x1 <- inception_4a/output_inception_4a/output_0_split_1
I1105 19:46:19.223453 21553 net.cpp:380] inception_4b/1x1 -> inception_4b/1x1
I1105 19:46:19.224231 21553 net.cpp:122] Setting up inception_4b/1x1
I1105 19:46:19.224246 21553 net.cpp:129] Top shape: 16 160 14 14 (501760)
I1105 19:46:19.224256 21553 net.cpp:137] Memory required for data: 632863492
I1105 19:46:19.224272 21553 layer_factory.hpp:77] Creating layer inception_4b/relu_1x1
I1105 19:46:19.224282 21553 net.cpp:84] Creating Layer inception_4b/relu_1x1
I1105 19:46:19.224288 21553 net.cpp:406] inception_4b/relu_1x1 <- inception_4b/1x1
I1105 19:46:19.224298 21553 net.cpp:367] inception_4b/relu_1x1 -> inception_4b/1x1 (in-place)
I1105 19:46:19.224308 21553 net.cpp:122] Setting up inception_4b/relu_1x1
I1105 19:46:19.224314 21553 net.cpp:129] Top shape: 16 160 14 14 (501760)
I1105 19:46:19.224319 21553 net.cpp:137] Memory required for data: 634870532
I1105 19:46:19.224325 21553 layer_factory.hpp:77] Creating layer inception_4b/3x3_reduce
I1105 19:46:19.224336 21553 net.cpp:84] Creating Layer inception_4b/3x3_reduce
I1105 19:46:19.224344 21553 net.cpp:406] inception_4b/3x3_reduce <- inception_4a/output_inception_4a/output_0_split_2
I1105 19:46:19.224351 21553 net.cpp:380] inception_4b/3x3_reduce -> inception_4b/3x3_reduce
I1105 19:46:19.225448 21553 net.cpp:122] Setting up inception_4b/3x3_reduce
I1105 19:46:19.225468 21553 net.cpp:129] Top shape: 16 112 14 14 (351232)
I1105 19:46:19.225474 21553 net.cpp:137] Memory required for data: 636275460
I1105 19:46:19.225483 21553 layer_factory.hpp:77] Creating layer inception_4b/relu_3x3_reduce
I1105 19:46:19.225492 21553 net.cpp:84] Creating Layer inception_4b/relu_3x3_reduce
I1105 19:46:19.225499 21553 net.cpp:406] inception_4b/relu_3x3_reduce <- inception_4b/3x3_reduce
I1105 19:46:19.225509 21553 net.cpp:367] inception_4b/relu_3x3_reduce -> inception_4b/3x3_reduce (in-place)
I1105 19:46:19.225518 21553 net.cpp:122] Setting up inception_4b/relu_3x3_reduce
I1105 19:46:19.225527 21553 net.cpp:129] Top shape: 16 112 14 14 (351232)
I1105 19:46:19.225531 21553 net.cpp:137] Memory required for data: 637680388
I1105 19:46:19.225536 21553 layer_factory.hpp:77] Creating layer inception_4b/3x3
I1105 19:46:19.225548 21553 net.cpp:84] Creating Layer inception_4b/3x3
I1105 19:46:19.225553 21553 net.cpp:406] inception_4b/3x3 <- inception_4b/3x3_reduce
I1105 19:46:19.225564 21553 net.cpp:380] inception_4b/3x3 -> inception_4b/3x3
I1105 19:46:19.227771 21553 net.cpp:122] Setting up inception_4b/3x3
I1105 19:46:19.227789 21553 net.cpp:129] Top shape: 16 224 14 14 (702464)
I1105 19:46:19.227795 21553 net.cpp:137] Memory required for data: 640490244
I1105 19:46:19.227804 21553 layer_factory.hpp:77] Creating layer inception_4b/relu_3x3
I1105 19:46:19.227815 21553 net.cpp:84] Creating Layer inception_4b/relu_3x3
I1105 19:46:19.227823 21553 net.cpp:406] inception_4b/relu_3x3 <- inception_4b/3x3
I1105 19:46:19.227830 21553 net.cpp:367] inception_4b/relu_3x3 -> inception_4b/3x3 (in-place)
I1105 19:46:19.227839 21553 net.cpp:122] Setting up inception_4b/relu_3x3
I1105 19:46:19.227846 21553 net.cpp:129] Top shape: 16 224 14 14 (702464)
I1105 19:46:19.227851 21553 net.cpp:137] Memory required for data: 643300100
I1105 19:46:19.227857 21553 layer_factory.hpp:77] Creating layer inception_4b/5x5_reduce
I1105 19:46:19.227869 21553 net.cpp:84] Creating Layer inception_4b/5x5_reduce
I1105 19:46:19.227876 21553 net.cpp:406] inception_4b/5x5_reduce <- inception_4a/output_inception_4a/output_0_split_3
I1105 19:46:19.227885 21553 net.cpp:380] inception_4b/5x5_reduce -> inception_4b/5x5_reduce
I1105 19:46:19.228199 21553 net.cpp:122] Setting up inception_4b/5x5_reduce
I1105 19:46:19.228212 21553 net.cpp:129] Top shape: 16 24 14 14 (75264)
I1105 19:46:19.228219 21553 net.cpp:137] Memory required for data: 643601156
I1105 19:46:19.228226 21553 layer_factory.hpp:77] Creating layer inception_4b/relu_5x5_reduce
I1105 19:46:19.228236 21553 net.cpp:84] Creating Layer inception_4b/relu_5x5_reduce
I1105 19:46:19.228243 21553 net.cpp:406] inception_4b/relu_5x5_reduce <- inception_4b/5x5_reduce
I1105 19:46:19.228250 21553 net.cpp:367] inception_4b/relu_5x5_reduce -> inception_4b/5x5_reduce (in-place)
I1105 19:46:19.228258 21553 net.cpp:122] Setting up inception_4b/relu_5x5_reduce
I1105 19:46:19.228266 21553 net.cpp:129] Top shape: 16 24 14 14 (75264)
I1105 19:46:19.228276 21553 net.cpp:137] Memory required for data: 643902212
I1105 19:46:19.228288 21553 layer_factory.hpp:77] Creating layer inception_4b/5x5
I1105 19:46:19.228302 21553 net.cpp:84] Creating Layer inception_4b/5x5
I1105 19:46:19.228308 21553 net.cpp:406] inception_4b/5x5 <- inception_4b/5x5_reduce
I1105 19:46:19.228317 21553 net.cpp:380] inception_4b/5x5 -> inception_4b/5x5
I1105 19:46:19.228801 21553 net.cpp:122] Setting up inception_4b/5x5
I1105 19:46:19.228816 21553 net.cpp:129] Top shape: 16 64 14 14 (200704)
I1105 19:46:19.228821 21553 net.cpp:137] Memory required for data: 644705028
I1105 19:46:19.228829 21553 layer_factory.hpp:77] Creating layer inception_4b/relu_5x5
I1105 19:46:19.228837 21553 net.cpp:84] Creating Layer inception_4b/relu_5x5
I1105 19:46:19.228843 21553 net.cpp:406] inception_4b/relu_5x5 <- inception_4b/5x5
I1105 19:46:19.228852 21553 net.cpp:367] inception_4b/relu_5x5 -> inception_4b/5x5 (in-place)
I1105 19:46:19.228862 21553 net.cpp:122] Setting up inception_4b/relu_5x5
I1105 19:46:19.228868 21553 net.cpp:129] Top shape: 16 64 14 14 (200704)
I1105 19:46:19.228873 21553 net.cpp:137] Memory required for data: 645507844
I1105 19:46:19.228879 21553 layer_factory.hpp:77] Creating layer inception_4b/pool
I1105 19:46:19.228886 21553 net.cpp:84] Creating Layer inception_4b/pool
I1105 19:46:19.228893 21553 net.cpp:406] inception_4b/pool <- inception_4a/output_inception_4a/output_0_split_4
I1105 19:46:19.228900 21553 net.cpp:380] inception_4b/pool -> inception_4b/pool
I1105 19:46:19.228953 21553 net.cpp:122] Setting up inception_4b/pool
I1105 19:46:19.228965 21553 net.cpp:129] Top shape: 16 512 14 14 (1605632)
I1105 19:46:19.228971 21553 net.cpp:137] Memory required for data: 651930372
I1105 19:46:19.228976 21553 layer_factory.hpp:77] Creating layer inception_4b/pool_proj
I1105 19:46:19.228987 21553 net.cpp:84] Creating Layer inception_4b/pool_proj
I1105 19:46:19.228994 21553 net.cpp:406] inception_4b/pool_proj <- inception_4b/pool
I1105 19:46:19.229004 21553 net.cpp:380] inception_4b/pool_proj -> inception_4b/pool_proj
I1105 19:46:19.229420 21553 net.cpp:122] Setting up inception_4b/pool_proj
I1105 19:46:19.229432 21553 net.cpp:129] Top shape: 16 64 14 14 (200704)
I1105 19:46:19.229439 21553 net.cpp:137] Memory required for data: 652733188
I1105 19:46:19.229446 21553 layer_factory.hpp:77] Creating layer inception_4b/relu_pool_proj
I1105 19:46:19.229454 21553 net.cpp:84] Creating Layer inception_4b/relu_pool_proj
I1105 19:46:19.229460 21553 net.cpp:406] inception_4b/relu_pool_proj <- inception_4b/pool_proj
I1105 19:46:19.229468 21553 net.cpp:367] inception_4b/relu_pool_proj -> inception_4b/pool_proj (in-place)
I1105 19:46:19.229477 21553 net.cpp:122] Setting up inception_4b/relu_pool_proj
I1105 19:46:19.229483 21553 net.cpp:129] Top shape: 16 64 14 14 (200704)
I1105 19:46:19.229490 21553 net.cpp:137] Memory required for data: 653536004
I1105 19:46:19.229495 21553 layer_factory.hpp:77] Creating layer inception_4b/output
I1105 19:46:19.229502 21553 net.cpp:84] Creating Layer inception_4b/output
I1105 19:46:19.229508 21553 net.cpp:406] inception_4b/output <- inception_4b/1x1
I1105 19:46:19.229514 21553 net.cpp:406] inception_4b/output <- inception_4b/3x3
I1105 19:46:19.229521 21553 net.cpp:406] inception_4b/output <- inception_4b/5x5
I1105 19:46:19.229527 21553 net.cpp:406] inception_4b/output <- inception_4b/pool_proj
I1105 19:46:19.229534 21553 net.cpp:380] inception_4b/output -> inception_4b/output
I1105 19:46:19.229562 21553 net.cpp:122] Setting up inception_4b/output
I1105 19:46:19.229571 21553 net.cpp:129] Top shape: 16 512 14 14 (1605632)
I1105 19:46:19.229578 21553 net.cpp:137] Memory required for data: 659958532
I1105 19:46:19.229583 21553 layer_factory.hpp:77] Creating layer inception_4b/output_inception_4b/output_0_split
I1105 19:46:19.229591 21553 net.cpp:84] Creating Layer inception_4b/output_inception_4b/output_0_split
I1105 19:46:19.229598 21553 net.cpp:406] inception_4b/output_inception_4b/output_0_split <- inception_4b/output
I1105 19:46:19.229611 21553 net.cpp:380] inception_4b/output_inception_4b/output_0_split -> inception_4b/output_inception_4b/output_0_split_0
I1105 19:46:19.229629 21553 net.cpp:380] inception_4b/output_inception_4b/output_0_split -> inception_4b/output_inception_4b/output_0_split_1
I1105 19:46:19.229637 21553 net.cpp:380] inception_4b/output_inception_4b/output_0_split -> inception_4b/output_inception_4b/output_0_split_2
I1105 19:46:19.229645 21553 net.cpp:380] inception_4b/output_inception_4b/output_0_split -> inception_4b/output_inception_4b/output_0_split_3
I1105 19:46:19.229701 21553 net.cpp:122] Setting up inception_4b/output_inception_4b/output_0_split
I1105 19:46:19.229712 21553 net.cpp:129] Top shape: 16 512 14 14 (1605632)
I1105 19:46:19.229719 21553 net.cpp:129] Top shape: 16 512 14 14 (1605632)
I1105 19:46:19.229725 21553 net.cpp:129] Top shape: 16 512 14 14 (1605632)
I1105 19:46:19.229732 21553 net.cpp:129] Top shape: 16 512 14 14 (1605632)
I1105 19:46:19.229737 21553 net.cpp:137] Memory required for data: 685648644
I1105 19:46:19.229743 21553 layer_factory.hpp:77] Creating layer inception_4c/1x1
I1105 19:46:19.229753 21553 net.cpp:84] Creating Layer inception_4c/1x1
I1105 19:46:19.229759 21553 net.cpp:406] inception_4c/1x1 <- inception_4b/output_inception_4b/output_0_split_0
I1105 19:46:19.229777 21553 net.cpp:380] inception_4c/1x1 -> inception_4c/1x1
I1105 19:46:19.230432 21553 net.cpp:122] Setting up inception_4c/1x1
I1105 19:46:19.230443 21553 net.cpp:129] Top shape: 16 128 14 14 (401408)
I1105 19:46:19.230449 21553 net.cpp:137] Memory required for data: 687254276
I1105 19:46:19.230458 21553 layer_factory.hpp:77] Creating layer inception_4c/relu_1x1
I1105 19:46:19.230465 21553 net.cpp:84] Creating Layer inception_4c/relu_1x1
I1105 19:46:19.230471 21553 net.cpp:406] inception_4c/relu_1x1 <- inception_4c/1x1
I1105 19:46:19.230480 21553 net.cpp:367] inception_4c/relu_1x1 -> inception_4c/1x1 (in-place)
I1105 19:46:19.230489 21553 net.cpp:122] Setting up inception_4c/relu_1x1
I1105 19:46:19.230495 21553 net.cpp:129] Top shape: 16 128 14 14 (401408)
I1105 19:46:19.230501 21553 net.cpp:137] Memory required for data: 688859908
I1105 19:46:19.230506 21553 layer_factory.hpp:77] Creating layer inception_4c/3x3_reduce
I1105 19:46:19.230517 21553 net.cpp:84] Creating Layer inception_4c/3x3_reduce
I1105 19:46:19.230525 21553 net.cpp:406] inception_4c/3x3_reduce <- inception_4b/output_inception_4b/output_0_split_1
I1105 19:46:19.230532 21553 net.cpp:380] inception_4c/3x3_reduce -> inception_4c/3x3_reduce
I1105 19:46:19.231179 21553 net.cpp:122] Setting up inception_4c/3x3_reduce
I1105 19:46:19.231192 21553 net.cpp:129] Top shape: 16 128 14 14 (401408)
I1105 19:46:19.231197 21553 net.cpp:137] Memory required for data: 690465540
I1105 19:46:19.231206 21553 layer_factory.hpp:77] Creating layer inception_4c/relu_3x3_reduce
I1105 19:46:19.231214 21553 net.cpp:84] Creating Layer inception_4c/relu_3x3_reduce
I1105 19:46:19.231221 21553 net.cpp:406] inception_4c/relu_3x3_reduce <- inception_4c/3x3_reduce
I1105 19:46:19.231228 21553 net.cpp:367] inception_4c/relu_3x3_reduce -> inception_4c/3x3_reduce (in-place)
I1105 19:46:19.231237 21553 net.cpp:122] Setting up inception_4c/relu_3x3_reduce
I1105 19:46:19.231245 21553 net.cpp:129] Top shape: 16 128 14 14 (401408)
I1105 19:46:19.231250 21553 net.cpp:137] Memory required for data: 692071172
I1105 19:46:19.231254 21553 layer_factory.hpp:77] Creating layer inception_4c/3x3
I1105 19:46:19.231266 21553 net.cpp:84] Creating Layer inception_4c/3x3
I1105 19:46:19.231272 21553 net.cpp:406] inception_4c/3x3 <- inception_4c/3x3_reduce
I1105 19:46:19.231281 21553 net.cpp:380] inception_4c/3x3 -> inception_4c/3x3
I1105 19:46:19.234025 21553 net.cpp:122] Setting up inception_4c/3x3
I1105 19:46:19.234045 21553 net.cpp:129] Top shape: 16 256 14 14 (802816)
I1105 19:46:19.234050 21553 net.cpp:137] Memory required for data: 695282436
I1105 19:46:19.234071 21553 layer_factory.hpp:77] Creating layer inception_4c/relu_3x3
I1105 19:46:19.234084 21553 net.cpp:84] Creating Layer inception_4c/relu_3x3
I1105 19:46:19.234097 21553 net.cpp:406] inception_4c/relu_3x3 <- inception_4c/3x3
I1105 19:46:19.234105 21553 net.cpp:367] inception_4c/relu_3x3 -> inception_4c/3x3 (in-place)
I1105 19:46:19.234123 21553 net.cpp:122] Setting up inception_4c/relu_3x3
I1105 19:46:19.234131 21553 net.cpp:129] Top shape: 16 256 14 14 (802816)
I1105 19:46:19.234136 21553 net.cpp:137] Memory required for data: 698493700
I1105 19:46:19.234143 21553 layer_factory.hpp:77] Creating layer inception_4c/5x5_reduce
I1105 19:46:19.234153 21553 net.cpp:84] Creating Layer inception_4c/5x5_reduce
I1105 19:46:19.234159 21553 net.cpp:406] inception_4c/5x5_reduce <- inception_4b/output_inception_4b/output_0_split_2
I1105 19:46:19.234169 21553 net.cpp:380] inception_4c/5x5_reduce -> inception_4c/5x5_reduce
I1105 19:46:19.234468 21553 net.cpp:122] Setting up inception_4c/5x5_reduce
I1105 19:46:19.234480 21553 net.cpp:129] Top shape: 16 24 14 14 (75264)
I1105 19:46:19.234486 21553 net.cpp:137] Memory required for data: 698794756
I1105 19:46:19.234494 21553 layer_factory.hpp:77] Creating layer inception_4c/relu_5x5_reduce
I1105 19:46:19.234503 21553 net.cpp:84] Creating Layer inception_4c/relu_5x5_reduce
I1105 19:46:19.234510 21553 net.cpp:406] inception_4c/relu_5x5_reduce <- inception_4c/5x5_reduce
I1105 19:46:19.234517 21553 net.cpp:367] inception_4c/relu_5x5_reduce -> inception_4c/5x5_reduce (in-place)
I1105 19:46:19.234526 21553 net.cpp:122] Setting up inception_4c/relu_5x5_reduce
I1105 19:46:19.234532 21553 net.cpp:129] Top shape: 16 24 14 14 (75264)
I1105 19:46:19.234539 21553 net.cpp:137] Memory required for data: 699095812
I1105 19:46:19.234544 21553 layer_factory.hpp:77] Creating layer inception_4c/5x5
I1105 19:46:19.234555 21553 net.cpp:84] Creating Layer inception_4c/5x5
I1105 19:46:19.234561 21553 net.cpp:406] inception_4c/5x5 <- inception_4c/5x5_reduce
I1105 19:46:19.234570 21553 net.cpp:380] inception_4c/5x5 -> inception_4c/5x5
I1105 19:46:19.235539 21553 net.cpp:122] Setting up inception_4c/5x5
I1105 19:46:19.235558 21553 net.cpp:129] Top shape: 16 64 14 14 (200704)
I1105 19:46:19.235564 21553 net.cpp:137] Memory required for data: 699898628
I1105 19:46:19.235574 21553 layer_factory.hpp:77] Creating layer inception_4c/relu_5x5
I1105 19:46:19.235584 21553 net.cpp:84] Creating Layer inception_4c/relu_5x5
I1105 19:46:19.235592 21553 net.cpp:406] inception_4c/relu_5x5 <- inception_4c/5x5
I1105 19:46:19.235599 21553 net.cpp:367] inception_4c/relu_5x5 -> inception_4c/5x5 (in-place)
I1105 19:46:19.235608 21553 net.cpp:122] Setting up inception_4c/relu_5x5
I1105 19:46:19.235615 21553 net.cpp:129] Top shape: 16 64 14 14 (200704)
I1105 19:46:19.235621 21553 net.cpp:137] Memory required for data: 700701444
I1105 19:46:19.235626 21553 layer_factory.hpp:77] Creating layer inception_4c/pool
I1105 19:46:19.235636 21553 net.cpp:84] Creating Layer inception_4c/pool
I1105 19:46:19.235642 21553 net.cpp:406] inception_4c/pool <- inception_4b/output_inception_4b/output_0_split_3
I1105 19:46:19.235651 21553 net.cpp:380] inception_4c/pool -> inception_4c/pool
I1105 19:46:19.235693 21553 net.cpp:122] Setting up inception_4c/pool
I1105 19:46:19.235703 21553 net.cpp:129] Top shape: 16 512 14 14 (1605632)
I1105 19:46:19.235708 21553 net.cpp:137] Memory required for data: 707123972
I1105 19:46:19.235714 21553 layer_factory.hpp:77] Creating layer inception_4c/pool_proj
I1105 19:46:19.235726 21553 net.cpp:84] Creating Layer inception_4c/pool_proj
I1105 19:46:19.235733 21553 net.cpp:406] inception_4c/pool_proj <- inception_4c/pool
I1105 19:46:19.235741 21553 net.cpp:380] inception_4c/pool_proj -> inception_4c/pool_proj
I1105 19:46:19.236183 21553 net.cpp:122] Setting up inception_4c/pool_proj
I1105 19:46:19.236197 21553 net.cpp:129] Top shape: 16 64 14 14 (200704)
I1105 19:46:19.236203 21553 net.cpp:137] Memory required for data: 707926788
I1105 19:46:19.236212 21553 layer_factory.hpp:77] Creating layer inception_4c/relu_pool_proj
I1105 19:46:19.236223 21553 net.cpp:84] Creating Layer inception_4c/relu_pool_proj
I1105 19:46:19.236230 21553 net.cpp:406] inception_4c/relu_pool_proj <- inception_4c/pool_proj
I1105 19:46:19.236246 21553 net.cpp:367] inception_4c/relu_pool_proj -> inception_4c/pool_proj (in-place)
I1105 19:46:19.236263 21553 net.cpp:122] Setting up inception_4c/relu_pool_proj
I1105 19:46:19.236271 21553 net.cpp:129] Top shape: 16 64 14 14 (200704)
I1105 19:46:19.236276 21553 net.cpp:137] Memory required for data: 708729604
I1105 19:46:19.236282 21553 layer_factory.hpp:77] Creating layer inception_4c/output
I1105 19:46:19.236290 21553 net.cpp:84] Creating Layer inception_4c/output
I1105 19:46:19.236299 21553 net.cpp:406] inception_4c/output <- inception_4c/1x1
I1105 19:46:19.236305 21553 net.cpp:406] inception_4c/output <- inception_4c/3x3
I1105 19:46:19.236312 21553 net.cpp:406] inception_4c/output <- inception_4c/5x5
I1105 19:46:19.236318 21553 net.cpp:406] inception_4c/output <- inception_4c/pool_proj
I1105 19:46:19.236325 21553 net.cpp:380] inception_4c/output -> inception_4c/output
I1105 19:46:19.236353 21553 net.cpp:122] Setting up inception_4c/output
I1105 19:46:19.236363 21553 net.cpp:129] Top shape: 16 512 14 14 (1605632)
I1105 19:46:19.236368 21553 net.cpp:137] Memory required for data: 715152132
I1105 19:46:19.236374 21553 layer_factory.hpp:77] Creating layer inception_4c/output_inception_4c/output_0_split
I1105 19:46:19.236384 21553 net.cpp:84] Creating Layer inception_4c/output_inception_4c/output_0_split
I1105 19:46:19.236390 21553 net.cpp:406] inception_4c/output_inception_4c/output_0_split <- inception_4c/output
I1105 19:46:19.236398 21553 net.cpp:380] inception_4c/output_inception_4c/output_0_split -> inception_4c/output_inception_4c/output_0_split_0
I1105 19:46:19.236407 21553 net.cpp:380] inception_4c/output_inception_4c/output_0_split -> inception_4c/output_inception_4c/output_0_split_1
I1105 19:46:19.236416 21553 net.cpp:380] inception_4c/output_inception_4c/output_0_split -> inception_4c/output_inception_4c/output_0_split_2
I1105 19:46:19.236425 21553 net.cpp:380] inception_4c/output_inception_4c/output_0_split -> inception_4c/output_inception_4c/output_0_split_3
I1105 19:46:19.236481 21553 net.cpp:122] Setting up inception_4c/output_inception_4c/output_0_split
I1105 19:46:19.236491 21553 net.cpp:129] Top shape: 16 512 14 14 (1605632)
I1105 19:46:19.236498 21553 net.cpp:129] Top shape: 16 512 14 14 (1605632)
I1105 19:46:19.236505 21553 net.cpp:129] Top shape: 16 512 14 14 (1605632)
I1105 19:46:19.236510 21553 net.cpp:129] Top shape: 16 512 14 14 (1605632)
I1105 19:46:19.236515 21553 net.cpp:137] Memory required for data: 740842244
I1105 19:46:19.236521 21553 layer_factory.hpp:77] Creating layer inception_4d/1x1
I1105 19:46:19.236532 21553 net.cpp:84] Creating Layer inception_4d/1x1
I1105 19:46:19.236539 21553 net.cpp:406] inception_4d/1x1 <- inception_4c/output_inception_4c/output_0_split_0
I1105 19:46:19.236552 21553 net.cpp:380] inception_4d/1x1 -> inception_4d/1x1
I1105 19:46:19.237177 21553 net.cpp:122] Setting up inception_4d/1x1
I1105 19:46:19.237195 21553 net.cpp:129] Top shape: 16 112 14 14 (351232)
I1105 19:46:19.237200 21553 net.cpp:137] Memory required for data: 742247172
I1105 19:46:19.237210 21553 layer_factory.hpp:77] Creating layer inception_4d/relu_1x1
I1105 19:46:19.237217 21553 net.cpp:84] Creating Layer inception_4d/relu_1x1
I1105 19:46:19.237224 21553 net.cpp:406] inception_4d/relu_1x1 <- inception_4d/1x1
I1105 19:46:19.237232 21553 net.cpp:367] inception_4d/relu_1x1 -> inception_4d/1x1 (in-place)
I1105 19:46:19.237241 21553 net.cpp:122] Setting up inception_4d/relu_1x1
I1105 19:46:19.237248 21553 net.cpp:129] Top shape: 16 112 14 14 (351232)
I1105 19:46:19.237254 21553 net.cpp:137] Memory required for data: 743652100
I1105 19:46:19.237259 21553 layer_factory.hpp:77] Creating layer inception_4d/3x3_reduce
I1105 19:46:19.237272 21553 net.cpp:84] Creating Layer inception_4d/3x3_reduce
I1105 19:46:19.237277 21553 net.cpp:406] inception_4d/3x3_reduce <- inception_4c/output_inception_4c/output_0_split_1
I1105 19:46:19.237285 21553 net.cpp:380] inception_4d/3x3_reduce -> inception_4d/3x3_reduce
I1105 19:46:19.238013 21553 net.cpp:122] Setting up inception_4d/3x3_reduce
I1105 19:46:19.238031 21553 net.cpp:129] Top shape: 16 144 14 14 (451584)
I1105 19:46:19.238044 21553 net.cpp:137] Memory required for data: 745458436
I1105 19:46:19.238054 21553 layer_factory.hpp:77] Creating layer inception_4d/relu_3x3_reduce
I1105 19:46:19.238061 21553 net.cpp:84] Creating Layer inception_4d/relu_3x3_reduce
I1105 19:46:19.238067 21553 net.cpp:406] inception_4d/relu_3x3_reduce <- inception_4d/3x3_reduce
I1105 19:46:19.238075 21553 net.cpp:367] inception_4d/relu_3x3_reduce -> inception_4d/3x3_reduce (in-place)
I1105 19:46:19.238083 21553 net.cpp:122] Setting up inception_4d/relu_3x3_reduce
I1105 19:46:19.238090 21553 net.cpp:129] Top shape: 16 144 14 14 (451584)
I1105 19:46:19.238095 21553 net.cpp:137] Memory required for data: 747264772
I1105 19:46:19.238101 21553 layer_factory.hpp:77] Creating layer inception_4d/3x3
I1105 19:46:19.238114 21553 net.cpp:84] Creating Layer inception_4d/3x3
I1105 19:46:19.238121 21553 net.cpp:406] inception_4d/3x3 <- inception_4d/3x3_reduce
I1105 19:46:19.238131 21553 net.cpp:380] inception_4d/3x3 -> inception_4d/3x3
I1105 19:46:19.241502 21553 net.cpp:122] Setting up inception_4d/3x3
I1105 19:46:19.241521 21553 net.cpp:129] Top shape: 16 288 14 14 (903168)
I1105 19:46:19.241528 21553 net.cpp:137] Memory required for data: 750877444
I1105 19:46:19.241536 21553 layer_factory.hpp:77] Creating layer inception_4d/relu_3x3
I1105 19:46:19.241545 21553 net.cpp:84] Creating Layer inception_4d/relu_3x3
I1105 19:46:19.241552 21553 net.cpp:406] inception_4d/relu_3x3 <- inception_4d/3x3
I1105 19:46:19.241559 21553 net.cpp:367] inception_4d/relu_3x3 -> inception_4d/3x3 (in-place)
I1105 19:46:19.241569 21553 net.cpp:122] Setting up inception_4d/relu_3x3
I1105 19:46:19.241575 21553 net.cpp:129] Top shape: 16 288 14 14 (903168)
I1105 19:46:19.241581 21553 net.cpp:137] Memory required for data: 754490116
I1105 19:46:19.241586 21553 layer_factory.hpp:77] Creating layer inception_4d/5x5_reduce
I1105 19:46:19.241600 21553 net.cpp:84] Creating Layer inception_4d/5x5_reduce
I1105 19:46:19.241606 21553 net.cpp:406] inception_4d/5x5_reduce <- inception_4c/output_inception_4c/output_0_split_2
I1105 19:46:19.241616 21553 net.cpp:380] inception_4d/5x5_reduce -> inception_4d/5x5_reduce
I1105 19:46:19.241950 21553 net.cpp:122] Setting up inception_4d/5x5_reduce
I1105 19:46:19.241963 21553 net.cpp:129] Top shape: 16 32 14 14 (100352)
I1105 19:46:19.241968 21553 net.cpp:137] Memory required for data: 754891524
I1105 19:46:19.241976 21553 layer_factory.hpp:77] Creating layer inception_4d/relu_5x5_reduce
I1105 19:46:19.241984 21553 net.cpp:84] Creating Layer inception_4d/relu_5x5_reduce
I1105 19:46:19.241993 21553 net.cpp:406] inception_4d/relu_5x5_reduce <- inception_4d/5x5_reduce
I1105 19:46:19.242000 21553 net.cpp:367] inception_4d/relu_5x5_reduce -> inception_4d/5x5_reduce (in-place)
I1105 19:46:19.242008 21553 net.cpp:122] Setting up inception_4d/relu_5x5_reduce
I1105 19:46:19.242017 21553 net.cpp:129] Top shape: 16 32 14 14 (100352)
I1105 19:46:19.242022 21553 net.cpp:137] Memory required for data: 755292932
I1105 19:46:19.242027 21553 layer_factory.hpp:77] Creating layer inception_4d/5x5
I1105 19:46:19.242038 21553 net.cpp:84] Creating Layer inception_4d/5x5
I1105 19:46:19.242045 21553 net.cpp:406] inception_4d/5x5 <- inception_4d/5x5_reduce
I1105 19:46:19.242053 21553 net.cpp:380] inception_4d/5x5 -> inception_4d/5x5
I1105 19:46:19.242697 21553 net.cpp:122] Setting up inception_4d/5x5
I1105 19:46:19.242713 21553 net.cpp:129] Top shape: 16 64 14 14 (200704)
I1105 19:46:19.242719 21553 net.cpp:137] Memory required for data: 756095748
I1105 19:46:19.242728 21553 layer_factory.hpp:77] Creating layer inception_4d/relu_5x5
I1105 19:46:19.242738 21553 net.cpp:84] Creating Layer inception_4d/relu_5x5
I1105 19:46:19.242745 21553 net.cpp:406] inception_4d/relu_5x5 <- inception_4d/5x5
I1105 19:46:19.242753 21553 net.cpp:367] inception_4d/relu_5x5 -> inception_4d/5x5 (in-place)
I1105 19:46:19.242761 21553 net.cpp:122] Setting up inception_4d/relu_5x5
I1105 19:46:19.242769 21553 net.cpp:129] Top shape: 16 64 14 14 (200704)
I1105 19:46:19.242779 21553 net.cpp:137] Memory required for data: 756898564
I1105 19:46:19.242792 21553 layer_factory.hpp:77] Creating layer inception_4d/pool
I1105 19:46:19.242804 21553 net.cpp:84] Creating Layer inception_4d/pool
I1105 19:46:19.242810 21553 net.cpp:406] inception_4d/pool <- inception_4c/output_inception_4c/output_0_split_3
I1105 19:46:19.242817 21553 net.cpp:380] inception_4d/pool -> inception_4d/pool
I1105 19:46:19.242862 21553 net.cpp:122] Setting up inception_4d/pool
I1105 19:46:19.242872 21553 net.cpp:129] Top shape: 16 512 14 14 (1605632)
I1105 19:46:19.242878 21553 net.cpp:137] Memory required for data: 763321092
I1105 19:46:19.242883 21553 layer_factory.hpp:77] Creating layer inception_4d/pool_proj
I1105 19:46:19.242895 21553 net.cpp:84] Creating Layer inception_4d/pool_proj
I1105 19:46:19.242902 21553 net.cpp:406] inception_4d/pool_proj <- inception_4d/pool
I1105 19:46:19.242910 21553 net.cpp:380] inception_4d/pool_proj -> inception_4d/pool_proj
I1105 19:46:19.243343 21553 net.cpp:122] Setting up inception_4d/pool_proj
I1105 19:46:19.243356 21553 net.cpp:129] Top shape: 16 64 14 14 (200704)
I1105 19:46:19.243361 21553 net.cpp:137] Memory required for data: 764123908
I1105 19:46:19.243371 21553 layer_factory.hpp:77] Creating layer inception_4d/relu_pool_proj
I1105 19:46:19.243379 21553 net.cpp:84] Creating Layer inception_4d/relu_pool_proj
I1105 19:46:19.243386 21553 net.cpp:406] inception_4d/relu_pool_proj <- inception_4d/pool_proj
I1105 19:46:19.243393 21553 net.cpp:367] inception_4d/relu_pool_proj -> inception_4d/pool_proj (in-place)
I1105 19:46:19.243402 21553 net.cpp:122] Setting up inception_4d/relu_pool_proj
I1105 19:46:19.243408 21553 net.cpp:129] Top shape: 16 64 14 14 (200704)
I1105 19:46:19.243414 21553 net.cpp:137] Memory required for data: 764926724
I1105 19:46:19.243419 21553 layer_factory.hpp:77] Creating layer inception_4d/output
I1105 19:46:19.243429 21553 net.cpp:84] Creating Layer inception_4d/output
I1105 19:46:19.243435 21553 net.cpp:406] inception_4d/output <- inception_4d/1x1
I1105 19:46:19.243443 21553 net.cpp:406] inception_4d/output <- inception_4d/3x3
I1105 19:46:19.243449 21553 net.cpp:406] inception_4d/output <- inception_4d/5x5
I1105 19:46:19.243455 21553 net.cpp:406] inception_4d/output <- inception_4d/pool_proj
I1105 19:46:19.243463 21553 net.cpp:380] inception_4d/output -> inception_4d/output
I1105 19:46:19.243489 21553 net.cpp:122] Setting up inception_4d/output
I1105 19:46:19.243499 21553 net.cpp:129] Top shape: 16 528 14 14 (1655808)
I1105 19:46:19.243504 21553 net.cpp:137] Memory required for data: 771549956
I1105 19:46:19.243510 21553 layer_factory.hpp:77] Creating layer inception_4d/output_inception_4d/output_0_split
I1105 19:46:19.243520 21553 net.cpp:84] Creating Layer inception_4d/output_inception_4d/output_0_split
I1105 19:46:19.243526 21553 net.cpp:406] inception_4d/output_inception_4d/output_0_split <- inception_4d/output
I1105 19:46:19.243533 21553 net.cpp:380] inception_4d/output_inception_4d/output_0_split -> inception_4d/output_inception_4d/output_0_split_0
I1105 19:46:19.243543 21553 net.cpp:380] inception_4d/output_inception_4d/output_0_split -> inception_4d/output_inception_4d/output_0_split_1
I1105 19:46:19.243552 21553 net.cpp:380] inception_4d/output_inception_4d/output_0_split -> inception_4d/output_inception_4d/output_0_split_2
I1105 19:46:19.243561 21553 net.cpp:380] inception_4d/output_inception_4d/output_0_split -> inception_4d/output_inception_4d/output_0_split_3
I1105 19:46:19.243568 21553 net.cpp:380] inception_4d/output_inception_4d/output_0_split -> inception_4d/output_inception_4d/output_0_split_4
I1105 19:46:19.243636 21553 net.cpp:122] Setting up inception_4d/output_inception_4d/output_0_split
I1105 19:46:19.243646 21553 net.cpp:129] Top shape: 16 528 14 14 (1655808)
I1105 19:46:19.243652 21553 net.cpp:129] Top shape: 16 528 14 14 (1655808)
I1105 19:46:19.243659 21553 net.cpp:129] Top shape: 16 528 14 14 (1655808)
I1105 19:46:19.243665 21553 net.cpp:129] Top shape: 16 528 14 14 (1655808)
I1105 19:46:19.243675 21553 net.cpp:129] Top shape: 16 528 14 14 (1655808)
I1105 19:46:19.243681 21553 net.cpp:137] Memory required for data: 804666116
I1105 19:46:19.243692 21553 layer_factory.hpp:77] Creating layer loss2/ave_pool
I1105 19:46:19.243705 21553 net.cpp:84] Creating Layer loss2/ave_pool
I1105 19:46:19.243710 21553 net.cpp:406] loss2/ave_pool <- inception_4d/output_inception_4d/output_0_split_0
I1105 19:46:19.243718 21553 net.cpp:380] loss2/ave_pool -> loss2/ave_pool
I1105 19:46:19.243746 21553 net.cpp:122] Setting up loss2/ave_pool
I1105 19:46:19.243757 21553 net.cpp:129] Top shape: 16 528 4 4 (135168)
I1105 19:46:19.243762 21553 net.cpp:137] Memory required for data: 805206788
I1105 19:46:19.243767 21553 layer_factory.hpp:77] Creating layer loss2/conv
I1105 19:46:19.243779 21553 net.cpp:84] Creating Layer loss2/conv
I1105 19:46:19.243785 21553 net.cpp:406] loss2/conv <- loss2/ave_pool
I1105 19:46:19.243795 21553 net.cpp:380] loss2/conv -> loss2/conv
I1105 19:46:19.244987 21553 net.cpp:122] Setting up loss2/conv
I1105 19:46:19.245007 21553 net.cpp:129] Top shape: 16 128 4 4 (32768)
I1105 19:46:19.245012 21553 net.cpp:137] Memory required for data: 805337860
I1105 19:46:19.245021 21553 layer_factory.hpp:77] Creating layer loss2/relu_conv
I1105 19:46:19.245031 21553 net.cpp:84] Creating Layer loss2/relu_conv
I1105 19:46:19.245038 21553 net.cpp:406] loss2/relu_conv <- loss2/conv
I1105 19:46:19.245045 21553 net.cpp:367] loss2/relu_conv -> loss2/conv (in-place)
I1105 19:46:19.245054 21553 net.cpp:122] Setting up loss2/relu_conv
I1105 19:46:19.245061 21553 net.cpp:129] Top shape: 16 128 4 4 (32768)
I1105 19:46:19.245066 21553 net.cpp:137] Memory required for data: 805468932
I1105 19:46:19.245072 21553 layer_factory.hpp:77] Creating layer loss2/fc
I1105 19:46:19.245086 21553 net.cpp:84] Creating Layer loss2/fc
I1105 19:46:19.245093 21553 net.cpp:406] loss2/fc <- loss2/conv
I1105 19:46:19.245102 21553 net.cpp:380] loss2/fc -> loss2/fc
I1105 19:46:19.261951 21553 net.cpp:122] Setting up loss2/fc
I1105 19:46:19.261971 21553 net.cpp:129] Top shape: 16 1024 (16384)
I1105 19:46:19.261977 21553 net.cpp:137] Memory required for data: 805534468
I1105 19:46:19.261987 21553 layer_factory.hpp:77] Creating layer loss2/relu_fc
I1105 19:46:19.261996 21553 net.cpp:84] Creating Layer loss2/relu_fc
I1105 19:46:19.262003 21553 net.cpp:406] loss2/relu_fc <- loss2/fc
I1105 19:46:19.262012 21553 net.cpp:367] loss2/relu_fc -> loss2/fc (in-place)
I1105 19:46:19.262022 21553 net.cpp:122] Setting up loss2/relu_fc
I1105 19:46:19.262029 21553 net.cpp:129] Top shape: 16 1024 (16384)
I1105 19:46:19.262034 21553 net.cpp:137] Memory required for data: 805600004
I1105 19:46:19.262040 21553 layer_factory.hpp:77] Creating layer loss2/drop_fc
I1105 19:46:19.262048 21553 net.cpp:84] Creating Layer loss2/drop_fc
I1105 19:46:19.262054 21553 net.cpp:406] loss2/drop_fc <- loss2/fc
I1105 19:46:19.262063 21553 net.cpp:367] loss2/drop_fc -> loss2/fc (in-place)
I1105 19:46:19.262090 21553 net.cpp:122] Setting up loss2/drop_fc
I1105 19:46:19.262100 21553 net.cpp:129] Top shape: 16 1024 (16384)
I1105 19:46:19.262105 21553 net.cpp:137] Memory required for data: 805665540
I1105 19:46:19.262110 21553 layer_factory.hpp:77] Creating layer loss2/classifier
I1105 19:46:19.262121 21553 net.cpp:84] Creating Layer loss2/classifier
I1105 19:46:19.262128 21553 net.cpp:406] loss2/classifier <- loss2/fc
I1105 19:46:19.262137 21553 net.cpp:380] loss2/classifier -> loss2/classifier
I1105 19:46:19.270517 21553 net.cpp:122] Setting up loss2/classifier
I1105 19:46:19.270537 21553 net.cpp:129] Top shape: 16 1000 (16000)
I1105 19:46:19.270543 21553 net.cpp:137] Memory required for data: 805729540
I1105 19:46:19.270552 21553 layer_factory.hpp:77] Creating layer loss2/loss
I1105 19:46:19.270562 21553 net.cpp:84] Creating Layer loss2/loss
I1105 19:46:19.270570 21553 net.cpp:406] loss2/loss <- loss2/classifier
I1105 19:46:19.270576 21553 net.cpp:406] loss2/loss <- label_data_1_split_1
I1105 19:46:19.270584 21553 net.cpp:380] loss2/loss -> loss2/loss2
I1105 19:46:19.270596 21553 layer_factory.hpp:77] Creating layer loss2/loss
I1105 19:46:19.270709 21553 net.cpp:122] Setting up loss2/loss
I1105 19:46:19.270730 21553 net.cpp:129] Top shape: (1)
I1105 19:46:19.270736 21553 net.cpp:132]     with loss weight 0.3
I1105 19:46:19.270750 21553 net.cpp:137] Memory required for data: 805729544
I1105 19:46:19.270756 21553 layer_factory.hpp:77] Creating layer inception_4e/1x1
I1105 19:46:19.270771 21553 net.cpp:84] Creating Layer inception_4e/1x1
I1105 19:46:19.270777 21553 net.cpp:406] inception_4e/1x1 <- inception_4d/output_inception_4d/output_0_split_1
I1105 19:46:19.270787 21553 net.cpp:380] inception_4e/1x1 -> inception_4e/1x1
I1105 19:46:19.271944 21553 net.cpp:122] Setting up inception_4e/1x1
I1105 19:46:19.271960 21553 net.cpp:129] Top shape: 16 256 14 14 (802816)
I1105 19:46:19.271965 21553 net.cpp:137] Memory required for data: 808940808
I1105 19:46:19.271975 21553 layer_factory.hpp:77] Creating layer inception_4e/relu_1x1
I1105 19:46:19.271984 21553 net.cpp:84] Creating Layer inception_4e/relu_1x1
I1105 19:46:19.271991 21553 net.cpp:406] inception_4e/relu_1x1 <- inception_4e/1x1
I1105 19:46:19.271998 21553 net.cpp:367] inception_4e/relu_1x1 -> inception_4e/1x1 (in-place)
I1105 19:46:19.272007 21553 net.cpp:122] Setting up inception_4e/relu_1x1
I1105 19:46:19.272013 21553 net.cpp:129] Top shape: 16 256 14 14 (802816)
I1105 19:46:19.272019 21553 net.cpp:137] Memory required for data: 812152072
I1105 19:46:19.272024 21553 layer_factory.hpp:77] Creating layer inception_4e/3x3_reduce
I1105 19:46:19.272037 21553 net.cpp:84] Creating Layer inception_4e/3x3_reduce
I1105 19:46:19.272043 21553 net.cpp:406] inception_4e/3x3_reduce <- inception_4d/output_inception_4d/output_0_split_2
I1105 19:46:19.272053 21553 net.cpp:380] inception_4e/3x3_reduce -> inception_4e/3x3_reduce
I1105 19:46:19.273365 21553 net.cpp:122] Setting up inception_4e/3x3_reduce
I1105 19:46:19.273386 21553 net.cpp:129] Top shape: 16 160 14 14 (501760)
I1105 19:46:19.273391 21553 net.cpp:137] Memory required for data: 814159112
I1105 19:46:19.273401 21553 layer_factory.hpp:77] Creating layer inception_4e/relu_3x3_reduce
I1105 19:46:19.273412 21553 net.cpp:84] Creating Layer inception_4e/relu_3x3_reduce
I1105 19:46:19.273419 21553 net.cpp:406] inception_4e/relu_3x3_reduce <- inception_4e/3x3_reduce
I1105 19:46:19.273427 21553 net.cpp:367] inception_4e/relu_3x3_reduce -> inception_4e/3x3_reduce (in-place)
I1105 19:46:19.273437 21553 net.cpp:122] Setting up inception_4e/relu_3x3_reduce
I1105 19:46:19.273443 21553 net.cpp:129] Top shape: 16 160 14 14 (501760)
I1105 19:46:19.273448 21553 net.cpp:137] Memory required for data: 816166152
I1105 19:46:19.273454 21553 layer_factory.hpp:77] Creating layer inception_4e/3x3
I1105 19:46:19.273466 21553 net.cpp:84] Creating Layer inception_4e/3x3
I1105 19:46:19.273473 21553 net.cpp:406] inception_4e/3x3 <- inception_4e/3x3_reduce
I1105 19:46:19.273481 21553 net.cpp:380] inception_4e/3x3 -> inception_4e/3x3
I1105 19:46:19.277549 21553 net.cpp:122] Setting up inception_4e/3x3
I1105 19:46:19.277568 21553 net.cpp:129] Top shape: 16 320 14 14 (1003520)
I1105 19:46:19.277575 21553 net.cpp:137] Memory required for data: 820180232
I1105 19:46:19.277585 21553 layer_factory.hpp:77] Creating layer inception_4e/relu_3x3
I1105 19:46:19.277593 21553 net.cpp:84] Creating Layer inception_4e/relu_3x3
I1105 19:46:19.277601 21553 net.cpp:406] inception_4e/relu_3x3 <- inception_4e/3x3
I1105 19:46:19.277608 21553 net.cpp:367] inception_4e/relu_3x3 -> inception_4e/3x3 (in-place)
I1105 19:46:19.277617 21553 net.cpp:122] Setting up inception_4e/relu_3x3
I1105 19:46:19.277624 21553 net.cpp:129] Top shape: 16 320 14 14 (1003520)
I1105 19:46:19.277629 21553 net.cpp:137] Memory required for data: 824194312
I1105 19:46:19.277634 21553 layer_factory.hpp:77] Creating layer inception_4e/5x5_reduce
I1105 19:46:19.277647 21553 net.cpp:84] Creating Layer inception_4e/5x5_reduce
I1105 19:46:19.277654 21553 net.cpp:406] inception_4e/5x5_reduce <- inception_4d/output_inception_4d/output_0_split_3
I1105 19:46:19.277664 21553 net.cpp:380] inception_4e/5x5_reduce -> inception_4e/5x5_reduce
I1105 19:46:19.278018 21553 net.cpp:122] Setting up inception_4e/5x5_reduce
I1105 19:46:19.278040 21553 net.cpp:129] Top shape: 16 32 14 14 (100352)
I1105 19:46:19.278048 21553 net.cpp:137] Memory required for data: 824595720
I1105 19:46:19.278055 21553 layer_factory.hpp:77] Creating layer inception_4e/relu_5x5_reduce
I1105 19:46:19.278064 21553 net.cpp:84] Creating Layer inception_4e/relu_5x5_reduce
I1105 19:46:19.278070 21553 net.cpp:406] inception_4e/relu_5x5_reduce <- inception_4e/5x5_reduce
I1105 19:46:19.278079 21553 net.cpp:367] inception_4e/relu_5x5_reduce -> inception_4e/5x5_reduce (in-place)
I1105 19:46:19.278089 21553 net.cpp:122] Setting up inception_4e/relu_5x5_reduce
I1105 19:46:19.278095 21553 net.cpp:129] Top shape: 16 32 14 14 (100352)
I1105 19:46:19.278100 21553 net.cpp:137] Memory required for data: 824997128
I1105 19:46:19.278106 21553 layer_factory.hpp:77] Creating layer inception_4e/5x5
I1105 19:46:19.278134 21553 net.cpp:84] Creating Layer inception_4e/5x5
I1105 19:46:19.278142 21553 net.cpp:406] inception_4e/5x5 <- inception_4e/5x5_reduce
I1105 19:46:19.278151 21553 net.cpp:380] inception_4e/5x5 -> inception_4e/5x5
I1105 19:46:19.279093 21553 net.cpp:122] Setting up inception_4e/5x5
I1105 19:46:19.279109 21553 net.cpp:129] Top shape: 16 128 14 14 (401408)
I1105 19:46:19.279114 21553 net.cpp:137] Memory required for data: 826602760
I1105 19:46:19.279124 21553 layer_factory.hpp:77] Creating layer inception_4e/relu_5x5
I1105 19:46:19.279131 21553 net.cpp:84] Creating Layer inception_4e/relu_5x5
I1105 19:46:19.279139 21553 net.cpp:406] inception_4e/relu_5x5 <- inception_4e/5x5
I1105 19:46:19.279145 21553 net.cpp:367] inception_4e/relu_5x5 -> inception_4e/5x5 (in-place)
I1105 19:46:19.279153 21553 net.cpp:122] Setting up inception_4e/relu_5x5
I1105 19:46:19.279160 21553 net.cpp:129] Top shape: 16 128 14 14 (401408)
I1105 19:46:19.279165 21553 net.cpp:137] Memory required for data: 828208392
I1105 19:46:19.279171 21553 layer_factory.hpp:77] Creating layer inception_4e/pool
I1105 19:46:19.279180 21553 net.cpp:84] Creating Layer inception_4e/pool
I1105 19:46:19.279186 21553 net.cpp:406] inception_4e/pool <- inception_4d/output_inception_4d/output_0_split_4
I1105 19:46:19.279196 21553 net.cpp:380] inception_4e/pool -> inception_4e/pool
I1105 19:46:19.279238 21553 net.cpp:122] Setting up inception_4e/pool
I1105 19:46:19.279249 21553 net.cpp:129] Top shape: 16 528 14 14 (1655808)
I1105 19:46:19.279254 21553 net.cpp:137] Memory required for data: 834831624
I1105 19:46:19.279260 21553 layer_factory.hpp:77] Creating layer inception_4e/pool_proj
I1105 19:46:19.279274 21553 net.cpp:84] Creating Layer inception_4e/pool_proj
I1105 19:46:19.279281 21553 net.cpp:406] inception_4e/pool_proj <- inception_4e/pool
I1105 19:46:19.279289 21553 net.cpp:380] inception_4e/pool_proj -> inception_4e/pool_proj
I1105 19:46:19.279960 21553 net.cpp:122] Setting up inception_4e/pool_proj
I1105 19:46:19.279973 21553 net.cpp:129] Top shape: 16 128 14 14 (401408)
I1105 19:46:19.279978 21553 net.cpp:137] Memory required for data: 836437256
I1105 19:46:19.279986 21553 layer_factory.hpp:77] Creating layer inception_4e/relu_pool_proj
I1105 19:46:19.279996 21553 net.cpp:84] Creating Layer inception_4e/relu_pool_proj
I1105 19:46:19.280002 21553 net.cpp:406] inception_4e/relu_pool_proj <- inception_4e/pool_proj
I1105 19:46:19.280009 21553 net.cpp:367] inception_4e/relu_pool_proj -> inception_4e/pool_proj (in-place)
I1105 19:46:19.280019 21553 net.cpp:122] Setting up inception_4e/relu_pool_proj
I1105 19:46:19.280025 21553 net.cpp:129] Top shape: 16 128 14 14 (401408)
I1105 19:46:19.280030 21553 net.cpp:137] Memory required for data: 838042888
I1105 19:46:19.280035 21553 layer_factory.hpp:77] Creating layer inception_4e/output
I1105 19:46:19.280043 21553 net.cpp:84] Creating Layer inception_4e/output
I1105 19:46:19.280050 21553 net.cpp:406] inception_4e/output <- inception_4e/1x1
I1105 19:46:19.280055 21553 net.cpp:406] inception_4e/output <- inception_4e/3x3
I1105 19:46:19.280062 21553 net.cpp:406] inception_4e/output <- inception_4e/5x5
I1105 19:46:19.280074 21553 net.cpp:406] inception_4e/output <- inception_4e/pool_proj
I1105 19:46:19.280088 21553 net.cpp:380] inception_4e/output -> inception_4e/output
I1105 19:46:19.280120 21553 net.cpp:122] Setting up inception_4e/output
I1105 19:46:19.280131 21553 net.cpp:129] Top shape: 16 832 14 14 (2609152)
I1105 19:46:19.280136 21553 net.cpp:137] Memory required for data: 848479496
I1105 19:46:19.280143 21553 layer_factory.hpp:77] Creating layer pool4/3x3_s2
I1105 19:46:19.280151 21553 net.cpp:84] Creating Layer pool4/3x3_s2
I1105 19:46:19.280158 21553 net.cpp:406] pool4/3x3_s2 <- inception_4e/output
I1105 19:46:19.280166 21553 net.cpp:380] pool4/3x3_s2 -> pool4/3x3_s2
I1105 19:46:19.280206 21553 net.cpp:122] Setting up pool4/3x3_s2
I1105 19:46:19.280216 21553 net.cpp:129] Top shape: 16 832 7 7 (652288)
I1105 19:46:19.280221 21553 net.cpp:137] Memory required for data: 851088648
I1105 19:46:19.280227 21553 layer_factory.hpp:77] Creating layer pool4/3x3_s2_pool4/3x3_s2_0_split
I1105 19:46:19.280236 21553 net.cpp:84] Creating Layer pool4/3x3_s2_pool4/3x3_s2_0_split
I1105 19:46:19.280241 21553 net.cpp:406] pool4/3x3_s2_pool4/3x3_s2_0_split <- pool4/3x3_s2
I1105 19:46:19.280248 21553 net.cpp:380] pool4/3x3_s2_pool4/3x3_s2_0_split -> pool4/3x3_s2_pool4/3x3_s2_0_split_0
I1105 19:46:19.280258 21553 net.cpp:380] pool4/3x3_s2_pool4/3x3_s2_0_split -> pool4/3x3_s2_pool4/3x3_s2_0_split_1
I1105 19:46:19.280267 21553 net.cpp:380] pool4/3x3_s2_pool4/3x3_s2_0_split -> pool4/3x3_s2_pool4/3x3_s2_0_split_2
I1105 19:46:19.280274 21553 net.cpp:380] pool4/3x3_s2_pool4/3x3_s2_0_split -> pool4/3x3_s2_pool4/3x3_s2_0_split_3
I1105 19:46:19.280338 21553 net.cpp:122] Setting up pool4/3x3_s2_pool4/3x3_s2_0_split
I1105 19:46:19.280347 21553 net.cpp:129] Top shape: 16 832 7 7 (652288)
I1105 19:46:19.280354 21553 net.cpp:129] Top shape: 16 832 7 7 (652288)
I1105 19:46:19.280360 21553 net.cpp:129] Top shape: 16 832 7 7 (652288)
I1105 19:46:19.280366 21553 net.cpp:129] Top shape: 16 832 7 7 (652288)
I1105 19:46:19.280371 21553 net.cpp:137] Memory required for data: 861525256
I1105 19:46:19.280376 21553 layer_factory.hpp:77] Creating layer inception_5a/1x1
I1105 19:46:19.280393 21553 net.cpp:84] Creating Layer inception_5a/1x1
I1105 19:46:19.280400 21553 net.cpp:406] inception_5a/1x1 <- pool4/3x3_s2_pool4/3x3_s2_0_split_0
I1105 19:46:19.280409 21553 net.cpp:380] inception_5a/1x1 -> inception_5a/1x1
I1105 19:46:19.282625 21553 net.cpp:122] Setting up inception_5a/1x1
I1105 19:46:19.282645 21553 net.cpp:129] Top shape: 16 256 7 7 (200704)
I1105 19:46:19.282651 21553 net.cpp:137] Memory required for data: 862328072
I1105 19:46:19.282660 21553 layer_factory.hpp:77] Creating layer inception_5a/relu_1x1
I1105 19:46:19.282670 21553 net.cpp:84] Creating Layer inception_5a/relu_1x1
I1105 19:46:19.282676 21553 net.cpp:406] inception_5a/relu_1x1 <- inception_5a/1x1
I1105 19:46:19.282686 21553 net.cpp:367] inception_5a/relu_1x1 -> inception_5a/1x1 (in-place)
I1105 19:46:19.282696 21553 net.cpp:122] Setting up inception_5a/relu_1x1
I1105 19:46:19.282702 21553 net.cpp:129] Top shape: 16 256 7 7 (200704)
I1105 19:46:19.282708 21553 net.cpp:137] Memory required for data: 863130888
I1105 19:46:19.282713 21553 layer_factory.hpp:77] Creating layer inception_5a/3x3_reduce
I1105 19:46:19.282726 21553 net.cpp:84] Creating Layer inception_5a/3x3_reduce
I1105 19:46:19.282733 21553 net.cpp:406] inception_5a/3x3_reduce <- pool4/3x3_s2_pool4/3x3_s2_0_split_1
I1105 19:46:19.282742 21553 net.cpp:380] inception_5a/3x3_reduce -> inception_5a/3x3_reduce
I1105 19:46:19.284354 21553 net.cpp:122] Setting up inception_5a/3x3_reduce
I1105 19:46:19.284373 21553 net.cpp:129] Top shape: 16 160 7 7 (125440)
I1105 19:46:19.284379 21553 net.cpp:137] Memory required for data: 863632648
I1105 19:46:19.284389 21553 layer_factory.hpp:77] Creating layer inception_5a/relu_3x3_reduce
I1105 19:46:19.284397 21553 net.cpp:84] Creating Layer inception_5a/relu_3x3_reduce
I1105 19:46:19.284404 21553 net.cpp:406] inception_5a/relu_3x3_reduce <- inception_5a/3x3_reduce
I1105 19:46:19.284416 21553 net.cpp:367] inception_5a/relu_3x3_reduce -> inception_5a/3x3_reduce (in-place)
I1105 19:46:19.284436 21553 net.cpp:122] Setting up inception_5a/relu_3x3_reduce
I1105 19:46:19.284445 21553 net.cpp:129] Top shape: 16 160 7 7 (125440)
I1105 19:46:19.284451 21553 net.cpp:137] Memory required for data: 864134408
I1105 19:46:19.284456 21553 layer_factory.hpp:77] Creating layer inception_5a/3x3
I1105 19:46:19.284466 21553 net.cpp:84] Creating Layer inception_5a/3x3
I1105 19:46:19.284472 21553 net.cpp:406] inception_5a/3x3 <- inception_5a/3x3_reduce
I1105 19:46:19.284482 21553 net.cpp:380] inception_5a/3x3 -> inception_5a/3x3
I1105 19:46:19.288544 21553 net.cpp:122] Setting up inception_5a/3x3
I1105 19:46:19.288564 21553 net.cpp:129] Top shape: 16 320 7 7 (250880)
I1105 19:46:19.288570 21553 net.cpp:137] Memory required for data: 865137928
I1105 19:46:19.288579 21553 layer_factory.hpp:77] Creating layer inception_5a/relu_3x3
I1105 19:46:19.288589 21553 net.cpp:84] Creating Layer inception_5a/relu_3x3
I1105 19:46:19.288595 21553 net.cpp:406] inception_5a/relu_3x3 <- inception_5a/3x3
I1105 19:46:19.288604 21553 net.cpp:367] inception_5a/relu_3x3 -> inception_5a/3x3 (in-place)
I1105 19:46:19.288614 21553 net.cpp:122] Setting up inception_5a/relu_3x3
I1105 19:46:19.288621 21553 net.cpp:129] Top shape: 16 320 7 7 (250880)
I1105 19:46:19.288626 21553 net.cpp:137] Memory required for data: 866141448
I1105 19:46:19.288632 21553 layer_factory.hpp:77] Creating layer inception_5a/5x5_reduce
I1105 19:46:19.288650 21553 net.cpp:84] Creating Layer inception_5a/5x5_reduce
I1105 19:46:19.288658 21553 net.cpp:406] inception_5a/5x5_reduce <- pool4/3x3_s2_pool4/3x3_s2_0_split_2
I1105 19:46:19.288667 21553 net.cpp:380] inception_5a/5x5_reduce -> inception_5a/5x5_reduce
I1105 19:46:19.289117 21553 net.cpp:122] Setting up inception_5a/5x5_reduce
I1105 19:46:19.289132 21553 net.cpp:129] Top shape: 16 32 7 7 (25088)
I1105 19:46:19.289139 21553 net.cpp:137] Memory required for data: 866241800
I1105 19:46:19.289147 21553 layer_factory.hpp:77] Creating layer inception_5a/relu_5x5_reduce
I1105 19:46:19.289157 21553 net.cpp:84] Creating Layer inception_5a/relu_5x5_reduce
I1105 19:46:19.289165 21553 net.cpp:406] inception_5a/relu_5x5_reduce <- inception_5a/5x5_reduce
I1105 19:46:19.289171 21553 net.cpp:367] inception_5a/relu_5x5_reduce -> inception_5a/5x5_reduce (in-place)
I1105 19:46:19.289180 21553 net.cpp:122] Setting up inception_5a/relu_5x5_reduce
I1105 19:46:19.289187 21553 net.cpp:129] Top shape: 16 32 7 7 (25088)
I1105 19:46:19.289192 21553 net.cpp:137] Memory required for data: 866342152
I1105 19:46:19.289198 21553 layer_factory.hpp:77] Creating layer inception_5a/5x5
I1105 19:46:19.289211 21553 net.cpp:84] Creating Layer inception_5a/5x5
I1105 19:46:19.289217 21553 net.cpp:406] inception_5a/5x5 <- inception_5a/5x5_reduce
I1105 19:46:19.289225 21553 net.cpp:380] inception_5a/5x5 -> inception_5a/5x5
I1105 19:46:19.290155 21553 net.cpp:122] Setting up inception_5a/5x5
I1105 19:46:19.290170 21553 net.cpp:129] Top shape: 16 128 7 7 (100352)
I1105 19:46:19.290176 21553 net.cpp:137] Memory required for data: 866743560
I1105 19:46:19.290184 21553 layer_factory.hpp:77] Creating layer inception_5a/relu_5x5
I1105 19:46:19.290192 21553 net.cpp:84] Creating Layer inception_5a/relu_5x5
I1105 19:46:19.290199 21553 net.cpp:406] inception_5a/relu_5x5 <- inception_5a/5x5
I1105 19:46:19.290206 21553 net.cpp:367] inception_5a/relu_5x5 -> inception_5a/5x5 (in-place)
I1105 19:46:19.290215 21553 net.cpp:122] Setting up inception_5a/relu_5x5
I1105 19:46:19.290221 21553 net.cpp:129] Top shape: 16 128 7 7 (100352)
I1105 19:46:19.290227 21553 net.cpp:137] Memory required for data: 867144968
I1105 19:46:19.290232 21553 layer_factory.hpp:77] Creating layer inception_5a/pool
I1105 19:46:19.290241 21553 net.cpp:84] Creating Layer inception_5a/pool
I1105 19:46:19.290246 21553 net.cpp:406] inception_5a/pool <- pool4/3x3_s2_pool4/3x3_s2_0_split_3
I1105 19:46:19.290256 21553 net.cpp:380] inception_5a/pool -> inception_5a/pool
I1105 19:46:19.290299 21553 net.cpp:122] Setting up inception_5a/pool
I1105 19:46:19.290314 21553 net.cpp:129] Top shape: 16 832 7 7 (652288)
I1105 19:46:19.290328 21553 net.cpp:137] Memory required for data: 869754120
I1105 19:46:19.290334 21553 layer_factory.hpp:77] Creating layer inception_5a/pool_proj
I1105 19:46:19.290347 21553 net.cpp:84] Creating Layer inception_5a/pool_proj
I1105 19:46:19.290354 21553 net.cpp:406] inception_5a/pool_proj <- inception_5a/pool
I1105 19:46:19.290364 21553 net.cpp:380] inception_5a/pool_proj -> inception_5a/pool_proj
I1105 19:46:19.291793 21553 net.cpp:122] Setting up inception_5a/pool_proj
I1105 19:46:19.291812 21553 net.cpp:129] Top shape: 16 128 7 7 (100352)
I1105 19:46:19.291818 21553 net.cpp:137] Memory required for data: 870155528
I1105 19:46:19.291827 21553 layer_factory.hpp:77] Creating layer inception_5a/relu_pool_proj
I1105 19:46:19.291838 21553 net.cpp:84] Creating Layer inception_5a/relu_pool_proj
I1105 19:46:19.291846 21553 net.cpp:406] inception_5a/relu_pool_proj <- inception_5a/pool_proj
I1105 19:46:19.291853 21553 net.cpp:367] inception_5a/relu_pool_proj -> inception_5a/pool_proj (in-place)
I1105 19:46:19.291863 21553 net.cpp:122] Setting up inception_5a/relu_pool_proj
I1105 19:46:19.291870 21553 net.cpp:129] Top shape: 16 128 7 7 (100352)
I1105 19:46:19.291875 21553 net.cpp:137] Memory required for data: 870556936
I1105 19:46:19.291882 21553 layer_factory.hpp:77] Creating layer inception_5a/output
I1105 19:46:19.291888 21553 net.cpp:84] Creating Layer inception_5a/output
I1105 19:46:19.291894 21553 net.cpp:406] inception_5a/output <- inception_5a/1x1
I1105 19:46:19.291901 21553 net.cpp:406] inception_5a/output <- inception_5a/3x3
I1105 19:46:19.291908 21553 net.cpp:406] inception_5a/output <- inception_5a/5x5
I1105 19:46:19.291913 21553 net.cpp:406] inception_5a/output <- inception_5a/pool_proj
I1105 19:46:19.291923 21553 net.cpp:380] inception_5a/output -> inception_5a/output
I1105 19:46:19.291950 21553 net.cpp:122] Setting up inception_5a/output
I1105 19:46:19.291960 21553 net.cpp:129] Top shape: 16 832 7 7 (652288)
I1105 19:46:19.291965 21553 net.cpp:137] Memory required for data: 873166088
I1105 19:46:19.291971 21553 layer_factory.hpp:77] Creating layer inception_5a/output_inception_5a/output_0_split
I1105 19:46:19.291981 21553 net.cpp:84] Creating Layer inception_5a/output_inception_5a/output_0_split
I1105 19:46:19.291987 21553 net.cpp:406] inception_5a/output_inception_5a/output_0_split <- inception_5a/output
I1105 19:46:19.291996 21553 net.cpp:380] inception_5a/output_inception_5a/output_0_split -> inception_5a/output_inception_5a/output_0_split_0
I1105 19:46:19.292003 21553 net.cpp:380] inception_5a/output_inception_5a/output_0_split -> inception_5a/output_inception_5a/output_0_split_1
I1105 19:46:19.292013 21553 net.cpp:380] inception_5a/output_inception_5a/output_0_split -> inception_5a/output_inception_5a/output_0_split_2
I1105 19:46:19.292022 21553 net.cpp:380] inception_5a/output_inception_5a/output_0_split -> inception_5a/output_inception_5a/output_0_split_3
I1105 19:46:19.292080 21553 net.cpp:122] Setting up inception_5a/output_inception_5a/output_0_split
I1105 19:46:19.292090 21553 net.cpp:129] Top shape: 16 832 7 7 (652288)
I1105 19:46:19.292098 21553 net.cpp:129] Top shape: 16 832 7 7 (652288)
I1105 19:46:19.292104 21553 net.cpp:129] Top shape: 16 832 7 7 (652288)
I1105 19:46:19.292109 21553 net.cpp:129] Top shape: 16 832 7 7 (652288)
I1105 19:46:19.292114 21553 net.cpp:137] Memory required for data: 883602696
I1105 19:46:19.292120 21553 layer_factory.hpp:77] Creating layer inception_5b/1x1
I1105 19:46:19.292132 21553 net.cpp:84] Creating Layer inception_5b/1x1
I1105 19:46:19.292138 21553 net.cpp:406] inception_5b/1x1 <- inception_5a/output_inception_5a/output_0_split_0
I1105 19:46:19.292148 21553 net.cpp:380] inception_5b/1x1 -> inception_5b/1x1
I1105 19:46:19.295081 21553 net.cpp:122] Setting up inception_5b/1x1
I1105 19:46:19.295104 21553 net.cpp:129] Top shape: 16 384 7 7 (301056)
I1105 19:46:19.295111 21553 net.cpp:137] Memory required for data: 884806920
I1105 19:46:19.295120 21553 layer_factory.hpp:77] Creating layer inception_5b/relu_1x1
I1105 19:46:19.295135 21553 net.cpp:84] Creating Layer inception_5b/relu_1x1
I1105 19:46:19.295150 21553 net.cpp:406] inception_5b/relu_1x1 <- inception_5b/1x1
I1105 19:46:19.295161 21553 net.cpp:367] inception_5b/relu_1x1 -> inception_5b/1x1 (in-place)
I1105 19:46:19.295171 21553 net.cpp:122] Setting up inception_5b/relu_1x1
I1105 19:46:19.295179 21553 net.cpp:129] Top shape: 16 384 7 7 (301056)
I1105 19:46:19.295184 21553 net.cpp:137] Memory required for data: 886011144
I1105 19:46:19.295191 21553 layer_factory.hpp:77] Creating layer inception_5b/3x3_reduce
I1105 19:46:19.295200 21553 net.cpp:84] Creating Layer inception_5b/3x3_reduce
I1105 19:46:19.295207 21553 net.cpp:406] inception_5b/3x3_reduce <- inception_5a/output_inception_5a/output_0_split_1
I1105 19:46:19.295220 21553 net.cpp:380] inception_5b/3x3_reduce -> inception_5b/3x3_reduce
I1105 19:46:19.297045 21553 net.cpp:122] Setting up inception_5b/3x3_reduce
I1105 19:46:19.297065 21553 net.cpp:129] Top shape: 16 192 7 7 (150528)
I1105 19:46:19.297071 21553 net.cpp:137] Memory required for data: 886613256
I1105 19:46:19.297080 21553 layer_factory.hpp:77] Creating layer inception_5b/relu_3x3_reduce
I1105 19:46:19.297089 21553 net.cpp:84] Creating Layer inception_5b/relu_3x3_reduce
I1105 19:46:19.297096 21553 net.cpp:406] inception_5b/relu_3x3_reduce <- inception_5b/3x3_reduce
I1105 19:46:19.297103 21553 net.cpp:367] inception_5b/relu_3x3_reduce -> inception_5b/3x3_reduce (in-place)
I1105 19:46:19.297113 21553 net.cpp:122] Setting up inception_5b/relu_3x3_reduce
I1105 19:46:19.297121 21553 net.cpp:129] Top shape: 16 192 7 7 (150528)
I1105 19:46:19.297125 21553 net.cpp:137] Memory required for data: 887215368
I1105 19:46:19.297132 21553 layer_factory.hpp:77] Creating layer inception_5b/3x3
I1105 19:46:19.297144 21553 net.cpp:84] Creating Layer inception_5b/3x3
I1105 19:46:19.297150 21553 net.cpp:406] inception_5b/3x3 <- inception_5b/3x3_reduce
I1105 19:46:19.297160 21553 net.cpp:380] inception_5b/3x3 -> inception_5b/3x3
I1105 19:46:19.302810 21553 net.cpp:122] Setting up inception_5b/3x3
I1105 19:46:19.302832 21553 net.cpp:129] Top shape: 16 384 7 7 (301056)
I1105 19:46:19.302839 21553 net.cpp:137] Memory required for data: 888419592
I1105 19:46:19.302848 21553 layer_factory.hpp:77] Creating layer inception_5b/relu_3x3
I1105 19:46:19.302857 21553 net.cpp:84] Creating Layer inception_5b/relu_3x3
I1105 19:46:19.302865 21553 net.cpp:406] inception_5b/relu_3x3 <- inception_5b/3x3
I1105 19:46:19.302872 21553 net.cpp:367] inception_5b/relu_3x3 -> inception_5b/3x3 (in-place)
I1105 19:46:19.302882 21553 net.cpp:122] Setting up inception_5b/relu_3x3
I1105 19:46:19.302889 21553 net.cpp:129] Top shape: 16 384 7 7 (301056)
I1105 19:46:19.302894 21553 net.cpp:137] Memory required for data: 889623816
I1105 19:46:19.302899 21553 layer_factory.hpp:77] Creating layer inception_5b/5x5_reduce
I1105 19:46:19.302912 21553 net.cpp:84] Creating Layer inception_5b/5x5_reduce
I1105 19:46:19.302918 21553 net.cpp:406] inception_5b/5x5_reduce <- inception_5a/output_inception_5a/output_0_split_2
I1105 19:46:19.302928 21553 net.cpp:380] inception_5b/5x5_reduce -> inception_5b/5x5_reduce
I1105 19:46:19.303925 21553 net.cpp:122] Setting up inception_5b/5x5_reduce
I1105 19:46:19.303943 21553 net.cpp:129] Top shape: 16 48 7 7 (37632)
I1105 19:46:19.303949 21553 net.cpp:137] Memory required for data: 889774344
I1105 19:46:19.303958 21553 layer_factory.hpp:77] Creating layer inception_5b/relu_5x5_reduce
I1105 19:46:19.303967 21553 net.cpp:84] Creating Layer inception_5b/relu_5x5_reduce
I1105 19:46:19.303975 21553 net.cpp:406] inception_5b/relu_5x5_reduce <- inception_5b/5x5_reduce
I1105 19:46:19.303987 21553 net.cpp:367] inception_5b/relu_5x5_reduce -> inception_5b/5x5_reduce (in-place)
I1105 19:46:19.303997 21553 net.cpp:122] Setting up inception_5b/relu_5x5_reduce
I1105 19:46:19.304004 21553 net.cpp:129] Top shape: 16 48 7 7 (37632)
I1105 19:46:19.304009 21553 net.cpp:137] Memory required for data: 889924872
I1105 19:46:19.304015 21553 layer_factory.hpp:77] Creating layer inception_5b/5x5
I1105 19:46:19.304033 21553 net.cpp:84] Creating Layer inception_5b/5x5
I1105 19:46:19.304047 21553 net.cpp:406] inception_5b/5x5 <- inception_5b/5x5_reduce
I1105 19:46:19.304056 21553 net.cpp:380] inception_5b/5x5 -> inception_5b/5x5
I1105 19:46:19.305349 21553 net.cpp:122] Setting up inception_5b/5x5
I1105 19:46:19.305366 21553 net.cpp:129] Top shape: 16 128 7 7 (100352)
I1105 19:46:19.305371 21553 net.cpp:137] Memory required for data: 890326280
I1105 19:46:19.305380 21553 layer_factory.hpp:77] Creating layer inception_5b/relu_5x5
I1105 19:46:19.305388 21553 net.cpp:84] Creating Layer inception_5b/relu_5x5
I1105 19:46:19.305397 21553 net.cpp:406] inception_5b/relu_5x5 <- inception_5b/5x5
I1105 19:46:19.305404 21553 net.cpp:367] inception_5b/relu_5x5 -> inception_5b/5x5 (in-place)
I1105 19:46:19.305413 21553 net.cpp:122] Setting up inception_5b/relu_5x5
I1105 19:46:19.305420 21553 net.cpp:129] Top shape: 16 128 7 7 (100352)
I1105 19:46:19.305425 21553 net.cpp:137] Memory required for data: 890727688
I1105 19:46:19.305431 21553 layer_factory.hpp:77] Creating layer inception_5b/pool
I1105 19:46:19.305439 21553 net.cpp:84] Creating Layer inception_5b/pool
I1105 19:46:19.305445 21553 net.cpp:406] inception_5b/pool <- inception_5a/output_inception_5a/output_0_split_3
I1105 19:46:19.305454 21553 net.cpp:380] inception_5b/pool -> inception_5b/pool
I1105 19:46:19.305498 21553 net.cpp:122] Setting up inception_5b/pool
I1105 19:46:19.305510 21553 net.cpp:129] Top shape: 16 832 7 7 (652288)
I1105 19:46:19.305514 21553 net.cpp:137] Memory required for data: 893336840
I1105 19:46:19.305521 21553 layer_factory.hpp:77] Creating layer inception_5b/pool_proj
I1105 19:46:19.305532 21553 net.cpp:84] Creating Layer inception_5b/pool_proj
I1105 19:46:19.305539 21553 net.cpp:406] inception_5b/pool_proj <- inception_5b/pool
I1105 19:46:19.305548 21553 net.cpp:380] inception_5b/pool_proj -> inception_5b/pool_proj
I1105 19:46:19.306974 21553 net.cpp:122] Setting up inception_5b/pool_proj
I1105 19:46:19.306993 21553 net.cpp:129] Top shape: 16 128 7 7 (100352)
I1105 19:46:19.306999 21553 net.cpp:137] Memory required for data: 893738248
I1105 19:46:19.307008 21553 layer_factory.hpp:77] Creating layer inception_5b/relu_pool_proj
I1105 19:46:19.307018 21553 net.cpp:84] Creating Layer inception_5b/relu_pool_proj
I1105 19:46:19.307025 21553 net.cpp:406] inception_5b/relu_pool_proj <- inception_5b/pool_proj
I1105 19:46:19.307032 21553 net.cpp:367] inception_5b/relu_pool_proj -> inception_5b/pool_proj (in-place)
I1105 19:46:19.307042 21553 net.cpp:122] Setting up inception_5b/relu_pool_proj
I1105 19:46:19.307049 21553 net.cpp:129] Top shape: 16 128 7 7 (100352)
I1105 19:46:19.307054 21553 net.cpp:137] Memory required for data: 894139656
I1105 19:46:19.307060 21553 layer_factory.hpp:77] Creating layer inception_5b/output
I1105 19:46:19.307070 21553 net.cpp:84] Creating Layer inception_5b/output
I1105 19:46:19.307076 21553 net.cpp:406] inception_5b/output <- inception_5b/1x1
I1105 19:46:19.307083 21553 net.cpp:406] inception_5b/output <- inception_5b/3x3
I1105 19:46:19.307090 21553 net.cpp:406] inception_5b/output <- inception_5b/5x5
I1105 19:46:19.307096 21553 net.cpp:406] inception_5b/output <- inception_5b/pool_proj
I1105 19:46:19.307102 21553 net.cpp:380] inception_5b/output -> inception_5b/output
I1105 19:46:19.307133 21553 net.cpp:122] Setting up inception_5b/output
I1105 19:46:19.307144 21553 net.cpp:129] Top shape: 16 1024 7 7 (802816)
I1105 19:46:19.307149 21553 net.cpp:137] Memory required for data: 897350920
I1105 19:46:19.307154 21553 layer_factory.hpp:77] Creating layer pool5/7x7_s1
I1105 19:46:19.307163 21553 net.cpp:84] Creating Layer pool5/7x7_s1
I1105 19:46:19.307169 21553 net.cpp:406] pool5/7x7_s1 <- inception_5b/output
I1105 19:46:19.307180 21553 net.cpp:380] pool5/7x7_s1 -> pool5/7x7_s1
I1105 19:46:19.307209 21553 net.cpp:122] Setting up pool5/7x7_s1
I1105 19:46:19.307219 21553 net.cpp:129] Top shape: 16 1024 1 1 (16384)
I1105 19:46:19.307224 21553 net.cpp:137] Memory required for data: 897416456
I1105 19:46:19.307235 21553 layer_factory.hpp:77] Creating layer pool5/drop_7x7_s1
I1105 19:46:19.307251 21553 net.cpp:84] Creating Layer pool5/drop_7x7_s1
I1105 19:46:19.307257 21553 net.cpp:406] pool5/drop_7x7_s1 <- pool5/7x7_s1
I1105 19:46:19.307265 21553 net.cpp:367] pool5/drop_7x7_s1 -> pool5/7x7_s1 (in-place)
I1105 19:46:19.307296 21553 net.cpp:122] Setting up pool5/drop_7x7_s1
I1105 19:46:19.307307 21553 net.cpp:129] Top shape: 16 1024 1 1 (16384)
I1105 19:46:19.307312 21553 net.cpp:137] Memory required for data: 897481992
I1105 19:46:19.307318 21553 layer_factory.hpp:77] Creating layer loss3/classifier
I1105 19:46:19.307329 21553 net.cpp:84] Creating Layer loss3/classifier
I1105 19:46:19.307335 21553 net.cpp:406] loss3/classifier <- pool5/7x7_s1
I1105 19:46:19.307343 21553 net.cpp:380] loss3/classifier -> loss3/classifier
I1105 19:46:19.315717 21553 net.cpp:122] Setting up loss3/classifier
I1105 19:46:19.315737 21553 net.cpp:129] Top shape: 16 1000 (16000)
I1105 19:46:19.315743 21553 net.cpp:137] Memory required for data: 897545992
I1105 19:46:19.315753 21553 layer_factory.hpp:77] Creating layer loss3/loss3
I1105 19:46:19.315762 21553 net.cpp:84] Creating Layer loss3/loss3
I1105 19:46:19.315769 21553 net.cpp:406] loss3/loss3 <- loss3/classifier
I1105 19:46:19.315776 21553 net.cpp:406] loss3/loss3 <- label_data_1_split_2
I1105 19:46:19.315784 21553 net.cpp:380] loss3/loss3 -> loss3/loss3
…
I1105 19:46:19.320520 21553 net.cpp:294] The NetState phase (1) differed from the phase (0) specified by a rule in layer data
I1105 19:46:19.321382 21553 net.cpp:51] Initializing net from parameters: 
name: "GoogleNet"
state {
  phase: TEST
}
layer {
  name: "data"
  type: "Data"
  top: "data"
  top: "label"
  include {
    phase: TEST
  }
  transform_param {
    mirror: false
    crop_size: 224
    mean_value: 104
    mean_value: 117
    mean_value: 123
  }
  data_param {
    source: "/home/vtyurin/Diploma/lmdb/224/val_db"
    batch_size: 32
    backend: LMDB
  }
}
layer {
  name: "conv1/7x7_s2"
  type: "Convolution"
  bottom: "data"
  top: "conv1/7x7_s2"
  param {
    lr_mult: 1
    decay_mult: 1
  }
  param {
    lr_mult: 2
    decay_mult: 0
  }
  convolution_param {
    num_output: 64
    pad: 3
    kernel_size: 7
    stride: 2
    weight_filler {
      type: "xavier"
    }
    bias_filler {
      type: "constant"
      value: 0.2
    }
  }
}
layer {
  name: "conv1/relu_7x7"
  type: "ReLU"
  bottom: "conv1/7x7_s2"
  top: "conv1/7x7_s2"
}
layer {
  name: "pool1/3x3_s2"
  type: "Pooling"
  bottom: "conv1/7x7_s2"
  top: "pool1/3x3_s2"
  pooling_param {
    pool: MAX
    kernel_size: 3
    stride: 2
  }
}
layer {
  name: "pool1/norm1"
  type: "LRN"
  bottom: "pool1/3x3_s2"
  top: "pool1/norm1"
  lrn_param {
    local_size: 5
    alpha: 0.0001
    beta: 0.75
  }
}
layer {
  name: "conv2/3x3_reduce"
  type: "Convolution"
  bottom: "pool1/norm1"
  top: "conv2/3x3_reduce"
  param {
    lr_mult: 1
    decay_mult: 1
  }
  param {
    lr_mult: 2
    decay_mult: 0
  }
  convolution_param {
    num_output: 64
    kernel_size: 1
    weight_filler {
      type: "xavier"
    }
    bias_filler {
      type: "constant"
      value: 0.2
    }
  }
}
layer {
  name: "conv2/relu_3x3_reduce"
  type: "ReLU"
  bottom: "conv2/3x3_reduce"
  top: "conv2/3x3_reduce"
}
layer {
  name: "conv2/3x3"
  type: "Convolution"
  bottom: "conv2/3x3_reduce"
  top: "conv2/3x3"
  param {
    lr_mult: 1
    decay_mult: 1
  }
  param {
    lr_mult: 2
    decay_mult: 0
  }
  convolution_param {
    num_output: 192
    pad: 1
    kernel_size: 3
    weight_filler {
      type: "xavier"
    }
    bias_filler {
      type: "constant"
      value: 0.2
    }
  }
}
layer {
  name: "conv2/relu_3x3"
  type: "ReLU"
  bottom: "conv2/3x3"
  top: "conv2/3x3"
}
layer {
  name: "conv2/norm2"
  type: "LRN"
  bottom: "conv2/3x3"
  top: "conv2/norm2"
  lrn_param {
    local_size: 5
    alpha: 0.0001
    beta: 0.75
  }
}
layer {
  name: "pool2/3x3_s2"
  type: "Pooling"
  bottom: "conv2/norm2"
  top: "pool2/3x3_s2"
  pooling_param {
    pool: MAX
    kernel_size: 3
    stride: 2
  }
}
layer {
  name: "inception_3a/1x1"
  type: "Convolution"
  bottom: "pool2/3x3_s2"
  top: "inception_3a/1x1"
  param {
    lr_mult: 1
    decay_mult: 1
  }
  param {
    lr_mult: 2
    decay_mult: 0
  }
  convolution_param {
    num_output: 64
    kernel_size: 1
    weight_filler {
      type: "xavier"
    }
    bias_filler {
      type: "constant"
      value: 0.2
    }
  }
}
layer {
  name: "inception_3a/relu_1x1"
  type: "ReLU"
  bottom: "inception_3a/1x1"
  top: "inception_3a/1x1"
}
layer {
  name: "inception_3a/3x3_reduce"
  type: "Convolution"
  bottom: "pool2/3x3_s2"
  top: "inception_3a/3x3_reduce"
  param {
    lr_mult: 1
    decay_mult: 1
  }
  param {
    lr_mult: 2
    decay_mult: 0
  }
  convolution_param {
    num_output: 96
    kernel_size: 1
    weight_filler {
      type: "xavier"
    }
    bias_filler {
      type: "constant"
      value: 0.2
    }
  }
}
layer {
  name: "inception_3a/relu_3x3_reduce"
  type: "ReLU"
  bottom: "inception_3a/3x3_reduce"
  top: "inception_3a/3x3_reduce"
}
layer {
  name: "inception_3a/3x3"
  type: "Convolution"
  bottom: "inception_3a/3x3_reduce"
  top: "inception_3a/3x3"
  param {
    lr_mult: 1
    decay_mult: 1
  }
  param {
    lr_mult: 2
    decay_mult: 0
  }
  convolution_param {
    num_output: 128
    pad: 1
    kernel_size: 3
    weight_filler {
      type: "xavier"
    }
    bias_filler {
      type: "constant"
      value: 0.2
    }
  }
}
layer {
  name: "inception_3a/relu_3x3"
  type: "ReLU"
  bottom: "inception_3a/3x3"
  top: "inception_3a/3x3"
}
layer {
  name: "inception_3a/5x5_reduce"
  type: "Convolution"
  bottom: "pool2/3x3_s2"
  top: "inception_3a/5x5_reduce"
  param {
    lr_mult: 1
    decay_mult: 1
  }
  param {
    lr_mult: 2
    decay_mult: 0
  }
  convolution_param {
    num_output: 16
    kernel_size: 1
    weight_filler {
      type: "xavier"
    }
    bias_filler {
      type: "constant"
      value: 0.2
    }
  }
}
layer {
  name: "inception_3a/relu_5x5_reduce"
  type: "ReLU"
  bottom: "inception_3a/5x5_reduce"
  top: "inception_3a/5x5_reduce"
}
layer {
  name: "inception_3a/5x5"
  type: "Convolution"
  bottom: "inception_3a/5x5_reduce"
  top: "inception_3a/5x5"
  param {
    lr_mult: 1
    decay_mult: 1
  }
  param {
    lr_mult: 2
    decay_mult: 0
  }
  convolution_param {
    num_output: 32
    pad: 2
    kernel_size: 5
    weight_filler {
      type: "xavier"
    }
    bias_filler {
      type: "constant"
      value: 0.2
    }
  }
}
layer {
  name: "inception_3a/relu_5x5"
  type: "ReLU"
  bottom: "inception_3a/5x5"
  top: "inception_3a/5x5"
}
layer {
  name: "inception_3a/pool"
  type: "Pooling"
  bottom: "pool2/3x3_s2"
  top: "inception_3a/pool"
  pooling_param {
    pool: MAX
    kernel_size: 3
    stride: 1
    pad: 1
  }
}
layer {
  name: "inception_3a/pool_proj"
  type: "Convolution"
  bottom: "inception_3a/pool"
  top: "inception_3a/pool_proj"
  param {
    lr_mult: 1
    decay_mult: 1
  }
  param {
    lr_mult: 2
    decay_mult: 0
  }
  convolution_param {
    num_output: 32
    kernel_size: 1
    weight_filler {
      type: "xavier"
    }
    bias_filler {
      type: "constant"
      value: 0.2
    }
  }
}
layer {
  name: "inception_3a/relu_pool_proj"
  type: "ReLU"
  bottom: "inception_3a/pool_proj"
  top: "inception_3a/pool_proj"
}
layer {
  name: "inception_3a/output"
  type: "Concat"
  bottom: "inception_3a/1x1"
  bottom: "inception_3a/3x3"
  bottom: "inception_3a/5x5"
  bottom: "inception_3a/pool_proj"
  top: "inception_3a/output"
}
layer {
  name: "inception_3b/1x1"
  type: "Convolution"
  bottom: "inception_3a/output"
  top: "inception_3b/1x1"
  param {
    lr_mult: 1
    decay_mult: 1
  }
  param {
    lr_mult: 2
    decay_mult: 0
  }
  convolution_param {
    num_output: 128
    kernel_size: 1
    weight_filler {
      type: "xavier"
    }
    bias_filler {
      type: "constant"
      value: 0.2
    }
  }
}
layer {
  name: "inception_3b/relu_1x1"
  type: "ReLU"
  bottom: "inception_3b/1x1"
  top: "inception_3b/1x1"
}
layer {
  name: "inception_3b/3x3_reduce"
  type: "Convolution"
  bottom: "inception_3a/output"
  top: "inception_3b/3x3_reduce"
  param {
    lr_mult: 1
    decay_mult: 1
  }
  param {
    lr_mult: 2
    decay_mult: 0
  }
  convolution_param {
    num_output: 128
    kernel_size: 1
    weight_filler {
      type: "xavier"
    }
    bias_filler {
      type: "constant"
      value: 0.2
    }
  }
}
layer {
  name: "inception_3b/relu_3x3_reduce"
  type: "ReLU"
  bottom: "inception_3b/3x3_reduce"
  top: "inception_3b/3x3_reduce"
}
layer {
  name: "inception_3b/3x3"
  type: "Convolution"
  bottom: "inception_3b/3x3_reduce"
  top: "inception_3b/3x3"
  param {
    lr_mult: 1
    decay_mult: 1
  }
  param {
    lr_mult: 2
    decay_mult: 0
  }
  convolution_param {
    num_output: 192
    pad: 1
    kernel_size: 3
    weight_filler {
      type: "xavier"
    }
    bias_filler {
      type: "constant"
      value: 0.2
    }
  }
}
layer {
  name: "inception_3b/relu_3x3"
  type: "ReLU"
  bottom: "inception_3b/3x3"
  top: "inception_3b/3x3"
}
layer {
  name: "inception_3b/5x5_reduce"
  type: "Convolution"
  bottom: "inception_3a/output"
  top: "inception_3b/5x5_reduce"
  param {
    lr_mult: 1
    decay_mult: 1
  }
  param {
    lr_mult: 2
    decay_mult: 0
  }
  convolution_param {
    num_output: 32
    kernel_size: 1
    weight_filler {
      type: "xavier"
    }
    bias_filler {
      type: "constant"
      value: 0.2
    }
  }
}
layer {
  name: "inception_3b/relu_5x5_reduce"
  type: "ReLU"
  bottom: "inception_3b/5x5_reduce"
  top: "inception_3b/5x5_reduce"
}
layer {
  name: "inception_3b/5x5"
  type: "Convolution"
  bottom: "inception_3b/5x5_reduce"
  top: "inception_3b/5x5"
  param {
    lr_mult: 1
    decay_mult: 1
  }
  param {
    lr_mult: 2
    decay_mult: 0
  }
  convolution_param {
    num_output: 96
    pad: 2
    kernel_size: 5
    weight_filler {
      type: "xavier"
    }
    bias_filler {
      type: "constant"
      value: 0.2
    }
  }
}
layer {
  name: "inception_3b/relu_5x5"
  type: "ReLU"
  bottom: "inception_3b/5x5"
  top: "inception_3b/5x5"
}
layer {
  name: "inception_3b/pool"
  type: "Pooling"
  bottom: "inception_3a/output"
  top: "inception_3b/pool"
  pooling_param {
    pool: MAX
    kernel_size: 3
    stride: 1
    pad: 1
  }
}
layer {
  name: "inception_3b/pool_proj"
  type: "Convolution"
  bottom: "inception_3b/pool"
  top: "inception_3b/pool_proj"
  param {
    lr_mult: 1
    decay_mult: 1
  }
  param {
    lr_mult: 2
    decay_mult: 0
  }
  convolution_param {
    num_output: 64
    kernel_size: 1
    weight_filler {
      type: "xavier"
    }
    bias_filler {
      type: "constant"
      value: 0.2
    }
  }
}
layer {
  name: "inception_3b/relu_pool_proj"
  type: "ReLU"
  bottom: "inception_3b/pool_proj"
  top: "inception_3b/pool_proj"
}
layer {
  name: "inception_3b/output"
  type: "Concat"
  bottom: "inception_3b/1x1"
  bottom: "inception_3b/3x3"
  bottom: "inception_3b/5x5"
  bottom: "inception_3b/pool_proj"
  top: "inception_3b/output"
}
layer {
  name: "pool3/3x3_s2"
  type: "Pooling"
  bottom: "inception_3b/output"
  top: "pool3/3x3_s2"
  pooling_param {
    pool: MAX
    kernel_size: 3
    stride: 2
  }
}
layer {
  name: "inception_4a/1x1"
  type: "Convolution"
  bottom: "pool3/3x3_s2"
  top: "inception_4a/1x1"
  param {
    lr_mult: 1
    decay_mult: 1
  }
  param {
    lr_mult: 2
    decay_mult: 0
  }
  convolution_param {
    num_output: 192
    kernel_size: 1
    weight_filler {
      type: "xavier"
    }
    bias_filler {
      type: "constant"
      value: 0.2
    }
  }
}
layer {
  name: "inception_4a/relu_1x1"
  type: "ReLU"
  bottom: "inception_4a/1x1"
  top: "inception_4a/1x1"
}
layer {
  name: "inception_4a/3x3_reduce"
  type: "Convolution"
  bottom: "pool3/3x3_s2"
  top: "inception_4a/3x3_reduce"
  param {
    lr_mult: 1
    decay_mult: 1
  }
  param {
    lr_mult: 2
    decay_mult: 0
  }
  convolution_param {
    num_output: 96
    kernel_size: 1
    weight_filler {
      type: "xavier"
    }
    bias_filler {
      type: "constant"
      value: 0.2
    }
  }
}
layer {
  name: "inception_4a/relu_3x3_reduce"
  type: "ReLU"
  bottom: "inception_4a/3x3_reduce"
  top: "inception_4a/3x3_reduce"
}
layer {
  name: "inception_4a/3x3"
  type: "Convolution"
  bottom: "inception_4a/3x3_reduce"
  top: "inception_4a/3x3"
  param {
    lr_mult: 1
    decay_mult: 1
  }
  param {
    lr_mult: 2
    decay_mult: 0
  }
  convolution_param {
    num_output: 208
    pad: 1
    kernel_size: 3
    weight_filler {
      type: "xavier"
    }
    bias_filler {
      type: "constant"
      value: 0.2
    }
  }
}
layer {
  name: "inception_4a/relu_3x3"
  type: "ReLU"
  bottom: "inception_4a/3x3"
  top: "inception_4a/3x3"
}
layer {
  name: "inception_4a/5x5_reduce"
  type: "Convolution"
  bottom: "pool3/3x3_s2"
  top: "inception_4a/5x5_reduce"
  param {
    lr_mult: 1
    decay_mult: 1
  }
  param {
    lr_mult: 2
    decay_mult: 0
  }
  convolution_param {
    num_output: 16
    kernel_size: 1
    weight_filler {
      type: "xavier"
    }
    bias_filler {
      type: "constant"
      value: 0.2
    }
  }
}
layer {
  name: "inception_4a/relu_5x5_reduce"
  type: "ReLU"
  bottom: "inception_4a/5x5_reduce"
  top: "inception_4a/5x5_reduce"
}
layer {
  name: "inception_4a/5x5"
  type: "Convolution"
  bottom: "inception_4a/5x5_reduce"
  top: "inception_4a/5x5"
  param {
    lr_mult: 1
    decay_mult: 1
  }
  param {
    lr_mult: 2
    decay_mult: 0
  }
  convolution_param {
    num_output: 48
    pad: 2
    kernel_size: 5
    weight_filler {
      type: "xavier"
    }
    bias_filler {
      type: "constant"
      value: 0.2
    }
  }
}
layer {
  name: "inception_4a/relu_5x5"
  type: "ReLU"
  bottom: "inception_4a/5x5"
  top: "inception_4a/5x5"
}
layer {
  name: "inception_4a/pool"
  type: "Pooling"
  bottom: "pool3/3x3_s2"
  top: "inception_4a/pool"
  pooling_param {
    pool: MAX
    kernel_size: 3
    stride: 1
    pad: 1
  }
}
layer {
  name: "inception_4a/pool_proj"
  type: "Convolution"
  bottom: "inception_4a/pool"
  top: "inception_4a/pool_proj"
  param {
    lr_mult: 1
    decay_mult: 1
  }
  param {
    lr_mult: 2
    decay_mult: 0
  }
  convolution_param {
    num_output: 64
    kernel_size: 1
    weight_filler {
      type: "xavier"
    }
    bias_filler {
      type: "constant"
      value: 0.2
    }
  }
}
layer {
  name: "inception_4a/relu_pool_proj"
  type: "ReLU"
  bottom: "inception_4a/pool_proj"
  top: "inception_4a/pool_proj"
}
layer {
  name: "inception_4a/output"
  type: "Concat"
  bottom: "inception_4a/1x1"
  bottom: "inception_4a/3x3"
  bottom: "inception_4a/5x5"
  bottom: "inception_4a/pool_proj"
  top: "inception_4a/output"
}
layer {
  name: "loss1/ave_pool"
  type: "Pooling"
  bottom: "inception_4a/output"
  top: "loss1/ave_pool"
  pooling_param {
    pool: AVE
    kernel_size: 5
    stride: 3
  }
}
layer {
  name: "loss1/conv"
  type: "Convolution"
  bottom: "loss1/ave_pool"
  top: "loss1/conv"
  param {
    lr_mult: 1
    decay_mult: 1
  }
  param {
    lr_mult: 2
    decay_mult: 0
  }
  convolution_param {
    num_output: 128
    kernel_size: 1
    weight_filler {
      type: "xavier"
    }
    bias_filler {
      type: "constant"
      value: 0.2
    }
  }
}
layer {
  name: "loss1/relu_conv"
  type: "ReLU"
  bottom: "loss1/conv"
  top: "loss1/conv"
}
layer {
  name: "loss1/fc"
  type: "InnerProduct"
  bottom: "loss1/conv"
  top: "loss1/fc"
  param {
    lr_mult: 1
    decay_mult: 1
  }
  param {
    lr_mult: 2
    decay_mult: 0
  }
  inner_product_param {
    num_output: 1024
    weight_filler {
      type: "xavier"
    }
    bias_filler {
      type: "constant"
      value: 0.2
    }
  }
}
layer {
  name: "loss1/relu_fc"
  type: "ReLU"
  bottom: "loss1/fc"
  top: "loss1/fc"
}
layer {
  name: "loss1/drop_fc"
  type: "Dropout"
  bottom: "loss1/fc"
  top: "loss1/fc"
  dropout_param {
    dropout_ratio: 0.7
  }
}
layer {
  name: "loss1/classifier"
  type: "InnerProduct"
  bottom: "loss1/fc"
  top: "loss1/classifier"
  param {
    lr_mult: 1
    decay_mult: 1
  }
  param {
    lr_mult: 2
    decay_mult: 0
  }
  inner_product_param {
    num_output: 1000
    weight_filler {
      type: "xavier"
    }
    bias_filler {
      type: "constant"
      value: 0
    }
  }
}
layer {
  name: "loss1/loss"
  type: "SoftmaxWithLoss"
…
I1105 19:46:19.421103 21553 net.cpp:129] Top shape: 32 64 14 14 (401408)
I1105 19:46:19.421108 21553 net.cpp:137] Memory required for data: 1401787660
I1105 19:46:19.421114 21553 layer_factory.hpp:77] Creating layer inception_4c/pool
I1105 19:46:19.421123 21553 net.cpp:84] Creating Layer inception_4c/pool
I1105 19:46:19.421130 21553 net.cpp:406] inception_4c/pool <- inception_4b/output_inception_4b/output_0_split_3
I1105 19:46:19.421138 21553 net.cpp:380] inception_4c/pool -> inception_4c/pool
I1105 19:46:19.421187 21553 net.cpp:122] Setting up inception_4c/pool
I1105 19:46:19.421197 21553 net.cpp:129] Top shape: 32 512 14 14 (3211264)
I1105 19:46:19.421203 21553 net.cpp:137] Memory required for data: 1414632716
I1105 19:46:19.421208 21553 layer_factory.hpp:77] Creating layer inception_4c/pool_proj
I1105 19:46:19.421221 21553 net.cpp:84] Creating Layer inception_4c/pool_proj
I1105 19:46:19.421227 21553 net.cpp:406] inception_4c/pool_proj <- inception_4c/pool
I1105 19:46:19.421236 21553 net.cpp:380] inception_4c/pool_proj -> inception_4c/pool_proj
I1105 19:46:19.421700 21553 net.cpp:122] Setting up inception_4c/pool_proj
I1105 19:46:19.421711 21553 net.cpp:129] Top shape: 32 64 14 14 (401408)
I1105 19:46:19.421717 21553 net.cpp:137] Memory required for data: 1416238348
I1105 19:46:19.421725 21553 layer_factory.hpp:77] Creating layer inception_4c/relu_pool_proj
I1105 19:46:19.421733 21553 net.cpp:84] Creating Layer inception_4c/relu_pool_proj
I1105 19:46:19.421739 21553 net.cpp:406] inception_4c/relu_pool_proj <- inception_4c/pool_proj
I1105 19:46:19.421746 21553 net.cpp:367] inception_4c/relu_pool_proj -> inception_4c/pool_proj (in-place)
I1105 19:46:19.421754 21553 net.cpp:122] Setting up inception_4c/relu_pool_proj
I1105 19:46:19.421761 21553 net.cpp:129] Top shape: 32 64 14 14 (401408)
I1105 19:46:19.421767 21553 net.cpp:137] Memory required for data: 1417843980
I1105 19:46:19.421772 21553 layer_factory.hpp:77] Creating layer inception_4c/output
I1105 19:46:19.421782 21553 net.cpp:84] Creating Layer inception_4c/output
I1105 19:46:19.421788 21553 net.cpp:406] inception_4c/output <- inception_4c/1x1
I1105 19:46:19.421795 21553 net.cpp:406] inception_4c/output <- inception_4c/3x3
I1105 19:46:19.421802 21553 net.cpp:406] inception_4c/output <- inception_4c/5x5
I1105 19:46:19.421808 21553 net.cpp:406] inception_4c/output <- inception_4c/pool_proj
I1105 19:46:19.421815 21553 net.cpp:380] inception_4c/output -> inception_4c/output
I1105 19:46:19.421849 21553 net.cpp:122] Setting up inception_4c/output
I1105 19:46:19.421859 21553 net.cpp:129] Top shape: 32 512 14 14 (3211264)
I1105 19:46:19.421864 21553 net.cpp:137] Memory required for data: 1430689036
I1105 19:46:19.421869 21553 layer_factory.hpp:77] Creating layer inception_4c/output_inception_4c/output_0_split
I1105 19:46:19.421882 21553 net.cpp:84] Creating Layer inception_4c/output_inception_4c/output_0_split
I1105 19:46:19.421896 21553 net.cpp:406] inception_4c/output_inception_4c/output_0_split <- inception_4c/output
I1105 19:46:19.421906 21553 net.cpp:380] inception_4c/output_inception_4c/output_0_split -> inception_4c/output_inception_4c/output_0_split_0
I1105 19:46:19.421916 21553 net.cpp:380] inception_4c/output_inception_4c/output_0_split -> inception_4c/output_inception_4c/output_0_split_1
I1105 19:46:19.421923 21553 net.cpp:380] inception_4c/output_inception_4c/output_0_split -> inception_4c/output_inception_4c/output_0_split_2
I1105 19:46:19.421931 21553 net.cpp:380] inception_4c/output_inception_4c/output_0_split -> inception_4c/output_inception_4c/output_0_split_3
I1105 19:46:19.422000 21553 net.cpp:122] Setting up inception_4c/output_inception_4c/output_0_split
I1105 19:46:19.422010 21553 net.cpp:129] Top shape: 32 512 14 14 (3211264)
I1105 19:46:19.422017 21553 net.cpp:129] Top shape: 32 512 14 14 (3211264)
I1105 19:46:19.422024 21553 net.cpp:129] Top shape: 32 512 14 14 (3211264)
I1105 19:46:19.422029 21553 net.cpp:129] Top shape: 32 512 14 14 (3211264)
I1105 19:46:19.422034 21553 net.cpp:137] Memory required for data: 1482069260
I1105 19:46:19.422040 21553 layer_factory.hpp:77] Creating layer inception_4d/1x1
I1105 19:46:19.422053 21553 net.cpp:84] Creating Layer inception_4d/1x1
I1105 19:46:19.422060 21553 net.cpp:406] inception_4d/1x1 <- inception_4c/output_inception_4c/output_0_split_0
I1105 19:46:19.422068 21553 net.cpp:380] inception_4d/1x1 -> inception_4d/1x1
I1105 19:46:19.422700 21553 net.cpp:122] Setting up inception_4d/1x1
I1105 19:46:19.422714 21553 net.cpp:129] Top shape: 32 112 14 14 (702464)
I1105 19:46:19.422720 21553 net.cpp:137] Memory required for data: 1484879116
I1105 19:46:19.422729 21553 layer_factory.hpp:77] Creating layer inception_4d/relu_1x1
I1105 19:46:19.422736 21553 net.cpp:84] Creating Layer inception_4d/relu_1x1
I1105 19:46:19.422744 21553 net.cpp:406] inception_4d/relu_1x1 <- inception_4d/1x1
I1105 19:46:19.422750 21553 net.cpp:367] inception_4d/relu_1x1 -> inception_4d/1x1 (in-place)
I1105 19:46:19.422758 21553 net.cpp:122] Setting up inception_4d/relu_1x1
I1105 19:46:19.422765 21553 net.cpp:129] Top shape: 32 112 14 14 (702464)
I1105 19:46:19.422770 21553 net.cpp:137] Memory required for data: 1487688972
I1105 19:46:19.422776 21553 layer_factory.hpp:77] Creating layer inception_4d/3x3_reduce
I1105 19:46:19.422787 21553 net.cpp:84] Creating Layer inception_4d/3x3_reduce
I1105 19:46:19.422794 21553 net.cpp:406] inception_4d/3x3_reduce <- inception_4c/output_inception_4c/output_0_split_1
I1105 19:46:19.422804 21553 net.cpp:380] inception_4d/3x3_reduce -> inception_4d/3x3_reduce
I1105 19:46:19.423569 21553 net.cpp:122] Setting up inception_4d/3x3_reduce
I1105 19:46:19.423583 21553 net.cpp:129] Top shape: 32 144 14 14 (903168)
I1105 19:46:19.423588 21553 net.cpp:137] Memory required for data: 1491301644
I1105 19:46:19.423595 21553 layer_factory.hpp:77] Creating layer inception_4d/relu_3x3_reduce
I1105 19:46:19.423604 21553 net.cpp:84] Creating Layer inception_4d/relu_3x3_reduce
I1105 19:46:19.423609 21553 net.cpp:406] inception_4d/relu_3x3_reduce <- inception_4d/3x3_reduce
I1105 19:46:19.423617 21553 net.cpp:367] inception_4d/relu_3x3_reduce -> inception_4d/3x3_reduce (in-place)
I1105 19:46:19.423625 21553 net.cpp:122] Setting up inception_4d/relu_3x3_reduce
I1105 19:46:19.423632 21553 net.cpp:129] Top shape: 32 144 14 14 (903168)
I1105 19:46:19.423637 21553 net.cpp:137] Memory required for data: 1494914316
I1105 19:46:19.423642 21553 layer_factory.hpp:77] Creating layer inception_4d/3x3
I1105 19:46:19.423655 21553 net.cpp:84] Creating Layer inception_4d/3x3
I1105 19:46:19.423660 21553 net.cpp:406] inception_4d/3x3 <- inception_4d/3x3_reduce
I1105 19:46:19.423669 21553 net.cpp:380] inception_4d/3x3 -> inception_4d/3x3
I1105 19:46:19.427054 21553 net.cpp:122] Setting up inception_4d/3x3
I1105 19:46:19.427073 21553 net.cpp:129] Top shape: 32 288 14 14 (1806336)
I1105 19:46:19.427079 21553 net.cpp:137] Memory required for data: 1502139660
I1105 19:46:19.427093 21553 layer_factory.hpp:77] Creating layer inception_4d/relu_3x3
I1105 19:46:19.427110 21553 net.cpp:84] Creating Layer inception_4d/relu_3x3
I1105 19:46:19.427119 21553 net.cpp:406] inception_4d/relu_3x3 <- inception_4d/3x3
I1105 19:46:19.427129 21553 net.cpp:367] inception_4d/relu_3x3 -> inception_4d/3x3 (in-place)
I1105 19:46:19.427139 21553 net.cpp:122] Setting up inception_4d/relu_3x3
I1105 19:46:19.427145 21553 net.cpp:129] Top shape: 32 288 14 14 (1806336)
I1105 19:46:19.427151 21553 net.cpp:137] Memory required for data: 1509365004
I1105 19:46:19.427157 21553 layer_factory.hpp:77] Creating layer inception_4d/5x5_reduce
I1105 19:46:19.427167 21553 net.cpp:84] Creating Layer inception_4d/5x5_reduce
I1105 19:46:19.427173 21553 net.cpp:406] inception_4d/5x5_reduce <- inception_4c/output_inception_4c/output_0_split_2
I1105 19:46:19.427183 21553 net.cpp:380] inception_4d/5x5_reduce -> inception_4d/5x5_reduce
I1105 19:46:19.427547 21553 net.cpp:122] Setting up inception_4d/5x5_reduce
I1105 19:46:19.427561 21553 net.cpp:129] Top shape: 32 32 14 14 (200704)
I1105 19:46:19.427565 21553 net.cpp:137] Memory required for data: 1510167820
I1105 19:46:19.427573 21553 layer_factory.hpp:77] Creating layer inception_4d/relu_5x5_reduce
I1105 19:46:19.427582 21553 net.cpp:84] Creating Layer inception_4d/relu_5x5_reduce
I1105 19:46:19.427587 21553 net.cpp:406] inception_4d/relu_5x5_reduce <- inception_4d/5x5_reduce
I1105 19:46:19.427597 21553 net.cpp:367] inception_4d/relu_5x5_reduce -> inception_4d/5x5_reduce (in-place)
I1105 19:46:19.427606 21553 net.cpp:122] Setting up inception_4d/relu_5x5_reduce
I1105 19:46:19.427613 21553 net.cpp:129] Top shape: 32 32 14 14 (200704)
I1105 19:46:19.427618 21553 net.cpp:137] Memory required for data: 1510970636
I1105 19:46:19.427624 21553 layer_factory.hpp:77] Creating layer inception_4d/5x5
I1105 19:46:19.427636 21553 net.cpp:84] Creating Layer inception_4d/5x5
I1105 19:46:19.427642 21553 net.cpp:406] inception_4d/5x5 <- inception_4d/5x5_reduce
I1105 19:46:19.427650 21553 net.cpp:380] inception_4d/5x5 -> inception_4d/5x5
I1105 19:46:19.428728 21553 net.cpp:122] Setting up inception_4d/5x5
I1105 19:46:19.428747 21553 net.cpp:129] Top shape: 32 64 14 14 (401408)
I1105 19:46:19.428753 21553 net.cpp:137] Memory required for data: 1512576268
I1105 19:46:19.428762 21553 layer_factory.hpp:77] Creating layer inception_4d/relu_5x5
I1105 19:46:19.428782 21553 net.cpp:84] Creating Layer inception_4d/relu_5x5
I1105 19:46:19.428791 21553 net.cpp:406] inception_4d/relu_5x5 <- inception_4d/5x5
I1105 19:46:19.428802 21553 net.cpp:367] inception_4d/relu_5x5 -> inception_4d/5x5 (in-place)
I1105 19:46:19.428812 21553 net.cpp:122] Setting up inception_4d/relu_5x5
I1105 19:46:19.428819 21553 net.cpp:129] Top shape: 32 64 14 14 (401408)
I1105 19:46:19.428825 21553 net.cpp:137] Memory required for data: 1514181900
I1105 19:46:19.428830 21553 layer_factory.hpp:77] Creating layer inception_4d/pool
I1105 19:46:19.428839 21553 net.cpp:84] Creating Layer inception_4d/pool
I1105 19:46:19.428845 21553 net.cpp:406] inception_4d/pool <- inception_4c/output_inception_4c/output_0_split_3
I1105 19:46:19.428853 21553 net.cpp:380] inception_4d/pool -> inception_4d/pool
I1105 19:46:19.428903 21553 net.cpp:122] Setting up inception_4d/pool
I1105 19:46:19.428915 21553 net.cpp:129] Top shape: 32 512 14 14 (3211264)
I1105 19:46:19.428920 21553 net.cpp:137] Memory required for data: 1527026956
I1105 19:46:19.428926 21553 layer_factory.hpp:77] Creating layer inception_4d/pool_proj
I1105 19:46:19.428938 21553 net.cpp:84] Creating Layer inception_4d/pool_proj
I1105 19:46:19.428946 21553 net.cpp:406] inception_4d/pool_proj <- inception_4d/pool
I1105 19:46:19.428956 21553 net.cpp:380] inception_4d/pool_proj -> inception_4d/pool_proj
I1105 19:46:19.429419 21553 net.cpp:122] Setting up inception_4d/pool_proj
I1105 19:46:19.429430 21553 net.cpp:129] Top shape: 32 64 14 14 (401408)
I1105 19:46:19.429436 21553 net.cpp:137] Memory required for data: 1528632588
I1105 19:46:19.429445 21553 layer_factory.hpp:77] Creating layer inception_4d/relu_pool_proj
I1105 19:46:19.429457 21553 net.cpp:84] Creating Layer inception_4d/relu_pool_proj
I1105 19:46:19.429471 21553 net.cpp:406] inception_4d/relu_pool_proj <- inception_4d/pool_proj
I1105 19:46:19.429481 21553 net.cpp:367] inception_4d/relu_pool_proj -> inception_4d/pool_proj (in-place)
I1105 19:46:19.429491 21553 net.cpp:122] Setting up inception_4d/relu_pool_proj
I1105 19:46:19.429498 21553 net.cpp:129] Top shape: 32 64 14 14 (401408)
I1105 19:46:19.429503 21553 net.cpp:137] Memory required for data: 1530238220
I1105 19:46:19.429509 21553 layer_factory.hpp:77] Creating layer inception_4d/output
I1105 19:46:19.429517 21553 net.cpp:84] Creating Layer inception_4d/output
I1105 19:46:19.429523 21553 net.cpp:406] inception_4d/output <- inception_4d/1x1
I1105 19:46:19.429530 21553 net.cpp:406] inception_4d/output <- inception_4d/3x3
I1105 19:46:19.429536 21553 net.cpp:406] inception_4d/output <- inception_4d/5x5
I1105 19:46:19.429543 21553 net.cpp:406] inception_4d/output <- inception_4d/pool_proj
I1105 19:46:19.429550 21553 net.cpp:380] inception_4d/output -> inception_4d/output
I1105 19:46:19.429584 21553 net.cpp:122] Setting up inception_4d/output
I1105 19:46:19.429594 21553 net.cpp:129] Top shape: 32 528 14 14 (3311616)
I1105 19:46:19.429600 21553 net.cpp:137] Memory required for data: 1543484684
I1105 19:46:19.429605 21553 layer_factory.hpp:77] Creating layer inception_4d/output_inception_4d/output_0_split
I1105 19:46:19.429613 21553 net.cpp:84] Creating Layer inception_4d/output_inception_4d/output_0_split
I1105 19:46:19.429620 21553 net.cpp:406] inception_4d/output_inception_4d/output_0_split <- inception_4d/output
I1105 19:46:19.429630 21553 net.cpp:380] inception_4d/output_inception_4d/output_0_split -> inception_4d/output_inception_4d/output_0_split_0
I1105 19:46:19.429638 21553 net.cpp:380] inception_4d/output_inception_4d/output_0_split -> inception_4d/output_inception_4d/output_0_split_1
I1105 19:46:19.429646 21553 net.cpp:380] inception_4d/output_inception_4d/output_0_split -> inception_4d/output_inception_4d/output_0_split_2
I1105 19:46:19.429654 21553 net.cpp:380] inception_4d/output_inception_4d/output_0_split -> inception_4d/output_inception_4d/output_0_split_3
I1105 19:46:19.429662 21553 net.cpp:380] inception_4d/output_inception_4d/output_0_split -> inception_4d/output_inception_4d/output_0_split_4
I1105 19:46:19.429740 21553 net.cpp:122] Setting up inception_4d/output_inception_4d/output_0_split
I1105 19:46:19.429750 21553 net.cpp:129] Top shape: 32 528 14 14 (3311616)
I1105 19:46:19.429757 21553 net.cpp:129] Top shape: 32 528 14 14 (3311616)
I1105 19:46:19.429764 21553 net.cpp:129] Top shape: 32 528 14 14 (3311616)
I1105 19:46:19.429770 21553 net.cpp:129] Top shape: 32 528 14 14 (3311616)
I1105 19:46:19.429776 21553 net.cpp:129] Top shape: 32 528 14 14 (3311616)
I1105 19:46:19.429781 21553 net.cpp:137] Memory required for data: 1609717004
I1105 19:46:19.429787 21553 layer_factory.hpp:77] Creating layer loss2/ave_pool
I1105 19:46:19.429796 21553 net.cpp:84] Creating Layer loss2/ave_pool
I1105 19:46:19.429803 21553 net.cpp:406] loss2/ave_pool <- inception_4d/output_inception_4d/output_0_split_0
I1105 19:46:19.429812 21553 net.cpp:380] loss2/ave_pool -> loss2/ave_pool
I1105 19:46:19.429841 21553 net.cpp:122] Setting up loss2/ave_pool
I1105 19:46:19.429852 21553 net.cpp:129] Top shape: 32 528 4 4 (270336)
I1105 19:46:19.429857 21553 net.cpp:137] Memory required for data: 1610798348
I1105 19:46:19.429862 21553 layer_factory.hpp:77] Creating layer loss2/conv
I1105 19:46:19.429875 21553 net.cpp:84] Creating Layer loss2/conv
I1105 19:46:19.429883 21553 net.cpp:406] loss2/conv <- loss2/ave_pool
I1105 19:46:19.429893 21553 net.cpp:380] loss2/conv -> loss2/conv
I1105 19:46:19.431195 21553 net.cpp:122] Setting up loss2/conv
I1105 19:46:19.431213 21553 net.cpp:129] Top shape: 32 128 4 4 (65536)
I1105 19:46:19.431219 21553 net.cpp:137] Memory required for data: 1611060492
I1105 19:46:19.431229 21553 layer_factory.hpp:77] Creating layer loss2/relu_conv
I1105 19:46:19.431243 21553 net.cpp:84] Creating Layer loss2/relu_conv
I1105 19:46:19.431251 21553 net.cpp:406] loss2/relu_conv <- loss2/conv
I1105 19:46:19.431267 21553 net.cpp:367] loss2/relu_conv -> loss2/conv (in-place)
I1105 19:46:19.431277 21553 net.cpp:122] Setting up loss2/relu_conv
I1105 19:46:19.431284 21553 net.cpp:129] Top shape: 32 128 4 4 (65536)
I1105 19:46:19.431290 21553 net.cpp:137] Memory required for data: 1611322636
I1105 19:46:19.431295 21553 layer_factory.hpp:77] Creating layer loss2/fc
I1105 19:46:19.431305 21553 net.cpp:84] Creating Layer loss2/fc
I1105 19:46:19.431311 21553 net.cpp:406] loss2/fc <- loss2/conv
I1105 19:46:19.431320 21553 net.cpp:380] loss2/fc -> loss2/fc
I1105 19:46:19.448035 21553 net.cpp:122] Setting up loss2/fc
I1105 19:46:19.448055 21553 net.cpp:129] Top shape: 32 1024 (32768)
I1105 19:46:19.448062 21553 net.cpp:137] Memory required for data: 1611453708
I1105 19:46:19.448072 21553 layer_factory.hpp:77] Creating layer loss2/relu_fc
I1105 19:46:19.448083 21553 net.cpp:84] Creating Layer loss2/relu_fc
I1105 19:46:19.448091 21553 net.cpp:406] loss2/relu_fc <- loss2/fc
I1105 19:46:19.448098 21553 net.cpp:367] loss2/relu_fc -> loss2/fc (in-place)
I1105 19:46:19.448107 21553 net.cpp:122] Setting up loss2/relu_fc
I1105 19:46:19.448114 21553 net.cpp:129] Top shape: 32 1024 (32768)
I1105 19:46:19.448120 21553 net.cpp:137] Memory required for data: 1611584780
I1105 19:46:19.448125 21553 layer_factory.hpp:77] Creating layer loss2/drop_fc
I1105 19:46:19.448135 21553 net.cpp:84] Creating Layer loss2/drop_fc
I1105 19:46:19.448141 21553 net.cpp:406] loss2/drop_fc <- loss2/fc
I1105 19:46:19.448148 21553 net.cpp:367] loss2/drop_fc -> loss2/fc (in-place)
I1105 19:46:19.448186 21553 net.cpp:122] Setting up loss2/drop_fc
I1105 19:46:19.448196 21553 net.cpp:129] Top shape: 32 1024 (32768)
I1105 19:46:19.448201 21553 net.cpp:137] Memory required for data: 1611715852
I1105 19:46:19.448207 21553 layer_factory.hpp:77] Creating layer loss2/classifier
I1105 19:46:19.448218 21553 net.cpp:84] Creating Layer loss2/classifier
I1105 19:46:19.448225 21553 net.cpp:406] loss2/classifier <- loss2/fc
I1105 19:46:19.448235 21553 net.cpp:380] loss2/classifier -> loss2/classifier
I1105 19:46:19.456537 21553 net.cpp:122] Setting up loss2/classifier
I1105 19:46:19.456557 21553 net.cpp:129] Top shape: 32 1000 (32000)
I1105 19:46:19.456563 21553 net.cpp:137] Memory required for data: 1611843852
I1105 19:46:19.456573 21553 layer_factory.hpp:77] Creating layer loss2/classifier_loss2/classifier_0_split
I1105 19:46:19.456583 21553 net.cpp:84] Creating Layer loss2/classifier_loss2/classifier_0_split
I1105 19:46:19.456589 21553 net.cpp:406] loss2/classifier_loss2/classifier_0_split <- loss2/classifier
I1105 19:46:19.456600 21553 net.cpp:380] loss2/classifier_loss2/classifier_0_split -> loss2/classifier_loss2/classifier_0_split_0
I1105 19:46:19.456610 21553 net.cpp:380] loss2/classifier_loss2/classifier_0_split -> loss2/classifier_loss2/classifier_0_split_1
I1105 19:46:19.456619 21553 net.cpp:380] loss2/classifier_loss2/classifier_0_split -> loss2/classifier_loss2/classifier_0_split_2
I1105 19:46:19.456681 21553 net.cpp:122] Setting up loss2/classifier_loss2/classifier_0_split
I1105 19:46:19.456693 21553 net.cpp:129] Top shape: 32 1000 (32000)
I1105 19:46:19.456699 21553 net.cpp:129] Top shape: 32 1000 (32000)
I1105 19:46:19.456707 21553 net.cpp:129] Top shape: 32 1000 (32000)
I1105 19:46:19.456712 21553 net.cpp:137] Memory required for data: 1612227852
I1105 19:46:19.456717 21553 layer_factory.hpp:77] Creating layer loss2/loss
I1105 19:46:19.456725 21553 net.cpp:84] Creating Layer loss2/loss
I1105 19:46:19.456732 21553 net.cpp:406] loss2/loss <- loss2/classifier_loss2/classifier_0_split_0
I1105 19:46:19.456739 21553 net.cpp:406] loss2/loss <- label_data_1_split_3
…
I1105 19:46:19.457067 21553 net.cpp:122] Setting up loss2/top-5
I1105 19:46:19.457073 21553 net.cpp:129] Top shape: (1)
I1105 19:46:19.457079 21553 net.cpp:137] Memory required for data: 1612227864
I1105 19:46:19.457084 21553 layer_factory.hpp:77] Creating layer inception_4e/1x1
I1105 19:46:19.457098 21553 net.cpp:84] Creating Layer inception_4e/1x1
I1105 19:46:19.457105 21553 net.cpp:406] inception_4e/1x1 <- inception_4d/output_inception_4d/output_0_split_1
I1105 19:46:19.457114 21553 net.cpp:380] inception_4e/1x1 -> inception_4e/1x1
I1105 19:46:19.458302 21553 net.cpp:122] Setting up inception_4e/1x1
I1105 19:46:19.458317 21553 net.cpp:129] Top shape: 32 256 14 14 (1605632)
I1105 19:46:19.458323 21553 net.cpp:137] Memory required for data: 1618650392
I1105 19:46:19.458331 21553 layer_factory.hpp:77] Creating layer inception_4e/relu_1x1
I1105 19:46:19.458339 21553 net.cpp:84] Creating Layer inception_4e/relu_1x1
I1105 19:46:19.458346 21553 net.cpp:406] inception_4e/relu_1x1 <- inception_4e/1x1
I1105 19:46:19.458355 21553 net.cpp:367] inception_4e/relu_1x1 -> inception_4e/1x1 (in-place)
I1105 19:46:19.458364 21553 net.cpp:122] Setting up inception_4e/relu_1x1
I1105 19:46:19.458371 21553 net.cpp:129] Top shape: 32 256 14 14 (1605632)
I1105 19:46:19.458377 21553 net.cpp:137] Memory required for data: 1625072920
I1105 19:46:19.458382 21553 layer_factory.hpp:77] Creating layer inception_4e/3x3_reduce
I1105 19:46:19.458411 21553 net.cpp:84] Creating Layer inception_4e/3x3_reduce
I1105 19:46:19.458420 21553 net.cpp:406] inception_4e/3x3_reduce <- inception_4d/output_inception_4d/output_0_split_2
I1105 19:46:19.458427 21553 net.cpp:380] inception_4e/3x3_reduce -> inception_4e/3x3_reduce
I1105 19:46:19.459740 21553 net.cpp:122] Setting up inception_4e/3x3_reduce
I1105 19:46:19.459759 21553 net.cpp:129] Top shape: 32 160 14 14 (1003520)
I1105 19:46:19.459765 21553 net.cpp:137] Memory required for data: 1629087000
I1105 19:46:19.459775 21553 layer_factory.hpp:77] Creating layer inception_4e/relu_3x3_reduce
I1105 19:46:19.459784 21553 net.cpp:84] Creating Layer inception_4e/relu_3x3_reduce
I1105 19:46:19.459791 21553 net.cpp:406] inception_4e/relu_3x3_reduce <- inception_4e/3x3_reduce
I1105 19:46:19.459801 21553 net.cpp:367] inception_4e/relu_3x3_reduce -> inception_4e/3x3_reduce (in-place)
I1105 19:46:19.459810 21553 net.cpp:122] Setting up inception_4e/relu_3x3_reduce
I1105 19:46:19.459817 21553 net.cpp:129] Top shape: 32 160 14 14 (1003520)
I1105 19:46:19.459823 21553 net.cpp:137] Memory required for data: 1633101080
I1105 19:46:19.459828 21553 layer_factory.hpp:77] Creating layer inception_4e/3x3
I1105 19:46:19.459843 21553 net.cpp:84] Creating Layer inception_4e/3x3
I1105 19:46:19.459851 21553 net.cpp:406] inception_4e/3x3 <- inception_4e/3x3_reduce
I1105 19:46:19.459858 21553 net.cpp:380] inception_4e/3x3 -> inception_4e/3x3
I1105 19:46:19.464376 21553 net.cpp:122] Setting up inception_4e/3x3
I1105 19:46:19.464395 21553 net.cpp:129] Top shape: 32 320 14 14 (2007040)
I1105 19:46:19.464406 21553 net.cpp:137] Memory required for data: 1641129240
I1105 19:46:19.464423 21553 layer_factory.hpp:77] Creating layer inception_4e/relu_3x3
I1105 19:46:19.464433 21553 net.cpp:84] Creating Layer inception_4e/relu_3x3
I1105 19:46:19.464440 21553 net.cpp:406] inception_4e/relu_3x3 <- inception_4e/3x3
I1105 19:46:19.464448 21553 net.cpp:367] inception_4e/relu_3x3 -> inception_4e/3x3 (in-place)
I1105 19:46:19.464457 21553 net.cpp:122] Setting up inception_4e/relu_3x3
I1105 19:46:19.464464 21553 net.cpp:129] Top shape: 32 320 14 14 (2007040)
I1105 19:46:19.464470 21553 net.cpp:137] Memory required for data: 1649157400
I1105 19:46:19.464475 21553 layer_factory.hpp:77] Creating layer inception_4e/5x5_reduce
I1105 19:46:19.464488 21553 net.cpp:84] Creating Layer inception_4e/5x5_reduce
I1105 19:46:19.464495 21553 net.cpp:406] inception_4e/5x5_reduce <- inception_4d/output_inception_4d/output_0_split_3
I1105 19:46:19.464505 21553 net.cpp:380] inception_4e/5x5_reduce -> inception_4e/5x5_reduce
I1105 19:46:19.464853 21553 net.cpp:122] Setting up inception_4e/5x5_reduce
I1105 19:46:19.464867 21553 net.cpp:129] Top shape: 32 32 14 14 (200704)
I1105 19:46:19.464874 21553 net.cpp:137] Memory required for data: 1649960216
I1105 19:46:19.464881 21553 layer_factory.hpp:77] Creating layer inception_4e/relu_5x5_reduce
I1105 19:46:19.464890 21553 net.cpp:84] Creating Layer inception_4e/relu_5x5_reduce
I1105 19:46:19.464895 21553 net.cpp:406] inception_4e/relu_5x5_reduce <- inception_4e/5x5_reduce
I1105 19:46:19.464905 21553 net.cpp:367] inception_4e/relu_5x5_reduce -> inception_4e/5x5_reduce (in-place)
I1105 19:46:19.464913 21553 net.cpp:122] Setting up inception_4e/relu_5x5_reduce
I1105 19:46:19.464920 21553 net.cpp:129] Top shape: 32 32 14 14 (200704)
I1105 19:46:19.464926 21553 net.cpp:137] Memory required for data: 1650763032
I1105 19:46:19.464931 21553 layer_factory.hpp:77] Creating layer inception_4e/5x5
I1105 19:46:19.464942 21553 net.cpp:84] Creating Layer inception_4e/5x5
I1105 19:46:19.464948 21553 net.cpp:406] inception_4e/5x5 <- inception_4e/5x5_reduce
I1105 19:46:19.464957 21553 net.cpp:380] inception_4e/5x5 -> inception_4e/5x5
I1105 19:46:19.465868 21553 net.cpp:122] Setting up inception_4e/5x5
I1105 19:46:19.465883 21553 net.cpp:129] Top shape: 32 128 14 14 (802816)
I1105 19:46:19.465889 21553 net.cpp:137] Memory required for data: 1653974296
I1105 19:46:19.465898 21553 layer_factory.hpp:77] Creating layer inception_4e/relu_5x5
I1105 19:46:19.465905 21553 net.cpp:84] Creating Layer inception_4e/relu_5x5
I1105 19:46:19.465912 21553 net.cpp:406] inception_4e/relu_5x5 <- inception_4e/5x5
I1105 19:46:19.465921 21553 net.cpp:367] inception_4e/relu_5x5 -> inception_4e/5x5 (in-place)
I1105 19:46:19.465929 21553 net.cpp:122] Setting up inception_4e/relu_5x5
I1105 19:46:19.465936 21553 net.cpp:129] Top shape: 32 128 14 14 (802816)
I1105 19:46:19.465942 21553 net.cpp:137] Memory required for data: 1657185560
I1105 19:46:19.465947 21553 layer_factory.hpp:77] Creating layer inception_4e/pool
I1105 19:46:19.465956 21553 net.cpp:84] Creating Layer inception_4e/pool
I1105 19:46:19.465962 21553 net.cpp:406] inception_4e/pool <- inception_4d/output_inception_4d/output_0_split_4
I1105 19:46:19.465971 21553 net.cpp:380] inception_4e/pool -> inception_4e/pool
I1105 19:46:19.466012 21553 net.cpp:122] Setting up inception_4e/pool
I1105 19:46:19.466022 21553 net.cpp:129] Top shape: 32 528 14 14 (3311616)
I1105 19:46:19.466028 21553 net.cpp:137] Memory required for data: 1670432024
I1105 19:46:19.466033 21553 layer_factory.hpp:77] Creating layer inception_4e/pool_proj
I1105 19:46:19.466045 21553 net.cpp:84] Creating Layer inception_4e/pool_proj
I1105 19:46:19.466053 21553 net.cpp:406] inception_4e/pool_proj <- inception_4e/pool
I1105 19:46:19.466061 21553 net.cpp:380] inception_4e/pool_proj -> inception_4e/pool_proj
I1105 19:46:19.466717 21553 net.cpp:122] Setting up inception_4e/pool_proj
I1105 19:46:19.466729 21553 net.cpp:129] Top shape: 32 128 14 14 (802816)
I1105 19:46:19.466734 21553 net.cpp:137] Memory required for data: 1673643288
I1105 19:46:19.466749 21553 layer_factory.hpp:77] Creating layer inception_4e/relu_pool_proj
I1105 19:46:19.466764 21553 net.cpp:84] Creating Layer inception_4e/relu_pool_proj
I1105 19:46:19.466773 21553 net.cpp:406] inception_4e/relu_pool_proj <- inception_4e/pool_proj
I1105 19:46:19.466779 21553 net.cpp:367] inception_4e/relu_pool_proj -> inception_4e/pool_proj (in-place)
I1105 19:46:19.466787 21553 net.cpp:122] Setting up inception_4e/relu_pool_proj
I1105 19:46:19.466794 21553 net.cpp:129] Top shape: 32 128 14 14 (802816)
I1105 19:46:19.466799 21553 net.cpp:137] Memory required for data: 1676854552
I1105 19:46:19.466805 21553 layer_factory.hpp:77] Creating layer inception_4e/output
I1105 19:46:19.466815 21553 net.cpp:84] Creating Layer inception_4e/output
I1105 19:46:19.466821 21553 net.cpp:406] inception_4e/output <- inception_4e/1x1
I1105 19:46:19.466830 21553 net.cpp:406] inception_4e/output <- inception_4e/3x3
I1105 19:46:19.466835 21553 net.cpp:406] inception_4e/output <- inception_4e/5x5
I1105 19:46:19.466842 21553 net.cpp:406] inception_4e/output <- inception_4e/pool_proj
I1105 19:46:19.466850 21553 net.cpp:380] inception_4e/output -> inception_4e/output
I1105 19:46:19.466878 21553 net.cpp:122] Setting up inception_4e/output
I1105 19:46:19.466888 21553 net.cpp:129] Top shape: 32 832 14 14 (5218304)
I1105 19:46:19.466894 21553 net.cpp:137] Memory required for data: 1697727768
I1105 19:46:19.466899 21553 layer_factory.hpp:77] Creating layer pool4/3x3_s2
I1105 19:46:19.466913 21553 net.cpp:84] Creating Layer pool4/3x3_s2
I1105 19:46:19.466920 21553 net.cpp:406] pool4/3x3_s2 <- inception_4e/output
I1105 19:46:19.466930 21553 net.cpp:380] pool4/3x3_s2 -> pool4/3x3_s2
I1105 19:46:19.466969 21553 net.cpp:122] Setting up pool4/3x3_s2
I1105 19:46:19.466979 21553 net.cpp:129] Top shape: 32 832 7 7 (1304576)
I1105 19:46:19.466984 21553 net.cpp:137] Memory required for data: 1702946072
I1105 19:46:19.466990 21553 layer_factory.hpp:77] Creating layer pool4/3x3_s2_pool4/3x3_s2_0_split
I1105 19:46:19.467000 21553 net.cpp:84] Creating Layer pool4/3x3_s2_pool4/3x3_s2_0_split
I1105 19:46:19.467007 21553 net.cpp:406] pool4/3x3_s2_pool4/3x3_s2_0_split <- pool4/3x3_s2
I1105 19:46:19.467015 21553 net.cpp:380] pool4/3x3_s2_pool4/3x3_s2_0_split -> pool4/3x3_s2_pool4/3x3_s2_0_split_0
I1105 19:46:19.467022 21553 net.cpp:380] pool4/3x3_s2_pool4/3x3_s2_0_split -> pool4/3x3_s2_pool4/3x3_s2_0_split_1
I1105 19:46:19.467031 21553 net.cpp:380] pool4/3x3_s2_pool4/3x3_s2_0_split -> pool4/3x3_s2_pool4/3x3_s2_0_split_2
I1105 19:46:19.467056 21553 net.cpp:380] pool4/3x3_s2_pool4/3x3_s2_0_split -> pool4/3x3_s2_pool4/3x3_s2_0_split_3
I1105 19:46:19.467111 21553 net.cpp:122] Setting up pool4/3x3_s2_pool4/3x3_s2_0_split
I1105 19:46:19.467123 21553 net.cpp:129] Top shape: 32 832 7 7 (1304576)
I1105 19:46:19.467128 21553 net.cpp:129] Top shape: 32 832 7 7 (1304576)
I1105 19:46:19.467139 21553 net.cpp:129] Top shape: 32 832 7 7 (1304576)
I1105 19:46:19.467146 21553 net.cpp:129] Top shape: 32 832 7 7 (1304576)
I1105 19:46:19.467152 21553 net.cpp:137] Memory required for data: 1723819288
I1105 19:46:19.467159 21553 layer_factory.hpp:77] Creating layer inception_5a/1x1
I1105 19:46:19.467171 21553 net.cpp:84] Creating Layer inception_5a/1x1
I1105 19:46:19.467177 21553 net.cpp:406] inception_5a/1x1 <- pool4/3x3_s2_pool4/3x3_s2_0_split_0
I1105 19:46:19.467186 21553 net.cpp:380] inception_5a/1x1 -> inception_5a/1x1
I1105 19:46:19.469322 21553 net.cpp:122] Setting up inception_5a/1x1
I1105 19:46:19.469342 21553 net.cpp:129] Top shape: 32 256 7 7 (401408)
I1105 19:46:19.469348 21553 net.cpp:137] Memory required for data: 1725424920
I1105 19:46:19.469358 21553 layer_factory.hpp:77] Creating layer inception_5a/relu_1x1
I1105 19:46:19.469369 21553 net.cpp:84] Creating Layer inception_5a/relu_1x1
I1105 19:46:19.469377 21553 net.cpp:406] inception_5a/relu_1x1 <- inception_5a/1x1
I1105 19:46:19.469383 21553 net.cpp:367] inception_5a/relu_1x1 -> inception_5a/1x1 (in-place)
I1105 19:46:19.469393 21553 net.cpp:122] Setting up inception_5a/relu_1x1
I1105 19:46:19.469406 21553 net.cpp:129] Top shape: 32 256 7 7 (401408)
I1105 19:46:19.469419 21553 net.cpp:137] Memory required for data: 1727030552
I1105 19:46:19.469426 21553 layer_factory.hpp:77] Creating layer inception_5a/3x3_reduce
I1105 19:46:19.469439 21553 net.cpp:84] Creating Layer inception_5a/3x3_reduce
I1105 19:46:19.469446 21553 net.cpp:406] inception_5a/3x3_reduce <- pool4/3x3_s2_pool4/3x3_s2_0_split_1
I1105 19:46:19.469455 21553 net.cpp:380] inception_5a/3x3_reduce -> inception_5a/3x3_reduce
I1105 19:46:19.471051 21553 net.cpp:122] Setting up inception_5a/3x3_reduce
I1105 19:46:19.471071 21553 net.cpp:129] Top shape: 32 160 7 7 (250880)
I1105 19:46:19.471076 21553 net.cpp:137] Memory required for data: 1728034072
I1105 19:46:19.471086 21553 layer_factory.hpp:77] Creating layer inception_5a/relu_3x3_reduce
I1105 19:46:19.471094 21553 net.cpp:84] Creating Layer inception_5a/relu_3x3_reduce
I1105 19:46:19.471101 21553 net.cpp:406] inception_5a/relu_3x3_reduce <- inception_5a/3x3_reduce
I1105 19:46:19.471110 21553 net.cpp:367] inception_5a/relu_3x3_reduce -> inception_5a/3x3_reduce (in-place)
I1105 19:46:19.471120 21553 net.cpp:122] Setting up inception_5a/relu_3x3_reduce
I1105 19:46:19.471127 21553 net.cpp:129] Top shape: 32 160 7 7 (250880)
I1105 19:46:19.471132 21553 net.cpp:137] Memory required for data: 1729037592
I1105 19:46:19.471138 21553 layer_factory.hpp:77] Creating layer inception_5a/3x3
I1105 19:46:19.471149 21553 net.cpp:84] Creating Layer inception_5a/3x3
I1105 19:46:19.471155 21553 net.cpp:406] inception_5a/3x3 <- inception_5a/3x3_reduce
I1105 19:46:19.471165 21553 net.cpp:380] inception_5a/3x3 -> inception_5a/3x3
I1105 19:46:19.475185 21553 net.cpp:122] Setting up inception_5a/3x3
I1105 19:46:19.475205 21553 net.cpp:129] Top shape: 32 320 7 7 (501760)
I1105 19:46:19.475211 21553 net.cpp:137] Memory required for data: 1731044632
I1105 19:46:19.475220 21553 layer_factory.hpp:77] Creating layer inception_5a/relu_3x3
I1105 19:46:19.475231 21553 net.cpp:84] Creating Layer inception_5a/relu_3x3
I1105 19:46:19.475239 21553 net.cpp:406] inception_5a/relu_3x3 <- inception_5a/3x3
I1105 19:46:19.475247 21553 net.cpp:367] inception_5a/relu_3x3 -> inception_5a/3x3 (in-place)
I1105 19:46:19.475256 21553 net.cpp:122] Setting up inception_5a/relu_3x3
I1105 19:46:19.475263 21553 net.cpp:129] Top shape: 32 320 7 7 (501760)
I1105 19:46:19.475270 21553 net.cpp:137] Memory required for data: 1733051672
I1105 19:46:19.475275 21553 layer_factory.hpp:77] Creating layer inception_5a/5x5_reduce
I1105 19:46:19.475286 21553 net.cpp:84] Creating Layer inception_5a/5x5_reduce
I1105 19:46:19.475293 21553 net.cpp:406] inception_5a/5x5_reduce <- pool4/3x3_s2_pool4/3x3_s2_0_split_2
I1105 19:46:19.475302 21553 net.cpp:380] inception_5a/5x5_reduce -> inception_5a/5x5_reduce
I1105 19:46:19.475709 21553 net.cpp:122] Setting up inception_5a/5x5_reduce
I1105 19:46:19.475723 21553 net.cpp:129] Top shape: 32 32 7 7 (50176)
I1105 19:46:19.475728 21553 net.cpp:137] Memory required for data: 1733252376
I1105 19:46:19.475738 21553 layer_factory.hpp:77] Creating layer inception_5a/relu_5x5_reduce
I1105 19:46:19.475747 21553 net.cpp:84] Creating Layer inception_5a/relu_5x5_reduce
I1105 19:46:19.475754 21553 net.cpp:406] inception_5a/relu_5x5_reduce <- inception_5a/5x5_reduce
I1105 19:46:19.475761 21553 net.cpp:367] inception_5a/relu_5x5_reduce -> inception_5a/5x5_reduce (in-place)
I1105 19:46:19.475770 21553 net.cpp:122] Setting up inception_5a/relu_5x5_reduce
I1105 19:46:19.475777 21553 net.cpp:129] Top shape: 32 32 7 7 (50176)
I1105 19:46:19.475782 21553 net.cpp:137] Memory required for data: 1733453080
I1105 19:46:19.475788 21553 layer_factory.hpp:77] Creating layer inception_5a/5x5
I1105 19:46:19.475800 21553 net.cpp:84] Creating Layer inception_5a/5x5
I1105 19:46:19.475806 21553 net.cpp:406] inception_5a/5x5 <- inception_5a/5x5_reduce
I1105 19:46:19.475816 21553 net.cpp:380] inception_5a/5x5 -> inception_5a/5x5
I1105 19:46:19.476727 21553 net.cpp:122] Setting up inception_5a/5x5
I1105 19:46:19.476742 21553 net.cpp:129] Top shape: 32 128 7 7 (200704)
I1105 19:46:19.476752 21553 net.cpp:137] Memory required for data: 1734255896
I1105 19:46:19.476781 21553 layer_factory.hpp:77] Creating layer inception_5a/relu_5x5
I1105 19:46:19.476794 21553 net.cpp:84] Creating Layer inception_5a/relu_5x5
I1105 19:46:19.476800 21553 net.cpp:406] inception_5a/relu_5x5 <- inception_5a/5x5
I1105 19:46:19.476807 21553 net.cpp:367] inception_5a/relu_5x5 -> inception_5a/5x5 (in-place)
I1105 19:46:19.476816 21553 net.cpp:122] Setting up inception_5a/relu_5x5
I1105 19:46:19.476824 21553 net.cpp:129] Top shape: 32 128 7 7 (200704)
I1105 19:46:19.476830 21553 net.cpp:137] Memory required for data: 1735058712
I1105 19:46:19.476835 21553 layer_factory.hpp:77] Creating layer inception_5a/pool
I1105 19:46:19.476845 21553 net.cpp:84] Creating Layer inception_5a/pool
I1105 19:46:19.476852 21553 net.cpp:406] inception_5a/pool <- pool4/3x3_s2_pool4/3x3_s2_0_split_3
I1105 19:46:19.476861 21553 net.cpp:380] inception_5a/pool -> inception_5a/pool
I1105 19:46:19.476910 21553 net.cpp:122] Setting up inception_5a/pool
I1105 19:46:19.476922 21553 net.cpp:129] Top shape: 32 832 7 7 (1304576)
I1105 19:46:19.476927 21553 net.cpp:137] Memory required for data: 1740277016
I1105 19:46:19.476933 21553 layer_factory.hpp:77] Creating layer inception_5a/pool_proj
I1105 19:46:19.476946 21553 net.cpp:84] Creating Layer inception_5a/pool_proj
I1105 19:46:19.476953 21553 net.cpp:406] inception_5a/pool_proj <- inception_5a/pool
I1105 19:46:19.476963 21553 net.cpp:380] inception_5a/pool_proj -> inception_5a/pool_proj
I1105 19:46:19.478368 21553 net.cpp:122] Setting up inception_5a/pool_proj
I1105 19:46:19.478386 21553 net.cpp:129] Top shape: 32 128 7 7 (200704)
I1105 19:46:19.478392 21553 net.cpp:137] Memory required for data: 1741079832
I1105 19:46:19.478401 21553 layer_factory.hpp:77] Creating layer inception_5a/relu_pool_proj
I1105 19:46:19.478412 21553 net.cpp:84] Creating Layer inception_5a/relu_pool_proj
I1105 19:46:19.478420 21553 net.cpp:406] inception_5a/relu_pool_proj <- inception_5a/pool_proj
I1105 19:46:19.478428 21553 net.cpp:367] inception_5a/relu_pool_proj -> inception_5a/pool_proj (in-place)
I1105 19:46:19.478437 21553 net.cpp:122] Setting up inception_5a/relu_pool_proj
I1105 19:46:19.478444 21553 net.cpp:129] Top shape: 32 128 7 7 (200704)
I1105 19:46:19.478451 21553 net.cpp:137] Memory required for data: 1741882648
I1105 19:46:19.478456 21553 layer_factory.hpp:77] Creating layer inception_5a/output
I1105 19:46:19.478466 21553 net.cpp:84] Creating Layer inception_5a/output
I1105 19:46:19.478471 21553 net.cpp:406] inception_5a/output <- inception_5a/1x1
I1105 19:46:19.478478 21553 net.cpp:406] inception_5a/output <- inception_5a/3x3
I1105 19:46:19.478484 21553 net.cpp:406] inception_5a/output <- inception_5a/5x5
I1105 19:46:19.478490 21553 net.cpp:406] inception_5a/output <- inception_5a/pool_proj
I1105 19:46:19.478497 21553 net.cpp:380] inception_5a/output -> inception_5a/output
I1105 19:46:19.478524 21553 net.cpp:122] Setting up inception_5a/output
I1105 19:46:19.478534 21553 net.cpp:129] Top shape: 32 832 7 7 (1304576)
I1105 19:46:19.478539 21553 net.cpp:137] Memory required for data: 1747100952
I1105 19:46:19.478545 21553 layer_factory.hpp:77] Creating layer inception_5a/output_inception_5a/output_0_split
I1105 19:46:19.478555 21553 net.cpp:84] Creating Layer inception_5a/output_inception_5a/output_0_split
I1105 19:46:19.478561 21553 net.cpp:406] inception_5a/output_inception_5a/output_0_split <- inception_5a/output
I1105 19:46:19.478570 21553 net.cpp:380] inception_5a/output_inception_5a/output_0_split -> inception_5a/output_inception_5a/output_0_split_0
I1105 19:46:19.478580 21553 net.cpp:380] inception_5a/output_inception_5a/output_0_split -> inception_5a/output_inception_5a/output_0_split_1
I1105 19:46:19.478588 21553 net.cpp:380] inception_5a/output_inception_5a/output_0_split -> inception_5a/output_inception_5a/output_0_split_2
I1105 19:46:19.478596 21553 net.cpp:380] inception_5a/output_inception_5a/output_0_split -> inception_5a/output_inception_5a/output_0_split_3
I1105 19:46:19.478657 21553 net.cpp:122] Setting up inception_5a/output_inception_5a/output_0_split
I1105 19:46:19.478675 21553 net.cpp:129] Top shape: 32 832 7 7 (1304576)
I1105 19:46:19.478683 21553 net.cpp:129] Top shape: 32 832 7 7 (1304576)
I1105 19:46:19.478689 21553 net.cpp:129] Top shape: 32 832 7 7 (1304576)
I1105 19:46:19.478695 21553 net.cpp:129] Top shape: 32 832 7 7 (1304576)
I1105 19:46:19.478701 21553 net.cpp:137] Memory required for data: 1767974168
I1105 19:46:19.478706 21553 layer_factory.hpp:77] Creating layer inception_5b/1x1
I1105 19:46:19.478720 21553 net.cpp:84] Creating Layer inception_5b/1x1
I1105 19:46:19.478727 21553 net.cpp:406] inception_5b/1x1 <- inception_5a/output_inception_5a/output_0_split_0
I1105 19:46:19.478737 21553 net.cpp:380] inception_5b/1x1 -> inception_5b/1x1
I1105 19:46:19.481652 21553 net.cpp:122] Setting up inception_5b/1x1
I1105 19:46:19.481673 21553 net.cpp:129] Top shape: 32 384 7 7 (602112)
I1105 19:46:19.481678 21553 net.cpp:137] Memory required for data: 1770382616
I1105 19:46:19.481688 21553 layer_factory.hpp:77] Creating layer inception_5b/relu_1x1
I1105 19:46:19.481699 21553 net.cpp:84] Creating Layer inception_5b/relu_1x1
I1105 19:46:19.481706 21553 net.cpp:406] inception_5b/relu_1x1 <- inception_5b/1x1
I1105 19:46:19.481714 21553 net.cpp:367] inception_5b/relu_1x1 -> inception_5b/1x1 (in-place)
I1105 19:46:19.481724 21553 net.cpp:122] Setting up inception_5b/relu_1x1
I1105 19:46:19.481730 21553 net.cpp:129] Top shape: 32 384 7 7 (602112)
I1105 19:46:19.481736 21553 net.cpp:137] Memory required for data: 1772791064
I1105 19:46:19.481741 21553 layer_factory.hpp:77] Creating layer inception_5b/3x3_reduce
I1105 19:46:19.481756 21553 net.cpp:84] Creating Layer inception_5b/3x3_reduce
I1105 19:46:19.481765 21553 net.cpp:406] inception_5b/3x3_reduce <- inception_5a/output_inception_5a/output_0_split_1
I1105 19:46:19.481772 21553 net.cpp:380] inception_5b/3x3_reduce -> inception_5b/3x3_reduce
I1105 19:46:19.483551 21553 net.cpp:122] Setting up inception_5b/3x3_reduce
I1105 19:46:19.483570 21553 net.cpp:129] Top shape: 32 192 7 7 (301056)
I1105 19:46:19.483577 21553 net.cpp:137] Memory required for data: 1773995288
I1105 19:46:19.483585 21553 layer_factory.hpp:77] Creating layer inception_5b/relu_3x3_reduce
I1105 19:46:19.483594 21553 net.cpp:84] Creating Layer inception_5b/relu_3x3_reduce
I1105 19:46:19.483602 21553 net.cpp:406] inception_5b/relu_3x3_reduce <- inception_5b/3x3_reduce
I1105 19:46:19.483609 21553 net.cpp:367] inception_5b/relu_3x3_reduce -> inception_5b/3x3_reduce (in-place)
I1105 19:46:19.483618 21553 net.cpp:122] Setting up inception_5b/relu_3x3_reduce
I1105 19:46:19.483625 21553 net.cpp:129] Top shape: 32 192 7 7 (301056)
I1105 19:46:19.483630 21553 net.cpp:137] Memory required for data: 1775199512
I1105 19:46:19.483636 21553 layer_factory.hpp:77] Creating layer inception_5b/3x3
I1105 19:46:19.483649 21553 net.cpp:84] Creating Layer inception_5b/3x3
I1105 19:46:19.483656 21553 net.cpp:406] inception_5b/3x3 <- inception_5b/3x3_reduce
I1105 19:46:19.483666 21553 net.cpp:380] inception_5b/3x3 -> inception_5b/3x3
I1105 19:46:19.490933 21553 net.cpp:122] Setting up inception_5b/3x3
I1105 19:46:19.490953 21553 net.cpp:129] Top shape: 32 384 7 7 (602112)
I1105 19:46:19.490959 21553 net.cpp:137] Memory required for data: 1777607960
I1105 19:46:19.490969 21553 layer_factory.hpp:77] Creating layer inception_5b/relu_3x3
I1105 19:46:19.490978 21553 net.cpp:84] Creating Layer inception_5b/relu_3x3
I1105 19:46:19.490985 21553 net.cpp:406] inception_5b/relu_3x3 <- inception_5b/3x3
I1105 19:46:19.490993 21553 net.cpp:367] inception_5b/relu_3x3 -> inception_5b/3x3 (in-place)
I1105 19:46:19.491003 21553 net.cpp:122] Setting up inception_5b/relu_3x3
I1105 19:46:19.491009 21553 net.cpp:129] Top shape: 32 384 7 7 (602112)
I1105 19:46:19.491015 21553 net.cpp:137] Memory required for data: 1780016408
I1105 19:46:19.491020 21553 layer_factory.hpp:77] Creating layer inception_5b/5x5_reduce
I1105 19:46:19.491034 21553 net.cpp:84] Creating Layer inception_5b/5x5_reduce
I1105 19:46:19.491046 21553 net.cpp:406] inception_5b/5x5_reduce <- inception_5a/output_inception_5a/output_0_split_2
I1105 19:46:19.491063 21553 net.cpp:380] inception_5b/5x5_reduce -> inception_5b/5x5_reduce
I1105 19:46:19.491571 21553 net.cpp:122] Setting up inception_5b/5x5_reduce
I1105 19:46:19.491585 21553 net.cpp:129] Top shape: 32 48 7 7 (75264)
I1105 19:46:19.491590 21553 net.cpp:137] Memory required for data: 1780317464
I1105 19:46:19.491598 21553 layer_factory.hpp:77] Creating layer inception_5b/relu_5x5_reduce
I1105 19:46:19.491608 21553 net.cpp:84] Creating Layer inception_5b/relu_5x5_reduce
I1105 19:46:19.491616 21553 net.cpp:406] inception_5b/relu_5x5_reduce <- inception_5b/5x5_reduce
I1105 19:46:19.491623 21553 net.cpp:367] inception_5b/relu_5x5_reduce -> inception_5b/5x5_reduce (in-place)
I1105 19:46:19.491631 21553 net.cpp:122] Setting up inception_5b/relu_5x5_reduce
I1105 19:46:19.491638 21553 net.cpp:129] Top shape: 32 48 7 7 (75264)
I1105 19:46:19.491644 21553 net.cpp:137] Memory required for data: 1780618520
I1105 19:46:19.491649 21553 layer_factory.hpp:77] Creating layer inception_5b/5x5
I1105 19:46:19.491662 21553 net.cpp:84] Creating Layer inception_5b/5x5
I1105 19:46:19.491667 21553 net.cpp:406] inception_5b/5x5 <- inception_5b/5x5_reduce
I1105 19:46:19.491677 21553 net.cpp:380] inception_5b/5x5 -> inception_5b/5x5
I1105 19:46:19.492993 21553 net.cpp:122] Setting up inception_5b/5x5
I1105 19:46:19.493011 21553 net.cpp:129] Top shape: 32 128 7 7 (200704)
I1105 19:46:19.493017 21553 net.cpp:137] Memory required for data: 1781421336
I1105 19:46:19.493026 21553 layer_factory.hpp:77] Creating layer inception_5b/relu_5x5
I1105 19:46:19.493036 21553 net.cpp:84] Creating Layer inception_5b/relu_5x5
I1105 19:46:19.493042 21553 net.cpp:406] inception_5b/relu_5x5 <- inception_5b/5x5
I1105 19:46:19.493052 21553 net.cpp:367] inception_5b/relu_5x5 -> inception_5b/5x5 (in-place)
I1105 19:46:19.493062 21553 net.cpp:122] Setting up inception_5b/relu_5x5
I1105 19:46:19.493068 21553 net.cpp:129] Top shape: 32 128 7 7 (200704)
I1105 19:46:19.493074 21553 net.cpp:137] Memory required for data: 1782224152
I1105 19:46:19.493079 21553 layer_factory.hpp:77] Creating layer inception_5b/pool
I1105 19:46:19.493088 21553 net.cpp:84] Creating Layer inception_5b/pool
I1105 19:46:19.493094 21553 net.cpp:406] inception_5b/pool <- inception_5a/output_inception_5a/output_0_split_3
I1105 19:46:19.493103 21553 net.cpp:380] inception_5b/pool -> inception_5b/pool
I1105 19:46:19.493145 21553 net.cpp:122] Setting up inception_5b/pool
I1105 19:46:19.493157 21553 net.cpp:129] Top shape: 32 832 7 7 (1304576)
I1105 19:46:19.493163 21553 net.cpp:137] Memory required for data: 1787442456
I1105 19:46:19.493168 21553 layer_factory.hpp:77] Creating layer inception_5b/pool_proj
I1105 19:46:19.493180 21553 net.cpp:84] Creating Layer inception_5b/pool_proj
I1105 19:46:19.493185 21553 net.cpp:406] inception_5b/pool_proj <- inception_5b/pool
I1105 19:46:19.493196 21553 net.cpp:380] inception_5b/pool_proj -> inception_5b/pool_proj
I1105 19:46:19.494606 21553 net.cpp:122] Setting up inception_5b/pool_proj
I1105 19:46:19.494624 21553 net.cpp:129] Top shape: 32 128 7 7 (200704)
I1105 19:46:19.494630 21553 net.cpp:137] Memory required for data: 1788245272
I1105 19:46:19.494640 21553 layer_factory.hpp:77] Creating layer inception_5b/relu_pool_proj
I1105 19:46:19.494652 21553 net.cpp:84] Creating Layer inception_5b/relu_pool_proj
I1105 19:46:19.494659 21553 net.cpp:406] inception_5b/relu_pool_proj <- inception_5b/pool_proj
I1105 19:46:19.494666 21553 net.cpp:367] inception_5b/relu_pool_proj -> inception_5b/pool_proj (in-place)
I1105 19:46:19.494675 21553 net.cpp:122] Setting up inception_5b/relu_pool_proj
I1105 19:46:19.494683 21553 net.cpp:129] Top shape: 32 128 7 7 (200704)
I1105 19:46:19.494688 21553 net.cpp:137] Memory required for data: 1789048088
I1105 19:46:19.494694 21553 layer_factory.hpp:77] Creating layer inception_5b/output
I1105 19:46:19.494701 21553 net.cpp:84] Creating Layer inception_5b/output
I1105 19:46:19.494707 21553 net.cpp:406] inception_5b/output <- inception_5b/1x1
I1105 19:46:19.494719 21553 net.cpp:406] inception_5b/output <- inception_5b/3x3
I1105 19:46:19.494734 21553 net.cpp:406] inception_5b/output <- inception_5b/5x5
I1105 19:46:19.494740 21553 net.cpp:406] inception_5b/output <- inception_5b/pool_proj
I1105 19:46:19.494747 21553 net.cpp:380] inception_5b/output -> inception_5b/output
I1105 19:46:19.494781 21553 net.cpp:122] Setting up inception_5b/output
I1105 19:46:19.494791 21553 net.cpp:129] Top shape: 32 1024 7 7 (1605632)
I1105 19:46:19.494796 21553 net.cpp:137] Memory required for data: 1795470616
I1105 19:46:19.494802 21553 layer_factory.hpp:77] Creating layer pool5/7x7_s1
I1105 19:46:19.494812 21553 net.cpp:84] Creating Layer pool5/7x7_s1
I1105 19:46:19.494818 21553 net.cpp:406] pool5/7x7_s1 <- inception_5b/output
I1105 19:46:19.494827 21553 net.cpp:380] pool5/7x7_s1 -> pool5/7x7_s1
I1105 19:46:19.494854 21553 net.cpp:122] Setting up pool5/7x7_s1
I1105 19:46:19.494864 21553 net.cpp:129] Top shape: 32 1024 1 1 (32768)
I1105 19:46:19.494869 21553 net.cpp:137] Memory required for data: 1795601688
I1105 19:46:19.494875 21553 layer_factory.hpp:77] Creating layer pool5/drop_7x7_s1
I1105 19:46:19.494884 21553 net.cpp:84] Creating Layer pool5/drop_7x7_s1
I1105 19:46:19.494889 21553 net.cpp:406] pool5/drop_7x7_s1 <- pool5/7x7_s1
I1105 19:46:19.494899 21553 net.cpp:367] pool5/drop_7x7_s1 -> pool5/7x7_s1 (in-place)
I1105 19:46:19.494922 21553 net.cpp:122] Setting up pool5/drop_7x7_s1
I1105 19:46:19.494931 21553 net.cpp:129] Top shape: 32 1024 1 1 (32768)
I1105 19:46:19.494936 21553 net.cpp:137] Memory required for data: 1795732760
I1105 19:46:19.494942 21553 layer_factory.hpp:77] Creating layer loss3/classifier
I1105 19:46:19.494953 21553 net.cpp:84] Creating Layer loss3/classifier
I1105 19:46:19.494959 21553 net.cpp:406] loss3/classifier <- pool5/7x7_s1
I1105 19:46:19.494969 21553 net.cpp:380] loss3/classifier -> loss3/classifier
I1105 19:46:19.503270 21553 net.cpp:122] Setting up loss3/classifier
I1105 19:46:19.503290 21553 net.cpp:129] Top shape: 32 1000 (32000)
I1105 19:46:19.503296 21553 net.cpp:137] Memory required for data: 1795860760
I1105 19:46:19.503306 21553 layer_factory.hpp:77] Creating layer loss3/classifier_loss3/classifier_0_split
I1105 19:46:19.503315 21553 net.cpp:84] Creating Layer loss3/classifier_loss3/classifier_0_split
I1105 19:46:19.503322 21553 net.cpp:406] loss3/classifier_loss3/classifier_0_split <- loss3/classifier
I1105 19:46:19.503332 21553 net.cpp:380] loss3/classifier_loss3/classifier_0_split -> loss3/classifier_loss3/classifier_0_split_0
I1105 19:46:19.503342 21553 net.cpp:380] loss3/classifier_loss3/classifier_0_split -> loss3/classifier_loss3/classifier_0_split_1
I1105 19:46:19.503350 21553 net.cpp:380] loss3/classifier_loss3/classifier_0_split -> loss3/classifier_loss3/classifier_0_split_2
I1105 19:46:19.503401 21553 net.cpp:122] Setting up loss3/classifier_loss3/classifier_0_split
I1105 19:46:19.503412 21553 net.cpp:129] Top shape: 32 1000 (32000)
I1105 19:46:19.503418 21553 net.cpp:129] Top shape: 32 1000 (32000)
I1105 19:46:19.503424 21553 net.cpp:129] Top shape: 32 1000 (32000)
I1105 19:46:19.503430 21553 net.cpp:137] Memory required for data: 1796244760
I1105 19:46:19.503435 21553 layer_factory.hpp:77] Creating layer loss3/loss3
I1105 19:46:19.503443 21553 net.cpp:84] Creating Layer loss3/loss3
I1105 19:46:19.503449 21553 net.cpp:406] loss3/loss3 <- loss3/classifier_loss3/classifier_0_split_0
I1105 19:46:19.503458 21553 net.cpp:406] loss3/loss3 <- label_data_1_split_6
…
