…
I1105 19:50:18.996516 21591 net.cpp:294] The NetState phase (0) differed from the phase (1) specified by a rule in layer accuracy
I1105 19:50:18.996675 21591 net.cpp:51] Initializing net from parameters: 
name: "AlexNet"
state {
  phase: TRAIN
  level: 0
  stage: ""
}
layer {
  name: "data"
  type: "Data"
  top: "data"
  top: "label"
  include {
    phase: TRAIN
  }
  transform_param {
    mirror: true
    crop_size: 227
    mean_file: "/home/vtyurin/Diploma/lmdb/256/mean.binaryproto"
  }
  data_param {
    source: "/home/vtyurin/Diploma/lmdb/256/train_db"
    batch_size: 256
    backend: LMDB
  }
}
layer {
  name: "conv1"
  type: "Convolution"
  bottom: "data"
  top: "conv1"
  param {
    lr_mult: 1
    decay_mult: 1
  }
  param {
    lr_mult: 2
    decay_mult: 0
  }
  convolution_param {
    num_output: 96
    kernel_size: 11
    stride: 4
    weight_filler {
      type: "gaussian"
      std: 0.01
    }
    bias_filler {
      type: "constant"
      value: 0
    }
  }
}
layer {
  name: "relu1"
  type: "ReLU"
  bottom: "conv1"
  top: "conv1"
}
layer {
  name: "norm1"
  type: "LRN"
  bottom: "conv1"
  top: "norm1"
  lrn_param {
    local_size: 5
    alpha: 0.0001
    beta: 0.75
  }
}
layer {
  name: "pool1"
  type: "Pooling"
  bottom: "norm1"
  top: "pool1"
  pooling_param {
    pool: MAX
    kernel_size: 3
    stride: 2
  }
}
layer {
  name: "conv2"
  type: "Convolution"
  bottom: "pool1"
  top: "conv2"
  param {
    lr_mult: 1
    decay_mult: 1
  }
  param {
    lr_mult: 2
    decay_mult: 0
  }
  convolution_param {
    num_output: 256
    pad: 2
    kernel_size: 5
    group: 2
    weight_filler {
      type: "gaussian"
      std: 0.01
    }
    bias_filler {
      type: "constant"
      value: 0.1
    }
  }
}
layer {
  name: "relu2"
  type: "ReLU"
  bottom: "conv2"
  top: "conv2"
}
layer {
  name: "norm2"
  type: "LRN"
  bottom: "conv2"
  top: "norm2"
  lrn_param {
    local_size: 5
    alpha: 0.0001
    beta: 0.75
  }
}
layer {
  name: "pool2"
  type: "Pooling"
  bottom: "norm2"
  top: "pool2"
  pooling_param {
    pool: MAX
    kernel_size: 3
    stride: 2
  }
}
layer {
  name: "conv3"
  type: "Convolution"
  bottom: "pool2"
  top: "conv3"
  param {
    lr_mult: 1
    decay_mult: 1
  }
  param {
    lr_mult: 2
    decay_mult: 0
  }
  convolution_param {
    num_output: 384
    pad: 1
    kernel_size: 3
    weight_filler {
      type: "gaussian"
      std: 0.01
    }
    bias_filler {
      type: "constant"
      value: 0
    }
  }
}
layer {
  name: "relu3"
  type: "ReLU"
  bottom: "conv3"
  top: "conv3"
}
layer {
  name: "conv4"
  type: "Convolution"
  bottom: "conv3"
  top: "conv4"
  param {
    lr_mult: 1
    decay_mult: 1
  }
  param {
    lr_mult: 2
    decay_mult: 0
  }
  convolution_param {
    num_output: 384
    pad: 1
    kernel_size: 3
    group: 2
    weight_filler {
      type: "gaussian"
      std: 0.01
    }
    bias_filler {
      type: "constant"
      value: 0.1
    }
  }
}
layer {
  name: "relu4"
  type: "ReLU"
  bottom: "conv4"
  top: "conv4"
}
layer {
  name: "conv5"
  type: "Convolution"
  bottom: "conv4"
  top: "conv5"
  param {
    lr_mult: 1
    decay_mult: 1
  }
  param {
    lr_mult: 2
    decay_mult: 0
  }
  convolution_param {
    num_output: 256
    pad: 1
    kernel_size: 3
    group: 2
    weight_filler {
      type: "gaussian"
      std: 0.01
    }
    bias_filler {
      type: "constant"
      value: 0.1
    }
  }
}
layer {
  name: "relu5"
  type: "ReLU"
  bottom: "conv5"
  top: "conv5"
}
layer {
  name: "pool5"
  type: "Pooling"
  bottom: "conv5"
  top: "pool5"
  pooling_param {
    pool: MAX
    kernel_size: 3
    stride: 2
  }
}
layer {
  name: "fc6"
  type: "InnerProduct"
  bottom: "pool5"
  top: "fc6"
  param {
    lr_mult: 1
    decay_mult: 1
  }
  param {
    lr_mult: 2
    decay_mult: 0
  }
  inner_product_param {
    num_output: 4096
    weight_filler {
      type: "gaussian"
      std: 0.005
    }
    bias_filler {
      type: "constant"
      value: 0.1
    }
  }
}
layer {
  name: "relu6"
  type: "ReLU"
  bottom: "fc6"
  top: "fc6"
}
layer {
  name: "drop6"
  type: "Dropout"
  bottom: "fc6"
  top: "fc6"
  dropout_param {
    dropout_ratio: 0.5
  }
}
layer {
  name: "fc7"
  type: "InnerProduct"
  bottom: "fc6"
  top: "fc7"
  param {
    lr_mult: 1
    decay_mult: 1
  }
  param {
    lr_mult: 2
    decay_mult: 0
  }
  inner_product_param {
    num_output: 4096
    weight_filler {
      type: "gaussian"
      std: 0.005
    }
    bias_filler {
      type: "constant"
      value: 0.1
    }
  }
}
layer {
  name: "relu7"
  type: "ReLU"
  bottom: "fc7"
  top: "fc7"
}
layer {
  name: "drop7"
  type: "Dropout"
  bottom: "fc7"
  top: "fc7"
  dropout_param {
    dropout_ratio: 0.5
  }
}
layer {
  name: "fc8"
  type: "InnerProduct"
  bottom: "fc7"
  top: "fc8"
  param {
    lr_mult: 1
    decay_mult: 1
  }
  param {
    lr_mult: 2
    decay_mult: 0
  }
  inner_product_param {
    num_output: 1000
    weight_filler {
      type: "gaussian"
      std: 0.01
    }
    bias_filler {
      type: "constant"
      value: 0
    }
  }
}
layer {
  name: "loss"
  type: "SoftmaxWithLoss"
  bottom: "fc8"
  bottom: "label"
  top: "loss"
}
I1105 19:50:18.996809 21591 layer_factory.hpp:77] Creating layer data
I1105 19:50:18.998785 21591 db_lmdb.cpp:35] Opened lmdb /home/vtyurin/Diploma/lmdb/256/train_db
I1105 19:50:19.000680 21591 net.cpp:84] Creating Layer data
I1105 19:50:19.000705 21591 net.cpp:380] data -> data
I1105 19:50:19.000730 21591 net.cpp:380] data -> label
I1105 19:50:19.000751 21591 data_transformer.cpp:25] Loading mean file from: /home/vtyurin/Diploma/lmdb/256/mean.binaryproto
I1105 19:50:19.017267 21591 data_layer.cpp:45] output data size: 256,3,227,227
I1105 19:50:19.392181 21591 net.cpp:122] Setting up data
I1105 19:50:19.392227 21591 net.cpp:129] Top shape: 256 3 227 227 (39574272)
I1105 19:50:19.392236 21591 net.cpp:129] Top shape: 256 (256)
I1105 19:50:19.392241 21591 net.cpp:137] Memory required for data: 158298112
I1105 19:50:19.392252 21591 layer_factory.hpp:77] Creating layer conv1
I1105 19:50:19.392277 21591 net.cpp:84] Creating Layer conv1
I1105 19:50:19.392284 21591 net.cpp:406] conv1 <- data
I1105 19:50:19.392298 21591 net.cpp:380] conv1 -> conv1
I1105 19:50:19.394717 21591 net.cpp:122] Setting up conv1
I1105 19:50:19.394754 21591 net.cpp:129] Top shape: 256 96 55 55 (74342400)
I1105 19:50:19.394759 21591 net.cpp:137] Memory required for data: 455667712
I1105 19:50:19.394775 21591 layer_factory.hpp:77] Creating layer relu1
I1105 19:50:19.394785 21591 net.cpp:84] Creating Layer relu1
I1105 19:50:19.394790 21591 net.cpp:406] relu1 <- conv1
I1105 19:50:19.394798 21591 net.cpp:367] relu1 -> conv1 (in-place)
I1105 19:50:19.394806 21591 net.cpp:122] Setting up relu1
I1105 19:50:19.394812 21591 net.cpp:129] Top shape: 256 96 55 55 (74342400)
I1105 19:50:19.394817 21591 net.cpp:137] Memory required for data: 753037312
I1105 19:50:19.394821 21591 layer_factory.hpp:77] Creating layer norm1
I1105 19:50:19.394829 21591 net.cpp:84] Creating Layer norm1
I1105 19:50:19.394834 21591 net.cpp:406] norm1 <- conv1
I1105 19:50:19.394840 21591 net.cpp:380] norm1 -> norm1
I1105 19:50:19.412343 21591 net.cpp:122] Setting up norm1
I1105 19:50:19.412370 21591 net.cpp:129] Top shape: 256 96 55 55 (74342400)
I1105 19:50:19.412375 21591 net.cpp:137] Memory required for data: 1050406912
I1105 19:50:19.412392 21591 layer_factory.hpp:77] Creating layer pool1
I1105 19:50:19.412415 21591 net.cpp:84] Creating Layer pool1
I1105 19:50:19.412420 21591 net.cpp:406] pool1 <- norm1
I1105 19:50:19.412427 21591 net.cpp:380] pool1 -> pool1
I1105 19:50:19.412480 21591 net.cpp:122] Setting up pool1
I1105 19:50:19.412492 21591 net.cpp:129] Top shape: 256 96 27 27 (17915904)
I1105 19:50:19.412495 21591 net.cpp:137] Memory required for data: 1122070528
I1105 19:50:19.412499 21591 layer_factory.hpp:77] Creating layer conv2
I1105 19:50:19.412509 21591 net.cpp:84] Creating Layer conv2
I1105 19:50:19.412514 21591 net.cpp:406] conv2 <- pool1
I1105 19:50:19.412521 21591 net.cpp:380] conv2 -> conv2
I1105 19:50:19.423190 21591 net.cpp:122] Setting up conv2
I1105 19:50:19.423209 21591 net.cpp:129] Top shape: 256 256 27 27 (47775744)
I1105 19:50:19.423215 21591 net.cpp:137] Memory required for data: 1313173504
I1105 19:50:19.423226 21591 layer_factory.hpp:77] Creating layer relu2
I1105 19:50:19.423234 21591 net.cpp:84] Creating Layer relu2
I1105 19:50:19.423239 21591 net.cpp:406] relu2 <- conv2
I1105 19:50:19.423246 21591 net.cpp:367] relu2 -> conv2 (in-place)
I1105 19:50:19.423254 21591 net.cpp:122] Setting up relu2
I1105 19:50:19.423259 21591 net.cpp:129] Top shape: 256 256 27 27 (47775744)
I1105 19:50:19.423264 21591 net.cpp:137] Memory required for data: 1504276480
I1105 19:50:19.423267 21591 layer_factory.hpp:77] Creating layer norm2
I1105 19:50:19.423274 21591 net.cpp:84] Creating Layer norm2
I1105 19:50:19.423279 21591 net.cpp:406] norm2 <- conv2
I1105 19:50:19.423285 21591 net.cpp:380] norm2 -> norm2
I1105 19:50:19.423324 21591 net.cpp:122] Setting up norm2
I1105 19:50:19.423333 21591 net.cpp:129] Top shape: 256 256 27 27 (47775744)
I1105 19:50:19.423337 21591 net.cpp:137] Memory required for data: 1695379456
I1105 19:50:19.423341 21591 layer_factory.hpp:77] Creating layer pool2
I1105 19:50:19.423351 21591 net.cpp:84] Creating Layer pool2
I1105 19:50:19.423354 21591 net.cpp:406] pool2 <- norm2
I1105 19:50:19.423362 21591 net.cpp:380] pool2 -> pool2
I1105 19:50:19.423393 21591 net.cpp:122] Setting up pool2
I1105 19:50:19.423401 21591 net.cpp:129] Top shape: 256 256 13 13 (11075584)
I1105 19:50:19.423405 21591 net.cpp:137] Memory required for data: 1739681792
I1105 19:50:19.423409 21591 layer_factory.hpp:77] Creating layer conv3
I1105 19:50:19.423419 21591 net.cpp:84] Creating Layer conv3
I1105 19:50:19.423424 21591 net.cpp:406] conv3 <- pool2
I1105 19:50:19.423431 21591 net.cpp:380] conv3 -> conv3
I1105 19:50:19.452080 21591 net.cpp:122] Setting up conv3
I1105 19:50:19.452105 21591 net.cpp:129] Top shape: 256 384 13 13 (16613376)
I1105 19:50:19.452109 21591 net.cpp:137] Memory required for data: 1806135296
I1105 19:50:19.452121 21591 layer_factory.hpp:77] Creating layer relu3
I1105 19:50:19.452129 21591 net.cpp:84] Creating Layer relu3
I1105 19:50:19.452133 21591 net.cpp:406] relu3 <- conv3
I1105 19:50:19.452141 21591 net.cpp:367] relu3 -> conv3 (in-place)
I1105 19:50:19.452147 21591 net.cpp:122] Setting up relu3
I1105 19:50:19.452153 21591 net.cpp:129] Top shape: 256 384 13 13 (16613376)
I1105 19:50:19.452157 21591 net.cpp:137] Memory required for data: 1872588800
I1105 19:50:19.452162 21591 layer_factory.hpp:77] Creating layer conv4
I1105 19:50:19.452172 21591 net.cpp:84] Creating Layer conv4
I1105 19:50:19.452177 21591 net.cpp:406] conv4 <- conv3
I1105 19:50:19.452183 21591 net.cpp:380] conv4 -> conv4
I1105 19:50:19.473664 21591 net.cpp:122] Setting up conv4
I1105 19:50:19.473685 21591 net.cpp:129] Top shape: 256 384 13 13 (16613376)
I1105 19:50:19.473690 21591 net.cpp:137] Memory required for data: 1939042304
I1105 19:50:19.473697 21591 layer_factory.hpp:77] Creating layer relu4
I1105 19:50:19.473704 21591 net.cpp:84] Creating Layer relu4
I1105 19:50:19.473709 21591 net.cpp:406] relu4 <- conv4
I1105 19:50:19.473716 21591 net.cpp:367] relu4 -> conv4 (in-place)
I1105 19:50:19.473723 21591 net.cpp:122] Setting up relu4
I1105 19:50:19.473729 21591 net.cpp:129] Top shape: 256 384 13 13 (16613376)
I1105 19:50:19.473740 21591 net.cpp:137] Memory required for data: 2005495808
I1105 19:50:19.473753 21591 layer_factory.hpp:77] Creating layer conv5
I1105 19:50:19.473764 21591 net.cpp:84] Creating Layer conv5
I1105 19:50:19.473768 21591 net.cpp:406] conv5 <- conv4
I1105 19:50:19.473776 21591 net.cpp:380] conv5 -> conv5
I1105 19:50:19.488211 21591 net.cpp:122] Setting up conv5
I1105 19:50:19.488231 21591 net.cpp:129] Top shape: 256 256 13 13 (11075584)
I1105 19:50:19.488236 21591 net.cpp:137] Memory required for data: 2049798144
I1105 19:50:19.488248 21591 layer_factory.hpp:77] Creating layer relu5
I1105 19:50:19.488256 21591 net.cpp:84] Creating Layer relu5
I1105 19:50:19.488261 21591 net.cpp:406] relu5 <- conv5
I1105 19:50:19.488268 21591 net.cpp:367] relu5 -> conv5 (in-place)
I1105 19:50:19.488276 21591 net.cpp:122] Setting up relu5
I1105 19:50:19.488281 21591 net.cpp:129] Top shape: 256 256 13 13 (11075584)
I1105 19:50:19.488286 21591 net.cpp:137] Memory required for data: 2094100480
I1105 19:50:19.488289 21591 layer_factory.hpp:77] Creating layer pool5
I1105 19:50:19.488296 21591 net.cpp:84] Creating Layer pool5
I1105 19:50:19.488301 21591 net.cpp:406] pool5 <- conv5
I1105 19:50:19.488307 21591 net.cpp:380] pool5 -> pool5
I1105 19:50:19.488343 21591 net.cpp:122] Setting up pool5
I1105 19:50:19.488351 21591 net.cpp:129] Top shape: 256 256 6 6 (2359296)
I1105 19:50:19.488355 21591 net.cpp:137] Memory required for data: 2103537664
I1105 19:50:19.488359 21591 layer_factory.hpp:77] Creating layer fc6
I1105 19:50:19.488370 21591 net.cpp:84] Creating Layer fc6
I1105 19:50:19.488375 21591 net.cpp:406] fc6 <- pool5
I1105 19:50:19.488382 21591 net.cpp:380] fc6 -> fc6
I1105 19:50:20.693298 21591 net.cpp:122] Setting up fc6
I1105 19:50:20.693338 21591 net.cpp:129] Top shape: 256 4096 (1048576)
I1105 19:50:20.693344 21591 net.cpp:137] Memory required for data: 2107731968
I1105 19:50:20.693354 21591 layer_factory.hpp:77] Creating layer relu6
I1105 19:50:20.693367 21591 net.cpp:84] Creating Layer relu6
I1105 19:50:20.693372 21591 net.cpp:406] relu6 <- fc6
I1105 19:50:20.693380 21591 net.cpp:367] relu6 -> fc6 (in-place)
I1105 19:50:20.693390 21591 net.cpp:122] Setting up relu6
I1105 19:50:20.693397 21591 net.cpp:129] Top shape: 256 4096 (1048576)
I1105 19:50:20.693400 21591 net.cpp:137] Memory required for data: 2111926272
I1105 19:50:20.693404 21591 layer_factory.hpp:77] Creating layer drop6
I1105 19:50:20.693429 21591 net.cpp:84] Creating Layer drop6
I1105 19:50:20.693435 21591 net.cpp:406] drop6 <- fc6
I1105 19:50:20.693441 21591 net.cpp:367] drop6 -> fc6 (in-place)
I1105 19:50:20.693469 21591 net.cpp:122] Setting up drop6
I1105 19:50:20.693477 21591 net.cpp:129] Top shape: 256 4096 (1048576)
I1105 19:50:20.693481 21591 net.cpp:137] Memory required for data: 2116120576
I1105 19:50:20.693485 21591 layer_factory.hpp:77] Creating layer fc7
I1105 19:50:20.693495 21591 net.cpp:84] Creating Layer fc7
I1105 19:50:20.693500 21591 net.cpp:406] fc7 <- fc6
I1105 19:50:20.693507 21591 net.cpp:380] fc7 -> fc7
I1105 19:50:21.058854 21594 data_layer.cpp:73] Restarting data prefetching from start.
I1105 19:50:21.229090 21591 net.cpp:122] Setting up fc7
I1105 19:50:21.229128 21591 net.cpp:129] Top shape: 256 4096 (1048576)
I1105 19:50:21.229135 21591 net.cpp:137] Memory required for data: 2120314880
I1105 19:50:21.229145 21591 layer_factory.hpp:77] Creating layer relu7
I1105 19:50:21.229156 21591 net.cpp:84] Creating Layer relu7
I1105 19:50:21.229161 21591 net.cpp:406] relu7 <- fc7
I1105 19:50:21.229171 21591 net.cpp:367] relu7 -> fc7 (in-place)
I1105 19:50:21.229179 21591 net.cpp:122] Setting up relu7
I1105 19:50:21.229187 21591 net.cpp:129] Top shape: 256 4096 (1048576)
I1105 19:50:21.229190 21591 net.cpp:137] Memory required for data: 2124509184
I1105 19:50:21.229194 21591 layer_factory.hpp:77] Creating layer drop7
I1105 19:50:21.229202 21591 net.cpp:84] Creating Layer drop7
I1105 19:50:21.229207 21591 net.cpp:406] drop7 <- fc7
I1105 19:50:21.229212 21591 net.cpp:367] drop7 -> fc7 (in-place)
I1105 19:50:21.229231 21591 net.cpp:122] Setting up drop7
I1105 19:50:21.229248 21591 net.cpp:129] Top shape: 256 4096 (1048576)
I1105 19:50:21.229262 21591 net.cpp:137] Memory required for data: 2128703488
I1105 19:50:21.229267 21591 layer_factory.hpp:77] Creating layer fc8
I1105 19:50:21.229276 21591 net.cpp:84] Creating Layer fc8
I1105 19:50:21.229280 21591 net.cpp:406] fc8 <- fc7
I1105 19:50:21.229288 21591 net.cpp:380] fc8 -> fc8
I1105 19:50:21.359130 21591 net.cpp:122] Setting up fc8
I1105 19:50:21.359166 21591 net.cpp:129] Top shape: 256 1000 (256000)
I1105 19:50:21.359172 21591 net.cpp:137] Memory required for data: 2129727488
I1105 19:50:21.359184 21591 layer_factory.hpp:77] Creating layer loss
I1105 19:50:21.359194 21591 net.cpp:84] Creating Layer loss
I1105 19:50:21.359200 21591 net.cpp:406] loss <- fc8
I1105 19:50:21.359207 21591 net.cpp:406] loss <- label
I1105 19:50:21.359217 21591 net.cpp:380] loss -> loss
I1105 19:50:21.359243 21591 layer_factory.hpp:77] Creating layer loss
…
I1105 19:50:21.361003 21591 net.cpp:294] The NetState phase (1) differed from the phase (0) specified by a rule in layer data
I1105 19:50:21.361171 21591 net.cpp:51] Initializing net from parameters: 
name: "AlexNet"
state {
  phase: TEST
}
layer {
  name: "data"
  type: "Data"
  top: "data"
  top: "label"
  include {
    phase: TEST
  }
  transform_param {
    mirror: false
    crop_size: 227
    mean_file: "/home/vtyurin/Diploma/lmdb/256/mean.binaryproto"
  }
  data_param {
    source: "/home/vtyurin/Diploma/lmdb/256/val_db"
    batch_size: 32
    backend: LMDB
  }
}
layer {
  name: "conv1"
  type: "Convolution"
  bottom: "data"
  top: "conv1"
  param {
    lr_mult: 1
    decay_mult: 1
  }
  param {
    lr_mult: 2
    decay_mult: 0
  }
  convolution_param {
    num_output: 96
    kernel_size: 11
    stride: 4
    weight_filler {
      type: "gaussian"
      std: 0.01
    }
    bias_filler {
      type: "constant"
      value: 0
    }
  }
}
layer {
  name: "relu1"
  type: "ReLU"
  bottom: "conv1"
  top: "conv1"
}
layer {
  name: "norm1"
  type: "LRN"
  bottom: "conv1"
  top: "norm1"
  lrn_param {
    local_size: 5
    alpha: 0.0001
    beta: 0.75
  }
}
layer {
  name: "pool1"
  type: "Pooling"
  bottom: "norm1"
  top: "pool1"
  pooling_param {
    pool: MAX
    kernel_size: 3
    stride: 2
  }
}
layer {
  name: "conv2"
  type: "Convolution"
  bottom: "pool1"
  top: "conv2"
  param {
    lr_mult: 1
    decay_mult: 1
  }
  param {
    lr_mult: 2
    decay_mult: 0
  }
  convolution_param {
    num_output: 256
    pad: 2
    kernel_size: 5
    group: 2
    weight_filler {
      type: "gaussian"
      std: 0.01
    }
    bias_filler {
      type: "constant"
      value: 0.1
    }
  }
}
layer {
  name: "relu2"
  type: "ReLU"
  bottom: "conv2"
  top: "conv2"
}
layer {
  name: "norm2"
  type: "LRN"
  bottom: "conv2"
  top: "norm2"
  lrn_param {
    local_size: 5
    alpha: 0.0001
    beta: 0.75
  }
}
layer {
  name: "pool2"
  type: "Pooling"
  bottom: "norm2"
  top: "pool2"
  pooling_param {
    pool: MAX
    kernel_size: 3
    stride: 2
  }
}
layer {
  name: "conv3"
  type: "Convolution"
  bottom: "pool2"
  top: "conv3"
  param {
    lr_mult: 1
    decay_mult: 1
  }
  param {
    lr_mult: 2
    decay_mult: 0
  }
  convolution_param {
    num_output: 384
    pad: 1
    kernel_size: 3
    weight_filler {
      type: "gaussian"
      std: 0.01
    }
    bias_filler {
      type: "constant"
      value: 0
    }
  }
}
layer {
  name: "relu3"
  type: "ReLU"
  bottom: "conv3"
  top: "conv3"
}
layer {
  name: "conv4"
  type: "Convolution"
  bottom: "conv3"
  top: "conv4"
  param {
    lr_mult: 1
    decay_mult: 1
  }
  param {
    lr_mult: 2
    decay_mult: 0
  }
  convolution_param {
    num_output: 384
    pad: 1
    kernel_size: 3
    group: 2
    weight_filler {
      type: "gaussian"
      std: 0.01
    }
    bias_filler {
      type: "constant"
      value: 0.1
    }
  }
}
layer {
  name: "relu4"
  type: "ReLU"
  bottom: "conv4"
  top: "conv4"
}
layer {
  name: "conv5"
  type: "Convolution"
  bottom: "conv4"
  top: "conv5"
  param {
    lr_mult: 1
    decay_mult: 1
  }
  param {
    lr_mult: 2
    decay_mult: 0
  }
  convolution_param {
    num_output: 256
    pad: 1
    kernel_size: 3
    group: 2
    weight_filler {
      type: "gaussian"
      std: 0.01
    }
    bias_filler {
      type: "constant"
      value: 0.1
    }
  }
}
layer {
  name: "relu5"
  type: "ReLU"
  bottom: "conv5"
  top: "conv5"
}
layer {
  name: "pool5"
  type: "Pooling"
  bottom: "conv5"
  top: "pool5"
  pooling_param {
    pool: MAX
    kernel_size: 3
    stride: 2
  }
}
layer {
  name: "fc6"
  type: "InnerProduct"
  bottom: "pool5"
  top: "fc6"
  param {
    lr_mult: 1
    decay_mult: 1
  }
  param {
    lr_mult: 2
    decay_mult: 0
  }
  inner_product_param {
    num_output: 4096
    weight_filler {
      type: "gaussian"
      std: 0.005
    }
    bias_filler {
      type: "constant"
      value: 0.1
    }
  }
}
layer {
  name: "relu6"
  type: "ReLU"
  bottom: "fc6"
  top: "fc6"
}
layer {
  name: "drop6"
  type: "Dropout"
  bottom: "fc6"
  top: "fc6"
  dropout_param {
    dropout_ratio: 0.5
  }
}
layer {
  name: "fc7"
  type: "InnerProduct"
  bottom: "fc6"
  top: "fc7"
  param {
    lr_mult: 1
    decay_mult: 1
  }
  param {
    lr_mult: 2
    decay_mult: 0
  }
  inner_product_param {
    num_output: 4096
    weight_filler {
      type: "gaussian"
      std: 0.005
    }
    bias_filler {
      type: "constant"
      value: 0.1
    }
  }
}
layer {
  name: "relu7"
  type: "ReLU"
  bottom: "fc7"
  top: "fc7"
}
layer {
  name: "drop7"
  type: "Dropout"
  bottom: "fc7"
  top: "fc7"
  dropout_param {
    dropout_ratio: 0.5
  }
}
layer {
  name: "fc8"
  type: "InnerProduct"
  bottom: "fc7"
  top: "fc8"
  param {
    lr_mult: 1
    decay_mult: 1
  }
  param {
    lr_mult: 2
    decay_mult: 0
  }
  inner_product_param {
    num_output: 1000
    weight_filler {
      type: "gaussian"
      std: 0.01
    }
    bias_filler {
      type: "constant"
      value: 0
    }
  }
}
layer {
  name: "accuracy"
  type: "Accuracy"
  bottom: "fc8"
  bottom: "label"
  top: "accuracy"
  include {
    phase: TEST
  }
}
layer {
  name: "loss"
  type: "SoftmaxWithLoss"
  bottom: "fc8"
  bottom: "label"
  top: "loss"
}
I1105 19:50:21.361302 21591 layer_factory.hpp:77] Creating layer data
I1105 19:50:21.362860 21591 db_lmdb.cpp:35] Opened lmdb /home/vtyurin/Diploma/lmdb/256/val_db
I1105 19:50:21.363988 21591 net.cpp:84] Creating Layer data
I1105 19:50:21.364008 21591 net.cpp:380] data -> data
I1105 19:50:21.364019 21591 net.cpp:380] data -> label
I1105 19:50:21.364028 21591 data_transformer.cpp:25] Loading mean file from: /home/vtyurin/Diploma/lmdb/256/mean.binaryproto
I1105 19:50:21.367830 21591 data_layer.cpp:45] output data size: 32,3,227,227
I1105 19:50:21.410607 21591 net.cpp:122] Setting up data
I1105 19:50:21.410647 21591 net.cpp:129] Top shape: 32 3 227 227 (4946784)
I1105 19:50:21.410655 21591 net.cpp:129] Top shape: 32 (32)
I1105 19:50:21.410660 21591 net.cpp:137] Memory required for data: 19787264
I1105 19:50:21.410666 21591 layer_factory.hpp:77] Creating layer label_data_1_split
I1105 19:50:21.410681 21591 net.cpp:84] Creating Layer label_data_1_split
I1105 19:50:21.410686 21591 net.cpp:406] label_data_1_split <- label
I1105 19:50:21.410694 21591 net.cpp:380] label_data_1_split -> label_data_1_split_0
I1105 19:50:21.410706 21591 net.cpp:380] label_data_1_split -> label_data_1_split_1
I1105 19:50:21.410774 21591 net.cpp:122] Setting up label_data_1_split
I1105 19:50:21.410784 21591 net.cpp:129] Top shape: 32 (32)
I1105 19:50:21.410790 21591 net.cpp:129] Top shape: 32 (32)
I1105 19:50:21.410794 21591 net.cpp:137] Memory required for data: 19787520
I1105 19:50:21.410799 21591 layer_factory.hpp:77] Creating layer conv1
I1105 19:50:21.410815 21591 net.cpp:84] Creating Layer conv1
I1105 19:50:21.410820 21591 net.cpp:406] conv1 <- data
I1105 19:50:21.410826 21591 net.cpp:380] conv1 -> conv1
I1105 19:50:21.412148 21591 net.cpp:122] Setting up conv1
I1105 19:50:21.412164 21591 net.cpp:129] Top shape: 32 96 55 55 (9292800)
I1105 19:50:21.412169 21591 net.cpp:137] Memory required for data: 56958720
I1105 19:50:21.412180 21591 layer_factory.hpp:77] Creating layer relu1
I1105 19:50:21.412189 21591 net.cpp:84] Creating Layer relu1
I1105 19:50:21.412194 21591 net.cpp:406] relu1 <- conv1
I1105 19:50:21.412199 21591 net.cpp:367] relu1 -> conv1 (in-place)
I1105 19:50:21.412207 21591 net.cpp:122] Setting up relu1
I1105 19:50:21.412212 21591 net.cpp:129] Top shape: 32 96 55 55 (9292800)
I1105 19:50:21.412216 21591 net.cpp:137] Memory required for data: 94129920
I1105 19:50:21.412220 21591 layer_factory.hpp:77] Creating layer norm1
I1105 19:50:21.412230 21591 net.cpp:84] Creating Layer norm1
I1105 19:50:21.412235 21591 net.cpp:406] norm1 <- conv1
I1105 19:50:21.412240 21591 net.cpp:380] norm1 -> norm1
I1105 19:50:21.412277 21591 net.cpp:122] Setting up norm1
I1105 19:50:21.412286 21591 net.cpp:129] Top shape: 32 96 55 55 (9292800)
I1105 19:50:21.412289 21591 net.cpp:137] Memory required for data: 131301120
I1105 19:50:21.412293 21591 layer_factory.hpp:77] Creating layer pool1
I1105 19:50:21.412302 21591 net.cpp:84] Creating Layer pool1
I1105 19:50:21.412307 21591 net.cpp:406] pool1 <- norm1
I1105 19:50:21.412312 21591 net.cpp:380] pool1 -> pool1
I1105 19:50:21.412345 21591 net.cpp:122] Setting up pool1
I1105 19:50:21.412353 21591 net.cpp:129] Top shape: 32 96 27 27 (2239488)
I1105 19:50:21.412358 21591 net.cpp:137] Memory required for data: 140259072
I1105 19:50:21.412362 21591 layer_factory.hpp:77] Creating layer conv2
I1105 19:50:21.412371 21591 net.cpp:84] Creating Layer conv2
I1105 19:50:21.412376 21591 net.cpp:406] conv2 <- pool1
I1105 19:50:21.412384 21591 net.cpp:380] conv2 -> conv2
I1105 19:50:21.422576 21591 net.cpp:122] Setting up conv2
I1105 19:50:21.422596 21591 net.cpp:129] Top shape: 32 256 27 27 (5971968)
I1105 19:50:21.422601 21591 net.cpp:137] Memory required for data: 164146944
I1105 19:50:21.422621 21591 layer_factory.hpp:77] Creating layer relu2
I1105 19:50:21.422638 21591 net.cpp:84] Creating Layer relu2
I1105 19:50:21.422644 21591 net.cpp:406] relu2 <- conv2
I1105 19:50:21.422650 21591 net.cpp:367] relu2 -> conv2 (in-place)
I1105 19:50:21.422658 21591 net.cpp:122] Setting up relu2
I1105 19:50:21.422664 21591 net.cpp:129] Top shape: 32 256 27 27 (5971968)
I1105 19:50:21.422668 21591 net.cpp:137] Memory required for data: 188034816
I1105 19:50:21.422672 21591 layer_factory.hpp:77] Creating layer norm2
I1105 19:50:21.422680 21591 net.cpp:84] Creating Layer norm2
I1105 19:50:21.422685 21591 net.cpp:406] norm2 <- conv2
I1105 19:50:21.422691 21591 net.cpp:380] norm2 -> norm2
I1105 19:50:21.422729 21591 net.cpp:122] Setting up norm2
I1105 19:50:21.422737 21591 net.cpp:129] Top shape: 32 256 27 27 (5971968)
I1105 19:50:21.422741 21591 net.cpp:137] Memory required for data: 211922688
I1105 19:50:21.422745 21591 layer_factory.hpp:77] Creating layer pool2
I1105 19:50:21.422754 21591 net.cpp:84] Creating Layer pool2
I1105 19:50:21.422758 21591 net.cpp:406] pool2 <- norm2
I1105 19:50:21.422765 21591 net.cpp:380] pool2 -> pool2
I1105 19:50:21.422796 21591 net.cpp:122] Setting up pool2
I1105 19:50:21.422804 21591 net.cpp:129] Top shape: 32 256 13 13 (1384448)
I1105 19:50:21.422808 21591 net.cpp:137] Memory required for data: 217460480
I1105 19:50:21.422812 21591 layer_factory.hpp:77] Creating layer conv3
I1105 19:50:21.422822 21591 net.cpp:84] Creating Layer conv3
I1105 19:50:21.422827 21591 net.cpp:406] conv3 <- pool2
I1105 19:50:21.422834 21591 net.cpp:380] conv3 -> conv3
I1105 19:50:21.451263 21591 net.cpp:122] Setting up conv3
I1105 19:50:21.451287 21591 net.cpp:129] Top shape: 32 384 13 13 (2076672)
I1105 19:50:21.451300 21591 net.cpp:137] Memory required for data: 225767168
I1105 19:50:21.451331 21591 layer_factory.hpp:77] Creating layer relu3
I1105 19:50:21.451341 21591 net.cpp:84] Creating Layer relu3
I1105 19:50:21.451346 21591 net.cpp:406] relu3 <- conv3
I1105 19:50:21.451352 21591 net.cpp:367] relu3 -> conv3 (in-place)
I1105 19:50:21.451360 21591 net.cpp:122] Setting up relu3
I1105 19:50:21.451366 21591 net.cpp:129] Top shape: 32 384 13 13 (2076672)
I1105 19:50:21.451370 21591 net.cpp:137] Memory required for data: 234073856
I1105 19:50:21.451375 21591 layer_factory.hpp:77] Creating layer conv4
I1105 19:50:21.451385 21591 net.cpp:84] Creating Layer conv4
I1105 19:50:21.451390 21591 net.cpp:406] conv4 <- conv3
I1105 19:50:21.451396 21591 net.cpp:380] conv4 -> conv4
I1105 19:50:21.472949 21591 net.cpp:122] Setting up conv4
I1105 19:50:21.472972 21591 net.cpp:129] Top shape: 32 384 13 13 (2076672)
I1105 19:50:21.472977 21591 net.cpp:137] Memory required for data: 242380544
I1105 19:50:21.472986 21591 layer_factory.hpp:77] Creating layer relu4
I1105 19:50:21.472995 21591 net.cpp:84] Creating Layer relu4
I1105 19:50:21.473000 21591 net.cpp:406] relu4 <- conv4
I1105 19:50:21.473006 21591 net.cpp:367] relu4 -> conv4 (in-place)
I1105 19:50:21.473013 21591 net.cpp:122] Setting up relu4
I1105 19:50:21.473019 21591 net.cpp:129] Top shape: 32 384 13 13 (2076672)
I1105 19:50:21.473023 21591 net.cpp:137] Memory required for data: 250687232
I1105 19:50:21.473027 21591 layer_factory.hpp:77] Creating layer conv5
I1105 19:50:21.473038 21591 net.cpp:84] Creating Layer conv5
I1105 19:50:21.473042 21591 net.cpp:406] conv5 <- conv4
I1105 19:50:21.473050 21591 net.cpp:380] conv5 -> conv5
I1105 19:50:21.487732 21591 net.cpp:122] Setting up conv5
I1105 19:50:21.487753 21591 net.cpp:129] Top shape: 32 256 13 13 (1384448)
I1105 19:50:21.487758 21591 net.cpp:137] Memory required for data: 256225024
I1105 19:50:21.487769 21591 layer_factory.hpp:77] Creating layer relu5
I1105 19:50:21.487777 21591 net.cpp:84] Creating Layer relu5
I1105 19:50:21.487782 21591 net.cpp:406] relu5 <- conv5
I1105 19:50:21.487792 21591 net.cpp:367] relu5 -> conv5 (in-place)
I1105 19:50:21.487799 21591 net.cpp:122] Setting up relu5
I1105 19:50:21.487805 21591 net.cpp:129] Top shape: 32 256 13 13 (1384448)
I1105 19:50:21.487818 21591 net.cpp:137] Memory required for data: 261762816
I1105 19:50:21.487823 21591 layer_factory.hpp:77] Creating layer pool5
I1105 19:50:21.487843 21591 net.cpp:84] Creating Layer pool5
I1105 19:50:21.487848 21591 net.cpp:406] pool5 <- conv5
I1105 19:50:21.487854 21591 net.cpp:380] pool5 -> pool5
I1105 19:50:21.487896 21591 net.cpp:122] Setting up pool5
I1105 19:50:21.487905 21591 net.cpp:129] Top shape: 32 256 6 6 (294912)
I1105 19:50:21.487910 21591 net.cpp:137] Memory required for data: 262942464
I1105 19:50:21.487915 21591 layer_factory.hpp:77] Creating layer fc6
I1105 19:50:21.487922 21591 net.cpp:84] Creating Layer fc6
I1105 19:50:21.487927 21591 net.cpp:406] fc6 <- pool5
I1105 19:50:21.487934 21591 net.cpp:380] fc6 -> fc6
I1105 19:50:22.690222 21591 net.cpp:122] Setting up fc6
I1105 19:50:22.690270 21591 net.cpp:129] Top shape: 32 4096 (131072)
I1105 19:50:22.690276 21591 net.cpp:137] Memory required for data: 263466752
I1105 19:50:22.690287 21591 layer_factory.hpp:77] Creating layer relu6
I1105 19:50:22.690299 21591 net.cpp:84] Creating Layer relu6
I1105 19:50:22.690305 21591 net.cpp:406] relu6 <- fc6
I1105 19:50:22.690312 21591 net.cpp:367] relu6 -> fc6 (in-place)
I1105 19:50:22.690323 21591 net.cpp:122] Setting up relu6
I1105 19:50:22.690330 21591 net.cpp:129] Top shape: 32 4096 (131072)
I1105 19:50:22.690333 21591 net.cpp:137] Memory required for data: 263991040
I1105 19:50:22.690337 21591 layer_factory.hpp:77] Creating layer drop6
I1105 19:50:22.690346 21591 net.cpp:84] Creating Layer drop6
I1105 19:50:22.690349 21591 net.cpp:406] drop6 <- fc6
I1105 19:50:22.690357 21591 net.cpp:367] drop6 -> fc6 (in-place)
I1105 19:50:22.690387 21591 net.cpp:122] Setting up drop6
I1105 19:50:22.690397 21591 net.cpp:129] Top shape: 32 4096 (131072)
I1105 19:50:22.690400 21591 net.cpp:137] Memory required for data: 264515328
I1105 19:50:22.690404 21591 layer_factory.hpp:77] Creating layer fc7
I1105 19:50:22.690414 21591 net.cpp:84] Creating Layer fc7
I1105 19:50:22.690418 21591 net.cpp:406] fc7 <- fc6
I1105 19:50:22.690426 21591 net.cpp:380] fc7 -> fc7
I1105 19:50:23.225136 21591 net.cpp:122] Setting up fc7
I1105 19:50:23.225174 21591 net.cpp:129] Top shape: 32 4096 (131072)
I1105 19:50:23.225180 21591 net.cpp:137] Memory required for data: 265039616
I1105 19:50:23.225191 21591 layer_factory.hpp:77] Creating layer relu7
I1105 19:50:23.225203 21591 net.cpp:84] Creating Layer relu7
I1105 19:50:23.225210 21591 net.cpp:406] relu7 <- fc7
I1105 19:50:23.225219 21591 net.cpp:367] relu7 -> fc7 (in-place)
I1105 19:50:23.225230 21591 net.cpp:122] Setting up relu7
I1105 19:50:23.225236 21591 net.cpp:129] Top shape: 32 4096 (131072)
I1105 19:50:23.225240 21591 net.cpp:137] Memory required for data: 265563904
I1105 19:50:23.225244 21591 layer_factory.hpp:77] Creating layer drop7
I1105 19:50:23.225252 21591 net.cpp:84] Creating Layer drop7
I1105 19:50:23.225256 21591 net.cpp:406] drop7 <- fc7
I1105 19:50:23.225261 21591 net.cpp:367] drop7 -> fc7 (in-place)
I1105 19:50:23.225291 21591 net.cpp:122] Setting up drop7
I1105 19:50:23.225301 21591 net.cpp:129] Top shape: 32 4096 (131072)
I1105 19:50:23.225304 21591 net.cpp:137] Memory required for data: 266088192
I1105 19:50:23.225308 21591 layer_factory.hpp:77] Creating layer fc8
I1105 19:50:23.225318 21591 net.cpp:84] Creating Layer fc8
I1105 19:50:23.225323 21591 net.cpp:406] fc8 <- fc7
I1105 19:50:23.225330 21591 net.cpp:380] fc8 -> fc8
I1105 19:50:23.355306 21591 net.cpp:122] Setting up fc8
I1105 19:50:23.355331 21591 net.cpp:129] Top shape: 32 1000 (32000)
I1105 19:50:23.355336 21591 net.cpp:137] Memory required for data: 266216192
I1105 19:50:23.355345 21591 layer_factory.hpp:77] Creating layer fc8_fc8_0_split
I1105 19:50:23.355355 21591 net.cpp:84] Creating Layer fc8_fc8_0_split
I1105 19:50:23.355360 21591 net.cpp:406] fc8_fc8_0_split <- fc8
I1105 19:50:23.355368 21591 net.cpp:380] fc8_fc8_0_split -> fc8_fc8_0_split_0
I1105 19:50:23.355378 21591 net.cpp:380] fc8_fc8_0_split -> fc8_fc8_0_split_1
I1105 19:50:23.355419 21591 net.cpp:122] Setting up fc8_fc8_0_split
I1105 19:50:23.355437 21591 net.cpp:129] Top shape: 32 1000 (32000)
I1105 19:50:23.355443 21591 net.cpp:129] Top shape: 32 1000 (32000)
I1105 19:50:23.355456 21591 net.cpp:137] Memory required for data: 266472192
I1105 19:50:23.355461 21591 layer_factory.hpp:77] Creating layer accuracy
I1105 19:50:23.355471 21591 net.cpp:84] Creating Layer accuracy
I1105 19:50:23.355475 21591 net.cpp:406] accuracy <- fc8_fc8_0_split_0
I1105 19:50:23.355481 21591 net.cpp:406] accuracy <- label_data_1_split_0
I1105 19:50:23.355486 21591 net.cpp:380] accuracy -> accuracy
…
