…
I1203 18:24:07.608178  3183 solver.cpp:87] Creating training net from net file: train_val.prototxt
I1203 18:24:07.608494  3183 net.cpp:294] The NetState phase (0) differed from the phase (1) specified by a rule in layer data
I1203 18:24:07.608579  3183 net.cpp:51] Initializing net from parameters: 
state {
  phase: TRAIN
  level: 0
  stage: ""
}
layer {
  name: "data"
  type: "Data"
  top: "data"
  top: "label"
  include {
    phase: TRAIN
  }
  transform_param {
    scale: 0.0039215689
  }
  data_param {
    source: "/home/vtyurin/Diploma/lmdb/256_gray/train_db"
    batch_size: 80
    backend: LMDB
  }
}
layer {
  name: "conv1"
  type: "Convolution"
  bottom: "data"
  top: "conv1"
  convolution_param {
    num_output: 20
    kernel_size: 2
    weight_filler {
      type: "xavier"
    }
  }
}
layer {
  name: "pool1"
  type: "Pooling"
  bottom: "conv1"
  top: "pool1"
  pooling_param {
    pool: MAX
    kernel_size: 2
    stride: 2
  }
}
layer {
  name: "conv2"
  type: "Convolution"
  bottom: "pool1"
  top: "conv2"
  convolution_param {
    num_output: 40
    kernel_size: 4
    weight_filler {
      type: "xavier"
    }
  }
}
layer {
  name: "relu2"
  type: "ReLU"
  bottom: "conv2"
  top: "conv2"
}
layer {
  name: "pool2"
  type: "Pooling"
  bottom: "conv2"
  top: "pool2"
  pooling_param {
    pool: MAX
    kernel_size: 2
    stride: 2
  }
}
layer {
  name: "fc1"
  type: "InnerProduct"
  bottom: "pool2"
  top: "fc1"
  inner_product_param {
    num_output: 500
    weight_filler {
      type: "xavier"
    }
  }
}
layer {
  name: "relu3"
  type: "ReLU"
  bottom: "fc1"
  top: "fc1"
}
layer {
  name: "score"
  type: "InnerProduct"
  bottom: "fc1"
  top: "score"
  inner_product_param {
    num_output: 2
    weight_filler {
      type: "xavier"
    }
  }
}
layer {
  name: "accuracy"
  type: "Accuracy"
  bottom: "score"
  bottom: "label"
  top: "accuracy"
}
layer {
  name: "loss"
  type: "SoftmaxWithLoss"
  bottom: "score"
  bottom: "label"
  top: "loss"
}
I1203 18:24:07.608681  3183 layer_factory.hpp:77] Creating layer data
I1203 18:24:07.608822  3183 db_lmdb.cpp:35] Opened lmdb /home/vtyurin/Diploma/lmdb/256_gray/train_db
I1203 18:24:07.608858  3183 net.cpp:84] Creating Layer data
I1203 18:24:07.608870  3183 net.cpp:380] data -> data
I1203 18:24:07.608894  3183 net.cpp:380] data -> label
I1203 18:24:07.610215  3183 data_layer.cpp:45] output data size: 80,1,256,256
I1203 18:24:07.657914  3183 net.cpp:122] Setting up data
I1203 18:24:07.657974  3183 net.cpp:129] Top shape: 80 1 256 256 (5242880)
I1203 18:24:07.657984  3183 net.cpp:129] Top shape: 80 (80)
I1203 18:24:07.657987  3183 net.cpp:137] Memory required for data: 20971840
I1203 18:24:07.658001  3183 layer_factory.hpp:77] Creating layer label_data_1_split
I1203 18:24:07.658025  3183 net.cpp:84] Creating Layer label_data_1_split
I1203 18:24:07.658033  3183 net.cpp:406] label_data_1_split <- label
I1203 18:24:07.658049  3183 net.cpp:380] label_data_1_split -> label_data_1_split_0
I1203 18:24:07.658063  3183 net.cpp:380] label_data_1_split -> label_data_1_split_1
I1203 18:24:07.658124  3183 net.cpp:122] Setting up label_data_1_split
I1203 18:24:07.658135  3183 net.cpp:129] Top shape: 80 (80)
I1203 18:24:07.658140  3183 net.cpp:129] Top shape: 80 (80)
I1203 18:24:07.658144  3183 net.cpp:137] Memory required for data: 20972480
I1203 18:24:07.658149  3183 layer_factory.hpp:77] Creating layer conv1
I1203 18:24:07.658170  3183 net.cpp:84] Creating Layer conv1
I1203 18:24:07.658176  3183 net.cpp:406] conv1 <- data
I1203 18:24:07.658183  3183 net.cpp:380] conv1 -> conv1
I1203 18:24:07.659034  3183 net.cpp:122] Setting up conv1
I1203 18:24:07.659055  3183 net.cpp:129] Top shape: 80 20 255 255 (104040000)
I1203 18:24:07.659078  3183 net.cpp:137] Memory required for data: 437132480
I1203 18:24:07.659097  3183 layer_factory.hpp:77] Creating layer pool1
I1203 18:24:07.659111  3183 net.cpp:84] Creating Layer pool1
I1203 18:24:07.659116  3183 net.cpp:406] pool1 <- conv1
I1203 18:24:07.659123  3183 net.cpp:380] pool1 -> pool1
I1203 18:24:07.659202  3183 net.cpp:122] Setting up pool1
I1203 18:24:07.659216  3183 net.cpp:129] Top shape: 80 20 128 128 (26214400)
I1203 18:24:07.659220  3183 net.cpp:137] Memory required for data: 541990080
I1203 18:24:07.659225  3183 layer_factory.hpp:77] Creating layer conv2
I1203 18:24:07.659240  3183 net.cpp:84] Creating Layer conv2
I1203 18:24:07.659245  3183 net.cpp:406] conv2 <- pool1
I1203 18:24:07.659252  3183 net.cpp:380] conv2 -> conv2
I1203 18:24:07.663584  3183 net.cpp:122] Setting up conv2
I1203 18:24:07.663688  3183 net.cpp:129] Top shape: 80 40 125 125 (50000000)
I1203 18:24:07.663696  3183 net.cpp:137] Memory required for data: 741990080
I1203 18:24:07.663713  3183 layer_factory.hpp:77] Creating layer relu2
I1203 18:24:07.663738  3183 net.cpp:84] Creating Layer relu2
I1203 18:24:07.663749  3183 net.cpp:406] relu2 <- conv2
I1203 18:24:07.663765  3183 net.cpp:367] relu2 -> conv2 (in-place)
I1203 18:24:07.663786  3183 net.cpp:122] Setting up relu2
I1203 18:24:07.663792  3183 net.cpp:129] Top shape: 80 40 125 125 (50000000)
I1203 18:24:07.663796  3183 net.cpp:137] Memory required for data: 941990080
I1203 18:24:07.663802  3183 layer_factory.hpp:77] Creating layer pool2
I1203 18:24:07.663842  3183 net.cpp:84] Creating Layer pool2
I1203 18:24:07.663847  3183 net.cpp:406] pool2 <- conv2
I1203 18:24:07.663853  3183 net.cpp:380] pool2 -> pool2
I1203 18:24:07.663954  3183 net.cpp:122] Setting up pool2
I1203 18:24:07.663972  3183 net.cpp:129] Top shape: 80 40 63 63 (12700800)
I1203 18:24:07.663977  3183 net.cpp:137] Memory required for data: 992793280
I1203 18:24:07.663985  3183 layer_factory.hpp:77] Creating layer fc1
I1203 18:24:07.664019  3183 net.cpp:84] Creating Layer fc1
I1203 18:24:07.664024  3183 net.cpp:406] fc1 <- pool2
I1203 18:24:07.664039  3183 net.cpp:380] fc1 -> fc1
I1203 18:24:08.420781  3183 net.cpp:122] Setting up fc1
I1203 18:24:08.420835  3183 net.cpp:129] Top shape: 80 500 (40000)
I1203 18:24:08.420842  3183 net.cpp:137] Memory required for data: 992953280
I1203 18:24:08.420863  3183 layer_factory.hpp:77] Creating layer relu3
I1203 18:24:08.420881  3183 net.cpp:84] Creating Layer relu3
I1203 18:24:08.420888  3183 net.cpp:406] relu3 <- fc1
I1203 18:24:08.420898  3183 net.cpp:367] relu3 -> fc1 (in-place)
I1203 18:24:08.420912  3183 net.cpp:122] Setting up relu3
I1203 18:24:08.420918  3183 net.cpp:129] Top shape: 80 500 (40000)
I1203 18:24:08.420922  3183 net.cpp:137] Memory required for data: 993113280
I1203 18:24:08.420928  3183 layer_factory.hpp:77] Creating layer score
I1203 18:24:08.420936  3183 net.cpp:84] Creating Layer score
I1203 18:24:08.420941  3183 net.cpp:406] score <- fc1
I1203 18:24:08.420948  3183 net.cpp:380] score -> score
I1203 18:24:08.421067  3183 net.cpp:122] Setting up score
I1203 18:24:08.421078  3183 net.cpp:129] Top shape: 80 2 (160)
I1203 18:24:08.421083  3183 net.cpp:137] Memory required for data: 993113920
I1203 18:24:08.421090  3183 layer_factory.hpp:77] Creating layer score_score_0_split
I1203 18:24:08.421098  3183 net.cpp:84] Creating Layer score_score_0_split
I1203 18:24:08.421103  3183 net.cpp:406] score_score_0_split <- score
I1203 18:24:08.421109  3183 net.cpp:380] score_score_0_split -> score_score_0_split_0
I1203 18:24:08.421118  3183 net.cpp:380] score_score_0_split -> score_score_0_split_1
I1203 18:24:08.421154  3183 net.cpp:122] Setting up score_score_0_split
I1203 18:24:08.421164  3183 net.cpp:129] Top shape: 80 2 (160)
I1203 18:24:08.421169  3183 net.cpp:129] Top shape: 80 2 (160)
I1203 18:24:08.421174  3183 net.cpp:137] Memory required for data: 993115200
I1203 18:24:08.421178  3183 layer_factory.hpp:77] Creating layer accuracy
I1203 18:24:08.421203  3183 net.cpp:84] Creating Layer accuracy
I1203 18:24:08.421221  3183 net.cpp:406] accuracy <- score_score_0_split_0
I1203 18:24:08.421227  3183 net.cpp:406] accuracy <- label_data_1_split_0
I1203 18:24:08.421237  3183 net.cpp:380] accuracy -> accuracy
…
I1203 18:24:08.421803  3183 solver.cpp:172] Creating test net (#0) specified by net file: train_val.prototxt
I1203 18:24:08.421834  3183 net.cpp:294] The NetState phase (1) differed from the phase (0) specified by a rule in layer data
I1203 18:24:08.421914  3183 net.cpp:51] Initializing net from parameters: 
state {
  phase: TEST
}
layer {
  name: "data"
  type: "Data"
  top: "data"
  top: "label"
  include {
    phase: TEST
  }
  transform_param {
    scale: 0.0039215689
  }
  data_param {
    source: "/home/vtyurin/Diploma/lmdb/256_gray/val_db"
    batch_size: 100
    backend: LMDB
  }
}
layer {
  name: "conv1"
  type: "Convolution"
  bottom: "data"
  top: "conv1"
  convolution_param {
    num_output: 20
    kernel_size: 2
    weight_filler {
      type: "xavier"
    }
  }
}
layer {
  name: "pool1"
  type: "Pooling"
  bottom: "conv1"
  top: "pool1"
  pooling_param {
    pool: MAX
    kernel_size: 2
    stride: 2
  }
}
layer {
  name: "conv2"
  type: "Convolution"
  bottom: "pool1"
  top: "conv2"
  convolution_param {
    num_output: 40
    kernel_size: 4
    weight_filler {
      type: "xavier"
    }
  }
}
layer {
  name: "relu2"
  type: "ReLU"
  bottom: "conv2"
  top: "conv2"
}
layer {
  name: "pool2"
  type: "Pooling"
  bottom: "conv2"
  top: "pool2"
  pooling_param {
    pool: MAX
    kernel_size: 2
    stride: 2
  }
}
layer {
  name: "fc1"
  type: "InnerProduct"
  bottom: "pool2"
  top: "fc1"
  inner_product_param {
    num_output: 500
    weight_filler {
      type: "xavier"
    }
  }
}
layer {
  name: "relu3"
  type: "ReLU"
  bottom: "fc1"
  top: "fc1"
}
layer {
  name: "score"
  type: "InnerProduct"
  bottom: "fc1"
  top: "score"
  inner_product_param {
    num_output: 2
    weight_filler {
      type: "xavier"
    }
  }
}
layer {
  name: "accuracy"
  type: "Accuracy"
  bottom: "score"
  bottom: "label"
  top: "accuracy"
}
layer {
  name: "loss"
  type: "SoftmaxWithLoss"
  bottom: "score"
  bottom: "label"
  top: "loss"
}
I1203 18:24:08.421994  3183 layer_factory.hpp:77] Creating layer data
I1203 18:24:08.422068  3183 db_lmdb.cpp:35] Opened lmdb /home/vtyurin/Diploma/lmdb/256_gray/val_db
I1203 18:24:08.422092  3183 net.cpp:84] Creating Layer data
I1203 18:24:08.422101  3183 net.cpp:380] data -> data
I1203 18:24:08.422111  3183 net.cpp:380] data -> label
I1203 18:24:08.423104  3183 data_layer.cpp:45] output data size: 100,1,256,256
I1203 18:24:08.769032  3183 net.cpp:122] Setting up data
I1203 18:24:08.769096  3183 net.cpp:129] Top shape: 100 1 256 256 (6553600)
I1203 18:24:08.769106  3183 net.cpp:129] Top shape: 100 (100)
I1203 18:24:08.769111  3183 net.cpp:137] Memory required for data: 26214800
I1203 18:24:08.769120  3183 layer_factory.hpp:77] Creating layer label_data_1_split
I1203 18:24:08.769140  3183 net.cpp:84] Creating Layer label_data_1_split
I1203 18:24:08.769145  3183 net.cpp:406] label_data_1_split <- label
I1203 18:24:08.769155  3183 net.cpp:380] label_data_1_split -> label_data_1_split_0
I1203 18:24:08.769168  3183 net.cpp:380] label_data_1_split -> label_data_1_split_1
I1203 18:24:08.769223  3183 net.cpp:122] Setting up label_data_1_split
I1203 18:24:08.769233  3183 net.cpp:129] Top shape: 100 (100)
I1203 18:24:08.769238  3183 net.cpp:129] Top shape: 100 (100)
I1203 18:24:08.769243  3183 net.cpp:137] Memory required for data: 26215600
I1203 18:24:08.769248  3183 layer_factory.hpp:77] Creating layer conv1
I1203 18:24:08.769265  3183 net.cpp:84] Creating Layer conv1
I1203 18:24:08.769270  3183 net.cpp:406] conv1 <- data
I1203 18:24:08.769278  3183 net.cpp:380] conv1 -> conv1
I1203 18:24:08.769575  3183 net.cpp:122] Setting up conv1
I1203 18:24:08.769588  3183 net.cpp:129] Top shape: 100 20 255 255 (130050000)
I1203 18:24:08.769593  3183 net.cpp:137] Memory required for data: 546415600
I1203 18:24:08.769605  3183 layer_factory.hpp:77] Creating layer pool1
I1203 18:24:08.769616  3183 net.cpp:84] Creating Layer pool1
I1203 18:24:08.769621  3183 net.cpp:406] pool1 <- conv1
I1203 18:24:08.769629  3183 net.cpp:380] pool1 -> pool1
I1203 18:24:08.769666  3183 net.cpp:122] Setting up pool1
I1203 18:24:08.769675  3183 net.cpp:129] Top shape: 100 20 128 128 (32768000)
I1203 18:24:08.769680  3183 net.cpp:137] Memory required for data: 677487600
I1203 18:24:08.769685  3183 layer_factory.hpp:77] Creating layer conv2
I1203 18:24:08.769695  3183 net.cpp:84] Creating Layer conv2
I1203 18:24:08.769707  3183 net.cpp:406] conv2 <- pool1
I1203 18:24:08.769716  3183 net.cpp:380] conv2 -> conv2
I1203 18:24:08.776198  3183 net.cpp:122] Setting up conv2
I1203 18:24:08.776358  3183 net.cpp:129] Top shape: 100 40 125 125 (62500000)
I1203 18:24:08.776366  3183 net.cpp:137] Memory required for data: 927487600
I1203 18:24:08.776403  3183 layer_factory.hpp:77] Creating layer relu2
I1203 18:24:08.776450  3183 net.cpp:84] Creating Layer relu2
I1203 18:24:08.776460  3183 net.cpp:406] relu2 <- conv2
I1203 18:24:08.776494  3183 net.cpp:367] relu2 -> conv2 (in-place)
I1203 18:24:08.776520  3183 net.cpp:122] Setting up relu2
I1203 18:24:08.776525  3183 net.cpp:129] Top shape: 100 40 125 125 (62500000)
I1203 18:24:08.776530  3183 net.cpp:137] Memory required for data: 1177487600
I1203 18:24:08.776535  3183 layer_factory.hpp:77] Creating layer pool2
I1203 18:24:08.776556  3183 net.cpp:84] Creating Layer pool2
I1203 18:24:08.776561  3183 net.cpp:406] pool2 <- conv2
I1203 18:24:08.776571  3183 net.cpp:380] pool2 -> pool2
I1203 18:24:08.776656  3183 net.cpp:122] Setting up pool2
I1203 18:24:08.776669  3183 net.cpp:129] Top shape: 100 40 63 63 (15876000)
I1203 18:24:08.776672  3183 net.cpp:137] Memory required for data: 1240991600
I1203 18:24:08.776677  3183 layer_factory.hpp:77] Creating layer fc1
I1203 18:24:08.776693  3183 net.cpp:84] Creating Layer fc1
I1203 18:24:08.776703  3183 net.cpp:406] fc1 <- pool2
I1203 18:24:08.776756  3183 net.cpp:380] fc1 -> fc1
I1203 18:24:09.250195  3195 data_layer.cpp:73] Restarting data prefetching from start.
I1203 18:24:09.640120  3183 net.cpp:122] Setting up fc1
I1203 18:24:09.640326  3183 net.cpp:129] Top shape: 100 500 (50000)
I1203 18:24:09.640333  3183 net.cpp:137] Memory required for data: 1241191600
I1203 18:24:09.640377  3183 layer_factory.hpp:77] Creating layer relu3
I1203 18:24:09.640414  3183 net.cpp:84] Creating Layer relu3
I1203 18:24:09.640426  3183 net.cpp:406] relu3 <- fc1
I1203 18:24:09.640450  3183 net.cpp:367] relu3 -> fc1 (in-place)
I1203 18:24:09.640477  3183 net.cpp:122] Setting up relu3
I1203 18:24:09.640483  3183 net.cpp:129] Top shape: 100 500 (50000)
I1203 18:24:09.640488  3183 net.cpp:137] Memory required for data: 1241391600
I1203 18:24:09.640493  3183 layer_factory.hpp:77] Creating layer score
I1203 18:24:09.640512  3183 net.cpp:84] Creating Layer score
I1203 18:24:09.640517  3183 net.cpp:406] score <- fc1
I1203 18:24:09.640525  3183 net.cpp:380] score -> score
I1203 18:24:09.640735  3183 net.cpp:122] Setting up score
I1203 18:24:09.640748  3183 net.cpp:129] Top shape: 100 2 (200)
I1203 18:24:09.640753  3183 net.cpp:137] Memory required for data: 1241392400
I1203 18:24:09.640765  3183 layer_factory.hpp:77] Creating layer score_score_0_split
I1203 18:24:09.640808  3183 net.cpp:84] Creating Layer score_score_0_split
I1203 18:24:09.640813  3183 net.cpp:406] score_score_0_split <- score
I1203 18:24:09.640822  3183 net.cpp:380] score_score_0_split -> score_score_0_split_0
I1203 18:24:09.640843  3183 net.cpp:380] score_score_0_split -> score_score_0_split_1
I1203 18:24:09.640882  3183 net.cpp:122] Setting up score_score_0_split
I1203 18:24:09.640892  3183 net.cpp:129] Top shape: 100 2 (200)
I1203 18:24:09.640897  3183 net.cpp:129] Top shape: 100 2 (200)
I1203 18:24:09.640902  3183 net.cpp:137] Memory required for data: 1241394000
I1203 18:24:09.640908  3183 layer_factory.hpp:77] Creating layer accuracy
I1203 18:24:09.640933  3183 net.cpp:84] Creating Layer accuracy
I1203 18:24:09.640940  3183 net.cpp:406] accuracy <- score_score_0_split_0
I1203 18:24:09.640946  3183 net.cpp:406] accuracy <- label_data_1_split_0
I1203 18:24:09.640952  3183 net.cpp:380] accuracy -> accuracy
…
