…
I1207 22:55:59.105162   957 solver.cpp:87] Creating training net from net file: train_val.prototxt
I1207 22:55:59.122117   957 net.cpp:294] The NetState phase (0) differed from the phase (1) specified by a rule in layer data
I1207 22:55:59.122215   957 net.cpp:51] Initializing net from parameters: 
state {
  phase: TRAIN
  level: 0
  stage: ""
}
layer {
  name: "data"
  type: "Data"
  top: "data"
  top: "label"
  include {
    phase: TRAIN
  }
  transform_param {
    scale: 0.0039215689
  }
  data_param {
    source: "/home/vtyurin/Diploma/lmdb/Large_256_gray/train_db"
    batch_size: 100
    backend: LMDB
  }
}
layer {
  name: "conv1"
  type: "Convolution"
  bottom: "data"
  top: "conv1"
  convolution_param {
    num_output: 20
    kernel_size: 2
    weight_filler {
      type: "xavier"
    }
  }
}
layer {
  name: "pool1"
  type: "Pooling"
  bottom: "conv1"
  top: "pool1"
  pooling_param {
    pool: MAX
    kernel_size: 2
    stride: 2
  }
}
layer {
  name: "conv2"
  type: "Convolution"
  bottom: "pool1"
  top: "conv2"
  convolution_param {
    num_output: 40
    kernel_size: 4
    weight_filler {
      type: "xavier"
    }
  }
}
layer {
  name: "relu2"
  type: "ReLU"
  bottom: "conv2"
  top: "conv2"
}
layer {
  name: "pool2"
  type: "Pooling"
  bottom: "conv2"
  top: "pool2"
  pooling_param {
    pool: MAX
    kernel_size: 2
    stride: 2
  }
}
layer {
  name: "fc1"
  type: "InnerProduct"
  bottom: "pool2"
  top: "fc1"
  inner_product_param {
    num_output: 500
    weight_filler {
      type: "xavier"
    }
  }
}
layer {
  name: "relu3"
  type: "ReLU"
  bottom: "fc1"
  top: "fc1"
}
layer {
  name: "score"
  type: "InnerProduct"
  bottom: "fc1"
  top: "score"
  inner_product_param {
    num_output: 2
    weight_filler {
      type: "xavier"
    }
  }
}
layer {
  name: "accuracy"
  type: "Accuracy"
  bottom: "score"
  bottom: "label"
  top: "accuracy"
}
layer {
  name: "loss"
  type: "SoftmaxWithLoss"
  bottom: "score"
  bottom: "label"
  top: "loss"
}
I1207 22:55:59.122308   957 layer_factory.hpp:77] Creating layer data
I1207 22:55:59.169998   957 db_lmdb.cpp:35] Opened lmdb /home/vtyurin/Diploma/lmdb/Large_256_gray/train_db
I1207 22:55:59.170037   957 net.cpp:84] Creating Layer data
I1207 22:55:59.170076   957 net.cpp:380] data -> data
I1207 22:55:59.170107   957 net.cpp:380] data -> label
I1207 22:55:59.330973   957 data_layer.cpp:45] output data size: 100,1,256,256
I1207 22:55:59.410887   957 net.cpp:122] Setting up data
I1207 22:55:59.410928   957 net.cpp:129] Top shape: 100 1 256 256 (6553600)
I1207 22:55:59.410935   957 net.cpp:129] Top shape: 100 (100)
I1207 22:55:59.410940   957 net.cpp:137] Memory required for data: 26214800
I1207 22:55:59.410951   957 layer_factory.hpp:77] Creating layer label_data_1_split
I1207 22:55:59.410967   957 net.cpp:84] Creating Layer label_data_1_split
I1207 22:55:59.410974   957 net.cpp:406] label_data_1_split <- label
I1207 22:55:59.410989   957 net.cpp:380] label_data_1_split -> label_data_1_split_0
I1207 22:55:59.411001   957 net.cpp:380] label_data_1_split -> label_data_1_split_1
I1207 22:55:59.426959   957 net.cpp:122] Setting up label_data_1_split
I1207 22:55:59.426977   957 net.cpp:129] Top shape: 100 (100)
I1207 22:55:59.426983   957 net.cpp:129] Top shape: 100 (100)
I1207 22:55:59.426987   957 net.cpp:137] Memory required for data: 26215600
I1207 22:55:59.426992   957 layer_factory.hpp:77] Creating layer conv1
I1207 22:55:59.427011   957 net.cpp:84] Creating Layer conv1
I1207 22:55:59.427016   957 net.cpp:406] conv1 <- data
I1207 22:55:59.427023   957 net.cpp:380] conv1 -> conv1
I1207 22:55:59.430908   957 net.cpp:122] Setting up conv1
I1207 22:55:59.430928   957 net.cpp:129] Top shape: 100 20 255 255 (130050000)
I1207 22:55:59.430946   957 net.cpp:137] Memory required for data: 546415600
I1207 22:55:59.430963   957 layer_factory.hpp:77] Creating layer pool1
I1207 22:55:59.430974   957 net.cpp:84] Creating Layer pool1
I1207 22:55:59.430979   957 net.cpp:406] pool1 <- conv1
I1207 22:55:59.430985   957 net.cpp:380] pool1 -> pool1
I1207 22:55:59.462008   957 net.cpp:122] Setting up pool1
I1207 22:55:59.462029   957 net.cpp:129] Top shape: 100 20 128 128 (32768000)
I1207 22:55:59.462034   957 net.cpp:137] Memory required for data: 677487600
I1207 22:55:59.462039   957 layer_factory.hpp:77] Creating layer conv2
I1207 22:55:59.462051   957 net.cpp:84] Creating Layer conv2
I1207 22:55:59.462057   957 net.cpp:406] conv2 <- pool1
I1207 22:55:59.462065   957 net.cpp:380] conv2 -> conv2
I1207 22:55:59.462844   957 net.cpp:122] Setting up conv2
I1207 22:55:59.462863   957 net.cpp:129] Top shape: 100 40 125 125 (62500000)
I1207 22:55:59.462868   957 net.cpp:137] Memory required for data: 927487600
I1207 22:55:59.462878   957 layer_factory.hpp:77] Creating layer relu2
I1207 22:55:59.462887   957 net.cpp:84] Creating Layer relu2
I1207 22:55:59.462891   957 net.cpp:406] relu2 <- conv2
I1207 22:55:59.462898   957 net.cpp:367] relu2 -> conv2 (in-place)
I1207 22:55:59.462908   957 net.cpp:122] Setting up relu2
I1207 22:55:59.462913   957 net.cpp:129] Top shape: 100 40 125 125 (62500000)
I1207 22:55:59.462916   957 net.cpp:137] Memory required for data: 1177487600
I1207 22:55:59.462926   957 layer_factory.hpp:77] Creating layer pool2
I1207 22:55:59.462934   957 net.cpp:84] Creating Layer pool2
I1207 22:55:59.462937   957 net.cpp:406] pool2 <- conv2
I1207 22:55:59.462944   957 net.cpp:380] pool2 -> pool2
I1207 22:55:59.462983   957 net.cpp:122] Setting up pool2
I1207 22:55:59.462992   957 net.cpp:129] Top shape: 100 40 63 63 (15876000)
I1207 22:55:59.462996   957 net.cpp:137] Memory required for data: 1240991600
I1207 22:55:59.463001   957 layer_factory.hpp:77] Creating layer fc1
I1207 22:55:59.463007   957 net.cpp:84] Creating Layer fc1
I1207 22:55:59.463012   957 net.cpp:406] fc1 <- pool2
I1207 22:55:59.463019   957 net.cpp:380] fc1 -> fc1
I1207 22:56:00.117067   957 net.cpp:122] Setting up fc1
I1207 22:56:00.117110   957 net.cpp:129] Top shape: 100 500 (50000)
I1207 22:56:00.117115   957 net.cpp:137] Memory required for data: 1241191600
I1207 22:56:00.117130   957 layer_factory.hpp:77] Creating layer relu3
I1207 22:56:00.117143   957 net.cpp:84] Creating Layer relu3
I1207 22:56:00.117149   957 net.cpp:406] relu3 <- fc1
I1207 22:56:00.117157   957 net.cpp:367] relu3 -> fc1 (in-place)
I1207 22:56:00.117200   957 net.cpp:122] Setting up relu3
I1207 22:56:00.117210   957 net.cpp:129] Top shape: 100 500 (50000)
I1207 22:56:00.117214   957 net.cpp:137] Memory required for data: 1241391600
I1207 22:56:00.117219   957 layer_factory.hpp:77] Creating layer score
I1207 22:56:00.117229   957 net.cpp:84] Creating Layer score
I1207 22:56:00.117233   957 net.cpp:406] score <- fc1
I1207 22:56:00.117240   957 net.cpp:380] score -> score
I1207 22:56:00.117348   957 net.cpp:122] Setting up score
I1207 22:56:00.117358   957 net.cpp:129] Top shape: 100 2 (200)
I1207 22:56:00.117362   957 net.cpp:137] Memory required for data: 1241392400
I1207 22:56:00.117369   957 layer_factory.hpp:77] Creating layer score_score_0_split
I1207 22:56:00.117378   957 net.cpp:84] Creating Layer score_score_0_split
I1207 22:56:00.117383   957 net.cpp:406] score_score_0_split <- score
I1207 22:56:00.117390   957 net.cpp:380] score_score_0_split -> score_score_0_split_0
I1207 22:56:00.117398   957 net.cpp:380] score_score_0_split -> score_score_0_split_1
I1207 22:56:00.117430   957 net.cpp:122] Setting up score_score_0_split
I1207 22:56:00.117439   957 net.cpp:129] Top shape: 100 2 (200)
I1207 22:56:00.117444   957 net.cpp:129] Top shape: 100 2 (200)
I1207 22:56:00.117447   957 net.cpp:137] Memory required for data: 1241394000
I1207 22:56:00.117460   957 layer_factory.hpp:77] Creating layer accuracy
I1207 22:56:00.117475   957 net.cpp:84] Creating Layer accuracy
I1207 22:56:00.117491   957 net.cpp:406] accuracy <- score_score_0_split_0
I1207 22:56:00.117497   957 net.cpp:406] accuracy <- label_data_1_split_0
I1207 22:56:00.117502   957 net.cpp:380] accuracy -> accuracy
…
I1207 22:56:00.118113   957 solver.cpp:172] Creating test net (#0) specified by net file: train_val.prototxt
I1207 22:56:00.118141   957 net.cpp:294] The NetState phase (1) differed from the phase (0) specified by a rule in layer data
I1207 22:56:00.118213   957 net.cpp:51] Initializing net from parameters: 
state {
  phase: TEST
}
layer {
  name: "data"
  type: "Data"
  top: "data"
  top: "label"
  include {
    phase: TEST
  }
  transform_param {
    scale: 0.0039215689
  }
  data_param {
    source: "/home/vtyurin/Diploma/lmdb/Large_256_gray/val_db"
    batch_size: 120
    backend: LMDB
  }
}
layer {
  name: "conv1"
  type: "Convolution"
  bottom: "data"
  top: "conv1"
  convolution_param {
    num_output: 20
    kernel_size: 2
    weight_filler {
      type: "xavier"
    }
  }
}
layer {
  name: "pool1"
  type: "Pooling"
  bottom: "conv1"
  top: "pool1"
  pooling_param {
    pool: MAX
    kernel_size: 2
    stride: 2
  }
}
layer {
  name: "conv2"
  type: "Convolution"
  bottom: "pool1"
  top: "conv2"
  convolution_param {
    num_output: 40
    kernel_size: 4
    weight_filler {
      type: "xavier"
    }
  }
}
layer {
  name: "relu2"
  type: "ReLU"
  bottom: "conv2"
  top: "conv2"
}
layer {
  name: "pool2"
  type: "Pooling"
  bottom: "conv2"
  top: "pool2"
  pooling_param {
    pool: MAX
    kernel_size: 2
    stride: 2
  }
}
layer {
  name: "fc1"
  type: "InnerProduct"
  bottom: "pool2"
  top: "fc1"
  inner_product_param {
    num_output: 500
    weight_filler {
      type: "xavier"
    }
  }
}
layer {
  name: "relu3"
  type: "ReLU"
  bottom: "fc1"
  top: "fc1"
}
layer {
  name: "score"
  type: "InnerProduct"
  bottom: "fc1"
  top: "score"
  inner_product_param {
    num_output: 2
    weight_filler {
      type: "xavier"
    }
  }
}
layer {
  name: "accuracy"
  type: "Accuracy"
  bottom: "score"
  bottom: "label"
  top: "accuracy"
}
layer {
  name: "loss"
  type: "SoftmaxWithLoss"
  bottom: "score"
  bottom: "label"
  top: "loss"
}
I1207 22:56:00.118285   957 layer_factory.hpp:77] Creating layer data
I1207 22:56:00.118350   957 db_lmdb.cpp:35] Opened lmdb /home/vtyurin/Diploma/lmdb/Large_256_gray/val_db
I1207 22:56:00.118371   957 net.cpp:84] Creating Layer data
I1207 22:56:00.118378   957 net.cpp:380] data -> data
I1207 22:56:00.118387   957 net.cpp:380] data -> label
I1207 22:56:00.118837   957 data_layer.cpp:45] output data size: 120,1,256,256
I1207 22:56:00.180881   957 net.cpp:122] Setting up data
I1207 22:56:00.180924   957 net.cpp:129] Top shape: 120 1 256 256 (7864320)
I1207 22:56:00.180932   957 net.cpp:129] Top shape: 120 (120)
I1207 22:56:00.180938   957 net.cpp:137] Memory required for data: 31457760
I1207 22:56:00.180945   957 layer_factory.hpp:77] Creating layer label_data_1_split
I1207 22:56:00.180960   957 net.cpp:84] Creating Layer label_data_1_split
I1207 22:56:00.180965   957 net.cpp:406] label_data_1_split <- label
I1207 22:56:00.180974   957 net.cpp:380] label_data_1_split -> label_data_1_split_0
I1207 22:56:00.180985   957 net.cpp:380] label_data_1_split -> label_data_1_split_1
I1207 22:56:00.181049   957 net.cpp:122] Setting up label_data_1_split
I1207 22:56:00.181061   957 net.cpp:129] Top shape: 120 (120)
I1207 22:56:00.181066   957 net.cpp:129] Top shape: 120 (120)
I1207 22:56:00.181071   957 net.cpp:137] Memory required for data: 31458720
I1207 22:56:00.181076   957 layer_factory.hpp:77] Creating layer conv1
I1207 22:56:00.181088   957 net.cpp:84] Creating Layer conv1
I1207 22:56:00.181093   957 net.cpp:406] conv1 <- data
I1207 22:56:00.181100   957 net.cpp:380] conv1 -> conv1
I1207 22:56:00.181371   957 net.cpp:122] Setting up conv1
I1207 22:56:00.181383   957 net.cpp:129] Top shape: 120 20 255 255 (156060000)
I1207 22:56:00.181387   957 net.cpp:137] Memory required for data: 655698720
I1207 22:56:00.181399   957 layer_factory.hpp:77] Creating layer pool1
I1207 22:56:00.181408   957 net.cpp:84] Creating Layer pool1
I1207 22:56:00.181412   957 net.cpp:406] pool1 <- conv1
I1207 22:56:00.181419   957 net.cpp:380] pool1 -> pool1
I1207 22:56:00.181462   957 net.cpp:122] Setting up pool1
I1207 22:56:00.181469   957 net.cpp:129] Top shape: 120 20 128 128 (39321600)
I1207 22:56:00.181474   957 net.cpp:137] Memory required for data: 812985120
I1207 22:56:00.181478   957 layer_factory.hpp:77] Creating layer conv2
I1207 22:56:00.181489   957 net.cpp:84] Creating Layer conv2
I1207 22:56:00.181494   957 net.cpp:406] conv2 <- pool1
I1207 22:56:00.181501   957 net.cpp:380] conv2 -> conv2
I1207 22:56:00.181874   957 net.cpp:122] Setting up conv2
I1207 22:56:00.181888   957 net.cpp:129] Top shape: 120 40 125 125 (75000000)
I1207 22:56:00.181892   957 net.cpp:137] Memory required for data: 1112985120
I1207 22:56:00.181902   957 layer_factory.hpp:77] Creating layer relu2
I1207 22:56:00.181911   957 net.cpp:84] Creating Layer relu2
I1207 22:56:00.181916   957 net.cpp:406] relu2 <- conv2
I1207 22:56:00.181922   957 net.cpp:367] relu2 -> conv2 (in-place)
I1207 22:56:00.181929   957 net.cpp:122] Setting up relu2
I1207 22:56:00.181936   957 net.cpp:129] Top shape: 120 40 125 125 (75000000)
I1207 22:56:00.181939   957 net.cpp:137] Memory required for data: 1412985120
I1207 22:56:00.181943   957 layer_factory.hpp:77] Creating layer pool2
I1207 22:56:00.181949   957 net.cpp:84] Creating Layer pool2
I1207 22:56:00.181954   957 net.cpp:406] pool2 <- conv2
I1207 22:56:00.181959   957 net.cpp:380] pool2 -> pool2
I1207 22:56:00.181998   957 net.cpp:122] Setting up pool2
I1207 22:56:00.182006   957 net.cpp:129] Top shape: 120 40 63 63 (19051200)
I1207 22:56:00.182010   957 net.cpp:137] Memory required for data: 1489189920
I1207 22:56:00.182014   957 layer_factory.hpp:77] Creating layer fc1
I1207 22:56:00.182024   957 net.cpp:84] Creating Layer fc1
I1207 22:56:00.182036   957 net.cpp:406] fc1 <- pool2
I1207 22:56:00.182044   957 net.cpp:380] fc1 -> fc1
I1207 22:56:00.833035   957 net.cpp:122] Setting up fc1
I1207 22:56:00.833082   957 net.cpp:129] Top shape: 120 500 (60000)
I1207 22:56:00.833088   957 net.cpp:137] Memory required for data: 1489429920
I1207 22:56:00.833104   957 layer_factory.hpp:77] Creating layer relu3
I1207 22:56:00.833118   957 net.cpp:84] Creating Layer relu3
I1207 22:56:00.833125   957 net.cpp:406] relu3 <- fc1
I1207 22:56:00.833134   957 net.cpp:367] relu3 -> fc1 (in-place)
I1207 22:56:00.833145   957 net.cpp:122] Setting up relu3
I1207 22:56:00.833153   957 net.cpp:129] Top shape: 120 500 (60000)
I1207 22:56:00.833156   957 net.cpp:137] Memory required for data: 1489669920
I1207 22:56:00.833160   957 layer_factory.hpp:77] Creating layer score
I1207 22:56:00.833169   957 net.cpp:84] Creating Layer score
I1207 22:56:00.833174   957 net.cpp:406] score <- fc1
I1207 22:56:00.833184   957 net.cpp:380] score -> score
I1207 22:56:00.833287   957 net.cpp:122] Setting up score
I1207 22:56:00.833297   957 net.cpp:129] Top shape: 120 2 (240)
I1207 22:56:00.833302   957 net.cpp:137] Memory required for data: 1489670880
I1207 22:56:00.833308   957 layer_factory.hpp:77] Creating layer score_score_0_split
I1207 22:56:00.833317   957 net.cpp:84] Creating Layer score_score_0_split
I1207 22:56:00.833322   957 net.cpp:406] score_score_0_split <- score
I1207 22:56:00.833328   957 net.cpp:380] score_score_0_split -> score_score_0_split_0
I1207 22:56:00.833334   957 net.cpp:380] score_score_0_split -> score_score_0_split_1
I1207 22:56:00.833375   957 net.cpp:122] Setting up score_score_0_split
I1207 22:56:00.833384   957 net.cpp:129] Top shape: 120 2 (240)
I1207 22:56:00.833389   957 net.cpp:129] Top shape: 120 2 (240)
I1207 22:56:00.833394   957 net.cpp:137] Memory required for data: 1489672800
I1207 22:56:00.833397   957 layer_factory.hpp:77] Creating layer accuracy
I1207 22:56:00.833406   957 net.cpp:84] Creating Layer accuracy
I1207 22:56:00.833410   957 net.cpp:406] accuracy <- score_score_0_split_0
I1207 22:56:00.833416   957 net.cpp:406] accuracy <- label_data_1_split_0
I1207 22:56:00.833422   957 net.cpp:380] accuracy -> accuracy
…
