…
I1130 01:24:53.199385 19348 net.cpp:294] The NetState phase (0) differed from the phase (1) specified by a rule in layer data
I1130 01:24:53.199405 19348 net.cpp:294] The NetState phase (0) differed from the phase (1) specified by a rule in layer accuracy
I1130 01:24:53.199476 19348 net.cpp:51] Initializing net from parameters: 
state {
  phase: TRAIN
  level: 0
  stage: ""
}
layer {
  name: "data"
  type: "Data"
  top: "data"
  top: "label"
  include {
    phase: TRAIN
  }
  transform_param {
    scale: 0.0039215689
  }
  data_param {
    source: "/home/styurin/DataSet/64/train_db"
    batch_size: 64
    backend: LMDB
  }
}
layer {
  name: "conv1"
  type: "Convolution"
  bottom: "data"
  top: "conv1"
  convolution_param {
    num_output: 20
    kernel_size: 2
    weight_filler {
      type: "xavier"
    }
  }
}
layer {
  name: "pool1"
  type: "Pooling"
  bottom: "conv1"
  top: "pool1"
  pooling_param {
    pool: MAX
    kernel_size: 2
    stride: 2
  }
}
layer {
  name: "conv2"
  type: "Convolution"
  bottom: "pool1"
  top: "conv2"
  convolution_param {
    num_output: 40
    kernel_size: 4
    weight_filler {
      type: "xavier"
    }
  }
}
layer {
  name: "relu2"
  type: "ReLU"
  bottom: "conv2"
  top: "conv2"
}
layer {
  name: "pool2"
  type: "Pooling"
  bottom: "conv2"
  top: "pool2"
  pooling_param {
    pool: MAX
    kernel_size: 2
    stride: 2
  }
}
layer {
  name: "fc1"
  type: "InnerProduct"
  bottom: "pool2"
  top: "fc1"
  inner_product_param {
    num_output: 500
    weight_filler {
      type: "xavier"
    }
  }
}
layer {
  name: "relu3"
  type: "ReLU"
  bottom: "fc1"
  top: "fc1"
}
layer {
  name: "score"
  type: "InnerProduct"
  bottom: "fc1"
  top: "score"
  inner_product_param {
    num_output: 3
    weight_filler {
      type: "xavier"
    }
  }
}
layer {
  name: "loss"
  type: "SoftmaxWithLoss"
  bottom: "score"
  bottom: "label"
  top: "loss"
}
I1130 01:24:53.199545 19348 layer_factory.hpp:77] Creating layer data
I1130 01:24:53.199658 19348 db_lmdb.cpp:35] Opened lmdb /home/styurin/DataSet/64/train_db
I1130 01:24:53.199686 19348 net.cpp:84] Creating Layer data
I1130 01:24:53.199697 19348 net.cpp:380] data -> data
I1130 01:24:53.199721 19348 net.cpp:380] data -> label
I1130 01:24:53.200738 19348 data_layer.cpp:45] output data size: 64,3,64,64
I1130 01:24:53.207887 19348 net.cpp:122] Setting up data
I1130 01:24:53.207916 19348 net.cpp:129] Top shape: 64 3 64 64 (786432)
I1130 01:24:53.207924 19348 net.cpp:129] Top shape: 64 (64)
I1130 01:24:53.207929 19348 net.cpp:137] Memory required for data: 3145984
I1130 01:24:53.207938 19348 layer_factory.hpp:77] Creating layer conv1
I1130 01:24:53.207957 19348 net.cpp:84] Creating Layer conv1
I1130 01:24:53.207965 19348 net.cpp:406] conv1 <- data
I1130 01:24:53.207978 19348 net.cpp:380] conv1 -> conv1
I1130 01:24:53.208678 19348 net.cpp:122] Setting up conv1
I1130 01:24:53.208696 19348 net.cpp:129] Top shape: 64 20 63 63 (5080320)
I1130 01:24:53.208703 19348 net.cpp:137] Memory required for data: 23467264
I1130 01:24:53.208716 19348 layer_factory.hpp:77] Creating layer pool1
I1130 01:24:53.208729 19348 net.cpp:84] Creating Layer pool1
I1130 01:24:53.208750 19348 net.cpp:406] pool1 <- conv1
I1130 01:24:53.208758 19348 net.cpp:380] pool1 -> pool1
I1130 01:24:53.208819 19348 net.cpp:122] Setting up pool1
I1130 01:24:53.208830 19348 net.cpp:129] Top shape: 64 20 32 32 (1310720)
I1130 01:24:53.208835 19348 net.cpp:137] Memory required for data: 28710144
I1130 01:24:53.208847 19348 layer_factory.hpp:77] Creating layer conv2
I1130 01:24:53.208858 19348 net.cpp:84] Creating Layer conv2
I1130 01:24:53.208873 19348 net.cpp:406] conv2 <- pool1
I1130 01:24:53.208880 19348 net.cpp:380] conv2 -> conv2
I1130 01:24:53.210330 19348 net.cpp:122] Setting up conv2
I1130 01:24:53.210350 19348 net.cpp:129] Top shape: 64 40 29 29 (2152960)
I1130 01:24:53.210355 19348 net.cpp:137] Memory required for data: 37321984
I1130 01:24:53.210366 19348 layer_factory.hpp:77] Creating layer relu2
I1130 01:24:53.210374 19348 net.cpp:84] Creating Layer relu2
I1130 01:24:53.210379 19348 net.cpp:406] relu2 <- conv2
I1130 01:24:53.210386 19348 net.cpp:367] relu2 -> conv2 (in-place)
I1130 01:24:53.210395 19348 net.cpp:122] Setting up relu2
I1130 01:24:53.210402 19348 net.cpp:129] Top shape: 64 40 29 29 (2152960)
I1130 01:24:53.210405 19348 net.cpp:137] Memory required for data: 45933824
I1130 01:24:53.210410 19348 layer_factory.hpp:77] Creating layer pool2
I1130 01:24:53.210418 19348 net.cpp:84] Creating Layer pool2
I1130 01:24:53.210423 19348 net.cpp:406] pool2 <- conv2
I1130 01:24:53.210428 19348 net.cpp:380] pool2 -> pool2
I1130 01:24:53.210471 19348 net.cpp:122] Setting up pool2
I1130 01:24:53.210481 19348 net.cpp:129] Top shape: 64 40 15 15 (576000)
I1130 01:24:53.210485 19348 net.cpp:137] Memory required for data: 48237824
I1130 01:24:53.210489 19348 layer_factory.hpp:77] Creating layer fc1
I1130 01:24:53.210496 19348 net.cpp:84] Creating Layer fc1
I1130 01:24:53.210501 19348 net.cpp:406] fc1 <- pool2
I1130 01:24:53.210510 19348 net.cpp:380] fc1 -> fc1
I1130 01:24:53.246059 19348 net.cpp:122] Setting up fc1
I1130 01:24:53.246083 19348 net.cpp:129] Top shape: 64 500 (32000)
I1130 01:24:53.246088 19348 net.cpp:137] Memory required for data: 48365824
I1130 01:24:53.246100 19348 layer_factory.hpp:77] Creating layer relu3
I1130 01:24:53.246110 19348 net.cpp:84] Creating Layer relu3
I1130 01:24:53.246115 19348 net.cpp:406] relu3 <- fc1
I1130 01:24:53.246124 19348 net.cpp:367] relu3 -> fc1 (in-place)
I1130 01:24:53.246132 19348 net.cpp:122] Setting up relu3
I1130 01:24:53.246139 19348 net.cpp:129] Top shape: 64 500 (32000)
I1130 01:24:53.246142 19348 net.cpp:137] Memory required for data: 48493824
I1130 01:24:53.246146 19348 layer_factory.hpp:77] Creating layer score
I1130 01:24:53.246155 19348 net.cpp:84] Creating Layer score
I1130 01:24:53.246160 19348 net.cpp:406] score <- fc1
I1130 01:24:53.246165 19348 net.cpp:380] score -> score
I1130 01:24:53.246265 19348 net.cpp:122] Setting up score
I1130 01:24:53.246278 19348 net.cpp:129] Top shape: 64 3 (192)
I1130 01:24:53.246281 19348 net.cpp:137] Memory required for data: 48494592
I1130 01:24:53.246289 19348 layer_factory.hpp:77] Creating layer loss
I1130 01:24:53.246297 19348 net.cpp:84] Creating Layer loss
I1130 01:24:53.246302 19348 net.cpp:406] loss <- score
I1130 01:24:53.246307 19348 net.cpp:406] loss <- label
I1130 01:24:53.246315 19348 net.cpp:380] loss -> loss
I1130 01:24:53.246330 19348 layer_factory.hpp:77] Creating layer loss
…
I1130 01:24:53.246768 19348 solver.cpp:172] Creating test net (#0) specified by net file: train_val.prototxt
I1130 01:24:53.246798 19348 net.cpp:294] The NetState phase (1) differed from the phase (0) specified by a rule in layer data
I1130 01:24:53.246868 19348 net.cpp:51] Initializing net from parameters: 
state {
  phase: TEST
}
layer {
  name: "data"
  type: "Data"
  top: "data"
  top: "label"
  include {
    phase: TEST
  }
  transform_param {
    scale: 0.0039215689
  }
  data_param {
    source: "/home/styurin/DataSet/64/val_db"
    batch_size: 128
    backend: LMDB
  }
}
layer {
  name: "conv1"
  type: "Convolution"
  bottom: "data"
  top: "conv1"
  convolution_param {
    num_output: 20
    kernel_size: 2
    weight_filler {
      type: "xavier"
    }
  }
}
layer {
  name: "pool1"
  type: "Pooling"
  bottom: "conv1"
  top: "pool1"
  pooling_param {
    pool: MAX
    kernel_size: 2
    stride: 2
  }
}
layer {
  name: "conv2"
  type: "Convolution"
  bottom: "pool1"
  top: "conv2"
  convolution_param {
    num_output: 40
    kernel_size: 4
    weight_filler {
      type: "xavier"
    }
  }
}
layer {
  name: "relu2"
  type: "ReLU"
  bottom: "conv2"
  top: "conv2"
}
layer {
  name: "pool2"
  type: "Pooling"
  bottom: "conv2"
  top: "pool2"
  pooling_param {
    pool: MAX
    kernel_size: 2
    stride: 2
  }
}
layer {
  name: "fc1"
  type: "InnerProduct"
  bottom: "pool2"
  top: "fc1"
  inner_product_param {
    num_output: 500
    weight_filler {
      type: "xavier"
    }
  }
}
layer {
  name: "relu3"
  type: "ReLU"
  bottom: "fc1"
  top: "fc1"
}
layer {
  name: "score"
  type: "InnerProduct"
  bottom: "fc1"
  top: "score"
  inner_product_param {
    num_output: 3
    weight_filler {
      type: "xavier"
    }
  }
}
layer {
  name: "accuracy"
  type: "Accuracy"
  bottom: "score"
  bottom: "label"
  top: "accuracy"
  include {
    phase: TEST
  }
}
layer {
  name: "loss"
  type: "SoftmaxWithLoss"
  bottom: "score"
  bottom: "label"
  top: "loss"
}
I1130 01:24:53.246939 19348 layer_factory.hpp:77] Creating layer data
I1130 01:24:53.248879 19348 db_lmdb.cpp:35] Opened lmdb /home/styurin/DataSet/64/val_db
I1130 01:24:53.248914 19348 net.cpp:84] Creating Layer data
I1130 01:24:53.248924 19348 net.cpp:380] data -> data
I1130 01:24:53.248935 19348 net.cpp:380] data -> label
I1130 01:24:53.252270 19348 data_layer.cpp:45] output data size: 128,3,64,64
I1130 01:24:53.265684 19348 net.cpp:122] Setting up data
I1130 01:24:53.265709 19348 net.cpp:129] Top shape: 128 3 64 64 (1572864)
I1130 01:24:53.265717 19348 net.cpp:129] Top shape: 128 (128)
I1130 01:24:53.265722 19348 net.cpp:137] Memory required for data: 6291968
I1130 01:24:53.265727 19348 layer_factory.hpp:77] Creating layer label_data_1_split
I1130 01:24:53.265743 19348 net.cpp:84] Creating Layer label_data_1_split
I1130 01:24:53.265748 19348 net.cpp:406] label_data_1_split <- label
I1130 01:24:53.265756 19348 net.cpp:380] label_data_1_split -> label_data_1_split_0
I1130 01:24:53.265765 19348 net.cpp:380] label_data_1_split -> label_data_1_split_1
I1130 01:24:53.266113 19348 net.cpp:122] Setting up label_data_1_split
I1130 01:24:53.266129 19348 net.cpp:129] Top shape: 128 (128)
I1130 01:24:53.266135 19348 net.cpp:129] Top shape: 128 (128)
I1130 01:24:53.266139 19348 net.cpp:137] Memory required for data: 6292992
I1130 01:24:53.266144 19348 layer_factory.hpp:77] Creating layer conv1
I1130 01:24:53.266156 19348 net.cpp:84] Creating Layer conv1
I1130 01:24:53.266161 19348 net.cpp:406] conv1 <- data
I1130 01:24:53.266171 19348 net.cpp:380] conv1 -> conv1
I1130 01:24:53.266446 19348 net.cpp:122] Setting up conv1
I1130 01:24:53.266463 19348 net.cpp:129] Top shape: 128 20 63 63 (10160640)
I1130 01:24:53.266469 19348 net.cpp:137] Memory required for data: 46935552
I1130 01:24:53.266479 19348 layer_factory.hpp:77] Creating layer pool1
I1130 01:24:53.266490 19348 net.cpp:84] Creating Layer pool1
I1130 01:24:53.266495 19348 net.cpp:406] pool1 <- conv1
I1130 01:24:53.266502 19348 net.cpp:380] pool1 -> pool1
I1130 01:24:53.266549 19348 net.cpp:122] Setting up pool1
I1130 01:24:53.266558 19348 net.cpp:129] Top shape: 128 20 32 32 (2621440)
I1130 01:24:53.266574 19348 net.cpp:137] Memory required for data: 57421312
I1130 01:24:53.266579 19348 layer_factory.hpp:77] Creating layer conv2
I1130 01:24:53.266613 19348 net.cpp:84] Creating Layer conv2
I1130 01:24:53.266623 19348 net.cpp:406] conv2 <- pool1
I1130 01:24:53.266630 19348 net.cpp:380] conv2 -> conv2
I1130 01:24:53.267019 19348 net.cpp:122] Setting up conv2
I1130 01:24:53.267035 19348 net.cpp:129] Top shape: 128 40 29 29 (4305920)
I1130 01:24:53.267038 19348 net.cpp:137] Memory required for data: 74644992
I1130 01:24:53.267048 19348 layer_factory.hpp:77] Creating layer relu2
I1130 01:24:53.267068 19348 net.cpp:84] Creating Layer relu2
I1130 01:24:53.267073 19348 net.cpp:406] relu2 <- conv2
I1130 01:24:53.267081 19348 net.cpp:367] relu2 -> conv2 (in-place)
I1130 01:24:53.267088 19348 net.cpp:122] Setting up relu2
I1130 01:24:53.267094 19348 net.cpp:129] Top shape: 128 40 29 29 (4305920)
I1130 01:24:53.267098 19348 net.cpp:137] Memory required for data: 91868672
I1130 01:24:53.267102 19348 layer_factory.hpp:77] Creating layer pool2
I1130 01:24:53.267112 19348 net.cpp:84] Creating Layer pool2
I1130 01:24:53.267117 19348 net.cpp:406] pool2 <- conv2
I1130 01:24:53.267122 19348 net.cpp:380] pool2 -> pool2
I1130 01:24:53.267714 19348 net.cpp:122] Setting up pool2
I1130 01:24:53.267729 19348 net.cpp:129] Top shape: 128 40 15 15 (1152000)
I1130 01:24:53.267732 19348 net.cpp:137] Memory required for data: 96476672
I1130 01:24:53.267737 19348 layer_factory.hpp:77] Creating layer fc1
I1130 01:24:53.267745 19348 net.cpp:84] Creating Layer fc1
I1130 01:24:53.267752 19348 net.cpp:406] fc1 <- pool2
I1130 01:24:53.267758 19348 net.cpp:380] fc1 -> fc1
I1130 01:24:53.304059 19348 net.cpp:122] Setting up fc1
I1130 01:24:53.304085 19348 net.cpp:129] Top shape: 128 500 (64000)
I1130 01:24:53.304090 19348 net.cpp:137] Memory required for data: 96732672
I1130 01:24:53.304102 19348 layer_factory.hpp:77] Creating layer relu3
I1130 01:24:53.304113 19348 net.cpp:84] Creating Layer relu3
I1130 01:24:53.304118 19348 net.cpp:406] relu3 <- fc1
I1130 01:24:53.304126 19348 net.cpp:367] relu3 -> fc1 (in-place)
I1130 01:24:53.304136 19348 net.cpp:122] Setting up relu3
I1130 01:24:53.304141 19348 net.cpp:129] Top shape: 128 500 (64000)
I1130 01:24:53.304147 19348 net.cpp:137] Memory required for data: 96988672
I1130 01:24:53.304150 19348 layer_factory.hpp:77] Creating layer score
I1130 01:24:53.304157 19348 net.cpp:84] Creating Layer score
I1130 01:24:53.304162 19348 net.cpp:406] score <- fc1
I1130 01:24:53.304168 19348 net.cpp:380] score -> score
I1130 01:24:53.304270 19348 net.cpp:122] Setting up score
I1130 01:24:53.304280 19348 net.cpp:129] Top shape: 128 3 (384)
I1130 01:24:53.304285 19348 net.cpp:137] Memory required for data: 96990208
I1130 01:24:53.304291 19348 layer_factory.hpp:77] Creating layer score_score_0_split
I1130 01:24:53.304298 19348 net.cpp:84] Creating Layer score_score_0_split
I1130 01:24:53.304302 19348 net.cpp:406] score_score_0_split <- score
I1130 01:24:53.304311 19348 net.cpp:380] score_score_0_split -> score_score_0_split_0
I1130 01:24:53.304317 19348 net.cpp:380] score_score_0_split -> score_score_0_split_1
I1130 01:24:53.304347 19348 net.cpp:122] Setting up score_score_0_split
I1130 01:24:53.304355 19348 net.cpp:129] Top shape: 128 3 (384)
I1130 01:24:53.304360 19348 net.cpp:129] Top shape: 128 3 (384)
I1130 01:24:53.304364 19348 net.cpp:137] Memory required for data: 96993280
I1130 01:24:53.304368 19348 layer_factory.hpp:77] Creating layer accuracy
I1130 01:24:53.304383 19348 net.cpp:84] Creating Layer accuracy
I1130 01:24:53.304389 19348 net.cpp:406] accuracy <- score_score_0_split_0
I1130 01:24:53.304394 19348 net.cpp:406] accuracy <- label_data_1_split_0
I1130 01:24:53.304401 19348 net.cpp:380] accuracy -> accuracy
…
