…
I1128 22:50:05.818768 28538 net.cpp:294] The NetState phase (0) differed from the phase (1) specified by a rule in layer data
I1128 22:50:05.818787 28538 net.cpp:294] The NetState phase (0) differed from the phase (1) specified by a rule in layer accuracy
I1128 22:50:05.818859 28538 net.cpp:51] Initializing net from parameters: 
state {
  phase: TRAIN
  level: 0
  stage: ""
}
layer {
  name: "data"
  type: "Data"
  top: "data"
  top: "label"
  include {
    phase: TRAIN
  }
  transform_param {
    scale: 0.0039215689
  }
  data_param {
    source: "/home/styurin/DataSet/64/train_db"
    batch_size: 32
    backend: LMDB
  }
}
layer {
  name: "conv1"
  type: "Convolution"
  bottom: "data"
  top: "conv1"
  convolution_param {
    num_output: 20
    kernel_size: 2
    weight_filler {
      type: "xavier"
    }
  }
}
layer {
  name: "pool1"
  type: "Pooling"
  bottom: "conv1"
  top: "pool1"
  pooling_param {
    pool: MAX
    kernel_size: 2
    stride: 2
  }
}
layer {
  name: "conv2"
  type: "Convolution"
  bottom: "pool1"
  top: "conv2"
  convolution_param {
    num_output: 40
    kernel_size: 4
    weight_filler {
      type: "xavier"
    }
  }
}
layer {
  name: "relu2"
  type: "ReLU"
  bottom: "conv2"
  top: "conv2"
}
layer {
  name: "pool2"
  type: "Pooling"
  bottom: "conv2"
  top: "pool2"
  pooling_param {
    pool: MAX
    kernel_size: 2
    stride: 2
  }
}
layer {
  name: "fc1"
  type: "InnerProduct"
  bottom: "pool2"
  top: "fc1"
  inner_product_param {
    num_output: 500
    weight_filler {
      type: "xavier"
    }
  }
}
layer {
  name: "relu3"
  type: "ReLU"
  bottom: "fc1"
  top: "fc1"
}
layer {
  name: "score"
  type: "InnerProduct"
  bottom: "fc1"
  top: "score"
  inner_product_param {
    num_output: 3
    weight_filler {
      type: "xavier"
    }
  }
}
layer {
  name: "loss"
  type: "SoftmaxWithLoss"
  bottom: "score"
  bottom: "label"
  top: "loss"
}
I1128 22:50:05.818950 28538 layer_factory.hpp:77] Creating layer data
I1128 22:50:05.852236 28538 db_lmdb.cpp:35] Opened lmdb /home/styurin/DataSet/64/train_db
I1128 22:50:05.893298 28538 net.cpp:84] Creating Layer data
I1128 22:50:05.893424 28538 net.cpp:380] data -> data
I1128 22:50:05.893472 28538 net.cpp:380] data -> label
I1128 22:50:05.956969 28538 data_layer.cpp:45] output data size: 32,3,64,64
I1128 22:50:06.031841 28538 net.cpp:122] Setting up data
I1128 22:50:06.031932 28538 net.cpp:129] Top shape: 32 3 64 64 (393216)
I1128 22:50:06.031944 28538 net.cpp:129] Top shape: 32 (32)
I1128 22:50:06.031949 28538 net.cpp:137] Memory required for data: 1572992
I1128 22:50:06.031966 28538 layer_factory.hpp:77] Creating layer conv1
I1128 22:50:06.032002 28538 net.cpp:84] Creating Layer conv1
I1128 22:50:06.032012 28538 net.cpp:406] conv1 <- data
I1128 22:50:06.032032 28538 net.cpp:380] conv1 -> conv1
I1128 22:50:06.143155 28538 net.cpp:122] Setting up conv1
I1128 22:50:06.143244 28538 net.cpp:129] Top shape: 32 20 63 63 (2540160)
I1128 22:50:06.143251 28538 net.cpp:137] Memory required for data: 11733632
I1128 22:50:06.143293 28538 layer_factory.hpp:77] Creating layer pool1
I1128 22:50:06.143317 28538 net.cpp:84] Creating Layer pool1
I1128 22:50:06.143326 28538 net.cpp:406] pool1 <- conv1
I1128 22:50:06.143333 28538 net.cpp:380] pool1 -> pool1
I1128 22:50:06.158828 28538 net.cpp:122] Setting up pool1
I1128 22:50:06.158946 28538 net.cpp:129] Top shape: 32 20 32 32 (655360)
I1128 22:50:06.158952 28538 net.cpp:137] Memory required for data: 14355072
I1128 22:50:06.158979 28538 layer_factory.hpp:77] Creating layer conv2
I1128 22:50:06.159023 28538 net.cpp:84] Creating Layer conv2
I1128 22:50:06.159073 28538 net.cpp:406] conv2 <- pool1
I1128 22:50:06.159090 28538 net.cpp:380] conv2 -> conv2
I1128 22:50:06.160993 28538 net.cpp:122] Setting up conv2
I1128 22:50:06.161015 28538 net.cpp:129] Top shape: 32 40 29 29 (1076480)
I1128 22:50:06.161020 28538 net.cpp:137] Memory required for data: 18660992
I1128 22:50:06.161033 28538 layer_factory.hpp:77] Creating layer relu2
I1128 22:50:06.161044 28538 net.cpp:84] Creating Layer relu2
I1128 22:50:06.161049 28538 net.cpp:406] relu2 <- conv2
I1128 22:50:06.161057 28538 net.cpp:367] relu2 -> conv2 (in-place)
I1128 22:50:06.161068 28538 net.cpp:122] Setting up relu2
I1128 22:50:06.161074 28538 net.cpp:129] Top shape: 32 40 29 29 (1076480)
I1128 22:50:06.161078 28538 net.cpp:137] Memory required for data: 22966912
I1128 22:50:06.161082 28538 layer_factory.hpp:77] Creating layer pool2
I1128 22:50:06.161090 28538 net.cpp:84] Creating Layer pool2
I1128 22:50:06.161094 28538 net.cpp:406] pool2 <- conv2
I1128 22:50:06.161100 28538 net.cpp:380] pool2 -> pool2
I1128 22:50:06.161144 28538 net.cpp:122] Setting up pool2
I1128 22:50:06.161152 28538 net.cpp:129] Top shape: 32 40 15 15 (288000)
I1128 22:50:06.161156 28538 net.cpp:137] Memory required for data: 24118912
I1128 22:50:06.161160 28538 layer_factory.hpp:77] Creating layer fc1
I1128 22:50:06.161180 28538 net.cpp:84] Creating Layer fc1
I1128 22:50:06.161185 28538 net.cpp:406] fc1 <- pool2
I1128 22:50:06.161192 28538 net.cpp:380] fc1 -> fc1
I1128 22:50:06.234190 28538 net.cpp:122] Setting up fc1
I1128 22:50:06.234603 28538 net.cpp:129] Top shape: 32 500 (16000)
I1128 22:50:06.234632 28538 net.cpp:137] Memory required for data: 24182912
I1128 22:50:06.234776 28538 layer_factory.hpp:77] Creating layer relu3
I1128 22:50:06.234882 28538 net.cpp:84] Creating Layer relu3
I1128 22:50:06.234905 28538 net.cpp:406] relu3 <- fc1
I1128 22:50:06.234977 28538 net.cpp:367] relu3 -> fc1 (in-place)
I1128 22:50:06.235043 28538 net.cpp:122] Setting up relu3
I1128 22:50:06.235055 28538 net.cpp:129] Top shape: 32 500 (16000)
I1128 22:50:06.235088 28538 net.cpp:137] Memory required for data: 24246912
I1128 22:50:06.235102 28538 layer_factory.hpp:77] Creating layer score
I1128 22:50:06.235323 28538 net.cpp:84] Creating Layer score
I1128 22:50:06.235354 28538 net.cpp:406] score <- fc1
I1128 22:50:06.235383 28538 net.cpp:380] score -> score
I1128 22:50:06.235982 28538 net.cpp:122] Setting up score
I1128 22:50:06.236060 28538 net.cpp:129] Top shape: 32 3 (96)
I1128 22:50:06.236070 28538 net.cpp:137] Memory required for data: 24247296
I1128 22:50:06.236088 28538 layer_factory.hpp:77] Creating layer loss
I1128 22:50:06.236115 28538 net.cpp:84] Creating Layer loss
I1128 22:50:06.236129 28538 net.cpp:406] loss <- score
I1128 22:50:06.236147 28538 net.cpp:406] loss <- label
I1128 22:50:06.236202 28538 net.cpp:380] loss -> loss
I1128 22:50:06.236335 28538 layer_factory.hpp:77] Creating layer loss
…
I1128 22:50:06.239722 28538 solver.cpp:172] Creating test net (#0) specified by net file: train_val.prototxt
I1128 22:50:06.240000 28538 net.cpp:294] The NetState phase (1) differed from the phase (0) specified by a rule in layer data
I1128 22:50:06.240909 28538 net.cpp:51] Initializing net from parameters: 
state {
  phase: TEST
}
layer {
  name: "data"
  type: "Data"
  top: "data"
  top: "label"
  include {
    phase: TEST
  }
  transform_param {
    scale: 0.0039215689
  }
  data_param {
    source: "/home/styurin/DataSet/64/val_db"
    batch_size: 64
    backend: LMDB
  }
}
layer {
  name: "conv1"
  type: "Convolution"
  bottom: "data"
  top: "conv1"
  convolution_param {
    num_output: 20
    kernel_size: 2
    weight_filler {
      type: "xavier"
    }
  }
}
layer {
  name: "pool1"
  type: "Pooling"
  bottom: "conv1"
  top: "pool1"
  pooling_param {
    pool: MAX
    kernel_size: 2
    stride: 2
  }
}
layer {
  name: "conv2"
  type: "Convolution"
  bottom: "pool1"
  top: "conv2"
  convolution_param {
    num_output: 40
    kernel_size: 4
    weight_filler {
      type: "xavier"
    }
  }
}
layer {
  name: "relu2"
  type: "ReLU"
  bottom: "conv2"
  top: "conv2"
}
layer {
  name: "pool2"
  type: "Pooling"
  bottom: "conv2"
  top: "pool2"
  pooling_param {
    pool: MAX
    kernel_size: 2
    stride: 2
  }
}
layer {
  name: "fc1"
  type: "InnerProduct"
  bottom: "pool2"
  top: "fc1"
  inner_product_param {
    num_output: 500
    weight_filler {
      type: "xavier"
    }
  }
}
layer {
  name: "relu3"
  type: "ReLU"
  bottom: "fc1"
  top: "fc1"
}
layer {
  name: "score"
  type: "InnerProduct"
  bottom: "fc1"
  top: "score"
  inner_product_param {
    num_output: 3
    weight_filler {
      type: "xavier"
    }
  }
}
layer {
  name: "accuracy"
  type: "Accuracy"
  bottom: "score"
  bottom: "label"
  top: "accuracy"
  include {
    phase: TEST
  }
}
layer {
  name: "loss"
  type: "SoftmaxWithLoss"
  bottom: "score"
  bottom: "label"
  top: "loss"
}
I1128 22:50:06.241312 28538 layer_factory.hpp:77] Creating layer data
I1128 22:50:06.242036 28538 db_lmdb.cpp:35] Opened lmdb /home/styurin/DataSet/64/val_db
I1128 22:50:06.242439 28538 net.cpp:84] Creating Layer data
I1128 22:50:06.242508 28538 net.cpp:380] data -> data
I1128 22:50:06.242571 28538 net.cpp:380] data -> label
I1128 22:50:06.244604 28538 data_layer.cpp:45] output data size: 64,3,64,64
I1128 22:50:06.334740 28538 net.cpp:122] Setting up data
I1128 22:50:06.334899 28538 net.cpp:129] Top shape: 64 3 64 64 (786432)
I1128 22:50:06.334913 28538 net.cpp:129] Top shape: 64 (64)
I1128 22:50:06.334919 28538 net.cpp:137] Memory required for data: 3145984
I1128 22:50:06.334934 28538 layer_factory.hpp:77] Creating layer label_data_1_split
I1128 22:50:06.334990 28538 net.cpp:84] Creating Layer label_data_1_split
I1128 22:50:06.335000 28538 net.cpp:406] label_data_1_split <- label
I1128 22:50:06.335017 28538 net.cpp:380] label_data_1_split -> label_data_1_split_0
I1128 22:50:06.335049 28538 net.cpp:380] label_data_1_split -> label_data_1_split_1
I1128 22:50:06.335171 28538 net.cpp:122] Setting up label_data_1_split
I1128 22:50:06.335222 28538 net.cpp:129] Top shape: 64 (64)
I1128 22:50:06.335230 28538 net.cpp:129] Top shape: 64 (64)
I1128 22:50:06.335235 28538 net.cpp:137] Memory required for data: 3146496
I1128 22:50:06.335242 28538 layer_factory.hpp:77] Creating layer conv1
I1128 22:50:06.335274 28538 net.cpp:84] Creating Layer conv1
I1128 22:50:06.335281 28538 net.cpp:406] conv1 <- data
I1128 22:50:06.335289 28538 net.cpp:380] conv1 -> conv1
I1128 22:50:06.335639 28538 net.cpp:122] Setting up conv1
I1128 22:50:06.335664 28538 net.cpp:129] Top shape: 64 20 63 63 (5080320)
I1128 22:50:06.335671 28538 net.cpp:137] Memory required for data: 23467776
I1128 22:50:06.335691 28538 layer_factory.hpp:77] Creating layer pool1
I1128 22:50:06.335706 28538 net.cpp:84] Creating Layer pool1
I1128 22:50:06.335712 28538 net.cpp:406] pool1 <- conv1
I1128 22:50:06.335719 28538 net.cpp:380] pool1 -> pool1
I1128 22:50:06.335867 28538 net.cpp:122] Setting up pool1
I1128 22:50:06.335888 28538 net.cpp:129] Top shape: 64 20 32 32 (1310720)
I1128 22:50:06.335922 28538 net.cpp:137] Memory required for data: 28710656
I1128 22:50:06.335930 28538 layer_factory.hpp:77] Creating layer conv2
I1128 22:50:06.335954 28538 net.cpp:84] Creating Layer conv2
I1128 22:50:06.335960 28538 net.cpp:406] conv2 <- pool1
I1128 22:50:06.335970 28538 net.cpp:380] conv2 -> conv2
I1128 22:50:06.339629 28538 net.cpp:122] Setting up conv2
I1128 22:50:06.339743 28538 net.cpp:129] Top shape: 64 40 29 29 (2152960)
I1128 22:50:06.339751 28538 net.cpp:137] Memory required for data: 37322496
I1128 22:50:06.339779 28538 layer_factory.hpp:77] Creating layer relu2
I1128 22:50:06.339805 28538 net.cpp:84] Creating Layer relu2
I1128 22:50:06.339815 28538 net.cpp:406] relu2 <- conv2
I1128 22:50:06.339835 28538 net.cpp:367] relu2 -> conv2 (in-place)
I1128 22:50:06.339854 28538 net.cpp:122] Setting up relu2
I1128 22:50:06.339860 28538 net.cpp:129] Top shape: 64 40 29 29 (2152960)
I1128 22:50:06.339865 28538 net.cpp:137] Memory required for data: 45934336
I1128 22:50:06.339870 28538 layer_factory.hpp:77] Creating layer pool2
I1128 22:50:06.339882 28538 net.cpp:84] Creating Layer pool2
I1128 22:50:06.339889 28538 net.cpp:406] pool2 <- conv2
I1128 22:50:06.339895 28538 net.cpp:380] pool2 -> pool2
I1128 22:50:06.339965 28538 net.cpp:122] Setting up pool2
I1128 22:50:06.339977 28538 net.cpp:129] Top shape: 64 40 15 15 (576000)
I1128 22:50:06.339982 28538 net.cpp:137] Memory required for data: 48238336
I1128 22:50:06.339987 28538 layer_factory.hpp:77] Creating layer fc1
I1128 22:50:06.340006 28538 net.cpp:84] Creating Layer fc1
I1128 22:50:06.340011 28538 net.cpp:406] fc1 <- pool2
I1128 22:50:06.340023 28538 net.cpp:380] fc1 -> fc1
I1128 22:50:06.377696 28538 net.cpp:122] Setting up fc1
I1128 22:50:06.377740 28538 net.cpp:129] Top shape: 64 500 (32000)
I1128 22:50:06.377746 28538 net.cpp:137] Memory required for data: 48366336
I1128 22:50:06.377763 28538 layer_factory.hpp:77] Creating layer relu3
I1128 22:50:06.377779 28538 net.cpp:84] Creating Layer relu3
I1128 22:50:06.377785 28538 net.cpp:406] relu3 <- fc1
I1128 22:50:06.377794 28538 net.cpp:367] relu3 -> fc1 (in-place)
I1128 22:50:06.377806 28538 net.cpp:122] Setting up relu3
I1128 22:50:06.377812 28538 net.cpp:129] Top shape: 64 500 (32000)
I1128 22:50:06.377816 28538 net.cpp:137] Memory required for data: 48494336
I1128 22:50:06.377821 28538 layer_factory.hpp:77] Creating layer score
I1128 22:50:06.377831 28538 net.cpp:84] Creating Layer score
I1128 22:50:06.377835 28538 net.cpp:406] score <- fc1
I1128 22:50:06.377841 28538 net.cpp:380] score -> score
I1128 22:50:06.377961 28538 net.cpp:122] Setting up score
I1128 22:50:06.377971 28538 net.cpp:129] Top shape: 64 3 (192)
I1128 22:50:06.377975 28538 net.cpp:137] Memory required for data: 48495104
I1128 22:50:06.377982 28538 layer_factory.hpp:77] Creating layer score_score_0_split
I1128 22:50:06.377990 28538 net.cpp:84] Creating Layer score_score_0_split
I1128 22:50:06.377995 28538 net.cpp:406] score_score_0_split <- score
I1128 22:50:06.378001 28538 net.cpp:380] score_score_0_split -> score_score_0_split_0
I1128 22:50:06.378008 28538 net.cpp:380] score_score_0_split -> score_score_0_split_1
I1128 22:50:06.378044 28538 net.cpp:122] Setting up score_score_0_split
I1128 22:50:06.378052 28538 net.cpp:129] Top shape: 64 3 (192)
I1128 22:50:06.378057 28538 net.cpp:129] Top shape: 64 3 (192)
I1128 22:50:06.378062 28538 net.cpp:137] Memory required for data: 48496640
I1128 22:50:06.378067 28538 layer_factory.hpp:77] Creating layer accuracy
I1128 22:50:06.380923 28538 net.cpp:84] Creating Layer accuracy
I1128 22:50:06.381026 28538 net.cpp:406] accuracy <- score_score_0_split_0
I1128 22:50:06.381055 28538 net.cpp:406] accuracy <- label_data_1_split_0
I1128 22:50:06.381072 28538 net.cpp:380] accuracy -> accuracy
…
