…
I1202 20:02:46.361615 32085 solver.cpp:87] Creating training net from net file: train_val_2.prototxt
I1202 20:02:46.361907 32085 net.cpp:294] The NetState phase (0) differed from the phase (1) specified by a rule in layer data
I1202 20:02:46.361991 32085 net.cpp:51] Initializing net from parameters: 
state {
  phase: TRAIN
  level: 0
  stage: ""
}
layer {
  name: "data"
  type: "Data"
  top: "data"
  top: "label"
  include {
    phase: TRAIN
  }
  transform_param {
    scale: 0.0039215689
  }
  data_param {
    source: "/home/styurin/DataSet/64/train_db"
    batch_size: 32
    backend: LMDB
  }
}
layer {
  name: "conv1"
  type: "Convolution"
  bottom: "data"
  top: "conv1"
  convolution_param {
    num_output: 20
    kernel_size: 2
    weight_filler {
      type: "xavier"
    }
  }
}
layer {
  name: "pool1"
  type: "Pooling"
  bottom: "conv1"
  top: "pool1"
  pooling_param {
    pool: MAX
    kernel_size: 2
    stride: 2
  }
}
layer {
  name: "conv2"
  type: "Convolution"
  bottom: "pool1"
  top: "conv2"
  convolution_param {
    num_output: 40
    kernel_size: 4
    weight_filler {
      type: "xavier"
    }
  }
}
layer {
  name: "relu2"
  type: "ReLU"
  bottom: "conv2"
  top: "conv2"
}
layer {
  name: "pool2"
  type: "Pooling"
  bottom: "conv2"
  top: "pool2"
  pooling_param {
    pool: MAX
    kernel_size: 2
    stride: 2
  }
}
layer {
  name: "fc1"
  type: "InnerProduct"
  bottom: "pool2"
  top: "fc1"
  inner_product_param {
    num_output: 500
    weight_filler {
      type: "xavier"
    }
  }
}
layer {
  name: "relu3"
  type: "ReLU"
  bottom: "fc1"
  top: "fc1"
}
layer {
  name: "score"
  type: "InnerProduct"
  bottom: "fc1"
  top: "score"
  inner_product_param {
    num_output: 3
    weight_filler {
      type: "xavier"
    }
  }
}
layer {
  name: "accuracy"
  type: "Accuracy"
  bottom: "score"
  bottom: "label"
  top: "accuracy"
}
layer {
  name: "infoGainLoss"
  type: "InfogainLoss"
  bottom: "score"
  bottom: "label"
  top: "infoGainLoss"
  infogain_loss_param {
    source: "infogain_H.binaryproto"
  }
}
I1202 20:02:46.362082 32085 layer_factory.hpp:77] Creating layer data
I1202 20:02:46.362184 32085 db_lmdb.cpp:35] Opened lmdb /home/styurin/DataSet/64/train_db
I1202 20:02:46.362210 32085 net.cpp:84] Creating Layer data
I1202 20:02:46.362221 32085 net.cpp:380] data -> data
I1202 20:02:46.362241 32085 net.cpp:380] data -> label
I1202 20:02:46.363127 32085 data_layer.cpp:45] output data size: 32,3,64,64
I1202 20:02:46.367574 32085 net.cpp:122] Setting up data
I1202 20:02:46.367596 32085 net.cpp:129] Top shape: 32 3 64 64 (393216)
I1202 20:02:46.367604 32085 net.cpp:129] Top shape: 32 (32)
I1202 20:02:46.367607 32085 net.cpp:137] Memory required for data: 1572992
I1202 20:02:46.367615 32085 layer_factory.hpp:77] Creating layer label_data_1_split
I1202 20:02:46.367627 32085 net.cpp:84] Creating Layer label_data_1_split
I1202 20:02:46.367635 32085 net.cpp:406] label_data_1_split <- label
I1202 20:02:46.367645 32085 net.cpp:380] label_data_1_split -> label_data_1_split_0
I1202 20:02:46.367653 32085 net.cpp:380] label_data_1_split -> label_data_1_split_1
I1202 20:02:46.367717 32085 net.cpp:122] Setting up label_data_1_split
I1202 20:02:46.367727 32085 net.cpp:129] Top shape: 32 (32)
I1202 20:02:46.367733 32085 net.cpp:129] Top shape: 32 (32)
I1202 20:02:46.367736 32085 net.cpp:137] Memory required for data: 1573248
I1202 20:02:46.367740 32085 layer_factory.hpp:77] Creating layer conv1
I1202 20:02:46.367758 32085 net.cpp:84] Creating Layer conv1
I1202 20:02:46.367763 32085 net.cpp:406] conv1 <- data
I1202 20:02:46.367777 32085 net.cpp:380] conv1 -> conv1
I1202 20:02:46.368471 32085 net.cpp:122] Setting up conv1
I1202 20:02:46.368500 32085 net.cpp:129] Top shape: 32 20 63 63 (2540160)
I1202 20:02:46.368505 32085 net.cpp:137] Memory required for data: 11733888
I1202 20:02:46.368520 32085 layer_factory.hpp:77] Creating layer pool1
I1202 20:02:46.368528 32085 net.cpp:84] Creating Layer pool1
I1202 20:02:46.368549 32085 net.cpp:406] pool1 <- conv1
I1202 20:02:46.368558 32085 net.cpp:380] pool1 -> pool1
I1202 20:02:46.368618 32085 net.cpp:122] Setting up pool1
I1202 20:02:46.368628 32085 net.cpp:129] Top shape: 32 20 32 32 (655360)
I1202 20:02:46.368631 32085 net.cpp:137] Memory required for data: 14355328
I1202 20:02:46.368635 32085 layer_factory.hpp:77] Creating layer conv2
I1202 20:02:46.368647 32085 net.cpp:84] Creating Layer conv2
I1202 20:02:46.368654 32085 net.cpp:406] conv2 <- pool1
I1202 20:02:46.368659 32085 net.cpp:380] conv2 -> conv2
I1202 20:02:46.369963 32085 net.cpp:122] Setting up conv2
I1202 20:02:46.369982 32085 net.cpp:129] Top shape: 32 40 29 29 (1076480)
I1202 20:02:46.369987 32085 net.cpp:137] Memory required for data: 18661248
I1202 20:02:46.370002 32085 layer_factory.hpp:77] Creating layer relu2
I1202 20:02:46.370010 32085 net.cpp:84] Creating Layer relu2
I1202 20:02:46.370015 32085 net.cpp:406] relu2 <- conv2
I1202 20:02:46.370021 32085 net.cpp:367] relu2 -> conv2 (in-place)
I1202 20:02:46.370029 32085 net.cpp:122] Setting up relu2
I1202 20:02:46.370035 32085 net.cpp:129] Top shape: 32 40 29 29 (1076480)
I1202 20:02:46.370039 32085 net.cpp:137] Memory required for data: 22967168
I1202 20:02:46.370043 32085 layer_factory.hpp:77] Creating layer pool2
I1202 20:02:46.370049 32085 net.cpp:84] Creating Layer pool2
I1202 20:02:46.370054 32085 net.cpp:406] pool2 <- conv2
I1202 20:02:46.370060 32085 net.cpp:380] pool2 -> pool2
I1202 20:02:46.370102 32085 net.cpp:122] Setting up pool2
I1202 20:02:46.370110 32085 net.cpp:129] Top shape: 32 40 15 15 (288000)
I1202 20:02:46.370115 32085 net.cpp:137] Memory required for data: 24119168
I1202 20:02:46.370118 32085 layer_factory.hpp:77] Creating layer fc1
I1202 20:02:46.370127 32085 net.cpp:84] Creating Layer fc1
I1202 20:02:46.370132 32085 net.cpp:406] fc1 <- pool2
I1202 20:02:46.370138 32085 net.cpp:380] fc1 -> fc1
I1202 20:02:46.405709 32085 net.cpp:122] Setting up fc1
I1202 20:02:46.405731 32085 net.cpp:129] Top shape: 32 500 (16000)
I1202 20:02:46.405736 32085 net.cpp:137] Memory required for data: 24183168
I1202 20:02:46.405747 32085 layer_factory.hpp:77] Creating layer relu3
I1202 20:02:46.405758 32085 net.cpp:84] Creating Layer relu3
I1202 20:02:46.405763 32085 net.cpp:406] relu3 <- fc1
I1202 20:02:46.405771 32085 net.cpp:367] relu3 -> fc1 (in-place)
I1202 20:02:46.405778 32085 net.cpp:122] Setting up relu3
I1202 20:02:46.405784 32085 net.cpp:129] Top shape: 32 500 (16000)
I1202 20:02:46.405788 32085 net.cpp:137] Memory required for data: 24247168
I1202 20:02:46.405792 32085 layer_factory.hpp:77] Creating layer score
I1202 20:02:46.405800 32085 net.cpp:84] Creating Layer score
I1202 20:02:46.405805 32085 net.cpp:406] score <- fc1
I1202 20:02:46.405812 32085 net.cpp:380] score -> score
I1202 20:02:46.405912 32085 net.cpp:122] Setting up score
I1202 20:02:46.405921 32085 net.cpp:129] Top shape: 32 3 (96)
I1202 20:02:46.405925 32085 net.cpp:137] Memory required for data: 24247552
I1202 20:02:46.405932 32085 layer_factory.hpp:77] Creating layer score_score_0_split
I1202 20:02:46.405938 32085 net.cpp:84] Creating Layer score_score_0_split
I1202 20:02:46.405942 32085 net.cpp:406] score_score_0_split <- score
I1202 20:02:46.405949 32085 net.cpp:380] score_score_0_split -> score_score_0_split_0
I1202 20:02:46.405956 32085 net.cpp:380] score_score_0_split -> score_score_0_split_1
I1202 20:02:46.405988 32085 net.cpp:122] Setting up score_score_0_split
I1202 20:02:46.405997 32085 net.cpp:129] Top shape: 32 3 (96)
I1202 20:02:46.406002 32085 net.cpp:129] Top shape: 32 3 (96)
I1202 20:02:46.406008 32085 net.cpp:137] Memory required for data: 24248320
I1202 20:02:46.406011 32085 layer_factory.hpp:77] Creating layer accuracy
I1202 20:02:46.406026 32085 net.cpp:84] Creating Layer accuracy
I1202 20:02:46.406039 32085 net.cpp:406] accuracy <- score_score_0_split_0
I1202 20:02:46.406045 32085 net.cpp:406] accuracy <- label_data_1_split_0
I1202 20:02:46.406052 32085 net.cpp:380] accuracy -> accuracy
…
I1202 20:02:46.406628 32085 solver.cpp:172] Creating test net (#0) specified by net file: train_val_2.prototxt
I1202 20:02:46.406654 32085 net.cpp:294] The NetState phase (1) differed from the phase (0) specified by a rule in layer data
I1202 20:02:46.406720 32085 net.cpp:51] Initializing net from parameters: 
state {
  phase: TEST
}
layer {
  name: "data"
  type: "Data"
  top: "data"
  top: "label"
  include {
    phase: TEST
  }
  transform_param {
    scale: 0.0039215689
  }
  data_param {
    source: "/home/styurin/DataSet/64/val_db"
    batch_size: 64
    backend: LMDB
  }
}
layer {
  name: "conv1"
  type: "Convolution"
  bottom: "data"
  top: "conv1"
  convolution_param {
    num_output: 20
    kernel_size: 2
    weight_filler {
      type: "xavier"
    }
  }
}
layer {
  name: "pool1"
  type: "Pooling"
  bottom: "conv1"
  top: "pool1"
  pooling_param {
    pool: MAX
    kernel_size: 2
    stride: 2
  }
}
layer {
  name: "conv2"
  type: "Convolution"
  bottom: "pool1"
  top: "conv2"
  convolution_param {
    num_output: 40
    kernel_size: 4
    weight_filler {
      type: "xavier"
    }
  }
}
layer {
  name: "relu2"
  type: "ReLU"
  bottom: "conv2"
  top: "conv2"
}
layer {
  name: "pool2"
  type: "Pooling"
  bottom: "conv2"
  top: "pool2"
  pooling_param {
    pool: MAX
    kernel_size: 2
    stride: 2
  }
}
layer {
  name: "fc1"
  type: "InnerProduct"
  bottom: "pool2"
  top: "fc1"
  inner_product_param {
    num_output: 500
    weight_filler {
      type: "xavier"
    }
  }
}
layer {
  name: "relu3"
  type: "ReLU"
  bottom: "fc1"
  top: "fc1"
}
layer {
  name: "score"
  type: "InnerProduct"
  bottom: "fc1"
  top: "score"
  inner_product_param {
    num_output: 3
    weight_filler {
      type: "xavier"
    }
  }
}
layer {
  name: "accuracy"
  type: "Accuracy"
  bottom: "score"
  bottom: "label"
  top: "accuracy"
}
layer {
  name: "infoGainLoss"
  type: "InfogainLoss"
  bottom: "score"
  bottom: "label"
  top: "infoGainLoss"
  infogain_loss_param {
    source: "infogain_H.binaryproto"
  }
}
I1202 20:02:46.406790 32085 layer_factory.hpp:77] Creating layer data
I1202 20:02:46.406838 32085 db_lmdb.cpp:35] Opened lmdb /home/styurin/DataSet/64/val_db
I1202 20:02:46.406857 32085 net.cpp:84] Creating Layer data
I1202 20:02:46.406867 32085 net.cpp:380] data -> data
I1202 20:02:46.406877 32085 net.cpp:380] data -> label
I1202 20:02:46.407178 32085 data_layer.cpp:45] output data size: 64,3,64,64
I1202 20:02:46.414119 32085 net.cpp:122] Setting up data
I1202 20:02:46.414139 32085 net.cpp:129] Top shape: 64 3 64 64 (786432)
I1202 20:02:46.414144 32085 net.cpp:129] Top shape: 64 (64)
I1202 20:02:46.414149 32085 net.cpp:137] Memory required for data: 3145984
I1202 20:02:46.414155 32085 layer_factory.hpp:77] Creating layer label_data_1_split
I1202 20:02:46.414162 32085 net.cpp:84] Creating Layer label_data_1_split
I1202 20:02:46.414167 32085 net.cpp:406] label_data_1_split <- label
I1202 20:02:46.414173 32085 net.cpp:380] label_data_1_split -> label_data_1_split_0
I1202 20:02:46.414181 32085 net.cpp:380] label_data_1_split -> label_data_1_split_1
I1202 20:02:46.414278 32085 net.cpp:122] Setting up label_data_1_split
I1202 20:02:46.414293 32085 net.cpp:129] Top shape: 64 (64)
I1202 20:02:46.414297 32085 net.cpp:129] Top shape: 64 (64)
I1202 20:02:46.414301 32085 net.cpp:137] Memory required for data: 3146496
I1202 20:02:46.414306 32085 layer_factory.hpp:77] Creating layer conv1
I1202 20:02:46.414319 32085 net.cpp:84] Creating Layer conv1
I1202 20:02:46.414324 32085 net.cpp:406] conv1 <- data
I1202 20:02:46.414330 32085 net.cpp:380] conv1 -> conv1
I1202 20:02:46.414546 32085 net.cpp:122] Setting up conv1
I1202 20:02:46.414557 32085 net.cpp:129] Top shape: 64 20 63 63 (5080320)
I1202 20:02:46.414562 32085 net.cpp:137] Memory required for data: 23467776
I1202 20:02:46.414572 32085 layer_factory.hpp:77] Creating layer pool1
I1202 20:02:46.414579 32085 net.cpp:84] Creating Layer pool1
I1202 20:02:46.414587 32085 net.cpp:406] pool1 <- conv1
I1202 20:02:46.414592 32085 net.cpp:380] pool1 -> pool1
I1202 20:02:46.414628 32085 net.cpp:122] Setting up pool1
I1202 20:02:46.414638 32085 net.cpp:129] Top shape: 64 20 32 32 (1310720)
I1202 20:02:46.414643 32085 net.cpp:137] Memory required for data: 28710656
I1202 20:02:46.414646 32085 layer_factory.hpp:77] Creating layer conv2
I1202 20:02:46.414654 32085 net.cpp:84] Creating Layer conv2
I1202 20:02:46.414659 32085 net.cpp:406] conv2 <- pool1
I1202 20:02:46.414666 32085 net.cpp:380] conv2 -> conv2
I1202 20:02:46.414978 32085 net.cpp:122] Setting up conv2
I1202 20:02:46.414991 32085 net.cpp:129] Top shape: 64 40 29 29 (2152960)
I1202 20:02:46.414996 32085 net.cpp:137] Memory required for data: 37322496
I1202 20:02:46.415005 32085 layer_factory.hpp:77] Creating layer relu2
I1202 20:02:46.415014 32085 net.cpp:84] Creating Layer relu2
I1202 20:02:46.415019 32085 net.cpp:406] relu2 <- conv2
I1202 20:02:46.415025 32085 net.cpp:367] relu2 -> conv2 (in-place)
I1202 20:02:46.415032 32085 net.cpp:122] Setting up relu2
I1202 20:02:46.415037 32085 net.cpp:129] Top shape: 64 40 29 29 (2152960)
I1202 20:02:46.415041 32085 net.cpp:137] Memory required for data: 45934336
I1202 20:02:46.415045 32085 layer_factory.hpp:77] Creating layer pool2
I1202 20:02:46.415051 32085 net.cpp:84] Creating Layer pool2
I1202 20:02:46.415055 32085 net.cpp:406] pool2 <- conv2
I1202 20:02:46.415063 32085 net.cpp:380] pool2 -> pool2
I1202 20:02:46.415112 32085 net.cpp:122] Setting up pool2
I1202 20:02:46.415122 32085 net.cpp:129] Top shape: 64 40 15 15 (576000)
I1202 20:02:46.415127 32085 net.cpp:137] Memory required for data: 48238336
I1202 20:02:46.415132 32085 layer_factory.hpp:77] Creating layer fc1
I1202 20:02:46.415143 32085 net.cpp:84] Creating Layer fc1
I1202 20:02:46.415148 32085 net.cpp:406] fc1 <- pool2
I1202 20:02:46.415161 32085 net.cpp:380] fc1 -> fc1
I1202 20:02:46.450994 32085 net.cpp:122] Setting up fc1
I1202 20:02:46.451017 32085 net.cpp:129] Top shape: 64 500 (32000)
I1202 20:02:46.451022 32085 net.cpp:137] Memory required for data: 48366336
I1202 20:02:46.451033 32085 layer_factory.hpp:77] Creating layer relu3
I1202 20:02:46.451045 32085 net.cpp:84] Creating Layer relu3
I1202 20:02:46.451050 32085 net.cpp:406] relu3 <- fc1
I1202 20:02:46.451056 32085 net.cpp:367] relu3 -> fc1 (in-place)
I1202 20:02:46.451064 32085 net.cpp:122] Setting up relu3
I1202 20:02:46.451069 32085 net.cpp:129] Top shape: 64 500 (32000)
I1202 20:02:46.451073 32085 net.cpp:137] Memory required for data: 48494336
I1202 20:02:46.451077 32085 layer_factory.hpp:77] Creating layer score
I1202 20:02:46.451084 32085 net.cpp:84] Creating Layer score
I1202 20:02:46.451088 32085 net.cpp:406] score <- fc1
I1202 20:02:46.451097 32085 net.cpp:380] score -> score
I1202 20:02:46.451215 32085 net.cpp:122] Setting up score
I1202 20:02:46.451226 32085 net.cpp:129] Top shape: 64 3 (192)
I1202 20:02:46.451231 32085 net.cpp:137] Memory required for data: 48495104
I1202 20:02:46.451237 32085 layer_factory.hpp:77] Creating layer score_score_0_split
I1202 20:02:46.451244 32085 net.cpp:84] Creating Layer score_score_0_split
I1202 20:02:46.451251 32085 net.cpp:406] score_score_0_split <- score
I1202 20:02:46.451257 32085 net.cpp:380] score_score_0_split -> score_score_0_split_0
I1202 20:02:46.451264 32085 net.cpp:380] score_score_0_split -> score_score_0_split_1
I1202 20:02:46.451301 32085 net.cpp:122] Setting up score_score_0_split
I1202 20:02:46.451310 32085 net.cpp:129] Top shape: 64 3 (192)
I1202 20:02:46.451315 32085 net.cpp:129] Top shape: 64 3 (192)
I1202 20:02:46.451320 32085 net.cpp:137] Memory required for data: 48496640
I1202 20:02:46.451324 32085 layer_factory.hpp:77] Creating layer accuracy
I1202 20:02:46.451330 32085 net.cpp:84] Creating Layer accuracy
I1202 20:02:46.451334 32085 net.cpp:406] accuracy <- score_score_0_split_0
I1202 20:02:46.451339 32085 net.cpp:406] accuracy <- label_data_1_split_0
I1202 20:02:46.451345 32085 net.cpp:380] accuracy -> accuracy
…
